saved_models/dqn_episode_700.pth (torch, 74357 bytes, 6 tensors)

net.0.weight f4 [128, 6]
00000000: 5294 083e 7ab2 a53e db00 c73e 2814 7fbe
00000010: 1942 a33d 44fb 8dbe 70c7 bfbe 9676 dabe
00000020: c309 b53e 45f6 1fbe 487e 3e3e 32d6 84be
00000030: 32db c0bd 4e10 d7be 9ca6 23bf 1193 8dbe
00000040: 4c5c 5ebc 96b3 b3ba 0980 68be 9bd3 873d
00000050: 61ed 633e dd22 43bd be05 2e3e d37e 46be
00000060: 2786 3bbe e107 bdbe 03b1 213e f8a6 803e
00000070: 6590 29be cbab cf3e af9b 033f b1cd bdbe
00000080: 1ff1 453e 3899 313e 8f31 e6be a5fe 16be
00000090: ed5b 0cbf 35ea a83e d97b e9be 39d6 15bf
000000a0: f198 c73e 8b88 b1be b26e 4ebe c724 95be
000000b0: 64c6 a0be 30a5 20bd 9449 cebe 5ba5 9fbe
000000c0: a60c 6f3e 5dc1 7cbd 9c27 5dbe 082a 35bd
000000d0: 4501 bfbe cb14 02be 2b59 a93e ab66 1cbf
000000e0: 271b fabd dc39 703e 1dc1 86be e097 423e
000000f0: cfda 00bf 78c9 18be 4021 a4be b35d 2a3f
00000100: 6b42 c83e 9b99 d93d 637a 133e 1c03 9b3d
00000110: 5aaf 0cbd 0dfc dd3c 3cb8 163d 957d a5be
00000120: e4a2 7a3e 6533 7abe be7d 2d3f 5bc7 cabd
00000130: 186d 403c 9936 54bd 1e0c 2d3e db98 0e3f
00000140: d239 153e abd0 ed3e e2b6 b1be 87bc a1be
00000150: 4605 febe b91a 6d3e 309b 893e 7b27 073e
00000160: 89aa 8b3d fc4f 56be 9edb 453d 235e 093f
00000170: 25c7 8a3d e2a9 353d d4a9 973d 0206 7cbe
00000180: 1fe2 46be 3d1d ccbd a6b5 e2be 4e0a 34be
00000190: 8e45 e4bd e9c1 7e3e 5c9f 813e 546f ae3d
000001a0: c20f bd3e 4e0b 79be f30d dabd 05c8 593c
000001b0: 530c f3bd abd2 063d f67a fabe 831a 9a3c
000001c0: 59d3 53be 6b0a 9b3e 780d 173e b0b7 f03e
000001d0: 7302 bd3e b495 71be aa14 db3c 6369 db3d
000001e0: c0b6 8fbc 2474 4c3e a45f 683e 6238 ad3e
000001f0: d0d2 053d df8a 83be c397 9dbe 2415 613e
00000200: 85d7 1abf 0f27 6c3e 0d18 933e 335b 23be
00000210: 18a4 6fbe c7e9 3dbe d075 50bf 8237 413e
00000220: 3c0d 5f3e e824 023e d37d 82bc e0fb f13e
00000230: f69a b4bc b6e2 e73e f0a9 9ebc 335b 0ebe
00000240: 738b 2bbe 4c81 163d 961c aebe 4c8d 043e
00000250: 04e5 253d c2a1 d53d 2c77 ae3e 046a 11bf
00000260: fedb f43d e55d 56be 19ee 223e 489a 2e3e
00000270: 2949 41be e32a 3f3e 2146 8b3d 2ece 2fbc
00000280: 36a8 713d 584d bb3d 1b91 48be 3741 3f3e
00000290: 7120 aa3e 9c9c c73d dae6 65bd 81e9 b4bd
000002a0: d0cb 553d 2cd7 c2bd 0079 10bd fca4 2f3e
000002b0: 42ed 51be 10d5 273d 581a 5e3e 7031 0dbe
000002c0: 4425 76be fad7 c33e a026 3dbe deaa adbe
000002d0: 9633 2bbe 0089 c9be 183d c1be 50a3 8b3d
000002e0: a460 a0bd 90dd 373d 08ce a23d 2d88 ec3e
000002f0: a009 b43d ecf3 22be d1ca 04bd 0048 83ba
00000300: 9cf4 0dbe 24de 473e e0b0 8d3c c9a0 adbc
00000310: 1180 99be ed09 f3bd 29b3 6abe ef65 cebe
00000320: d8cd 90bd 7de0 db3d 9feb e43e 1476 033e
00000330: 93dd b73d 83b8 4f3e 3ae7 2f3f 8c1a 9ebe
00000340: e2c4 88bd 045f 34be 8e61 0ebf 24fe 9bbe
00000350: aa95 45bd f16a af3e 1dfb db3e 40a0 083d
00000360: 50f4 f53c 4b29 4ebe 037a 57be 88ea 093e
00000370: c0d8 803b f8bc 3fbd 1724 14be b6b4 6bbc
00000380: fc58 03bf 3659 28be 76ff c3bd 6547 52be
00000390: 8714 81bd 6d75 97be ff31 65be 750b 05bf
000003a0: 5778 de3c df6d 943e 622f 00bd ddb7 e7be
000003b0: e616 473e 0089 853d 7bf4 033f b430 3f3d
000003c0: 1a6a 7bbe 4261 b6be c8e6 b83d af74 963e
000003d0: f57a 0a3d f67d 873e f07a 883d a3da 26be
000003e0: b6ea 42bc 57f0 c7be 303c fcbd dca5 7cbe
000003f0: 806c 16be b3a0 93be ef66 17bf ab23 e63d
0.1333783 0.3236273 0.3886784 -0.24910033 0.079715915 -0.27730763 -0.37456846 -0.426686
0.3535901 -0.15621288 0.1860286 -0.25944668 -0.09416808 -0.42004627 -0.639261 -0.27651265
-0.01357181 -0.0013710137 -0.22705092 0.066321574 0.22258522 -0.04764067 0.16994378 -0.19384317
-0.18312894 -0.36920074 0.15790181 0.25127387 -0.16558988 0.40560755 0.5140943 -0.37070993
0.19330262 0.17343605 -0.44959685 -0.14745577 -0.5482777 0.32991186 -0.456023 -0.5853
0.38983873 -0.34674487 -0.20159414 -0.2912962 -0.3140136 -0.039220035 -0.4029051 -0.31180844
0.23344669 -0.061707843 -0.21597141 -0.044229537 -0.37305656 -0.12703244 0.33075842 -0.6109416
-0.1221221 0.23459572 -0.2631921 0.19003248 -0.50333875 -0.14920604 -0.32056618 0.66549224
0.39113173 0.10625001 0.14402156 0.075689524 -0.034346916 0.027097726 0.036796793 -0.32322374
0.244762 -0.24433668 0.6776999 -0.09901305 0.01174476 -0.05180988 0.16899154 0.5570199
0.14572838 0.46448264 -0.3470984 -0.31589147 -0.49613398 0.23154725 0.2687621 0.13198654
0.068196364 -0.20928949 0.048305146 0.53659266 0.06776265 0.044351466 0.07405439 -0.24611667
-0.19422196 -0.09966514 -0.44279212 -0.17582056 -0.11146079 0.24878658 0.25316894 0.08517328
0.36926085 -0.24320719 -0.10647192 0.013292317 -0.11867585 0.032915752 -0.48921937 0.01881147
-0.20686091 0.30281386 0.14751232 0.47015142 0.3691593 -0.23592263 0.026743252 0.1071346
-0.017543197 0.19966179 0.22692734 0.3383208 0.03267175 -0.25691888 -0.30779848 0.21980721
-0.60485107 0.23061775 0.28729287 -0.15952758 -0.2340244 -0.1854621 -0.8142977 0.18868831
0.21782392 0.12709391 -0.015929138 0.47262478 -0.022046547 0.45290154 -0.019368142 -0.13901977
-0.16752414 0.0367444 -0.34006184 0.12944525 0.04050161 0.104312435 0.34075296 -0.5680239
0.11956023 -0.20934255 0.1591114 0.17051041 -0.18875565 0.18668704 0.068004854 -0.010730309
0.05899831 0.091456115 -0.19586603 0.18677221 0.33227876 0.09746668 -0.05612836 -0.088336
0.052196324 -0.09513697 -0.035271645 0.1715278 -0.20500663 0.040974677 0.21689737 -0.1378839
-0.24037653 0.38250715 -0.18471766 -0.33919424 -0.16718897 -0.39362335 -0.37741923 0.06818259
-0.07830933 0.044889033 0.079494536 0.46197644 0.08790898 -0.15913361 -0.032419983 -0.0010015965
-0.13862842 0.19518334 0.017296255 -0.021194832 -0.2998052 -0.118671276 -0.22919907 -0.40312144
-0.070705116 0.10736177 0.44711015 0.12838012 0.08977809 0.2028523 0.687122 -0.3087963
-0.066781774 -0.1761437 -0.55617607 -0.3046733 -0.048238434 0.34261277 0.42965022 0.03335595
0.030023724 -0.2013294 -0.21042638 0.13468373 0.0039320886 -0.046811074 -0.14466892 -0.014386347
-0.51307654 -0.16440281 -0.0957021 -0.20535047 -0.063027434 -0.29581776 -0.22382353 -0.5197061
0.027156992 0.28990075 -0.031295188 -0.45257464 0.19442329 0.06520271 0.5154492 0.046677306
-0.24552193 -0.35621077 0.09028393 0.29385898 0.033808667 0.26463288 0.066640735 -0.16294341
-0.01189678 -0.39050552 -0.12316167 -0.24672645 -0.14689827 -0.2883354 -0.5914144 0.11237272

net.0.bias f4 [128]
00000000: 3868 be3c d109 cfbd ac59 b13e d591 02be
00000010: e627 ec3e 6b4f f53e 9819 9c3d 2045 df3d
00000020: cc4d 8f3e 3f3c ad3e 0d0e c2bd 7831 473c
00000030: 309f 983d 13e1 04bd bfdf 48be 7cf8 58be
00000040: 6b77 da3d 7ff2 1abe d1c1 49be c715 b0be
00000050: 4a32 8cbe 17fe 41bb 5075 1bbd 4749 4cbe
00000060: f66e 24be 27a0 2a3a 54ce 9fbe 8d50 78be
00000070: cedd 25be f498 56be 91ff 7ebe 6d0e 7bbe
00000080: ca8e 4b3e 6386 6b3e f28f 883b c3e1 a33e
00000090: 1e5f 9bbe b74d 783e 0e58 48be 508b 843e
000000a0: 91c9 c6be 52c7 993e 728a c43e 391a 52be
000000b0: dd32 c9be c77c 95be 5e05 2d3e b519 033e
000000c0: b980 453e 6337 05bd aa52 143e 00fb 863e
000000d0: 7d56 a63e 0b33 1cbd 5739 a2be 1200 9ebe
000000e0: 46e7 8fbe 0959 7fbc 21c7 7cbe 9cad 1c3d
000000f0: 42bb b5bd 3ba9 e83c f432 a2bd 7c93 0dbf
00000100: 0a83 efbd 5f1f 24be 6715 a1bc edee e6be
00000110: 656a 8bbe 6c6a 03bc 2a7d 4c3e 1602 a0be
00000120: 1cd6 2abe 90b3 053e bac7 753e a8db d6bd
00000130: 930d f33d 8c0c 0fbe d7fe c3be d9a3 d7be
00000140: 83a0 9d3d af12 263e b194 82be ee1e fdbd
00000150: 517b 69be 226a c2be 55a7 483e f298 ccbe
00000160: aadd aebe 042d 4ebd 0e75 d13d 28b0 16bd
00000170: 24f2 eabd 1525 85be 2a4f 793e 3a8b 313b
00000180: 275c a5be 81d6 f33c 9bc5 20be c3e5 2bbe
00000190: 12b8 dcbd 5988 c4bd ae3f 4ebe 905a 07be
000001a0: a6a2 c43e bc24 82be 9ed8 8cbe 5636 c13e
000001b0: ba7e 10be e614 9dbe 3ff0 b2be c89d b93d
000001c0: 31d2 8a3c bde8 993e a7c8 523e d6b4 94be
000001d0: 3718 87be e312 cbbe 7963 bfbc 6c24 d5bd
000001e0: 40bd 873c 41a2 743e b0a0 5b3d 719a cd3d
000001f0: f0ad d53d 7e1c 863e ac32 773e 3808 03bd
0.023243055 -0.10109294 0.34638727 -0.12750943 0.4612419 0.47912154 0.07622069 0.109018564
0.27989042 0.33835027 -0.09475336 0.01215779 0.074522376 -0.03244121 -0.19616602 -0.2118854
0.106673084 -0.15131567 -0.19702841 -0.34391615 -0.27382118 -0.0029600912 -0.037953675 -0.19949828
-0.16057953 0.000650885 -0.31212103 -0.24249478 -0.16197893 -0.20956784 -0.24902178 -0.24517222
0.19878688 0.23000483 0.0041675502 0.3200818 -0.30346006 0.24248396 -0.1956484 0.25887537
-0.38825658 0.30034882 0.38386875 -0.20517816 -0.39296618 -0.2919676 0.16896579 0.12802775
0.19287385 -0.032523524 0.14484659 0.26363373 0.3248786 -0.038134616 -0.31684372 -0.3085943
-0.28106135 -0.0155851925 -0.24685337 0.038251504 -0.08873607 0.028401008 -0.07919875 -0.5530317
-0.116949156 -0.16027592 -0.019663526 -0.4510416 -0.2722961 -0.008020978 0.19969621 -0.3125159
-0.16683239 0.13056779 0.24001971 -0.10491115 0.118678235 -0.1396963 -0.38280365 -0.42117193
0.07696631 0.16218065 -0.25504068 -0.12359415 -0.22800948 -0.37971598 0.19595082 -0.39960438
-0.3415349 -0.0503359 0.102274045 -0.03678909 -0.11471966 -0.26004854 0.24346605 0.0027091042
-0.3229687 0.02976537 -0.1570038 -0.16786866 -0.10777296 -0.09596319 -0.2014148 -0.1321814
0.3840534 -0.2541865 -0.27509016 0.37736768 -0.14110842 -0.30680007 -0.34948918 0.090632975
0.01694593 0.30060378 0.20584355 -0.29044217 -0.26385662 -0.39662847 -0.023362862 -0.104073375
0.016569734 0.2389002 0.05362004 0.10039223 0.104335666 0.26193613 0.24140424 -0.03199026

net.2.weight f4 [128, 128]
00000000: f792 85be b7c3 28bd 123c 1dbe b746 0bbe
00000010: d6f7 03be 6310 023d ed38 09be d8b4 6bbd
00000020: c076 db3c 7c87 573c 51e5 abbd 1c07 22bd
00000030: 7062 f7be 7ba1 253d 4a14 3cbd 1704 1bbd
00000040: 70f2 67bc dd76 81be 2463 08bd 89f5 92be
00000050: 368e 633d 91bf 95bd 9fce 1b3d d0bc f03c
00000060: a603 8cbc 6349 c13d 1e28 0c3e 7b43 50bd
00000070: f335 0bbd 8f66 aabd 0647 2e3d 9212 2b3c
00000080: 50c2 ebbd c4e3 0a3d a89c 79bd b136 32bc
00000090: 3afe 7fbd dd82 23be bc33 cc3c 31c6 1cbc
000000a0: 9034 783c e55d b0be 729c f3be 0d36 58bd
000000b0: 438a 63bd e500 3cbe 47e8 e6bd 4b07 cdbe
000000c0: c9fc 69be 9638 c23c 3134 88bd 565d 553c
000000d0: 2404 69be 6e6b 6b3b 686f 71bd 74db 13be
000000e0: 7e4e 6c3d 3b84 72bd 343d 163b 28cf e1bd
000000f0: 1879 8fbe d6d6 433b 984b 143e db1c 1bbc
00000100: 2913 1dbd ffc0 f8bd 5bde 13bc c86e 6e3d
00000110: 8ec4 573d 333e d7bc 7f83 6b3c ff3e 50bd
00000120: 31eb 873d 3fcc c1be dd0b 9cbd c76b 903d
00000130: f756 25bf 0b74 a13d 9cda f03c 5f60 8e3d
00000140: 3458 73bd f05e 5fbd 044f df3c 15d0 9bbc
00000150: 728c 01bd 685e 18bb a647 aabd 9695 0fbd
00000160: 5a10 973d 30c9 e4bb 2d18 d03c 8740 943d
00000170: 0e2f 423b 710c a4be 71a3 ee3b 603e 10be
00000180: a9b7 963d 33d2 b03b 7e3e 1fbe 0c87 a7bc
00000190: a5bf 79bf 3372 cbbc 8295 18be d4f5 f03c
000001a0: 623a 91ba b3e9 82be 5513 1b3d bd4a 36bd
000001b0: 6628 b3bc 5f8d 10bd d223 243d a009 81bd
000001c0: 7014 c33d 9638 97be 0e96 013c 3f8a 54bd
000001d0: 1aef 57be 4834 98be fe0a 06be 070a 65bd
000001e0: 5e23 febc cfcc 24be f579 3ebe 82f4 19bd
000001f0: e6ca 2a3d cd4d aa3c c696 c3bc 0078 99b8
00000200: 81c7 ff3d 71ef e93c ea09 85be 9a85 8c3d
00000210: bb59 a5be 9f29 f3be 607c 993b aad6 303d
00000220: 18d1 d1bc 87aa e5bd 1d91 bebe 99d5 edbd
00000230: 7a55 afbe 7bcc 203e 7d47 aabd 311a 133e
00000240: 0e5f ec3d 4594 5b3c 1732 1abe 96c2 193e
00000250: 143c 943c 9627 78be d180 27be f527 87bd
00000260: fed2 0fbe e946 2abc 4530 3f3d e12f 39bd
00000270: 8332 923d e002 a03c 1c43 00bd e3ef 4a3a
00000280: ee4e 5c3e 79b5 01be cb63 903d 9fdc e4bc
00000290: 1892 ee3c 363b e5bd e53f fdbd f737 43be
000002a0: d02f a03c 3173 57bf 04cc 81bc ba08 90bc
000002b0: 0070 4939 ac8c 1b3c 4a51 b4bb 2db5 75bd
000002c0: 6f06 27be 130a 2dbe 3745 3d3d 4111 28bd
000002d0: 33f6 13bf 79ed 44be eb86 17bd 3be1 1abe
000002e0: 3a07 193d 6001 49be f770 453e 6e6a 713e
000002f0: a3d9 ff3d cc88 a1bd c21e d2be bceb c43d
00000300: 7ef1 c8bd 7173 893c 0efe 193e ce41 7cbc
00000310: 602f a5bb 59dd 1cbe 9346 84bd 6240 7e3e
00000320: 9e0a 65bd 0015 fcbe 473a 80be e1bd a53d
00000330: 012d 09bf 4a3e 413d 23ac 65bd 8dcd bdbe
00000340: 9407 8fbd 2e5e 56be f495 823c aa81 6abd
00000350: 4e4e 87be bbec 893d 333b 20bb 2a0f 203d
00000360: 1bb5 c23d b533 12be 0339 71bd e6ff 3dbd
00000370: 4b48 e4bc e558 293d a965 163c 1e19 a6be
00000380: bbb6 61bd 844b b43e 4d7e e0be 2749 b3bd
00000390: c917 12bf 158c 133e f732 813c 70d7 54bc
000003a0: eadc 21be 3e7e 353e 5074 35bd 8c2a 78bd
000003b0: 6755 73be b80c ebbe c00e bc3a d29f 9abd
000003c0: d2fe 33be 9192 b1be 4565 0cbe b688 333e
000003d0: cfac edbd 9907 d4bd 1321 b4bd a9e2 423b
000003e0: 0134 31bd d187 95bd 44b1 143d be9a fbbd
000003f0: ef62 9f3e 4a46 c7bd 2fc8 d7bc 30be 733c
-0.26088688 -0.041202273 -0.15354946 -0.13601194 -0.1288751 0.03175391 -0.13400622 -0.057545513
0.026790023 0.013154861 -0.08393348 -0.03955756 -0.4831729 0.040437203 -0.045917787 -0.037845697
-0.014156923 -0.25285998 -0.033297673 -0.28702953 0.055555545 -0.07311929 0.038038846 0.029386908
-0.017091583 0.094378255 0.13687178 -0.050845604 -0.033986997 -0.08320343 0.042548202 0.010441439
-0.115116715 0.03390862 -0.060940415 -0.010877297 -0.06249831 -0.15967889 0.024927013 -0.009568737
0.015149251 -0.34446636 -0.47580296 -0.05278592 -0.05555178 -0.18359716 -0.11274772 -0.40044627
-0.22850336 0.023708623 -0.0665058 0.013022741 -0.22755486 0.0035922187 -0.058944136 -0.14439183
0.057692043 -0.059208136 0.0022924663 -0.1102584 -0.28022075 0.002988269 0.14481962 -0.009467329
-0.03834835 -0.12146186 -0.009025182 0.058211118 0.052677684 -0.026274776 0.014374613 -0.050841328
0.06636656 -0.3785114 -0.0761945 0.07051807 -0.6458582 0.078834616 0.029401116 0.06951975
-0.05941029 -0.0545339 0.027259357 -0.01902012 -0.03162808 -0.002324963 -0.08314447 -0.035054766
0.07376166 -0.006981991 0.025402153 0.0723887 0.0029630098 -0.32040742 0.0072826673 -0.14086294
0.07359249 0.0053961514 -0.15551183 -0.020450138 -0.9755805 -0.024834728 -0.14900783 0.029414095
-0.0011080022 -0.25568923 0.037860233 -0.04450487 -0.02186985 -0.035291072 0.040073223 -0.06300664
0.095253825 -0.2953536 0.007909311 -0.051889654 -0.21087304 -0.29727387 -0.1309013 -0.055917766
-0.031022724 -0.16093753 -0.1860121 -0.037586696 0.041697405 0.020789051 -0.023875605 -7.31796e-05
0.12489224 0.028556557 -0.25984126 0.0686142 -0.3229502 -0.47492692 0.004684016 0.04317347
-0.025612399 -0.11214166 -0.37220088 -0.11613006 -0.342449 0.15703003 -0.083144166 0.1436546
0.11541568 0.013402049 -0.1505817 0.15015635 0.018095054 -0.24233851 -0.16357733 -0.06599418
-0.14045331 -0.010392883 0.046676893 -0.045211677 0.071385406 0.01953262 -0.031314 0.00077414344
0.21514484 -0.12666883 0.07050284 -0.027937232 0.029122397 -0.11192934 -0.123657025 -0.19064318
0.019554049 -0.84160143 -0.015844353 -0.017582286 0.00019210577 0.009493988 -0.0055028545 -0.059987236
-0.16311048 -0.16898374 0.046208587 -0.04103208 -0.57797545 -0.19231214 -0.036993902 -0.15124981
0.037360407 -0.19629431 0.19281374 0.23575756 0.12492683 -0.0788742 -0.4103909 0.09615275
-0.09811686 0.01677868 0.1503832 -0.015396548 -0.005041048 -0.15318812 -0.064587735 0.24829248
-0.05591833 -0.49234772 -0.25044462 0.08092857 -0.53584296 0.047178544 -0.056072365 -0.37070885
-0.06983867 -0.20934364 0.015940644 -0.057252564 -0.2642693 0.06734606 -0.0024449348 0.03907696
0.095071994 -0.14277537 -0.05889226 -0.046386622 -0.027866503 0.041344542 0.009179511 -0.32441038
-0.055105906 0.35213864 -0.4384636 -0.08754187 -0.57067543 0.14408906 0.015771372 -0.012990817
-0.15806928 0.17723939 -0.044300377 -0.06058745 -0.23763047 -0.4590814 0.0014347658 -0.075500146
-0.17577675 -0.34682134 -0.13710506 0.1753262 -0.11605226 -0.10353012 -0.08795371 0.002973715
-0.043262485 -0.073012955 0.036301866 -0.12285374 0.31130168 -0.097302034 -0.026340572 0.014876887

net.2.bias f4 [128]
00000000: 6767 443d 4cce 8cbd 21cb 7dbd 18e6 16be
00000010: 754d 43be c9ca 293d f672 2cbc d982 0dbd
00000020: f867 02bc 432d 54bd 570f 90bd d6f3 423e
00000030: 2185 0d3c d7dc f93d 0b4e dbbc d978 7dbd
00000040: 217d a83b 19f1 9fbd a6dd 2d3d de38 9cbc
00000050: 7637 8ebc cbff a7bc 53c4 ebbc 1b24 1dbd
00000060: b6b3 1e3e a887 abbd d499 75bd 4b8d 48bd
00000070: 6247 03be 351b 493c cff7 34bd 7952 053e
00000080: dc2d 663b 1649 303c d284 263e 852d 8cbd
00000090: c724 aabd d8d2 b5bd e234 a8bd 2ef1 9abd
000000a0: c89a edbc ba36 8f3c 38a6 083e 7c88 16bd
000000b0: 2bcf 00bd f40f 7ebd e12b d9bb 1dca bebd
000000c0: 8d7d 203d 3522 dd3c d8a0 4cbd b94c 56bd
000000d0: 62ca f1bc e063 5dbe c91b c9bd fc0d 2bbd
000000e0: 2c5e 383c 9b46 2abd 8363 efbd a72a 8e3b
000000f0: c0eb dbbb bf0f 883d e673 51bc 2021 d0bd
00000100: 6f14 66bd 262a 4cbc d749 953c 0ff8 2abd
00000110: ca0e bbbd 5f2b d73c d47f 26be 4ccf d1bd
00000120: 036e b3bc ca50 8d3a 55c4 4a3e ee98 96bd
00000130: d2d3 543d 5c70 d43b d5dc 1cbc 63e1 79bd
00000140: 8825 b5bd e46e abbd 273a 11bd 9c92 223e
00000150: 8bdc fcbb b03b 53bc 14e9 16bd 7d64 433d
00000160: 4b38 ecbd 7666 d43c fb3a abbd 73b9 2c3d
00000170: 738e ae3d f5a9 11bd 9f72 133e 8dcb 4d3d
00000180: 1de6 f3bd fa6a 08be 0e29 f53d 7cd1 84bb
00000190: df4e 85bc ef57 b33d a663 8b3c 38ac 4e3e
000001a0: b965 123e 092a abbd bf8d 413d 287d 9ebd
000001b0: b3a8 69bd b737 b6bd 676a f1bd 31ce 9e3d
000001c0: f117 83bd 4dbf f63d 08c6 013d 9985 783d
000001d0: 9a63 4bbd e085 3c3e 76a4 c0bd e1fe 58bd
000001e0: 8129 9f3c 36e2 7fbd e6fc 96bc f5a1 aabd
000001f0: 8683 783c a82c 553c 2738 043d 7236 97bd
0.047950175 -0.068752855 -0.061961297 -0.14736211 -0.19072516 0.041453157 -0.010525456 -0.034548614
-0.007959358 -0.051800977 -0.07034176 0.19038329 0.008637697 0.12200325 -0.026770612 -0.061882827
0.0051418697 -0.078096576 0.04244771 -0.019070085 -0.01736043 -0.020507714 -0.028780138 -0.03836451
0.15498242 -0.08375484 -0.059961155 -0.048962872 -0.12820199 0.012274553 -0.04418164 0.13019742
0.003512255 0.010759613 0.16261604 -0.0684462 -0.08307796 -0.08878106 -0.082132116 -0.075655326
-0.02900447 0.01748215 0.13344657 -0.036751255 -0.03144757 -0.062026933 -0.006627545 -0.09315894
0.039182235 0.02699385 -0.04995808 -0.052319262 -0.029515449 -0.2162013 -0.09819753 -0.041761383
0.011252921 -0.04157124 -0.11688902 0.0043385806 -0.006711453 0.06643628 -0.01278398 -0.10162568
-0.05617183 -0.012461221 0.018223686 -0.041740473 -0.0913368 0.026265798 -0.162597 -0.10244617
-0.021903044 0.0010781523 0.19801457 -0.07353388 0.05195982 0.006483121 -0.009574135 -0.06100596
-0.08845049 -0.0837076 -0.03545585 0.1587624 -0.0077167205 -0.012892649 -0.036843374 0.047703255
-0.115341745 0.025927763 -0.08360859 0.042169046 0.08523264 -0.035562474 0.14399193 0.05024295
-0.11909125 -0.13322058 0.11970721 -0.004053293 -0.01627296 0.087570064 0.01701529 0.20182884
0.14296617 -0.08357627 0.04725432 -0.077387154 -0.05704565 -0.088973455 -0.11787873 0.07754172
-0.06401051 0.120482065 0.031682998 0.060674284 -0.049655534 0.18410444 -0.094063684 -0.052977446
0.01942897 -0.06247159 -0.018431138 -0.08331672 0.015168076 0.013011135 0.032280114 -0.073834315

net.4.weight f4 [3, 128]
00000000: dc6e 83bd 5963 f9be 5000 dc3b 8fa6 90bc
00000010: d3c2 d1bd 52e1 e83c 84d7 41bf 512e a2bd
00000020: 1fae e03c 3ca4 2b3c 8412 a13d ef24 0c3e
00000030: ab5f 0bbc d008 b03d b2ca 1c3e cf36 893e
00000040: ebac f13d f2da 983d ded1 ca3c b249 7d3d
00000050: 0f58 50bd ec4d 0b3d 112c 24bd d380 a33d
00000060: 849b 0e3e 25dd abbd 0e7c 8bbd c8ed 463c
00000070: 5fec 50bc 3e3b 2f3e 5d0f 17bd 1b96 b2be
00000080: e7fe 413e 26af 9fbd 53f1 f03d 98a1 273c
00000090: cc78 bc3c 7180 f73b 888d 903c 90b5 0c3d
000000a0: c18f 853d dbae 693e 50f7 fb3d a39e e63d
000000b0: ca3a 66bd 0c01 963d 93c5 b2bd bfc5 c13d
000000c0: fe2e a63d e1b8 8c3d 88bb 1d3d ef0d deba
000000d0: 98a2 1ebb 00a6 87bd 5787 bbbc fd23 d0bb
000000e0: ba1a 9f3d 803c 403d 6de6 3e3d 3636 213d
000000f0: 2e25 d03d c4ed cd3d 97c5 ab3e 6739 203e
00000100: 87ce e3bd 0652 963d 8f39 0f3e a851 4dbd
00000110: 886f 733d 3615 b4bd b36d 18bf 793a 24bf
00000120: 8051 61bc 65c0 47bd bf8e c9be 0290 663d
00000130: e9ce ad3d a247 b6bd 3fff 673d 1f9a 113e
00000140: 8392 c2bc 1e00 06bd 59bd f53c dff2 f23d
00000150: 1332 3d3d 8b7f 1abd 1557 33bf 281c 863e
00000160: 515e 5dbd 457d f53d 1f48 c3bd fb5f 173e
00000170: 7e16 a13d 54cb 29bd ed34 543d 26de 453d
00000180: 09ff b7be 591c 1bbe d309 bf3d b018 5f3e
00000190: a4d2 503c ac1a 2c3e 55cb 953d 655c 853e
000001a0: 0dbf 5a3e 13e7 b3bd ba83 a73d 5537 8c3d
000001b0: 1f88 5d3c 9eda d1be 47e9 0a3e 8dd5 05bf
000001c0: e40c 883d 6fc9 433e 61f1 6d3e db52 85be
000001d0: 40ed eb3c 16c6 de3d 3ce2 0ebf 8dc5 523d
000001e0: 78e7 4dbf 2ada 4e3d efdc 043d 1c30 873c
000001f0: 900a 08bc 389e 23bd 9480 d8be 2fc8 f6be
00000200: 8448 16bd c86c 71be 6246 40bd 6c1c 60bc
00000210: e558 29be 2e4b a43d 3f6b 0fbf dbf7 053c
00000220: 95d5 603c 92b1 27bd d368 5a3d da6d 093e
00000230: 69e3 9b3c 4673 a33d fd4e f33d d99c 083e
00000240: e39e ee3d 287d b53c ca68 12bd 1578 14bd
00000250: 94e5 aabd 9eb8 96bd a993 bebd cc80 203d
00000260: ffab 923e 9163 ae3d 0deb 95bd e277 d73c
00000270: b752 14bd 285a 2e3e 2902 9e3d 34e1 0bbf
00000280: 2110 143e 9aec 6dbd 0200 c03d 4df5 15bd
00000290: ede6 8f3d 05f4 903c 15ea 55bc c041 bf3c
000002a0: 8443 44bd aa70 333e 652c 2c3d 5586 013e
000002b0: f748 71bd 6b6c 373d 1b05 acbd b53a 23ba
000002c0: 179e 39bd 01a4 663d 5040 393d ec4b f8bc
000002d0: 93b1 7d3d d06a c6bd 12d5 e3bd 8071 30bd
000002e0: f35e 27bc 66b8 85bd b8dc 263c a424 fe3c
000002f0: c022 0c3e 97d7 4e3b 063d a33e 61a2 1b3e
00000300: f84f 1dbe c72d ad3d e276 6f3d 2a7c 42bd
00000310: bc30 ab3d a9f5 98bd 2711 2abf b066 02bf
00000320: 60c7 493d 1e52 ffbc 9658 2bbf 2e37 333d
00000330: 0337 363d ff0b 0ebe 09e3 a43d 8138 9c3e
00000340: 3fe9 b2bd 80a1 453d 4f8e 453d b659 ee3d
00000350: 36f0 d33d ddfa 043d 6d0a 3ebe 0080 3f3e
00000360: 40da cebd a223 fb3d b400 0fbe d437 b43d
00000370: 0a92 923d cee4 6e3c c0e2 aa3d b35e 633d
00000380: d12c d9bc f117 2bbe f3d6 363e 3cf3 703e
00000390: 337b 8c3d 4a16 8d3e e97a 503d a9c6 da3e
000003a0: 2f98 b03e 003b 5dbb aaeb 093e 0633 56bd
000003b0: 8767 69bd 1ce1 cebe de42 193e 2828 5ebe
000003c0: 11cd ad3d b91a 023e 29c1 933e 49dd a6be
000003d0: a98c 843e 0c97 923d 90a3 ecbe 4cec 793d
000003e0: fe4f 07bf d8f0 b63d 051c 923d 70a6 b7bb
000003f0: 5638 45bd a330 f0bc 23d7 03bf f39b e9be
-0.06417629 -0.4870861 0.0067139044 -0.017657546 -0.10242238 0.028427754 -0.75719476 -0.079189904
0.027426777 0.010476168 0.0786486 0.13685964 -0.008506696 0.08595431 0.15311697 0.26799628
0.118005596 0.074636355 0.024758276 0.06183786 -0.05086523 0.03400986 -0.040081087 0.07983556
0.13926512 -0.08391789 -0.06810771 0.012141652 -0.012751668 0.17112443 -0.036879886 -0.34880146
0.18944894 -0.07797079 0.11764779 0.010231398 0.02300682 0.007553153 0.017645612 0.03435284
0.065215595 0.22820608 0.123030305 0.11260726 -0.05620841 0.073244184 -0.087290905 0.09461545
0.08114432 0.068712 0.03850892 -0.0016941408 -0.00242058 -0.06623459 -0.022891684 -0.0063519464
0.077687696 0.046932697 0.04660647 0.03935834 0.101633415 0.10055116 0.33549187 0.15646897
-0.11123376 0.073398635 0.139868 -0.0501267 0.059432536 -0.08793108 -0.5954239 -0.6415172
-0.013752341 -0.048767466 -0.3936672 0.05628968 0.084867306 -0.089003816 0.056639906 0.14218949
-0.023751503 -0.032714956 0.029997515 0.1186273 0.046190333 -0.03771929 -0.7005475 0.26193357
-0.054045025 0.11986784 -0.095352404 0.14782707 0.07865618 -0.041453674 0.051808286 0.04830756
-0.35936764 -0.15147533 0.09328046 0.21786761 0.012745533 0.1680705 0.07314173 0.26047054
0.21361943 -0.08784308 0.08179422 0.06846491 0.013521223 -0.40987104 0.1356555 -0.5227898
0.06643084 0.1911981 0.2323661 -0.26039776 0.028799653 0.10877626 -0.55813956 0.05145793
-0.8043132 0.050501026 0.03243726 0.016502433 -0.0083033 -0.03994581 -0.42285597 -0.48199603
-0.03669025 -0.23576653 -0.046942122 -0.013678651 -0.16537817 0.08022152 -0.5602302 0.008176769
0.013722797 -0.04094083 0.053322624 0.13420811 0.019029336 0.07980971 0.118803 0.13341083
0.11651399 0.022154406 -0.035744466 -0.03624733 -0.0834457 -0.07359432 -0.09305508 0.03918533
0.28646848 0.085150845 -0.07320223 0.026302282 -0.036211696 0.1702658 0.07715256 -0.5464051
0.14459278 -0.05808697 0.093750015 -0.03661089 0.070264675 0.017694483 -0.013056298 0.023346782
-0.04791595 0.17523447 0.042034525 0.126489 -0.058907475 0.04478113 -0.08399411 -0.00062267046
-0.04531678 0.05630875 0.04522735 -0.03030964 0.061936926 -0.096883416 -0.11124624 -0.043076992
-0.010215509 -0.06529312 0.010184459 0.031023331 0.13685131 0.0031561607 0.31882495 0.15198661
-0.15362537 0.08455997 0.058462985 -0.047481693 0.08358905 -0.07468731 -0.6643242 -0.5093794
0.049262404 -0.031167086 -0.66932046 0.043753795 0.044486057 -0.13871764 0.08051116 0.3051186
-0.087358944 0.04824972 0.04823142 0.11638205 0.10348551 0.032465804 -0.18558665 0.18701172
-0.10100222 0.12262656 -0.13965112 0.08799711 0.07156761 0.0145809185 0.083440304 0.055510234
-0.026510628 -0.16708352 0.17855434 0.23530287 0.06859436 0.27556068 0.050898466 0.4272969
0.34491107 -0.003375709 0.13468805 -0.052294753 -0.056983497 -0.4040612 0.14966914 -0.21695006
0.08486379 0.12705506 0.28858307 -0.32590702 0.25888565 0.07157716 -0.46218538 0.061016366
-0.52856433 0.08932656 0.071342506 -0.0056045577 -0.04814943 -0.029320067 -0.5150015 -0.45626792

net.4.bias f4 [3]
00000000: ef36 c53c bfaa d1bc bd5e 0f3d
0.024074046 -0.025594113 0.03500246
