saved_models/dqn_episode_5.pth (torch, 74333 bytes, 6 tensors)

net.0.weight f4 [128, 6]
0	0xbec7d2ca	-0.39028007
1	0xbec004ad	-0.37503567
2	0xbe7de0c3	-0.24792771
3	0xbecccc93	-0.39999828
4	0x3da2e471	0.07953728
5	0x3e844b15	0.25838533
6	0xbe6ff0e2	-0.23431733
7	0xbe8319b4	-0.25605547
8	0x3eba1ec8	0.3635161
9	0x3e2d2872	0.1690996
10	0x3ed72a4d	0.4202446
11	0x3e19082d	0.14944525
12	0x3ef07053	0.46960697
13	0x3e37073a	0.1787385
14	0x3df994f1	0.121866114
15	0xbe84aaa7	-0.25911447
16	0xbb102dc2	-0.002199993
17	0xbe2e8c6b	-0.17045753
18	0x3e8a9df1	0.27073625
19	0x3e73d841	0.23812963
20	0x3e8b4d13	0.2720724
21	0x3dcc7eaa	0.09985097
22	0x3d0696fd	0.032858837
23	0xbc36fe71	-0.011169062
24	0xbc75d868	-0.015005209
25	0xbea15216	-0.3150794
26	0xbeed4201	-0.4633942
27	0x3d51831d	0.05115043
28	0xbe6c96a3	-0.23104338
29	0xbd81d6a2	-0.06339766
30	0x3ef319be	0.47480577
31	0xbea42b5e	-0.32064337
32	0xbd389053	-0.045059513
33	0xbdc68a24	-0.09694317
34	0x3ccb41b8	0.02481161
35	0xbd314902	-0.043282516
36	0x3e674a36	0.22586903
37	0x3ed31e4b	0.4123405
38	0x3da2de15	0.07952515
39	0xbe478e63	-0.1948791
40	0xbd25008b	-0.04028372
41	0x3e3b58a1	0.18295528
42	0x3ebf6ea6	0.37389106
43	0xbe908f41	-0.28234294
44	0xbdd91a9c	-0.106007785
45	0xbebedfa3	-0.37279996
46	0x3cc15532	0.023600195
47	0x3d5a3376	0.053271733
48	0xbebb98f7	-0.3664014
49	0x3ecc5ced	0.39914647
50	0x3dac59b6	0.084155485
51	0x3e07a78e	0.13247511
52	0x3eafd1d0	0.34339762
53	0x3ec30294	0.38087904
54	0x3e574a9b	0.21024553
55	0xbe8f0049	-0.27929905
56	0x3e74c8a7	0.23904668
57	0x3ebe3d9a	0.37156373
58	0xbe429cd4	-0.19005138
59	0x3e93b021	0.28845313
60	0xbe53edfd	-0.20696254
61	0x3ebde022	0.37085062
62	0xbe899569	-0.26871803
63	0x3d13821d	0.036012758
64	0x3e539492	0.20662144
65	0x3eb12d65	0.34604946
66	0xbe9025be	-0.28153795
67	0x3e92c409	0.28665188
68	0xbec3e992	-0.38264138
69	0xbe45a88e	-0.1930258
70	0x3e32a728	0.17446578
71	0xbe6f01cd	-0.2334053
72	0xbedfdceb	-0.43723235
73	0xbe62f55d	-0.22163911
74	0xbe56e601	-0.20986177
75	0x3deb76cb	0.11497267
76	0xbdd6baf9	-0.10484881
77	0x3eb0350f	0.3441548
78	0xbe03dcc3	-0.12877183
79	0x3d24eaa9	0.040262852
80	0xbe010a06	-0.1260148
81	0x3e54ea83	0.20792584
82	0xbe14b36d	-0.1452157
83	0xbe8477af	-0.2587256
84	0xbea9cae4	-0.33162606
85	0xbd90248e	-0.07038222
86	0x3ea6e5b9	0.3259714
87	0xbed38a88	-0.41316628
88	0x3ecf060e	0.40434307
89	0x3e24291b	0.16031305
90	0xbe5dea3d	-0.21671386
91	0xbd51b5b8	-0.05119869
92	0xbe8338b4	-0.256292
93	0xbd661b10	-0.056178153
94	0xbe8eb4b2	-0.27872235
95	0xbe9ce669	-0.3064454
96	0x3e74f242	0.23920539
97	0xbe4b7190	-0.1986754
98	0x3b3dd643	0.0028966821
99	0x3ddb1d46	0.10698943
100	0xbeb3d254	-0.35121405
101	0x3e5c4f2a	0.21514574
102	0xbe70437c	-0.23463243
103	0x3e1b21ed	0.1514966
104	0x3ecf2c44	0.4046346
105	0xbd91df5a	-0.07122679
106	0xbc4bc02d	-0.012435955
107	0x3ea07711	0.3134084
108	0x3eb05561	0.3444014
109	0x3ac7d749	0.0015246655
110	0x3dfcdf0a	0.12347229
111	0x3dbf93f7	0.09354394
112	0x3e0869b4	0.13321573
113	0xbdf6bd48	-0.12047821
114	0xbeac8a34	-0.3369919
115	0xbdbd6744	-0.09248212
116	0x3e55d420	0.208817
117	0x3cfc4030	0.030792326
118	0xbecca5e8	-0.39970326
119	0xbeaf028c	-0.3418163
120	0xbec76986	-0.38947695
121	0x3c9baf84	0.01900459
122	0xbe07a83f	-0.13247775
123	0xbdb1ac79	-0.08675475
124	0x3ec606c2	0.3867703
125	0xbd4a2c6d	-0.049358774
126	0xbebf1d76	-0.37327164
127	0xbe8f25c7	-0.2795851
128	0xbe4f4470	-0.2024095
129	0x3d1925f1	0.0373897
130	0x3e9cdf14	0.30638945
131	0x3ea80936	0.32819527
132	0xbe05f825	-0.13082941
133	0xbe52456e	-0.20534298
134	0x3e40076a	0.18752828
135	0x3eab2889	0.33429363
136	0x3e8dfb4e	0.27730793
137	0x3d886f1f	0.0666182
138	0xbd98e078	-0.07464689
139	0x3e7be614	0.24599487
140	0xbd4194c0	-0.047261
141	0xbec4dc47	-0.38449308
142	0x3e116234	0.14197618
143	0xbecaac2a	-0.39584476
144	0xbc478804	-0.012178425
145	0xbdc73a8d	-0.097279646
146	0xbdc5c335	-0.096563734
147	0xbebe1222	-0.3712321
148	0xbeac2328	-0.33620572
149	0xbea39757	-0.319514
150	0x3ec35229	0.3814862
151	0x3d798cd5	0.060925324
152	0x3edfc08c	0.4370159
153	0xbe435b58	-0.19077814
154	0x3e1ae02a	0.15124574
155	0x3e2a74f8	0.16646183
156	0x3eac6169	0.33668068
157	0xbeba0c6a	-0.36337596
158	0x3ec4df51	0.38451627
159	0xbe668a97	-0.22513805
160	0x3e4f7532	0.2025955
161	0x3e0437e0	0.1291194
162	0xbe41a8a9	-0.18911995
163	0xbe6cfb74	-0.23142797
164	0x3e946b41	0.28988078
165	0x3e9128ef	0.28351542
166	0xbdaedbc2	-0.08538009
167	0x3e0a3278	0.13495815
168	0x3e6c5278	0.23078334
169	0xbd8eccb8	-0.06972641
170	0xbe437021	-0.19085743
171	0x3dcdf38f	0.10056221
172	0x3e1955cf	0.1497414
173	0xbcce0270	-0.025147647
174	0x3e88fb0c	0.26754034
175	0xbe9df510	-0.3085103
176	0xbd4e6128	-0.050385624
177	0xbd0a4f10	-0.033766806
178	0xbd291840	-0.041282892
179	0xbeb9a42a	-0.3625806
180	0x3ed2eb6b	0.41195235
181	0xbeafcb07	-0.34334585
182	0x3e51fa62	0.2050567
183	0xbe1a9bbe	-0.15098473
184	0xbe8ac113	-0.2710043
185	0x3cc87b78	0.024472937
186	0xbdccff72	-0.1000966
187	0x3ec3c33a	0.38234884
188	0xbea58b36	-0.32332772
189	0xbdd35a85	-0.103199996
190	0xbdc75cdf	-0.09734511
191	0x3dabbcef	0.083856456
192	0x3c3c78f9	0.0115034515
193	0xbe79f075	-0.24408133
194	0xbe060132	-0.13086393
195	0xbe273529	-0.16328873
196	0xbe8be7e1	-0.27325347
197	0x3dcb8524	0.09937504
198	0xbe86b0f7	-0.26306888
199	0x3d07a1b6	0.033113204
200	0xbeac3312	-0.33632714
201	0x3e513cdf	0.20433377
202	0x3e6ec7e2	0.23318437
203	0xbe22f5d4	-0.15914088
204	0x3e5d4dbb	0.21611683
205	0x3e516d9b	0.20451967
206	0xbe1c1ee3	-0.15246157
207	0x3e946df2	0.28990132
208	0x3eb92427	0.36160395
209	0x3e9ef500	0.31046295
210	0xbd944f9e	-0.07241748
211	0xbd20fde0	-0.039304614
212	0x3e83cf0e	0.25743908
213	0xbe05b091	-0.13055636
214	0xbe938519	-0.28812483
215	0x3d1db1e1	0.038499717
216	0x3de708d0	0.11280978
217	0xbe236012	-0.15954617
218	0xbe847adc	-0.25874984
219	0x3e2d65a9	0.16933312
220	0xbe978f81	-0.29601672
221	0x3cbf5918	0.023357913
222	0x3ee14bc5	0.4400312
223	0xbe39090d	-0.18069859
224	0x3ea2459d	0.31693736
225	0xbe5f2f8c	-0.21795481
226	0x3eeb5347	0.45961973
227	0xbe3bf28a	-0.1835424
228	0xbebd691d	-0.36994258
229	0x3e96183a	0.29315358
230	0xbec47894	-0.38373244
231	0x3e1b731b	0.15180628
232	0xbe4bf16f	-0.19916318
233	0x3ca74497	0.020418448
234	0x3d7486a3	0.059698712
235	0x3d2a1153	0.041520428
236	0xbebdfd05	-0.371071
237	0xbe3882d7	-0.18018661
238	0xbeac1bd4	-0.3361498
239	0x3e55bbae	0.20872375
240	0x3e9716ce	0.29509586
241	0x3e4c6ad0	0.1996262
242	0x3e102ea4	0.14080292
243	0x3eafac2a	0.34311038
244	0xbda3cb48	-0.07997757
245	0xbe97457a	-0.29545194
246	0x3dca58b7	0.09880202
247	0x3df15bba	0.117850736
248	0xbc7d9f77	-0.015479914
249	0x3d1f8d1f	0.038952943
250	0xbeac0b6a	-0.33602458
251	0x3e5d52c8	0.2161361
252	0xbd5832a0	-0.052782655
253	0xbe652edf	-0.22381161
254	0xbe68b2c3	-0.22724442
255	0xbdb7a000	-0.089660645

net.0.bias f4 [128]
0	0x3eacbd7a	0.3373831
1	0xbd83697f	-0.06416606
2	0xbb8565a6	-0.0040709553
3	0x3e97ab08	0.29622674
4	0x3defcc10	0.11708844
5	0x3c5659a5	0.013082896
6	0x3ea25257	0.31703445
7	0x3e61cdf7	0.22051226
8	0x3d7116ce	0.05885964
9	0x3d4b16bb	0.049582224
10	0xbeafee26	-0.3436138
11	0xbcb6a64e	-0.022296097
12	0x3e874422	0.2641917
13	0x3e80d84c	0.2516502
14	0xbd7991c2	-0.06093002
15	0xbeb36a3e	-0.35041994
16	0x3e38770d	0.18014164
17	0xbd808f57	-0.0627734
18	0x3def3e15	0.11681763
19	0xbe8232e4	-0.2542945
20	0x3d24fc66	0.04027977
21	0xbe607229	-0.21918549
22	0x3e2654a7	0.1624323
23	0xbe99e107	-0.30054495
24	0x3ec60ffb	0.38684067
25	0x3e1a7ab1	0.15085866
26	0x3ebc2712	0.36748558
27	0x3e010bbf	0.12602137
28	0x3dade241	0.0849042
29	0xbe26b2ae	-0.16279098
30	0x3e9e66ee	0.30937904
31	0xbe618ed9	-0.22027148
32	0xbe0096cc	-0.12557524
33	0x3dc7027c	0.09717271
34	0xbec32c68	-0.38119817
35	0x3e12b866	0.14328155
36	0xbe034be4	-0.12821919
37	0xbcf840a0	-0.030304253
38	0x3d7260cc	0.059174344
39	0x3a8c44a3	0.0010701608
40	0xbeb6f04a	-0.357302
41	0x3e61a5ca	0.220359
42	0xbe029598	-0.12752378
43	0x3df308a8	0.118668854
44	0x3e5bffa7	0.21484242
45	0x3d3f2fe6	0.04667654
46	0x3e3d88c4	0.18509203
47	0xbebf9d10	-0.37424517
48	0x3cf13e02	0.029448513
49	0xbe9ea41a	-0.30984575
50	0xbe95f705	-0.29290023
51	0x3d4c823e	0.049928896
52	0xbdcdeea1	-0.100552805
53	0xbe76dffd	-0.24108882
54	0x3eb9e064	0.3630401
55	0xbe94230a	-0.28932983
56	0xbc9364b0	-0.017992347
57	0x3e9c209f	0.30493638
58	0x3e5753dc	0.21028084
59	0xbe0a6f9f	-0.13519143
60	0x3db2d005	0.08731083
61	0xbd2aa8a7	-0.041664746
62	0xbe86870f	-0.26274917
63	0x3e2835a0	0.16426706
64	0xbd588438	-0.05286047
65	0x3d91db71	0.07121933
66	0x3e97b5c2	0.29630858
67	0xbdea8071	-0.114502795
68	0x3ebd9d7d	0.37034217
69	0x3dc691f2	0.096958056
70	0x3d7d8480	0.06189394
71	0xbddec55f	-0.10877489
72	0xbd26e9b5	-0.040750224
73	0xbdfcb6d4	-0.12339559
74	0x3ea2645f	0.31717202
75	0xbd49d706	-0.049277328
76	0xbe593bb1	-0.21214177
77	0x3e9a6e16	0.30162114
78	0xbe575479	-0.21028318
79	0xbe9c1c68	-0.30490422
80	0xbda64b70	-0.08119857
81	0x3cf78495	0.030214587
82	0xbe7be8b9	-0.24600495
83	0xbddfd804	-0.109298736
84	0xbd165682	-0.036703594
85	0xbcfd54e2	-0.030924264
86	0x3d22e455	0.039768536
87	0x3d557ac6	0.05211904
88	0xbc7ae2a8	-0.015312828
89	0xbd9a9de5	-0.07549647
90	0xbe2bd2df	-0.1677966
91	0x3d078e65	0.033094782
92	0xbd1cdaa5	-0.038294453
93	0xbd932946	-0.07185607
94	0x3e733238	0.23749626
95	0x3dfcefc0	0.12350416
96	0xbe88e672	-0.26738316
97	0xbec05966	-0.37568206
98	0xbe0b2ecb	-0.13592069
99	0xbe4f4c63	-0.20243983
100	0x3e86d378	0.26333213
101	0x3e038f6c	0.1284768
102	0x3e919917	0.2843711
103	0xbe00c4f4	-0.12575132
104	0x3ea375f6	0.31925935
105	0x3dced9cd	0.10100136
106	0x3e81096e	0.25202507
107	0x3d391978	0.045190305
108	0x3e9e81ed	0.309585
109	0x3eb77ab5	0.35835806
110	0x3e0f0093	0.13965063
111	0xbe1b75b4	-0.15181619
112	0x3d944290	0.07239258
113	0x3e656f48	0.22405732
114	0x3c569264	0.013096426
115	0x3ed3db07	0.41378042
116	0xbda49eb5	-0.080380835
117	0x3eb5e195	0.35523668
118	0x3e85feb3	0.26170883
119	0xbdec646e	-0.11542593
120	0x3e048e6a	0.12944952
121	0x3ea628e7	0.3245308
122	0x3e988653	0.2978998
123	0xbd89ebd8	-0.06734437
124	0xbe9faa19	-0.31184462
125	0xbdb8ae77	-0.090176515
126	0x3e52f0f7	0.20599733
127	0x3eda0914	0.4258505

net.2.weight f4 [128, 128]
0	0x3ccb202c	0.024795614
1	0xbc9f9337	-0.019479377
2	0xbc343d2a	-0.011000911
3	0x3da0a566	0.07844047
4	0xbd22d751	-0.039756123
5	0x3dc48dd5	0.09597365
6	0x3d3b6a2f	0.04575556
7	0xbdd7354b	-0.10508212
8	0x3d36f68b	0.044668715
9	0xbdeea3a5	-0.116523065
10	0x3dbf8821	0.093521364
11	0x3caf39a2	0.021389786
12	0x3cf5a80d	0.02998736
13	0xbce650fe	-0.028114792
14	0xbdd107b3	-0.10206547
15	0xbd2fc3f4	-0.042911485
16	0xbbb6ec5c	-0.0055823755
17	0xb7913c4b	-1.7313423e-05
18	0xbc682727	-0.014169491
19	0xbca3ecdc	-0.020010404
20	0x3c999e96	0.018752377
21	0xbd3fb6b8	-0.046805114
22	0x3d9aa9c8	0.075519145
23	0x3d9ae011	0.075622685
24	0xbd33cadd	-0.043894637
25	0xbcf3d012	-0.029762302
26	0xbd7810a0	-0.06056273
27	0xbd87bb2b	-0.06627496
28	0xbd850c41	-0.06496478
29	0xbd92b2b2	-0.0716299
30	0x3d2d7202	0.042345054
31	0xbd16498a	-0.036691226
32	0x3dd65ee3	0.10467317
33	0x3c4f8415	0.012665768
34	0xbd53ce47	-0.051710393
35	0xbd9fa71d	-0.07795546
36	0xbdb7fba3	-0.08983543
37	0xbd1e882b	-0.03870408
38	0x3cef2d35	0.029196361
39	0x3bb06851	0.0053835292
40	0xbc5d6068	-0.013511755
41	0x3d521276	0.051287137
42	0x3dab43b5	0.083625235
43	0x3d8a5347	0.06754165
44	0xbd4f23db	-0.050571304
45	0x3cf93759	0.0304219
46	0x3bdf3628	0.006811876
47	0xbd1c48b3	-0.03815527
48	0x3de1174a	0.1099077
49	0xbd040340	-0.032229662
50	0x3e09f70b	0.13473146
51	0xba8c50f4	-0.0010705278
52	0xbd4ec958	-0.050484985
53	0xbcc5614c	-0.024094246
54	0xbc364d94	-0.0111268945
55	0x3ca9a678	0.020709261
56	0x3d64da24	0.055872098
57	0xbd8b1aa0	-0.06792188
58	0xbc10a230	-0.008827731
59	0xbdd24946	-0.10267882
60	0x3d8bcabc	0.06825778
61	0xbe01b030	-0.12664866
62	0xbdfaf114	-0.12253013
63	0x3da62ddd	0.081142165
64	0x3d1767b2	0.036964126
65	0xbbcf5ca4	-0.0063281823
66	0x3d9c9f44	0.07647565
67	0xbd7b7189	-0.061387572
68	0x3d8f8255	0.07007281
69	0x3c9e6cdb	0.019339016
70	0xbd6a0edc	-0.057143077
71	0x3d447f15	0.047972757
72	0xbd831b4a	-0.06401689
73	0xbdab99b6	-0.083789274
74	0x3d604a49	0.054758344
75	0x3d5446dd	0.051825393
76	0x3d689421	0.05678189
77	0x3d77b0a2	0.060471185
78	0xbe651909	-0.22372831
79	0x3dccf324	0.10007313
80	0x3d9dd8d1	0.0770737
81	0x3cb2b935	0.02181683
82	0xbdc85654	-0.09782091
83	0xbd01d85d	-0.03170048
84	0x3d900a3b	0.07033201
85	0x3dd971bc	0.10617396
86	0xbe876f7e	-0.2645225
87	0xbd04a902	-0.03238774
88	0x3dd66403	0.104682945
89	0x3db03f75	0.086058535
90	0xbd1f12ca	-0.038836278
91	0x3ca547d3	0.02017585
92	0x3d5e5a29	0.054285202
93	0xbcbca2bf	-0.023026822
94	0x3d2c8aaf	0.042124446
95	0xbccfa4dc	-0.025347166
96	0x3c87060b	0.016482374
97	0xbd482bce	-0.0488699
98	0x3d4eb4b4	0.0504653
99	0x3ddf5ac2	0.109059826
100	0xbc1c2493	-0.009530204
101	0xbd9cbb0f	-0.07652866
102	0x3bdcb9ce	0.006736017
103	0xbd82a24d	-0.06378613
104	0x3bf3e09e	0.007442548
105	0x3da3ce51	0.07998336
106	0xbc2897fb	-0.010290141
107	0xbdd34fea	-0.10317977
108	0x3cf1cf17	0.029517693
109	0x3d9035a6	0.070414826
110	0xbe0e93d4	-0.1392358
111	0xbc849114	-0.01618246
112	0xbda4a43d	-0.080391385
113	0x3c8adc19	0.016950654
114	0x3c37fa66	0.011229133
115	0x3d1cca02	0.038278587
116	0x3cb2e0e5	0.021835754
117	0x3cb92a51	0.022603186
118	0xbc98198a	-0.018566865
119	0xbcd8c350	-0.02646032
120	0xbacca80e	-0.0015614049
121	0xbcf7ab5e	-0.030233081
122	0xbdf78ccb	-0.12087401
123	0x3d308306	0.043093704
124	0x3b00adf5	0.0019634936
125	0x3dbfebd9	0.09371156
126	0xbde6199e	-0.11235355
127	0xbdb738a8	-0.08946353
128	0x3bb06ea5	0.0053842836
129	0xbd9b3cd0	-0.075799584
130	0xbd6b7d52	-0.05749256
131	0x3d883c58	0.06652135
132	0xbcec9b7a	-0.02888273
133	0xbdb1b7eb	-0.08677658
134	0x3c3808ba	0.011232549
135	0xbd9146c2	-0.07093574
136	0xbd0b48ba	-0.034004904
137	0xbd25d620	-0.04048741
138	0xbc1dee72	-0.009639369
139	0xbd55a03b	-0.05215476
140	0x3c498742	0.012300314
141	0xbbf804c1	-0.007568926
142	0xbd702c72	-0.058636136
143	0x3d89d3db	0.06729861
144	0xbd4ca2e3	-0.04996003
145	0xbd8e33d1	-0.06943477
146	0xbdac749d	-0.0842068
147	0xbccaa30c	-0.02473595
148	0x3d45fd49	0.048337255
149	0xbd345849	-0.044029508
150	0x3d439da3	0.047757756
151	0x3d0ea474	0.034824803
152	0x3d323f82	0.043517597
153	0x3d9b3147	0.07577758
154	0x3d581e57	0.05276331
155	0x3d54e668	0.051977545
156	0x3ceabdb6	0.028654914
157	0xbdab9cf1	-0.083795436
158	0x3cfa1514	0.030527629
159	0x3d8ba49c	0.06818506
160	0xbd31d621	-0.0434171
161	0xbcb82c7d	-0.022482151
162	0xbd36599a	-0.044519044
163	0xbcd95d2f	-0.026533691
164	0xbd133f2a	-0.03594891
165	0xbd5e17d7	-0.054221954
166	0xbd415766	-0.04720249
167	0x3c1a483b	0.009416635
168	0x3d377b6e	0.044795446
169	0x3da07b85	0.078360595
170	0x3cc43410	0.023950607
171	0x3bec5ae0	0.0072129816
172	0xbc8add08	-0.016951099
173	0xbd53d774	-0.051719144
174	0xbd8af48c	-0.06784925
175	0xbd1764bb	-0.0369613
176	0xbc97c1a1	-0.018524947
177	0x3ca29658	0.01984708
178	0xbd61b34c	-0.05510263
179	0xbd910555	-0.07081095
180	0xbd43ddc2	-0.047818907
181	0xbb8436c0	-0.004034847
182	0x3d022355	0.031771977
183	0x3ce6da58	0.028180286
184	0xbd5db437	-0.054126944
185	0x3cd1c92c	0.025608622
186	0xbd9a5366	-0.07535438
187	0xbcd26c53	-0.025686419
188	0xbdb69674	-0.089154154
189	0xbd67747f	-0.056507584
190	0x3db1ba21	0.086780794
191	0xbb9cfdc0	-0.0047909915
192	0xbdae4e9e	-0.08511089
193	0x3d12bdcd	0.03582554
194	0xbc65a82e	-0.014017148
195	0xbd1ae31e	-0.037814252
196	0xbd602da1	-0.054731015
197	0x3d7996db	0.060934883
198	0xbd7dec31	-0.061992828
199	0x3d7aa9f1	0.061197225
200	0xbd41b89e	-0.047295205
201	0x3bd93a00	0.0066292286
202	0x3cce91bd	0.025215978
203	0x3da89b69	0.08232767
204	0xbd729931	-0.059228126
205	0xbcf4ca0a	-0.029881496
206	0xbcb79234	-0.022408582
207	0xbd37b625	-0.04485144
208	0x3d1adabe	0.037806265
209	0xbd34272c	-0.04398267
210	0xbd4c32ec	-0.04985325
211	0x3d0fab76	0.035075627
212	0x3d9f0bf3	0.07765951
213	0x3d965da7	0.073420815
214	0x3d9c9e79	0.07647414
215	0x3d13643b	0.03598426
216	0xbd3be542	-0.045872934
217	0x3d587d72	0.05285401
218	0x3d610472	0.05493588
219	0xbd242f21	-0.040084008
220	0xbd6771fb	-0.056505185
221	0x3cba50b9	0.02274357
222	0xbcbd6aa8	-0.023122147
223	0xbd7c2f6c	-0.061568663
224	0x3d8dea0d	0.06929407
225	0x3d607ac6	0.054804586
226	0xbd3fa08b	-0.046783965
227	0xbce9cfeb	-0.028541526
228	0xbd893910	-0.06700337
229	0x3d53b87a	0.051689602
230	0x3d6dd734	0.05806656
231	0x3d38c31e	0.045107953
232	0xbd9aafb0	-0.07553041
233	0x3cbc2571	0.022967072
234	0xbd8e2718	-0.0694105
235	0x3d119510	0.035542548
236	0x3d04e210	0.032442153
237	0xbaabe699	-0.0013114988
238	0x3ccc694e	0.024952557
239	0xbd4631cb	-0.04838733
240	0xbdb1d162	-0.08682515
241	0x3dab17e3	0.083541654
242	0xbd6b5bfc	-0.05746077
243	0x3d16c912	0.03681285
244	0xbd645dd1	-0.055753533
245	0xbd6ec6a6	-0.058294915
246	0x3d4b9530	0.049702823
247	0x3da06318	0.07831401
248	0xbd2b862a	-0.041875996
249	0xbdacf93f	-0.084459774
250	0xbd244a4d	-0.04010992
251	0x3d56dd96	0.052457415
252	0x3c8f8adc	0.017522268
253	0xbc38a315	-0.011269351
254	0xbd9622b9	-0.073308416
255	0xbcfdfd0a	-0.031004447

net.2.bias f4 [128]
0	0x3daae5ef	0.083446376
1	0xbd0e0732	-0.03467483
2	0x3d0a3572	0.033742376
3	0x3da36b55	0.07979456
4	0x3d31cfc7	0.043411043
5	0xbd473084	-0.048630252
6	0xbd0c5682	-0.034262188
7	0x3d5e2ab1	0.054239932
8	0x3d33a4d6	0.04385837
9	0x3d0bf5eb	0.034170073
10	0xbd045b7c	-0.03231381
11	0xbd16e2d7	-0.036837425
12	0x3d27eaee	0.04099553
13	0x3d710c9e	0.058849923
14	0x3d9a990e	0.07548724
15	0xb9e47da2	-0.00043581153
16	0xbc9890b5	-0.01862369
17	0x3d194f6d	0.037429262
18	0x3af0638b	0.0018340213
19	0xbd4295c0	-0.047506094
20	0xbcf2e8fa	-0.029652108
21	0xbc9e60fa	-0.019333351
22	0xbd10a87b	-0.035316925
23	0xbdbcf4df	-0.09226393
24	0x3d36f422	0.044666417
25	0xbd5eee8c	-0.054426715
26	0xbdaead5e	-0.08529161
27	0x3d4dc14a	0.050233163
28	0xbdb8cf40	-0.09023905
29	0x3d7e6855	0.062111218
30	0x3d008ad6	0.031382404
31	0xbcb9ecec	-0.022695981
32	0xbd6a4d26	-0.05720248
33	0xbc84d301	-0.016213896
34	0xbce0ecae	-0.027456608
35	0x3c2d9f9c	0.010597136
36	0xbc944514	-0.018099345
37	0xbdaf6232	-0.08563651
38	0xbb985880	-0.004649222
39	0xbd434e1b	-0.04768191
40	0x3d1308f6	0.035897218
41	0x3d232a05	0.039834995
42	0xbb54c25e	-0.0032464485
43	0x3d941c7a	0.07231994
44	0xbda853e4	-0.08219126
45	0xbd687d03	-0.056759845
46	0x3b7d5afa	0.0038658963
47	0x3d2fcfdf	0.04292285
48	0xbd877616	-0.0661432
49	0xbd849360	-0.06473422
50	0xbc993ee9	-0.018706756
51	0x3d9bfd2d	0.07616649
52	0x3ced854a	0.028994221
53	0x3d09e34f	0.033664044
54	0x3c3aee66	0.011409378
55	0xbd1a86ff	-0.0377264
56	0x3d8bc333	0.06824341
57	0x3c815dbe	0.01579177
58	0xbd3b876d	-0.04578345
59	0xbd2bd8a0	-0.041954637
60	0xbc0d9aee	-0.008642895
61	0xbd7097ee	-0.05873864
62	0x3d749184	0.059709087
63	0x3d43ecbd	0.047833193
64	0x3d25909e	0.04042112
65	0xbd7f07e4	-0.062263384
66	0xbbb7dadb	-0.0056108064
67	0x3b0a9ab3	0.0021149337
68	0xbd685453	-0.056721043
69	0x3b7ed889	0.003888639
70	0x3d85ef83	0.06539824
71	0xbbbea0aa	-0.0058174925
72	0x3d5b1216	0.053484045
73	0xbce3c1fe	-0.027802464
74	0x3db22b27	0.08699637
75	0x3d9ba502	0.07599832
76	0xbd9ba99e	-0.07600711
77	0xbd674174	-0.056458905
78	0x3d1f4671	0.038885538
79	0xbd45cc12	-0.04829032
80	0x3d67e20b	0.056612056
81	0x3d56d60d	0.05245023
82	0x3abcedef	0.0014414171
83	0x3d157a58	0.03649363
84	0x3da189a5	0.07887582
85	0x3d0fac38	0.03507635
86	0x3cc9f16e	0.024651255
87	0xbd8ee5b7	-0.069774084
88	0xbb824fd3	-0.003976801
89	0x3d028a6d	0.031870294
90	0xbd262bf6	-0.04056927
91	0x3d44ef18	0.04807958
92	0x3d651818	0.05593118
93	0xbcc68d6f	-0.024237363
94	0xbd311b22	-0.043238766
95	0xbc92146b	-0.017832002
96	0x3da0b522	0.07847048
97	0xbd891a09	-0.06694419
98	0xbd268cdc	-0.040661678
99	0xbd0b63c1	-0.03403068
100	0x3b660a85	0.0035101485
101	0xbd298156	-0.04138311
102	0xbdb2ac06	-0.08724217
103	0xbc1aba88	-0.009443887
104	0x3c3e83e0	0.011628121
105	0x3d8017b5	0.06254522
106	0x3d3d4b5e	0.046214454
107	0xbd1fb6fd	-0.03899287
108	0x3c5ba6dc	0.013406482
109	0xbd4a687f	-0.04941606
110	0x3cbcc5bd	0.023043508
111	0xbd93bb1c	-0.07213423
112	0x3d0342ee	0.03204625
113	0xbcba147b	-0.022714844
114	0x3d52264a	0.051306047
115	0xbc531990	-0.012884513
116	0xbc04f3e7	-0.0081147915
117	0xbd8faed5	-0.070157684
118	0x3bb9295f	0.005650684
119	0xbd91c062	-0.07116772
120	0xbdb4e166	-0.08832054
121	0x3c4d0384	0.012513045
122	0xbd652bfd	-0.055950154
123	0x3c0510e8	0.008121707
124	0x3d60b612	0.054861136
125	0x3caebfc4	0.021331675
126	0xbd919a50	-0.07109511
127	0xbd840e08	-0.06447989

net.4.weight f4 [3, 128]
0	0xbd2517f5	-0.04030605
1	0xbd9fab8c	-0.07796392
2	0xbd838f68	-0.06423837
3	0x3b8f2d0a	0.0043693827
4	0x3c59252e	0.013253493
5	0x3d29dae7	0.041468527
6	0xbd97aa95	-0.07405583
7	0xbc9cb201	-0.019127848
8	0x3c111dc0	0.008857191
9	0xbd8cb236	-0.068699285
10	0x3d0db666	0.034597777
11	0xbd5935de	-0.053029887
12	0x3a8fb2fe	0.0010963378
13	0xbd2fdcc5	-0.04293515
14	0xbd8b7779	-0.06809897
15	0x3cca8175	0.024719933
16	0xbd64e83a	-0.05588553
17	0x3d60c4df	0.05487525
18	0xbcd260ac	-0.025680862
19	0x3dbd9422	0.0925677
20	0x3d95562d	0.07291827
21	0xbd1c1825	-0.038108964
22	0xbd74a808	-0.05973056
23	0xbda8f0bf	-0.08249044
24	0xbdace89a	-0.08442803
25	0xbd47657d	-0.04868077
26	0x3da1bb56	0.078970596
27	0xbd283bf4	-0.0410728
28	0x3bcf16d0	0.006319858
29	0x3e024eb9	0.12725343
30	0xbdbeb7c0	-0.09312391
31	0xbd83f905	-0.06443981
32	0x3d8935dd	0.06699727
33	0x3c43faf8	0.011961691
34	0x3d16403a	0.036682345
35	0x3c43ba53	0.011946279
36	0x3d5838a6	0.0527884
37	0xbd9cbce1	-0.07653213
38	0xbd7e8345	-0.062136907
39	0xbd555d8c	-0.052091166
40	0xbd190a34	-0.037363246
41	0x3d9003df	0.07031988
42	0x3dc440e7	0.09582692
43	0x3cdab803	0.026699072
44	0xbd7da160	-0.061921477
45	0xbda13e97	-0.07873266
46	0xbdb4c706	-0.08827023
47	0x3a8946e2	0.0010473395
48	0x3da73f75	0.081664
49	0x3b19d040	0.0023470074
50	0xbcee8db9	-0.029120313
51	0xbbb54d3e	-0.0055328896
52	0x3d3d897f	0.046273705
53	0x3c9db24e	0.019250061
54	0xbd3a961b	-0.045553308
55	0xb9804024	-0.0002446185
56	0xba539277	-0.0008070836
57	0x3d244274	0.040102437
58	0xbdf3cbfe	-0.11904143
59	0x3d4a6cde	0.04942023
60	0xbd061a35	-0.032739837
61	0x3bf94080	0.007606566
62	0x3c8f432d	0.017488087
63	0xbd568b56	-0.052378975
64	0x3d0e0a26	0.034677647
65	0x3db0fb34	0.08641663
66	0x3d9eec6d	0.077599384
67	0xbdb0a5c1	-0.08625365
68	0xbba33201	-0.004980326
69	0x3d14d4f0	0.036335886
70	0xbc805561	-0.015665712
71	0xbd8e57b7	-0.06950324
72	0xbcc21205	-0.023690233
73	0xbcd158f6	-0.025555115
74	0x3cc78308	0.024354473
75	0x3d7c8794	0.061652735
76	0x3d001bd2	0.03127653
77	0x3ca6bb09	0.020352857
78	0xbd42b606	-0.047536872
79	0xbd879937	-0.0662102
80	0x3d515a5e	0.05111157
81	0xbd28612a	-0.041108288
82	0x3ca2974c	0.019847535
83	0xbd238212	-0.039918967
84	0xbd82d247	-0.063877635
85	0x3ddaa643	0.10676243
86	0x3d382376	0.044955693
87	0xbd408108	-0.046998054
88	0xbce83c1c	-0.028348975
89	0x3dc7f069	0.097626515
90	0xbd895e3f	-0.06707429
91	0xbd2bbcbf	-0.04192805
92	0x3d51bc18	0.05120477
93	0xbc13b9da	-0.009016478
94	0xbde88d82	-0.113551155
95	0x3db14072	0.0865487
96	0xbd3e733e	-0.046496622
97	0xbc0396a0	-0.008031517
98	0x3ce23b8c	0.027616285
99	0xbd634ec9	-0.055495057
100	0xbdeb6d80	-0.11495495
101	0xbae68f0c	-0.0017590239
102	0x3d903cff	0.07042884
103	0x3cd1c19e	0.02560502
104	0x3db7cfe1	0.08975197
105	0xbbfa3cc0	-0.0076366365
106	0x3d88d98b	0.06682118
107	0xbd3e3519	-0.046437357
108	0xbcc3f412	-0.023920093
109	0xbccfa2a2	-0.025346104
110	0xbd0c06a9	-0.03418604
111	0xbcc114bb	-0.023569455
112	0x3cf04b14	0.029332675
113	0x3da352df	0.07974791
114	0x3d8d05ad	0.06885848
115	0xbcc13820	-0.023586333
116	0xbd3ff137	-0.0468609
117	0x3d1c6d81	0.03819037
118	0x3d05127d	0.032488335
119	0xbd58372f	-0.052787002
120	0x3d924421	0.07141901
121	0xbd1534a1	-0.036427144
122	0x3d28eb03	0.04123975
123	0xbd4f4696	-0.050604425
124	0x3d8e2c29	0.06942017
125	0x3d06da49	0.032923017
126	0xbda4c490	-0.08045304
127	0xbb32c400	-0.002727747
128	0xbda44f3b	-0.080229245
129	0x3cbe70b0	0.023247093
130	0xbde21e38	-0.1104092
131	0x3ba7c423	0.005119817
132	0xbb8b69c3	-0.004254551
133	0xbc184a83	-0.009295109
134	0x3d2302f7	0.03979775
135	0x3d6f59d1	0.058435265
136	0x3c8e7838	0.01739131
137	0x3b6b0b85	0.003586502
138	0x3a7b1900	0.00095786154
139	0x3ca84d21	0.02054459
140	0x3cb73f16	0.022368949
141	0xbd6c4a28	-0.05768791
142	0xbdad5621	-0.084636934
143	0xbd9e73a9	-0.07736904
144	0xbbb595db	-0.005541546
145	0x3ddad061	0.10684276
146	0x3d5ad133	0.053422164
147	0x3dac2e06	0.08407216
148	0xbd90a09e	-0.07061885
149	0x3d6840f6	0.056702577
150	0xbbb7e8b0	-0.0056124553
151	0xbd852805	-0.06501774
152	0xbd828caf	-0.063744895
153	0xbd6a30c5	-0.057175416
154	0x3b1b13a2	0.0023662825
155	0x399d07bc	0.00029951136
156	0x3da7cdd2	0.08193554
157	0x3b98b688	0.0046604313
158	0xbd8077b6	-0.06272833
159	0x3c9ff690	0.01952675
160	0x3d2f3a06	0.042779945
161	0xbd946b5d	-0.072470404
162	0x3d0ba52a	0.03409306
163	0xbcbdc1f5	-0.023163775
164	0xbc1ef7b0	-0.009702608
165	0x3d523c5e	0.051327102
166	0xb98e2900	-0.00027114898
167	0x3c22f2c0	0.009945571
168	0xbd7847ba	-0.06061528
169	0x3ddc3310	0.10751927
170	0x3db76ba0	0.08956075
171	0xbd61a0e2	-0.05508507
172	0xbd09ba75	-0.033625085
173	0x3ce5bbb0	0.028043598
174	0xbd788deb	-0.06068222
175	0x3d812e14	0.06307617
176	0x3cac9934	0.021069147
177	0xbd361923	-0.044457566
178	0xbcae9d10	-0.021315128
179	0x3d1ddad8	0.038538784
180	0xbc22caa4	-0.009936009
181	0x3c816475	0.015794972
182	0xbd5e9eef	-0.05435079
183	0xbc421e8a	-0.011848101
184	0xbd7e171e	-0.062033765
185	0x3d072792	0.03299672
186	0xbdd9d9c3	-0.10637238
187	0xbd67d346	-0.05659797
188	0xbca58f22	-0.020209853
189	0xbd0c4dff	-0.03425407
190	0xbd627e3c	-0.055296168
191	0x3d2a7717	0.04161748
192	0xbd0394ff	-0.032124516
193	0xbd996c21	-0.07491327
194	0xbd724c23	-0.05915464
195	0x3d2742b5	0.0408351
196	0xbcd3c108	-0.02584888
197	0xbd1cb376	-0.038257085
198	0x3d277f9e	0.04089319
199	0xbdcb4a84	-0.09926322
200	0x3d31cadc	0.043406352
201	0xbdae5d26	-0.085138604
202	0xbd3d002e	-0.04614275
203	0x3c3028ed	0.010751945
204	0x3d976b17	0.07393473
205	0xbb83ac5a	-0.0040183486
206	0x3c224fd2	0.009906726
207	0x3d42ad3e	0.047528498
208	0x3d46d471	0.048542444
209	0xbdba5741	-0.090986736
210	0xbd1c30bd	-0.038132418
211	0x3d2988e9	0.041390333
212	0x3c5f3798	0.013624094
213	0x3d61ed1c	0.055157766
214	0x3cdfa8f5	0.027302245
215	0xb9017e7a	-0.00012349515
216	0x3c115cbc	0.008872207
217	0x3d73a20e	0.05948072
218	0xbd6b35c7	-0.057424333
219	0xbd445858	-0.047935814
220	0x3dbb5a84	0.09148124
221	0xbd0a60b3	-0.033783626
222	0xbdb98ba7	-0.0905984
223	0x3cd52c57	0.02602212
224	0xbcfd3d25	-0.030912945
225	0x3d62c0c8	0.05535963
226	0x3d979d47	0.07403045
227	0xbdc89373	-0.09793749
228	0xbd88767c	-0.06663224
229	0xbc15cd5e	-0.009143202
230	0xbc5d8290	-0.013519898
231	0xbc8b401d	-0.016998345
232	0x3d55c3ca	0.052188672
233	0x3d20897e	0.039193623
234	0x3ce6273c	0.02809488
235	0x3d06d114	0.032914236
236	0xbd69530f	-0.056963976
237	0x3cac6f10	0.021049052
238	0xbd250ea3	-0.04029716
239	0xbd9e4b3c	-0.077291936
240	0x3d54f0ea	0.051987566
241	0x3da249cf	0.07924234
242	0x3d5763d2	0.05258543
243	0xbc4daa58	-0.01255282
244	0x3d745d25	0.059659142
245	0xbd75369d	-0.059866536
246	0xbda29eaa	-0.07940419
247	0xbd96a3a5	-0.073554315
248	0x3b886510	0.004162438
249	0xbd50afdb	-0.05094896
250	0x3d1b36a4	0.037893906
251	0xbdaea5b6	-0.085277006
252	0x3d141403	0.036151897
253	0x3d95d4d6	0.07315986
254	0xbd921bed	-0.07134233
255	0xbdad8eaf	-0.0847448

net.4.bias f4 [3]
0	0xbcb21e68	-0.021743014
1	0xbd90c75c	-0.07069275
2	0x3d4c6c13	0.049907755
