saved_models/dqn_episode_1.pth (torch, 74333 bytes, 6 tensors)

net.0.weight f4 [128, 6]
00000000: 7fad cebe b42b c7be c73b 67be 5429 d1be
00000010: 8181 9d3d f835 743e a938 75be c3fb 8bbe
00000020: 93a1 c73e 1251 163e 6f2a cf3e c10b 063e
00000030: 0ec4 e73e bf8f 423e 6ab0 f53d 48c9 80be
00000040: a370 12bc 3e3e 30be 2e5e 953e 397e 793e
00000050: e716 863e 7860 df3d f0d8 4d3d 43d1 803b
00000060: e7a6 2c3b 9278 96be 8861 d6be 8bcd d63c
00000070: aeb5 afbe 4f69 ddbd e0c3 e73e da7c a9be
00000080: 7ead 053b 5be4 c6bd e56b 7ebc 2f62 79bd
00000090: 8585 7a3e 4aa8 d13e 20ca 8e3d 33be 46be
000000a0: 88ed b5bc 62f3 453e 2b9d b83e 0e95 8abe
000000b0: 99bd d9bd eb1c b9be 80c6 173d 1b4a 5b3d
000000c0: f880 b6be c0e5 c73e d0dd ac3d 8ec0 013e
000000d0: 1640 b23e d641 c33e ffd9 4e3e 8daa 82be
000000e0: 6b43 673e cd4d c23e 275c 3fbe d08d 9b3e
000000f0: 889f 44be 463e b93e bd18 8abe 7d4d be3c
00000100: c10d 603e 0187 b13e 88e5 89be 0164 8d3e
00000110: a3c5 c4be 1302 51be 6d5c 343e d3c6 6cbe
00000120: 5bae d0be 63a1 60be f37c 5ebe 138e ef3d
00000130: 85dc b8bd 5173 b63e bebc 16be 14e0 a53c
00000140: 22cd e7bd cad4 483e 62e0 10be d89c 89be
00000150: 4338 abbe dad2 bfbd 92ea ba3e 0cf9 d3be
00000160: f215 c63e bf12 113e 3dea 5dbe b8b5 51bd
00000170: b438 83be 101b 66bd b2b4 8ebe 69e6 9cbe
00000180: 0389 663e 06af 37be 72de a8bb 00dc f63d
00000190: 72b5 b2be efd7 663e 5649 65be 8dd0 193e
000001a0: 127b c93e 553c 9dbd 2397 103c a694 a43e
000001b0: 2ec7 b63e fd26 a03c 7b95 eb3d 1857 d23d
000001c0: 2ef0 1c3e c8d6 cfbd 348a acbe 4467 bdbd
000001d0: 20d4 553e 3040 fc3c e8a5 ccbe 8c02 afbe
000001e0: 9d8e c2be 1ba3 943c 7dea 07be 7c11 b8bd
000001f0: aae9 be3e f73d 39bd 188d c3be 342b 9abe
00000200: 437a 3bbe 309d c63c 30a7 933e dcbd 9e3e
00000210: e2e2 f6bd e255 58be 92b5 3f3e 85d5 a93e
00000220: 0653 923e 7d6b 8f3d 78e0 98bd 14e6 7b3e
00000230: c094 41bd 47dc c4be 3462 113e 2aac cabe
00000240: 17eb b53c e2e6 e0bd 3174 09be cce2 b4be
00000250: f205 b2be ca53 a9be d925 c53e 6ee7 a73d
00000260: 18bb d73e aaba 2dbe d1ac 323e f9e6 383e
00000270: c8b8 af3e 4900 b2be 9ae0 c43e 6383 57be
00000280: e347 503e 1fe5 0b3e 9598 2dbe 2f05 64be
00000290: 86d2 883e 0411 883e a84b 8cbd 774e 1f3e
000002a0: 2f1b 783e f796 79bd d2f2 46be 0e02 d33d
000002b0: 3deb 1c3e d9fa 86bc 0cfb 883e 10f5 9dbe
000002c0: 2861 4ebd 104f 0abd 4018 29bd 2aa4 b9be
000002d0: 9092 cb3e 95af bdbe 417e 833e 2766 43be
000002e0: bcd0 8bbe 1337 e53a f738 aebd bfb6 bd3e
000002f0: 3954 a6be d0ef f3bd da85 afbd ca89 ae3d
00000300: d8af 883d 5103 12be 9a60 0cbe be03 2dbe
00000310: 59e9 94be b7f2 f93d af9f 7dbe 9278 c63c
00000320: c11b abbe ed68 493e d2b8 773e 066d 20be
00000330: fe5f 6d3e 7025 543e b07e 24be 03b7 943e
00000340: 3b00 be3e fb70 a43e d7f9 33bd 50ea b3bd
00000350: f86d 853e 46d5 01be 2e92 80be 23fc ae3c
00000360: f14c 9f3d fdb8 2abe 6c25 6cbe a4de 123e
00000370: bc58 9cbe 7419 b9bb a399 d33e 181a 74be
00000380: fa7c be3e 4913 8ebe 6f22 cf3e cd0d 61be
00000390: 6ad9 b5be 1bc7 913e e98c c7be c31a 0e3e
000003a0: ebe4 3abe 8cbf cc3c 9571 5b3d 6638 683d
000003b0: 4ccb c3be 4bb6 29be cc59 a4be c400 5f3e
000003c0: ce16 973e d06a 4c3e a42e 103e 2aac af3e
000003d0: 48cb a3bd 7a45 97be b07a dd3d d920 093e
000003e0: 58a5 19bd 59cc 373d 0983 9cbe acb8 713e
000003f0: a032 58bd df2e 65be c3b2 68be 00a0 b7bd
-0.40366742 -0.3890053 -0.22581397 -0.40851843 0.076907165 0.23848712 -0.23947395 -0.27340516
0.3899046 0.14679363 0.40462062 0.13090421 0.45266765 0.19000147 0.11996539 -0.25153565
-0.0089379875 -0.17211244 0.29173416 0.24364556 0.26189348 0.10907072 0.050255716 0.003931196
0.0026344599 -0.29388863 -0.41871285 0.026221057 -0.34318298 -0.10811102 0.45266628 -0.33103067
0.00203976 -0.09711524 -0.015528654 -0.06088465 0.24464996 0.40948707 0.06972146 -0.19408493
-0.02220799 0.19331124 0.3605741 -0.27066845 -0.10631866 -0.36154875 0.03705454 0.05353747
-0.3564527 0.39042473 0.08440745 0.1267111 0.3481452 0.38136166 0.20200346 -0.25520745
0.22584312 0.37949982 -0.18687497 0.30381632 -0.19201481 0.36180323 -0.26972 0.023230309
0.21880247 0.34673312 -0.2693293 0.2761536 -0.38432035 -0.20410948 0.17613383 -0.2312272
-0.40758023 -0.21936564 -0.21727352 0.116970204 -0.09026436 0.35634854 -0.14720437 0.02024845
-0.11318423 0.19612423 -0.14148095 -0.26877475 -0.33441362 -0.093663886 0.36507088 -0.41400945
0.38688618 0.14167307 -0.21671386 -0.05119869 -0.256292 -0.056178153 -0.27872235 -0.3064454
0.22513203 -0.1793786 -0.0051534707 0.120536804 -0.34904057 0.2254331 -0.22391257 0.15020962
0.39351708 -0.07677523 0.008825096 0.3214466 0.35698837 0.019549841 0.115031205 0.10270518
0.15325996 -0.10148388 -0.3369919 -0.09248212 0.208817 0.030792326 -0.39970326 -0.3418163
-0.3799943 0.018144181 -0.13273044 -0.0898771 0.37287647 -0.04522511 -0.38193583 -0.30111086
-0.18308358 0.024244875 0.2883849 0.31004226 -0.12054993 -0.21126512 0.18721607 0.33170715
0.28578967 0.07002924 -0.07464689 0.24599487 -0.047261 -0.38449308 0.14197618 -0.39584476
0.022206826 -0.109815374 -0.1342323 -0.35329282 -0.3477016 -0.33071738 0.38505438 0.081984386
0.4213493 -0.16965738 0.17448737 0.18056859 0.34320664 -0.34765843 0.38452607 -0.21046214
0.20339923 0.13661622 -0.16952737 -0.22267602 0.26723117 0.26575482 -0.06850368 0.15557276
0.2422912 -0.060934987 -0.19428566 0.10303126 0.15324111 -0.016477035 0.26754034 -0.3085103
-0.050385624 -0.033766806 -0.041282892 -0.3625806 0.39760256 -0.3704802 0.25682262 -0.19081937
-0.2730769 0.0017487727 -0.08506959 0.37053487 -0.32486132 -0.11910975 -0.08570452 0.08522375
0.066741645 -0.14259078 -0.13708726 -0.16895959 -0.2908428 0.12204497 -0.24767946 0.024227414
-0.33419612 0.19668932 0.24191597 -0.15666589 0.2318115 0.20717406 -0.16063952 0.29045877
0.3710955 0.32117447 -0.043939438 -0.08784926 0.26060462 -0.12679014 -0.25111526 0.021360463
0.07778347 -0.1667213 -0.2306115 0.14342743 -0.3053645 -0.005648786 0.41328153 -0.23838079
0.37204725 -0.27749088 0.40455958 -0.21977921 -0.35517436 0.28472218 -0.38974693 0.13877396
-0.18251388 0.02499368 0.053575117 0.05669441 -0.3824104 -0.16573445 -0.3209976 0.21777636
0.29509586 0.1996262 0.14080292 0.34311038 -0.07997757 -0.29545194 0.108144164 0.13391437
-0.0375112 0.044872615 -0.30568722 0.23605603 -0.052782655 -0.22381161 -0.22724442 -0.089660645

net.0.bias f4 [128]
00000000: 728d a23e 4963 a9bd 63a2 bbbb 1066 9f3e
00000010: 6638 943d b117 94bb db9f a73e 8613 623e
00000020: a911 733d f401 853d 8794 afbe 5bce a4bc
00000030: 5c82 8d3e c366 773e cbf5 a2bd 3e6a b3be
00000040: d2ff 423e ba31 60bd 5f12 0b3e e432 82be
00000050: d6ea 353d dc09 73be 15d3 293e 07e1 99be
00000060: 7053 c03e bfec 283e d2fd bf3e bc27 163e
00000070: 38a4 bf3d aeb2 26be 68c4 923e 6e28 60be
00000080: 8dbe d2bd 9014 cc3d 73b0 bdbe 682b 013e
00000090: 810d 21be 6f46 88bd 258f 823d 79dd 253c
000000a0: 4af0 b6be c00b 763e 9895 02be a808 f33d
000000b0: d0bc 683e cf12 6d3d 63ae 483e 109d bfbe
000000c0: 43f4 283d 1aa4 9ebe e9cf a8be c114 7e3d
000000d0: 8e87 82bd fddf 76be ae09 c13e 8c44 93be
000000e0: 4666 0bbc 6966 a43e 1bf3 663e cb1f 0bbe
000000f0: 88b8 c03d 8201 51bd 60ae 80be a035 283e
00000100: 3884 58bd 8fa9 9f3d c079 a03e 93e2 12be
00000110: e9e2 c03e 9557 a43d 8e61 9d3d 50eb b6bd
00000120: 6fb3 f3bc d4b6 fcbd 680d a93e 435c 83bd
00000130: ae67 4bbe b80a a43e 062a 61be 4444 8ebe
00000140: 704b a6bd 2d2c a13c f754 81be e42f fbbd
00000150: 9a62 dfbc 9447 e4bc a954 233d 3f75 7f3d
00000160: 5cc2 13bd b02a 91bd 9cb7 1fbe a8b9 3f3d
00000170: de71 11bd 777e 92bd 9337 833e c0ef fc3d
00000180: da54 87be 6659 c0be a610 0dbe fcc2 50be
00000190: f382 953e d6f0 c53d c358 943e f4c4 00be
000001a0: 5685 a63e 2c8b bf3d aedd 863e ea16 3e3d
000001b0: f5a1 a43e f06b bd3e 1eca 0f3e b475 1bbe
000001c0: bf90 c93d 32c6 673e 9474 c03c 3a8e c73e
000001d0: f787 a4bd 2038 ab3e 044c 883e 18ce e4bd
000001e0: 920f 173e 1ccb a83e 9745 983e d8eb 89bd
000001f0: 2794 adbe 4545 91bd 6d7f 3a3e 775a c93e
0.3174854 -0.0827089 -0.005726145 0.31132555 0.0723732 -0.004519426 0.32739148 0.2207776
0.059343014 0.06494513 -0.34293005 -0.02011793 0.2763852 0.24160294 -0.079570375 -0.35041994
0.190429 -0.054734923 0.13581227 -0.2542945 0.04441341 -0.2373423 0.16584428 -0.30054495
0.37563658 0.16496561 0.37498337 0.14663595 0.09357494 -0.16279098 0.2866547 -0.21890423
-0.10290251 0.099648595 -0.37048683 0.12614214 -0.15727808 -0.06654059 0.06374959 0.010123604
-0.357302 0.2402792 -0.12752378 0.118668854 0.22728276 0.057879265 0.19597773 -0.37424517
0.04124857 -0.30984575 -0.32971123 0.06203151 -0.06373511 -0.24108882 0.37702698 -0.28763235
-0.008508271 0.32109383 0.22553675 -0.13586347 0.094101965 -0.05102683 -0.25133038 0.16426706
-0.05286047 0.077960126 0.31342888 -0.14344244 0.3767312 0.080245174 0.07684623 -0.08931601
-0.029748647 -0.12339559 0.3301804 -0.06414082 -0.1986377 0.32039428 -0.21988687 -0.27786458
-0.08119857 0.019674385 -0.25260136 -0.12264994 -0.027268697 -0.027866162 0.03987566 0.062367674
-0.036074027 -0.0708822 -0.15597385 0.046807915 -0.035508983 -0.071530275 0.25628337 0.12350416
-0.26431924 -0.37568206 -0.13775882 -0.2038688 0.2920147 0.096650764 0.2897397 -0.12575132
0.32523602 0.09352717 0.26341003 0.04640857 0.32154813 0.36996412 0.14041945 -0.15181619
0.09842061 0.226342 0.023493089 0.38975698 -0.08033746 0.33441257 0.26620495 -0.11172122
0.14752033 0.3296746 0.29740593 -0.06734437 -0.33902094 -0.0709329 0.18212672 0.39326832

net.2.weight f4 [128, 128]
00000000: 3058 7d3d d089 bfbc d2f4 3dbb 53cd 953d
00000010: e9a3 4abd 65e9 923d 2ea1 253d 59cb 91bd
00000020: bda0 1a3d 0bee cfbd d017 af3d 2193 063c
00000030: 843b c53c 8748 a6bd 4915 b8bd f4c3 2fbd
00000040: 18ae ceb8 4ba5 0dbc ff31 87bc dcec a3bc
00000050: abdd a83b 3dc6 8bbd 042c a23d 11e0 9a3d
00000060: 90d2 babb 1049 fbbc abd7 3cbd 4668 5cbd
00000070: 56d4 86bd b2b2 92bd 918c eb3c 312c 5dbd
00000080: b3b7 dc3d 233b 113c ab8d 6cbd 2ae8 aabd
00000090: 9275 2cbd 2d5d 82bd 33ba 513c aaba 89ba
000000a0: 6860 5dbc 3c27 383d b543 ab3d 4753 8a3d
000000b0: bbd7 61bd fa1d 223d 3f52 473b b348 1cbd
000000c0: 0a1b c63d 4003 04bd a10d b03d b4d5 d1ba
000000d0: d46d b9bd 4c61 c5bc de45 b6bc b162 5b3d
000000e0: 509a 613d 1209 93bd cce5 2fba b871 febd
000000f0: bc4d 8d3d 9abb 68bd f215 f3bd dd2d a63d
00000100: b267 173d 69d6 95bb de64 9a3d 7ec6 31bd
00000110: 773f 7d3d d6cb 5f3c 4e66 85bd 8697 283d
00000120: a3e6 88bd b699 abbd b458 493d 4b40 753c
00000130: 4324 743d 3048 813d 3b3d 3abe ab87 a13d
00000140: d1d8 9d3d 1f34 cd3b 3e2a d1bd bd96 dbbc
00000150: e5e9 833d ee01 2b3d 1851 32be eca5 19bd
00000160: 4aec ca3d bf3d a33d 74b5 8cbd 1742 9b3c
00000170: e43f 593d a55d 16bd 09d5 3d3d dca4 cfbc
00000180: d0e1 823c ce2b 48bd 1317 2b3d 464a d23d
00000190: 3242 50bc 7017 8ebd 55a7 b23a 4da2 82bd
000001a0: c737 fe3b 5c57 af3d 93da 6cbc 2765 8abd
000001b0: 8d35 d83c 757a 833d e797 0fbe 1491 84bc
000001c0: a82e 96bd 586a 58bc 630c 973b 5fe7 083d
000001d0: 9e69 efb9 7546 cf3a 73fb c3bc 1140 fdbc
000001e0: 26b5 c3bb fd87 80bc e391 ecbd 0683 303d
000001f0: 6362 823c 0ec8 b93d 8d2e cbbd 0317 bebd
00000200: a56e b03b c39b 9abd 527d 6bbd e289 8d3d
00000210: 7a9b ecbc ebb7 b1bd 4614 643c c246 91bd
00000220: cf34 00bd a0c8 1dbd f0c0 f6bb 3ba0 55bd
00000230: dc30 6e3c 50b6 e0bb 941b 70bd dbd3 893d
00000240: a23f 45bd 843c 89bd a083 a9bd 0ca3 cabc
00000250: 49fd 453d 4958 34bd 195a 4b3d 74a4 0e3d
00000260: 823f 323d b500 a03d a1b3 5e3d 9936 5c3d
00000270: b6bd ea3c f19c abbd 1415 fa3c 5b36 8e3d
00000280: 21d6 31bd 7d2c b8bc 4134 2fbd 45ed ccbc
00000290: 2a3f 13bd d717 5ebd 6980 38bd 4075 263c
000002a0: 6e7b 373d 7ea6 a53d 1034 c43c e05a ec3b
000002b0: 5c46 74bc c0d4 4bbd fcb4 87bd bb64 17bd
000002c0: f1ab 87bc 5896 a23c 4cb3 61bd 5505 91bd
000002d0: 71bf 3bbd c036 84bb 5523 023d 58da e63c
000002e0: 968d 56bd 70fa dd3c e230 99bd 6438 c2bc
000002f0: 2824 b4bd 7f74 67bd 21ba b13d c0fd 9cbb
00000300: 9e4e aebd becd 173d f48d 3cbc 1ee3 1abd
00000310: d165 55bd bbef 803d e50f 74bd f691 813d
00000320: 2a75 3dbd 003a d93b 140d e33c 699b a83d
00000330: 68c8 6abd 1e0f e2bc 3492 b7bc ac3b 35bd
00000340: beda 1a3d 2c27 34bd ec32 4cbd 76ab 0f3d
00000350: 3e8f a33d a75d 963d 5f5e 9f3d c06e 1c3d
00000360: 42e5 3bbd dcff 613d 7204 613d fd57 1ebd
00000370: fb71 67bd 143a c53c a86a bdbc 6c2f 7cbd
00000380: 0dea 8d3d c67a 603d b069 38bd 8e04 e3bc
00000390: 8cfa 84bd 7ab8 533d bd31 783d 1ec3 383d
000003a0: 7f13 96bd a8b2 ce3c 2d06 89bd 1095 113d
000003b0: 5db4 0f3d fcea 9d3a 4e69 cc3c cb31 46bd
000003c0: 2a83 afbd 23a1 af3d fe66 62bd 75f5 1b3d
000003d0: 1159 5ebd a6c6 6ebd fa88 553d 43a9 a43d
000003e0: cc92 21bd 3ff9 acbd 0482 1dbd 96dd 563d
000003f0: dc8a 8f3c 5bfd 22bc b922 96bd 8018 f4bc
0.06185168 -0.023381144 -0.0028985036 0.07314553 -0.049472723 0.07173423 0.040436916 -0.071188636
0.03775095 -0.10152825 0.08549464 0.008213789 0.02407623 -0.08119302 -0.08988435 -0.042911485
-9.855273e-05 -0.008645366 -0.016503332 -0.020010404 0.005153378 -0.0682492 0.079185516 0.075622685
-0.0057013705 -0.030674487 -0.046104115 -0.05381038 -0.065834686 -0.0716299 0.02875355 -0.053997222
0.10777225 0.008864197 -0.057752293 -0.08345063 -0.04210431 -0.06365428 0.012800741 -0.0010507901
-0.013511755 0.04495929 0.083625235 0.06754165 -0.055137377 0.03957937 0.0030414013 -0.03815527
0.09673126 -0.032229662 0.085963495 -0.0016009123 -0.09054151 -0.024094246 -0.022250112 0.053560916
0.055078804 -0.071794644 -0.00067099626 -0.12424034 0.06899592 -0.056819536 -0.1186942 0.081142165
0.036964126 -0.004572679 0.0753877 -0.043402188 0.061828103 0.013659438 -0.06513654 0.04116013
-0.066846155 -0.083789274 0.04915686 0.014968942 0.059604894 0.06312597 -0.1818742 0.07887205
0.0770737 0.006262317 -0.10213135 -0.026805276 0.06441096 0.041749887 -0.17413747 -0.03751175
0.0990835 0.079707615 -0.06870547 0.018952413 0.053039446 -0.0367104 0.046345744 -0.025347166
0.015976816 -0.0488699 0.041770052 0.10268073 -0.012711095 -0.06938064 0.0013630191 -0.06378613
0.007758114 0.08561584 -0.014456409 -0.067575745 0.026392723 0.06419841 -0.1402279 -0.01618246
-0.07333118 -0.013208948 0.004609631 0.033423778 -0.00045664323 0.0015813845 -0.023923611 -0.030914338
-0.0059725223 -0.015689844 -0.11551263 0.043093704 0.015916055 0.090713605 -0.09920988 -0.09281733
0.0053842836 -0.075492404 -0.05749256 0.06911065 -0.02888273 -0.08677658 0.013920849 -0.07093574
-0.031300362 -0.03852141 -0.007530324 -0.05215476 0.014538016 -0.006857671 -0.05862005 0.06729861
-0.048156388 -0.067009956 -0.082770586 -0.02473595 0.048337255 -0.044029508 0.04964647 0.034824803
0.043517597 0.07812635 0.054370526 0.053763006 0.028654914 -0.083795436 0.030527629 0.06943961
-0.0434171 -0.022482151 -0.042774443 -0.025015483 -0.03594891 -0.054221954 -0.045044336 0.0101597905
0.044795446 0.080883965 0.023950607 0.0072129816 -0.014909353 -0.04976344 -0.06626317 -0.0369613
-0.01656148 0.01984708 -0.05510263 -0.07081095 -0.04583687 -0.004034847 0.031771977 0.028180286
-0.05238112 0.027096957 -0.07480027 -0.02370853 -0.08795959 -0.056507584 0.086780794 -0.0047909915
-0.08511089 0.037061445 -0.011508454 -0.037814252 -0.052099053 0.06295725 -0.05958547 0.06326668
-0.046254314 0.0066292286 0.027716197 0.08232767 -0.05732003 -0.027595099 -0.022408582 -0.04424636
0.037806265 -0.04398267 -0.04985325 0.035075627 0.07986306 0.073420815 0.07781672 0.038191557
-0.045872934 0.055175647 0.05493588 -0.03865813 -0.056505185 0.024075545 -0.023122147 -0.061568663
0.06929407 0.054804586 -0.045022666 -0.027712133 -0.064931005 0.051689602 0.06059431 0.045107953
-0.07327937 0.025231674 -0.06690631 0.035542548 0.035084117 0.001204818 0.024952557 -0.04838733
-0.085699394 0.08575656 -0.055274002 0.038075883 -0.05428416 -0.058294915 0.052132584 0.080400966
-0.039446637 -0.084459774 -0.03845407 0.052457415 0.017522268 -0.0099481 -0.073308416 -0.029796839

net.2.bias f4 [128]
00000000: 726d a33d a5d0 02bd f211 e23c 061f a43d
00000010: 0e89 2c3d d550 47bd 4175 05bd 144d 5b3d
00000020: d6a4 333d ebf5 0b3d 7c5b 04bd d7e2 16bd
00000030: 8b78 263d 9e0c 713d 38b5 8f3d ed1a 023b
00000040: d8bd 4ebc 148b 283d 7183 ad39 1c86 34bd
00000050: fae8 f2bc 7478 86bc 85af 1fbd 091e babd
00000060: 22f4 363d 67c5 4dbd dad2 afbd 4ac1 4d3d
00000070: 3e52 b2bd dabd 7f3d 0703 f83c ecec b9bc
00000080: 264d 6abd d539 a0bc aeec e0bc f0db 1b3c
00000090: 1445 94bc 3262 afbd 8058 98bb 1b4e 43bd
000000a0: 7ed8 063d 0d10 383d d785 2db9 7a1c 943d
000000b0: 56c8 a8bd 037d 68bd e448 b13a acfa 283d
000000c0: 1676 87bd 9425 7cbd a799 58bc cf9a a13d
000000d0: 5df9 f13c b256 193d caf7 6e3c ff86 1abd
000000e0: 38e8 923d 7157 b13c f42c 4bbd a0d8 2bbd
000000f0: 9bd4 2dbc ee97 70bd 5a62 903d 4a0f 483d
00000100: 9e90 253d e407 7fbd 927a 4abb 2d07 1438
00000110: b863 84bd 9cee 7e3b bc5a 8e3d ba63 1ebc
00000120: a1f3 6a3d c420 c4bc 272b b23d d8b1 9f3d
00000130: 9ea9 9bbd 2861 68bd 75db 143d 12cc 45bd
00000140: d64b 703d a717 493d efed bc3a 587a 153d
00000150: a589 a13d a9c8 093d cb1f f73c 0109 92bd
00000160: 283a febb c07c 113d cfe3 34bd a657 3a3d
00000170: 114f 673d 92b9 e0bc 7615 3dbd 0f96 7fbc
00000180: 177d a43d 95d7 7dbd 038f 08bd 8b06 06bd
00000190: 89cb 4b3b 3d54 27bd 06ac b2bd 3163 debb
000001a0: 1f61 803c b517 803d 5e4b 3d3d a279 23bd
000001b0: faab b53c 4e03 4fbd 2a22 8c3c e5b3 92bd
000001c0: ee42 033d f234 87bc 4a26 523d 9019 53bc
000001d0: 9801 0fbc fbe6 8cbd a45d 1c3c f006 82bd
000001e0: ae06 b4bd 1b08 323c 6ee1 5bbd e810 053c
000001f0: 31c2 6f3d 1b53 aa3c 24b7 8ebd 080e 84bd
0.079798594 -0.03193726 0.027596448 0.0801373 0.042122893 -0.04866107 -0.032582525 0.053540304
0.04385837 0.034170073 -0.03231381 -0.036837425 0.040642302 0.058849923 0.070169866 0.0019852475
-0.012618504 0.04114826 0.00033095063 -0.04407321 -0.029652108 -0.016414858 -0.038985748 -0.0908776
0.044666417 -0.050237086 -0.085851386 0.050233163 -0.08707093 0.062436916 0.030274881 -0.022695981
-0.05720248 -0.019558826 -0.027456608 0.009512886 -0.018099345 -0.08563651 -0.004649222 -0.04768191
0.032921307 0.044937182 -0.00016548425 0.07231994 -0.08241336 -0.056759845 0.0013525751 0.041254684
-0.0661432 -0.061559275 -0.013220227 0.078908555 0.029537851 0.037436195 0.014585445 -0.0377264
0.071731985 0.02164814 -0.049603418 -0.041954637 -0.010609771 -0.05873864 0.07050009 0.048842706
0.04042112 -0.062263384 -0.0030895812 3.5292633e-05 -0.06464332 0.0038899546 0.069509 -0.009667331
0.05736125 -0.023941405 0.08699637 0.07797593 -0.07600711 -0.05673328 0.036342103 -0.04829032
0.058666073 0.049094822 0.0014414171 0.03649363 0.07887582 0.03363863 0.030166527 -0.071306236
-0.0077583976 0.03551936 -0.044162568 0.045493744 0.056471888 -0.027432237 -0.046163045 -0.015599742
0.080316715 -0.061973173 -0.03333951 -0.032721084 0.0031096658 -0.04085182 -0.08724217 -0.006786727
0.015671311 0.06254522 0.046214454 -0.03991092 0.022176731 -0.05054026 0.017106134 -0.071632184
0.03204625 -0.016504738 0.051306047 -0.012884513 -0.008728407 -0.068799935 0.00954381 -0.063489795
-0.087903365 0.01086619 -0.053681783 0.008121707 0.058534805 0.02079158 -0.06968525 -0.06447989

net.4.weight f4 [3, 128]
00000000: 1e52 0fbd 8cab 9fbd 0f42 49bd 94e6 c53c
00000010: 0568 0c3d c6ba 0f3d 136a 9ebd c429 d6bc
00000020: c01d 113c 36b2 8cbd 66b6 0d3d de35 59bd
00000030: 9b53 89bc c5dc 2fbd 5432 d0bc e15c cc3c
00000040: cb73 a2bd 1dc0 313d faf7 99bc 5bba af3d
00000050: 2d56 953d 5a5c 3abd 4870 6fbd 5032 82bd
00000060: 9ae8 acbd f68b 18bd 7820 c43d f43b 28bd
00000070: d016 cf3b b836 093e 04f5 acbd 05f9 83bd
00000080: dd35 893d 7859 093d 3a40 163d 2985 da3c
00000090: a638 583d e1bc 9cbd 4583 7ebd 8c5d 55bd
000000a0: 9bdd 0ebd ee2a 5e3d 2a2f ac3d 03b8 da3c
000000b0: bd2b 4dbd 973e a1bd 9b26 9fbd 3d7d fabb
000000c0: 753f a73d 40d0 193b 7913 31bd fa4c f5bb
000000d0: aaef 9a3d c566 823c 1b96 3abd 2440 80b9
000000e0: ace5 9c3a 79e3 013d 6910 c0bd de6c 4a3d
000000f0: 75d9 a9bc 8040 f93b 9ace 003d 568b 56bd
00000100: 260a 0e3d 34fb b03d dfeb a23d 19ea adbd
00000110: 9c41 d83c f0d4 143d dfd1 d0bc 4c53 80bd
00000120: 9caf 16bd 5c07 06bc 0883 c73c 8535 9b3d
00000130: d21b 003d 3455 cf3c 0260 3cbd 3799 87bd
00000140: decd 6d3d 3926 14bd 4c97 a23c 1282 23bd
00000150: 47d2 82bd 33b4 973d 2ee8 573d d472 18bd
00000160: a198 bebc a1f4 ca3d c135 62bd 650d 19bd
00000170: 7c28 2a3d 2f8e f53b fe8a c8bd 5ddf 963d
00000180: 3e73 3ebd 06d0 a1bc 0e57 933c d664 0bbd
00000190: 74cb d5bd 0c8f e6ba ff3c 903d b124 f93c
000001a0: d32c 7d3d c03c fabb 8bd9 883d 3d81 35bd
000001b0: 0c05 aabc 8859 e9bc b504 b2bc 8adb a8bc
000001c0: 144b f03c 4828 673d ad05 8d3d 2038 c1bc
000001d0: 29fa 72bd 3dfb 2f3d 59ad 553d 0938 a93c
000001e0: 792e 923d 6dbe fbbc e281 563d 9646 4fbd
000001f0: 38fa 993d 757f 24b9 d2a2 abbd 00c4 32bb
00000200: be81 a1bd 6fd4 cf3c 70d5 cfbd a3ad 30bc
00000210: 3928 ce3b 1bff e1bc 3230 333d 5249 993d
00000220: 3878 8e3c 850b 6b3b 0019 7b3a 214d a83c
00000230: cae7 353d 284a 6cbd 8ab2 68bd a973 9ebd
00000240: 85f8 c43b 858a d03d 78ee 7a3d 0b2a 993d
00000250: 9ea0 90bd bdf4 8a3d 10c8 1e3c 6957 35bd
00000260: af8c 82bd 77db 49bd 3dbb 52bc bc07 9d39
00000270: 73f4 ad3d 5419 44bc b524 66bd 90f6 9f3c
00000280: 063a 2f3d 6541 91bd 2aa5 0b3d e89b 93bc
00000290: b0f7 1ebc 5e3c 523d 0029 8eb9 c0f2 223c
000002a0: 2a80 31bd 4ca2 bb3d 111d 923d e2a0 61bd
000002b0: 4229 c0bc b0bb e53c 98f7 4dbd 064d 643d
000002c0: 3499 ac3c 49fd 42bd 422c 04bd d8da 1d3d
000002d0: 6612 07bd 93d0 023c ef9e 5ebd 8a1e 42bc
000002e0: b94b 8bbd 6525 7e3c 86d5 96bd 46d3 67bd
000002f0: 7fe5 fdbb ff4d 0cbd 3833 82bd 1777 2a3d
00000300: ff94 03bd 216c 99bd 234c 72bd 2c65 533d
00000310: bcf4 70bd 76b3 1cbd 7116 2b3d d1aa c3bd
00000320: 060a 533d b97b abbd 2e00 3dbd eedd 1bbd
00000330: 176b 973d 4bc7 08bb 80de a73c 3ead 423d
00000340: 8aaf 5a3d 5b7a b5bd bd30 1cbd e988 293d
00000350: 9837 5f3c c1d4 79bd df7e 033d 212f 573c
00000360: effe 733c 2639 783d 56c9 19bd ea17 41bd
00000370: ca4d c23d af31 aebc de7b 9fbd 8a38 f83b
00000380: 42ef f4bc f0a1 953d 6f1f 763d db1e 88bd
00000390: 7f5f 76bd 5ecd 15bc 9082 5dbc cf03 18bd
000003a0: 196c 853c 7e89 203d 3c27 e63c ab67 1d3d
000003b0: 2312 86bd e8fc f73c 4091 debc 6558 a9bd
000003c0: eaf0 543d 5d3c 3c3d d263 573d 58aa 4dbc
000003d0: e92e 843d 39cc a3bd 9381 a3bd 3a35 aabd
000003e0: 1b89 853b 9543 44bd 687d 323d b6a5 aebd
000003f0: da23 813c 399d a23d f28f 91bd af8e adbd
-0.034990422 -0.07796392 -0.049135264 0.0241578 0.03427889 0.03509023 -0.07735076 -0.026142962
0.008857191 -0.068699285 0.034597777 -0.053029887 -0.016763499 -0.04293515 -0.025414623 0.024946632
-0.07932242 0.043396104 -0.018795002 0.08580466 0.07291827 -0.04549823 -0.05845669 -0.063572526
-0.08442803 -0.037242852 0.095765054 -0.0410728 0.006319858 0.1339978 -0.084451705 -0.06443981
0.06699727 0.03353259 0.036682345 0.026674824 0.0527884 -0.07653213 -0.062136907 -0.052091166
-0.03487931 0.05424016 0.08407433 0.026699072 -0.05009054 -0.07873266 -0.07771035 -0.007644324
0.081664 0.0023470074 -0.04323146 -0.007485983 0.075652435 0.015918145 -0.045553308 -0.0002446185
0.0011970303 0.031711075 -0.0937813 0.04942023 -0.020733574 0.007606566 0.03144703 -0.052378975
0.034677647 0.08641663 0.07955145 -0.08491916 0.026398472 0.036335886 -0.0254907 -0.062658876
-0.036788568 -0.008180466 0.024354473 0.075785674 0.03127653 0.025309183 -0.045989998 -0.0662102
0.05805766 -0.036169264 0.019847535 -0.039918967 -0.063877635 0.07407417 0.05271166 -0.037218884
-0.023266139 0.099099405 -0.055227045 -0.03736629 0.041542515 0.0074937562 -0.09792136 0.07366822
-0.046496622 -0.019752514 0.017985847 -0.03403171 -0.10439196 -0.0017590239 0.07042884 0.030413004
0.061810326 -0.0076366365 0.06682118 -0.044312704 -0.02075436 -0.028485075 -0.02173076 -0.020612497
0.029332675 0.0564349 0.06885848 -0.023586333 -0.059320603 0.04296421 0.05216727 0.020656602
0.0713777 -0.03073045 0.05236996 -0.050604425 0.075184286 -0.0001568774 -0.08380665 -0.002727747
-0.078860745 0.02536985 -0.10148132 -0.010783586 0.006291416 -0.027587464 0.043747135 0.07484688
0.01739131 0.003586502 0.00095786154 0.02054459 0.044410504 -0.05768791 -0.056810893 -0.07736904
0.006011071 0.101826705 0.061262578 0.07478722 -0.07061885 0.067849614 0.009691253 -0.044272814
-0.063744895 -0.049281564 -0.012862024 0.00029951136 0.084938906 -0.011968929 -0.05618735 0.01952675
0.042779945 -0.07092551 0.03409306 -0.018018678 -0.009702608 0.051327102 -0.00027114898 0.009945571
-0.043335117 0.09161815 0.0713445 -0.05508507 -0.023457173 0.028043598 -0.050284952 0.055737518
0.021069147 -0.047604833 -0.03226877 0.038538784 -0.03297653 0.007984298 -0.05435079 -0.011848101
-0.06801552 0.015511845 -0.07364945 -0.05659797 -0.0077483053 -0.03425407 -0.063574255 0.04161748
-0.032124516 -0.07491327 -0.05915464 0.051610157 -0.058827147 -0.038257085 0.04176945 -0.09554065
0.05152323 -0.083732076 -0.04614275 -0.038053446 0.07393473 -0.002087074 0.020491838 0.047528498
0.053390063 -0.08861228 -0.038132418 0.041390333 0.013624094 -0.060993914 0.032103416 0.013133795
0.014892324 0.060601376 -0.037545525 -0.047141947 0.09487493 -0.021263925 -0.07787298 0.0075750994
-0.029899243 0.07306278 0.06008857 -0.0664651 -0.060149666 -0.009143202 -0.013519898 -0.037113007
0.016286897 0.039193623 0.02809488 0.038428944 -0.06546428 0.030271962 -0.02716887 -0.08268813
0.051987566 0.045956004 0.05258543 -0.01255282 0.0645426 -0.07997937 -0.07983699 -0.083109334
0.004075182 -0.047916014 0.043576628 -0.085277006 0.015764166 0.07940144 -0.071075335 -0.0847448

net.4.bias f4 [3]
00000000: 01f8 8cbc 309a 8cbd 846a 5a3d
-0.017208101 -0.068653464 0.053324237
