saved_models/dqn_episode_750.pth (torch, 74357 bytes, 6 tensors)

net.0.weight f4 [128, 6]
000000 9a cf 05 3e 0f 22 a3 3e 51 ad b9 3e 9a d9 83 be
       0.13067475 0.31861922 0.36265042 -0.25751954
000010 e3 2d 62 3d b5 ad 95 be 70 c7 bf be 96 76 da be
       0.055219542 -0.2923409 -0.37456846 -0.426686
000020 c3 09 b5 3e 45 f6 1f be 48 7e 3e 3e 32 d6 84 be
       0.3535901 -0.15621288 0.1860286 -0.25944668
000030 c7 3d 9d bd 51 72 d2 be 2c 71 29 bf d6 63 82 be
       -0.07677799 -0.41102841 -0.6618831 -0.25466794
000040 c4 49 45 3c be eb 9b 3c 09 80 68 be 9b d3 87 3d
       0.012041513 0.01903331 -0.22705092 0.066321574
000050 61 ed 63 3e dd 22 43 bd be 05 2e 3e d3 7e 46 be
       0.22258522 -0.04764067 0.16994378 -0.19384317
000060 ee 67 42 be df 09 c0 be 69 1c 31 3e 56 d6 81 3e
       -0.18984959 -0.3750753 0.17295994 0.25358838
000070 df 52 29 be 96 02 d1 3e 02 22 04 3f f2 e5 b6 be
       -0.16535519 0.40822285 0.5161439 -0.3572231
000080 bc 62 59 3e 3d ae 3d 3e 5b fa ed be 38 ee 08 be
       0.2122907 0.18523498 -0.4648007 -0.13372123
000090 6e 54 25 bf 85 b5 b1 3e 9e c6 f9 be 63 eb 08 bf
       -0.64581954 0.347088 -0.48784345 -0.5348417
0000a0 84 28 eb 3e c1 55 ca be b2 6e 4e be c7 24 95 be
       0.45929348 -0.3951855 -0.20159414 -0.2912962
0000b0 64 c6 a0 be 30 a5 20 bd 94 49 ce be 5b a5 9f be
       -0.3140136 -0.039220035 -0.4029051 -0.31180844
0000c0 b0 34 85 3e be bf 9d bd 7b 2d 17 be 89 0e 7d bd
       0.2601676 -0.077025875 -0.14763443 -0.06178144
0000d0 a0 76 c4 be b1 a8 11 be 05 d9 a9 3e 4b fe 1c bf
       -0.38371754 -0.14224507 0.33173385 -0.6132552
0000e0 d5 29 df bd f6 72 78 3e 23 39 85 be bb 15 49 3e
       -0.10896651 0.24262604 -0.26020154 0.19637196
0000f0 89 73 00 bf 37 b0 1f be 76 a4 a5 be 1e ad 29 3f
       -0.5017629 -0.15594564 -0.32352036 0.6627978
000100 fd ec d0 3e 35 69 e1 3d 63 7a 13 3e 1c 03 9b 3d
       0.40805808 0.11006395 0.14402156 0.075689524
000110 5a af 0c bd 0d fc dd 3c 3c b8 16 3d 95 7d a5 be
       -0.034346916 0.027097726 0.036796793 -0.32322374
000120 bf 04 5e 3e 81 be 73 be 77 d5 32 3f 2c c0 aa bd
       0.21681498 -0.2380314 0.6985697 -0.08337435
000130 e0 df b3 bb 77 24 4b bd 36 9e 3b 3e dd ea 10 3f
       -0.0054893345 -0.049595322 0.18322071 0.5660837
000140 5e f6 0b 3e d7 17 eb 3e 5a 96 b8 be e3 b8 a5 be
       0.136682 0.45916626 -0.3605221 -0.3236762
000150 46 05 fe be b9 1a 6d 3e 30 9b 89 3e 7b 27 07 3e
       -0.49613398 0.23154725 0.2687621 0.13198654
000160 89 aa 8b 3d fc 4f 56 be 91 f3 52 3d c9 b7 0b 3f
       0.068196364 -0.20928949 0.051501814 0.5457731
000170 78 3e 95 3d 33 ed 4a 3d 8b df 72 3d 49 a1 7b be
       0.072873056 0.049542617 0.05929522 -0.24573244
000180 16 ce 53 be 63 04 c4 bd 73 f5 e4 be f4 c5 2a be
       -0.20684084 -0.09571149 -0.44718513 -0.16677076
000190 ac 1b c5 bd 4e 57 83 3e bb 53 80 3e da 20 af 3d
       -0.096244186 0.25652546 0.2506388 0.08551188
0001a0 2b 98 c7 3e 2c 5c 5c be 2e dd c3 bd 64 55 ce 3c
       0.38983282 -0.21519536 -0.09563671 0.025187202
0001b0 6f ca e3 bd 4a d4 e3 3c 91 33 fb be 0a 56 02 3c
       -0.111225955 0.027811188 -0.4906278 0.007955084
0001c0 49 fa 49 be 65 c4 9b 3e d8 67 25 3e 50 1e fb 3e
       -0.19724382 0.30423275 0.16152894 0.49046564
0001d0 9d 8c c5 3e 99 fa 5b be 75 6c cf 3c b1 5b ff 3d
       0.38583842 -0.21482314 0.025320271 0.124686606
0001e0 c0 b6 8f bc 24 74 4c 3e a4 5f 68 3e 62 38 ad 3e
       -0.017543197 0.19966179 0.22692734 0.3383208
0001f0 d0 d2 05 3d df 8a 83 be ec ef 9a be 16 82 5c 3e
       0.03267175 -0.25691888 -0.3026117 0.21533999
000200 78 87 1a bf f9 38 61 3e bd 07 89 3e 8d 20 30 be
       -0.6036296 0.2199439 0.26763716 -0.17199917
000210 d9 a9 8c be 66 3e 5a be 31 81 4c bf c0 71 3a 3e
       -0.27473333 -0.21312866 -0.7988463 0.18207455
000220 33 1a 5c 3e 0b 95 ed 3d fa 61 ec bb 2c f3 f6 3e
       0.21494369 0.11600693 -0.007213828 0.482324
000230 f1 df 80 bc 0c 8f e9 3e a8 19 b1 bc ff dc 0b be
       -0.015731784 0.4561695 -0.02161868 -0.13658522
000240 ee 49 11 be 77 7f 94 ba 47 4a ba be 56 8e da 3d
       -0.14188358 -0.0011329491 -0.36384794 0.1067168
000250 b6 56 a0 3d d0 23 04 3e 82 22 bb 3e aa 6e 0d bf
       0.07829039 0.12904286 0.36549765 -0.55246985
000260 ae 4d 08 3e 70 4b 3a be ca 11 36 3e a7 24 47 3e
       0.13310882 -0.1819284 0.17780223 0.19447576
000270 29 49 41 be e3 2a 3f 3e 21 46 8b 3d 2e ce 2f bc
       -0.18875565 0.18668704 0.068004854 -0.010730309
000280 36 a8 71 3d 58 4d bb 3d 1b 91 48 be 37 41 3f 3e
       0.05899831 0.091456115 -0.19586603 0.18677221
000290 71 20 aa 3e 9c 9c c7 3d da e6 65 bd 81 e9 b4 bd
       0.33227876 0.09746668 -0.05612836 -0.088336
0002a0 d0 cb 55 3d 2c d7 c2 bd 00 79 10 bd fc a4 2f 3e
       0.052196324 -0.09513697 -0.035271645 0.1715278
0002b0 42 ed 51 be 10 d5 27 3d 58 1a 5e 3e 70 31 0d be
       -0.20500663 0.040974677 0.21689737 -0.1378839
0002c0 44 25 76 be fa d7 c3 3e a0 26 3d be de aa ad be
       -0.24037653 0.38250715 -0.18471766 -0.33919424
0002d0 96 33 2b be 00 89 c9 be 18 3d c1 be 50 a3 8b 3d
       -0.16718897 -0.39362335 -0.37741923 0.06818259
0002e0 a4 60 a0 bd 90 dd 37 3d 88 b3 69 3d 03 94 ec 3e
       -0.07830933 0.044889033 0.05705598 0.46206674
0002f0 5f 22 9b 3d 9b 07 29 be d1 ef 98 bd f3 63 b7 bc
       0.07574915 -0.16506808 -0.07467616 -0.022386527
000300 ef 6e b2 bd 28 24 4e 3e 7f ec e2 bd e5 44 ba bc
       -0.08712565 0.2013098 -0.11080264 -0.02273793
000310 97 65 85 be 21 01 01 be 5d 9c 86 be cd 0a d7 be
       -0.2605407 -0.12598087 -0.2629117 -0.42000428
000320 35 13 24 bd 18 31 d9 3d e5 75 e3 3e 7b 95 ff 3d
       -0.04005738 0.10605067 0.44425884 0.12479683
000330 cc 16 69 3d 67 39 39 3e eb be 30 3f bd fa 9b be
       0.056906506 0.18088304 0.6904132 -0.30464736
000340 a5 91 3e bd 99 42 31 be 1b c3 12 bf 80 2b 99 be
       -0.046525616 -0.17310561 -0.5732896 -0.29916
000350 99 52 0b bd bb 43 b8 3e b0 b0 e9 3e 0b fa 48 3d
       -0.03401432 0.35989174 0.45642614 0.049066585
000360 50 f4 f5 3c 4b 29 4e be 03 7a 57 be 88 ea 09 3e
       0.030023724 -0.2013294 -0.21042638 0.13468373
000370 c0 d8 80 3b f8 bc 3f bd a5 7f 07 be 37 24 19 bc
       0.0039320886 -0.046811074 -0.13232286 -0.009347013
000380 bc 50 05 bf d3 1e 19 be 27 a5 5f bd db 6a 4a be
       -0.52076316 -0.14953165 -0.05460086 -0.19767325
000390 99 82 14 bc 11 86 99 be ac 91 23 be 0e e3 0a bf
       -0.00906434 -0.29985097 -0.15973538 -0.5425271
0003a0 b2 4c 57 3c 29 7c 9d 3e f6 9c 6d bd 40 09 f5 be
       0.013140844 0.3075879 -0.058011018 -0.4785862
0003b0 66 2d 42 3e 24 50 4a 3d b6 96 05 3f 47 ce f3 3c
       0.1896263 0.049392834 0.5218309 0.029761447
0003c0 1a 6a 7b be 42 61 b6 be c8 e6 b8 3d af 74 96 3e
       -0.24552193 -0.35621077 0.09028393 0.29385898
0003d0 f5 7a 0a 3d f6 7d 87 3e 7c 04 c5 3d 24 82 43 be
       0.033808667 0.26463288 0.09619996 -0.19092613
0003e0 7c ad ea 3c 7b fe c8 be 6e d2 ee bd 74 8f 81 be
       0.028647177 -0.39256653 -0.1166123 -0.2530476
0003f0 82 14 1e be 51 6a 96 be f4 4e 1a bf 13 6a f4 3d
       -0.1543751 -0.29377988 -0.6027672 0.119342946

net.0.bias f4 [128]
000000 c6 87 06 3c d1 09 cf bd bc cb bb 3e d5 91 02 be
       0.008211082 -0.10109294 0.36678874 -0.12750943
000010 bc 7e ed 3e 69 58 fc 3e 70 93 e3 3c 20 45 df 3d
       0.46385753 0.49286202 0.027780265 0.109018564
000020 37 84 87 3e db 7b b0 3e 83 3e ba bd 78 31 47 3c
       0.2646806 0.34469494 -0.090939544 0.01215779
000030 fb 27 9d 3d 4e c5 24 bd bf df 48 be e0 93 58 be
       0.07673641 -0.040227227 -0.19616602 -0.2115016
000040 82 4f ea 3d bd c4 0e be a7 4d 48 be 5f 18 a7 be
       0.11440946 -0.13942237 -0.19560872 -0.3263578
000050 4a 32 8c be a9 d2 7c bc 05 df 48 bd 00 cb 49 be
       -0.27382118 -0.015431085 -0.049040813 -0.19706345
000060 12 1b 0b be 9d b3 c9 3c 54 ce 9f be 8d 50 78 be
       -0.13584545 0.02462178 -0.31212103 -0.24249478
000070 ce dd 25 be f4 98 56 be 91 ff 7e be c5 79 88 be
       -0.16197893 -0.20956784 -0.24902178 -0.26655403
000080 69 12 44 3e 1a db 67 3e 40 ff eb 3b 53 ed ab 3e
       0.19147648 0.22642174 0.007202059 0.33579502
000090 1e 5f 9b be 5e 15 80 3e 58 3b 36 be 07 c4 77 3e
       -0.30346006 0.25016302 -0.17796075 0.24195872
0000a0 91 c9 c6 be f2 8a 96 3e 01 7a c5 3e 39 1a 52 be
       -0.38825658 0.29402882 0.38569644 -0.20517816
0000b0 dd 32 c9 be e9 82 96 be aa e9 32 3e 08 6c ed 3d
       -0.39296618 -0.29396752 0.17471948 0.11592871
0000c0 b9 27 6f 3e 68 5e ef 3b 88 53 10 3e d8 cd 85 3e
       0.23354997 0.0073049553 0.14094365 0.2613361
0000d0 90 b7 ac 3e 28 3c 52 bd 57 39 a2 be c6 c0 9f be
       0.33733797 -0.0513269 -0.31684372 -0.31201762
0000e0 46 e7 8f be 40 57 d3 bc 24 35 81 be fd c2 32 3d
       -0.28106135 -0.02579844 -0.25235856 0.043642987
0000f0 42 bb b5 bd 4d be 14 3d 88 e1 63 bd 7c 93 0d bf
       -0.08873607 0.036314297 -0.055635005 -0.5530317
000100 45 2f da bd a4 72 3a be 89 45 ba bc d5 df ee be
       -0.10653547 -0.18207794 -0.022738235 -0.46655145
000110 65 6a 8b be c7 b5 7a 3b ed da 5d 3e 79 af 89 be
       -0.2722961 0.003825532 0.21665545 -0.26891688
000120 1c d6 2a be d4 f1 03 3e bc 42 6b 3e a8 db d6 bd
       -0.16683239 0.12885219 0.22974676 -0.10491115
000130 f9 ad e1 3d 8c 0c 0f be d7 fe c3 be 7c cb f1 be
       0.11019511 -0.1396963 -0.38280365 -0.4722556
000140 83 a0 9d 3d 54 9a 26 3e b1 94 82 be 40 8f e4 bd
       0.07696631 0.16269809 -0.25504068 -0.11160135
000150 19 39 5b be 53 c4 c6 be 8d 93 36 3e f2 98 cc be
       -0.214085 -0.38821658 0.17829724 -0.39960438
000160 cb 50 ae be d1 43 48 bd 4b 97 92 3d 28 b0 16 bd
       -0.34046015 -0.0488928 0.07157763 -0.03678909
000170 f4 d0 c2 bd 27 4b 83 be 52 bf 7f 3e 42 7b 7a bc
       -0.09512511 -0.25643274 0.24975327 -0.015288176
000180 27 5c a5 be 2e 32 08 3d 73 fe 15 be c3 e5 2b be
       -0.3229687 0.03325098 -0.14647846 -0.16786866
000190 78 4a d7 bd 1a 39 cf bd bb f8 44 be 90 5a 07 be
       -0.10512251 -0.10118313 -0.19235508 -0.1321814
0001a0 a3 18 c6 3e 38 dd 90 be d4 70 87 be 2a 5f c7 3e
       0.3869067 -0.28293777 -0.2645327 0.38939792
0001b0 8f 37 03 be 4d b4 9e be 3f f0 b2 be c8 9d b9 3d
       -0.12814163 -0.30996934 -0.34948918 0.090632975
0001c0 1c 29 14 3c b0 51 9b 3e 99 c2 63 3e 74 e8 96 be
       0.009043004 0.3033576 0.22242202 -0.29474223
0001d0 bd 30 82 be 43 ab c4 be f9 11 85 3a 7d a1 01 be
       -0.2542781 -0.38411912 0.0010152451 -0.12659259
0001e0 40 bd 87 3c 08 a0 7d 3e b0 a0 5b 3d 14 f5 c0 3d
       0.016569734 0.24768078 0.05362004 0.09421745
0001f0 f0 ad d5 3d a5 38 8e 3e 7a bd 80 3e 38 08 03 bd
       0.104335666 0.2777759 0.2514456 -0.03199026

net.2.weight f4 [128, 128]
000000 f7 92 85 be b7 c3 28 bd 12 3c 1d be b7 46 0b be
       -0.26088688 -0.041202273 -0.15354946 -0.13601194
000010 d6 f7 03 be 63 10 02 3d ed 38 09 be d8 b4 6b bd
       -0.1288751 0.03175391 -0.13400622 -0.057545513
000020 c0 76 db 3c 7c 87 57 3c 51 e5 ab bd 1c 07 22 bd
       0.026790023 0.013154861 -0.08393348 -0.03955756
000030 70 62 f7 be 7b a1 25 3d 4a 14 3c bd 17 04 1b bd
       -0.4831729 0.040437203 -0.045917787 -0.037845697
000040 70 f2 67 bc dd 76 81 be 24 63 08 bd 89 f5 92 be
       -0.014156923 -0.25285998 -0.033297673 -0.28702953
000050 36 8e 63 3d 91 bf 95 bd 9f ce 1b 3d d0 bc f0 3c
       0.055555545 -0.07311929 0.038038846 0.029386908
000060 a6 03 8c bc 63 49 c1 3d 1e 28 0c 3e 7b 43 50 bd
       -0.017091583 0.094378255 0.13687178 -0.050845604
000070 f3 35 0b bd 8f 66 aa bd 06 47 2e 3d 92 12 2b 3c
       -0.033986997 -0.08320343 0.042548202 0.010441439
000080 50 c2 eb bd c4 e3 0a 3d a8 9c 79 bd b1 36 32 bc
       -0.115116715 0.03390862 -0.060940415 -0.010877297
000090 3a fe 7f bd dd 82 23 be bc 33 cc 3c 31 c6 1c bc
       -0.06249831 -0.15967889 0.024927013 -0.009568737
0000a0 90 34 78 3c e5 5d b0 be 72 9c f3 be 0d 36 58 bd
       0.015149251 -0.34446636 -0.47580296 -0.05278592
0000b0 43 8a 63 bd e5 00 3c be 47 e8 e6 bd 4b 07 cd be
       -0.05555178 -0.18359716 -0.11274772 -0.40044627
0000c0 c9 fc 69 be 96 38 c2 3c 31 34 88 bd 56 5d 55 3c
       -0.22850336 0.023708623 -0.0665058 0.013022741
0000d0 24 04 69 be 6e 6b 6b 3b 68 6f 71 bd 74 db 13 be
       -0.22755486 0.0035922187 -0.058944136 -0.14439183
0000e0 7e 4e 6c 3d 3b 84 72 bd 34 3d 16 3b 28 cf e1 bd
       0.057692043 -0.059208136 0.0022924663 -0.1102584
0000f0 18 79 8f be d6 d6 43 3b 98 4b 14 3e db 1c 1b bc
       -0.28022075 0.002988269 0.14481962 -0.009467329
000100 29 13 1d bd ff c0 f8 bd 5b de 13 bc c8 6e 6e 3d
       -0.03834835 -0.12146186 -0.009025182 0.058211118
000110 8e c4 57 3d 33 3e d7 bc 7f 83 6b 3c ff 3e 50 bd
       0.052677684 -0.026274776 0.014374613 -0.050841328
000120 31 eb 87 3d 3f cc c1 be dd 0b 9c bd c7 6b 90 3d
       0.06636656 -0.3785114 -0.0761945 0.07051807
000130 f7 56 25 bf 0b 74 a1 3d 9c da f0 3c 5f 60 8e 3d
       -0.6458582 0.078834616 0.029401116 0.06951975
000140 34 58 73 bd f0 5e 5f bd 04 4f df 3c 15 d0 9b bc
       -0.05941029 -0.0545339 0.027259357 -0.01902012
000150 72 8c 01 bd 68 5e 18 bb a6 47 aa bd 96 95 0f bd
       -0.03162808 -0.002324963 -0.08314447 -0.035054766
000160 5a 10 97 3d 30 c9 e4 bb 2d 18 d0 3c 87 40 94 3d
       0.07376166 -0.006981991 0.025402153 0.0723887
000170 0e 2f 42 3b 71 0c a4 be 71 a3 ee 3b 60 3e 10 be
       0.0029630098 -0.32040742 0.0072826673 -0.14086294
000180 a9 b7 96 3d 33 d2 b0 3b 7e 3e 1f be 0c 87 a7 bc
       0.07359249 0.0053961514 -0.15551183 -0.020450138
000190 a5 bf 79 bf 33 72 cb bc 82 95 18 be d4 f5 f0 3c
       -0.9755805 -0.024834728 -0.14900783 0.029414095
0001a0 62 3a 91 ba b3 e9 82 be 55 13 1b 3d bd 4a 36 bd
       -0.0011080022 -0.25568923 0.037860233 -0.04450487
0001b0 66 28 b3 bc 5f 8d 10 bd d2 23 24 3d a0 09 81 bd
       -0.02186985 -0.035291072 0.040073223 -0.06300664
0001c0 70 14 c3 3d 96 38 97 be 0e 96 01 3c 3f 8a 54 bd
       0.095253825 -0.2953536 0.007909311 -0.051889654
0001d0 1a ef 57 be 48 34 98 be fe 0a 06 be 07 0a 65 bd
       -0.21087304 -0.29727387 -0.1309013 -0.055917766
0001e0 5e 23 fe bc cf cc 24 be f5 79 3e be 82 f4 19 bd
       -0.031022724 -0.16093753 -0.1860121 -0.037586696
0001f0 e6 ca 2a 3d cd 4d aa 3c c6 96 c3 bc 00 78 99 b8
       0.041697405 0.020789051 -0.023875605 -7.31796e-05
000200 81 c7 ff 3d 71 ef e9 3c ea 09 85 be 9a 85 8c 3d
       0.12489224 0.028556557 -0.25984126 0.0686142
000210 bb 59 a5 be 9f 29 f3 be 60 7c 99 3b aa d6 30 3d
       -0.3229502 -0.47492692 0.004684016 0.04317347
000220 18 d1 d1 bc 87 aa e5 bd 1d 91 be be 99 d5 ed bd
       -0.025612399 -0.11214166 -0.37220088 -0.11613006
000230 7a 55 af be 7b cc 20 3e 7d 47 aa bd 31 1a 13 3e
       -0.342449 0.15703003 -0.083144166 0.1436546
000240 0e 5f ec 3d 45 94 5b 3c 17 32 1a be 96 c2 19 3e
       0.11541568 0.013402049 -0.1505817 0.15015635
000250 14 3c 94 3c 96 27 78 be d1 80 27 be f5 27 87 bd
       0.018095054 -0.24233851 -0.16357733 -0.06599418
000260 fe d2 0f be e9 46 2a bc 45 30 3f 3d e1 2f 39 bd
       -0.14045331 -0.010392883 0.046676893 -0.045211677
000270 83 32 92 3d e0 02 a0 3c 1c 43 00 bd e3 ef 4a 3a
       0.071385406 0.01953262 -0.031314 0.00077414344
000280 ee 4e 5c 3e 79 b5 01 be cb 63 90 3d 9f dc e4 bc
       0.21514484 -0.12666883 0.07050284 -0.027937232
000290 18 92 ee 3c 36 3b e5 bd e5 3f fd bd f7 37 43 be
       0.029122397 -0.11192934 -0.123657025 -0.19064318
0002a0 d0 2f a0 3c 31 73 57 bf 04 cc 81 bc ba 08 90 bc
       0.019554049 -0.84160143 -0.015844353 -0.017582286
0002b0 00 70 49 39 ac 8c 1b 3c 4a 51 b4 bb 2d b5 75 bd
       0.00019210577 0.009493988 -0.0055028545 -0.059987236
0002c0 6f 06 27 be 13 0a 2d be 37 45 3d 3d 41 11 28 bd
       -0.16311048 -0.16898374 0.046208587 -0.04103208
0002d0 33 f6 13 bf 79 ed 44 be eb 86 17 bd 3b e1 1a be
       -0.57797545 -0.19231214 -0.036993902 -0.15124981
0002e0 3a 07 19 3d 60 01 49 be f7 70 45 3e 6e 6a 71 3e
       0.037360407 -0.19629431 0.19281374 0.23575756
0002f0 a3 d9 ff 3d cc 88 a1 bd c2 1e d2 be bc eb c4 3d
       0.12492683 -0.0788742 -0.4103909 0.09615275
000300 7e f1 c8 bd 71 73 89 3c 0e fe 19 3e ce 41 7c bc
       -0.09811686 0.01677868 0.1503832 -0.015396548
000310 60 2f a5 bb 59 dd 1c be 93 46 84 bd 62 40 7e 3e
       -0.005041048 -0.15318812 -0.064587735 0.24829248
000320 9e 0a 65 bd 00 15 fc be 47 3a 80 be e1 bd a5 3d
       -0.05591833 -0.49234772 -0.25044462 0.08092857
000330 01 2d 09 bf 4a 3e 41 3d 23 ac 65 bd 8d cd bd be
       -0.53584296 0.047178544 -0.056072365 -0.37070885
000340 94 07 8f bd 2e 5e 56 be f4 95 82 3c aa 81 6a bd
       -0.06983867 -0.20934364 0.015940644 -0.057252564
000350 4e 4e 87 be bb ec 89 3d 33 3b 20 bb 2a 0f 20 3d
       -0.2642693 0.06734606 -0.0024449348 0.03907696
000360 1b b5 c2 3d b5 33 12 be 03 39 71 bd e6 ff 3d bd
       0.095071994 -0.14277537 -0.05889226 -0.046386622
000370 4b 48 e4 bc e5 58 29 3d a9 65 16 3c 1e 19 a6 be
       -0.027866503 0.041344542 0.009179511 -0.32441038
000380 bb b6 61 bd 84 4b b4 3e 4d 7e e0 be 27 49 b3 bd
       -0.055105906 0.35213864 -0.4384636 -0.08754187
000390 c9 17 12 bf 15 8c 13 3e f7 32 81 3c 70 d7 54 bc
       -0.57067543 0.14408906 0.015771372 -0.012990817
0003a0 ea dc 21 be 3e 7e 35 3e 50 74 35 bd 8c 2a 78 bd
       -0.15806928 0.17723939 -0.044300377 -0.06058745
0003b0 67 55 73 be b8 0c eb be c0 0e bc 3a d2 9f 9a bd
       -0.23763047 -0.4590814 0.0014347658 -0.075500146
0003c0 d2 fe 33 be 91 92 b1 be 45 65 0c be b6 88 33 3e
       -0.17577675 -0.34682134 -0.13710506 0.1753262
0003d0 cf ac ed bd 99 07 d4 bd 13 21 b4 bd a9 e2 42 3b
       -0.11605226 -0.10353012 -0.08795371 0.002973715
0003e0 01 34 31 bd d1 87 95 bd 44 b1 14 3d be 9a fb bd
       -0.043262485 -0.073012955 0.036301866 -0.12285374
0003f0 ef 62 9f 3e 4a 46 c7 bd 2f c8 d7 bc 30 be 73 3c
       0.31130168 -0.097302034 -0.026340572 0.014876887

net.2.bias f4 [128]
000000 67 67 44 3d 4c ce 8c bd 83 e1 63 bd ff ec dc bd
       0.047950175 -0.068752855 -0.055634987 -0.10787391
000010 2a a2 48 be 50 03 6d 3d 52 1d 8f 3b d9 82 0d bd
       -0.1959311 0.057864487 0.004367509 -0.034548614
000020 66 2f 16 bc 43 2d 54 bd 57 0f 90 bd 07 69 3c 3e
       -0.009166574 -0.051800977 -0.07034176 0.1839944
000030 21 85 0d 3c d7 dc f9 3d 0b 4e db bc d9 78 7d bd
       0.008637697 0.12200325 -0.026770612 -0.061882827
000040 b0 43 39 bc 19 f1 9f bd a6 dd 2d 3d de 38 9c bc
       -0.011307642 -0.078096576 0.04244771 -0.019070085
000050 76 37 8e bc cb ff a7 bc 53 c4 eb bc 8b 79 be bc
       -0.01736043 -0.020507714 -0.028780138 -0.023251316
000060 97 16 27 3e a8 87 ab bd d4 99 75 bd 4b 8d 48 bd
       0.16317211 -0.08375484 -0.059961155 -0.048962872
000070 62 47 03 be 35 1b 49 3c cf f7 34 bd 21 63 07 3e
       -0.12820199 0.012274553 -0.04418164 0.13221408
000080 dc 2d 66 3b ea 53 83 3b d8 67 21 3e 85 2d 8c bd
       0.003512255 0.004007806 0.1576227 -0.0684462
000090 c7 24 aa bd d8 d2 b5 bd e2 34 a8 bd d8 b8 bc bd
       -0.08307796 -0.08878106 -0.082132116 -0.09214944
0000a0 c8 9a ed bc ba 36 8f 3c 38 a6 08 3e 7c 88 16 bd
       -0.02900447 0.01748215 0.13344657 -0.036751255
0000b0 2b cf 00 bd f4 0f 7e bd e1 2b d9 bb 1d ca be bd
       -0.03144757 -0.062026933 -0.006627545 -0.09315894
0000c0 8d 7d 20 3d 35 22 dd 3c 70 67 54 bd b9 4c 56 bd
       0.039182235 0.02699385 -0.05185646 -0.052319262
0000d0 62 ca f1 bc 9b 56 73 be c9 1b c9 bd fc 0d 2b bd
       -0.029515449 -0.23763506 -0.09819753 -0.041761383
0000e0 2c 5e 38 3c 59 3c 37 bd 83 63 ef bd a7 2a 8e 3b
       0.011252921 -0.044735286 -0.11688902 0.0043385806
0000f0 c0 eb db bb e9 c5 8b 3d 5a 8d a8 3c 20 21 d0 bd
       -0.006711453 0.06824858 0.020575214 -0.10162568
000100 6f 14 66 bd 26 2a 4c bc d7 49 95 3c f6 db 02 bd
       -0.05617183 -0.012461221 0.018223686 -0.031948052
000110 ca 0e bb bd b7 72 9c 3a d4 7f 26 be 5b e1 ca bd
       -0.0913368 0.0011936043 -0.162597 -0.099062644
000120 03 6e b3 bc ca 50 8d 3a b1 55 4c 3e ee 98 96 bd
       -0.021903044 0.0010781523 0.19954564 -0.07353388
000130 d3 7b 5a 3d 5c 70 d4 3b d5 dc 1c bc 63 e1 79 bd
       0.053340744 0.006483121 -0.009574135 -0.06100596
000140 88 25 b5 bd e4 6e ab bd 27 3a 11 bd 90 89 0d 3e
       -0.08845049 -0.0837076 -0.03545585 0.13822007
000150 8b dc fc bb b0 3b 53 bc 73 e8 76 bd 7d 64 43 3d
       -0.0077167205 -0.012892649 -0.060280275 0.047703255
000160 4b 38 ec bd 0e 25 13 3d fb 3a ab bd 73 b9 2c 3d
       -0.115341745 0.03592401 -0.08360859 0.042169046
000170 d2 d7 ac 3d 49 f0 c5 bc 84 7c ec 3d 8d cb 4d 3d
       0.08439602 -0.024162428 0.11547187 0.05024295
000180 32 67 fa bd fa 6a 08 be d9 a2 fc 3d 48 bc 90 3a
       -0.12226714 -0.13322058 0.12335748 0.001104244
000190 df 4e 85 bc da c2 cf 3d a6 63 8b 3c b3 79 59 3e
       -0.01627296 0.10144587 0.01701529 0.21237831
0001a0 a7 b9 17 3e 09 2a ab bd ed 21 f7 3c 28 7d 9e bd
       0.14816914 -0.08357627 0.030167544 -0.077387154
0001b0 b3 a8 69 bd b7 37 b6 bd 67 6a f1 bd 88 79 c6 3d
       -0.05704565 -0.088973455 -0.11787873 0.09691149
0001c0 f1 17 83 bd 2a e2 fb 3d 2a 7f 12 3d 5f 99 80 3d
       -0.06401051 0.12298997 0.035765804 0.06279253
0001d0 9a 63 4b bd 43 20 38 3e f1 f1 00 be e1 fe 58 bd
       -0.049655534 0.17981057 -0.12592293 -0.052977446
0001e0 f2 45 5f 3c 36 e2 7f bd 20 7e 55 bd f5 a1 aa bd
       0.013627516 -0.06247159 -0.052122235 -0.08331672
0001f0 7b 85 e1 3b a8 2c 55 3c 13 d2 0a 3d 72 36 97 bd
       0.006882367 0.013011135 0.03389175 -0.073834315

net.4.weight f4 [3, 128]
000000 dc 6e 83 bd 59 63 f9 be fc a7 5b 3c 3c c5 83 bd
       -0.06417629 -0.4870861 0.01340675 -0.06434104
000010 6e ff ac bd fb 07 26 3c d3 f6 51 bf 51 2e a2 bd
       -0.08447157 0.010133739 -0.8201725 -0.079189904
000020 1f ae e0 3c 3c a4 2b 3c 84 12 a1 3d 4e b6 0a 3e
       0.027426777 0.010476168 0.0786486 0.13546106
000030 ab 5f 0b bc d0 08 b0 3d b2 ca 1c 3e cf 36 89 3e
       -0.008506696 0.08595431 0.15311697 0.26799628
000040 c3 f1 e5 3d f2 da 98 3d de d1 ca 3c b2 49 7d 3d
       0.11227753 0.074636355 0.024758276 0.06183786
000050 0f 58 50 bd ec 4d 0b 3d 11 2c 24 bd a8 f3 e7 3d
       -0.05086523 0.03400986 -0.040081087 0.113257706
000060 d9 04 11 3e 25 dd ab bd 0e 7c 8b bd c8 ed 46 3c
       0.14162005 -0.08391789 -0.06810771 0.012141652
000070 5f ec 50 bc 3e 3b 2f 3e 5d 0f 17 bd d5 9c c2 be
       -0.012751668 0.17112443 -0.036879886 -0.38010278
000080 e7 fe 41 3e df 6e 6e bd 07 62 1a 3e 98 a1 27 3c
       0.18944894 -0.058211204 0.15076457 0.010231398
000090 cc 78 bc 3c 71 80 f7 3b 88 8d 90 3c 08 44 05 3d
       0.02300682 0.007553153 0.017645612 0.032535583
0000a0 c1 8f 85 3d db ae 69 3e 50 f7 fb 3d a3 9e e6 3d
       0.065215595 0.22820608 0.123030305 0.11260726
0000b0 ca 3a 66 bd 0c 01 96 3d 93 c5 b2 bd bf c5 c1 3d
       -0.05620841 0.073244184 -0.087290905 0.09461545
0000c0 fe 2e a6 3d e1 b8 8c 3d 88 bb 1d 3d ef 0d de ba
       0.08114432 0.068712 0.03850892 -0.0016941408
0000d0 98 a2 1e bb 0e c4 b4 bd 57 87 bb bc fd 23 d0 bb
       -0.00242058 -0.08826457 -0.022891684 -0.0063519464
0000e0 ba 1a 9f 3d 80 3c 40 3d 6d e6 3e 3d 36 36 21 3d
       0.077687696 0.046932697 0.04660647 0.03935834
0000f0 2e 25 d0 3d 9a de a2 3d aa cd b3 3e 67 39 20 3e
       0.101633415 0.07952614 0.35117847 0.15646897
000100 87 ce e3 bd 06 52 96 3d 8f 39 0f 3e 43 25 d3 bc
       -0.11123376 0.073398635 0.139868 -0.025774604
000110 88 6f 73 3d a3 5f ba bd b3 6d 18 bf 97 07 3c bf
       0.059432536 -0.091002725 -0.5954239 -0.7344908
000120 80 51 61 bc 65 c0 47 bd 36 7c d7 be 02 90 66 3d
       -0.013752341 -0.048767466 -0.42086953 0.05628968
000130 e7 e7 b0 3d a2 47 b6 bd 3f ff 67 3d 1f 9a 11 3e
       0.08637982 -0.089003816 0.056639906 0.14218949
000140 83 92 c2 bc 1e 00 06 bd 59 bd f5 3c e6 40 00 3e
       -0.023751503 -0.032714956 0.029997515 0.12524757
000150 13 32 3d 3d 8b 7f 1a bd 6f 09 39 bf 28 1c 86 3e
       0.046190333 -0.03771929 -0.7228002 0.26193357
000160 51 5e 5d bd af 69 0a 3e 1f 48 c3 bd fb 5f 17 3e
       -0.054045025 0.13516878 -0.095352404 0.14782707
000170 db 99 a2 3d b0 04 21 bd 36 0f 0f 3d 26 de 45 3d
       0.07939502 -0.03931111 0.034926616 0.04830756
000180 09 ff b7 be 59 1c 1b be e5 d9 d0 3d 4a 13 83 3e
       -0.35936764 -0.15147533 0.1019781 0.25600654
000190 a4 d2 50 3c 4a 18 32 3e 55 cb 95 3d 6b 55 8d 3e
       0.012745533 0.17392078 0.07314173 0.2760423
0001a0 86 78 65 3e 13 e7 b3 bd 58 c7 9a 3d 55 37 8c 3d
       0.22409257 -0.08784308 0.07557553 0.06846491
0001b0 1f 88 5d 3c 9e da d1 be 47 e9 0a 3e 38 dc 01 bf
       0.013521223 -0.40987104 0.1356555 -0.5072665
0001c0 e4 0c 88 3d 0d ba 3e 3e 91 5b 8d 3e 48 91 83 be
       0.06643084 0.1862566 0.27608922 -0.25696778
0001d0 40 ed eb 3c ee a3 a8 3d 3c e2 0e bf 8d c5 52 3d
       0.028799653 0.08234392 -0.55813956 0.05145793
0001e0 a9 44 55 bf 2a da 4e 3d 53 7f 86 3d 1c 30 87 3c
       -0.8330789 0.050501026 0.06567254 0.016502433
0001f0 42 5c 0e bc 38 9e 23 bd 6f 09 f4 be 2f c8 f6 be
       -0.008688988 -0.03994581 -0.47663447 -0.48199603
000200 84 48 16 bd c8 6c 71 be 9a fe 64 bd 47 d8 3c bd
       -0.03669025 -0.23576653 -0.05590687 -0.046104696
000210 04 0e 04 be e0 81 5c 3d c3 dd 09 bf db f7 05 3c
       -0.12895972 0.053834796 -0.53854007 0.008176769
000220 0b d4 5d 3c 92 b1 27 bd d3 68 5a 3d 99 50 fb 3d
       0.0135393245 -0.04094083 0.053322624 0.12271232
000230 69 e3 9b 3c 46 73 a3 3d fd 4e f3 3d d9 9c 08 3e
       0.019029336 0.07980971 0.118803 0.13341083
000240 18 e7 d5 3d 28 7d b5 3c ca 68 12 bd 15 78 14 bd
       0.10444468 0.022154406 -0.035744466 -0.03624733
000250 94 e5 aa bd 9e b8 96 bd a9 93 be bd 15 bb be 3d
       -0.0834457 -0.07359432 -0.09305508 0.09313027
000260 ba 56 8f 3e 91 63 ae 3d 0d eb 95 bd e2 77 d7 3c
       0.27995855 0.085150845 -0.07320223 0.026302282
000270 b7 52 14 bd 28 5a 2e 3e 29 02 9e 3d ed e8 14 bf
       -0.036211696 0.1702658 0.07715256 -0.58167917
000280 21 10 14 3e 79 43 8e bd 16 90 cd 3d 4d f5 15 bd
       0.14459278 -0.06946463 0.10037248 -0.03661089
000290 ed e6 8f 3d 05 f4 90 3c 15 ea 55 bc 26 a1 3b 3c
       0.070264675 0.017694483 -0.013056298 0.011451995
0002a0 84 43 44 bd aa 70 33 3e 65 2c 2c 3d 55 86 01 3e
       -0.04791595 0.17523447 0.042034525 0.126489
0002b0 f7 48 71 bd 6b 6c 37 3d 1b 05 ac bd b5 3a 23 ba
       -0.058907475 0.04478113 -0.08399411 -0.00062267046
0002c0 17 9e 39 bd 01 a4 66 3d 50 40 39 3d ec 4b f8 bc
       -0.04531678 0.05630875 0.04522735 -0.03030964
0002d0 93 b1 7d 3d 16 a7 11 be 12 d5 e3 bd 80 71 30 bd
       0.061936926 -0.14223894 -0.11124624 -0.043076992
0002e0 f3 5e 27 bc 66 b8 85 bd b8 dc 26 3c a4 24 fe 3c
       -0.010215509 -0.06529312 0.010184459 0.031023331
0002f0 c0 22 0c 3e d6 ce 1b 3d 09 e3 b6 3e 61 a2 1b 3e
       0.13685131 0.03803905 0.3572009 0.15198661
000300 f8 4f 1d be c7 2d ad 3d e2 76 6f 3d 4a 10 fa bc
       -0.15362537 0.08455997 0.058462985 -0.030525345
000310 bc 30 ab 3d 0b 72 7b bd 27 11 2a bf 48 ac dd be
       0.08358905 -0.061388057 -0.6643242 -0.43295503
000320 60 c7 49 3d 1e 52 ff bc c7 8c 2e bf 2e 37 33 3d
       0.049262404 -0.031167086 -0.6818356 0.043753795
000330 21 a2 39 3d ff 0b 0e be 09 e3 a4 3d 81 38 9c 3e
       0.045320634 -0.13871764 0.08051116 0.3051186
000340 3f e9 b2 bd 80 a1 45 3d 4f 8e 45 3d 4a f4 f2 3d
       -0.087358944 0.04824972 0.04823142 0.11863001
000350 36 f0 d3 3d dd fa 04 3d ac b2 d5 bd 00 80 3f 3e
       0.10348551 0.032465804 -0.104344696 0.18701172
000360 40 da ce bd c2 0b 04 3e b4 00 0f be d4 37 b4 3d
       -0.10100222 0.1289511 -0.13965112 0.08799711
000370 d0 50 85 3d 98 ff de b8 40 05 1b 3e b3 5e 63 3d
       0.065095544 -0.00010633393 0.15138721 0.055510234
000380 ba 29 bf bc f1 17 2b be 71 f4 32 3e 48 a6 69 3e
       -0.023335326 -0.16708352 0.1747606 0.22817338
000390 33 7b 8c 3d 63 bb 8d 3e e9 7a 50 3d a4 50 e0 3e
       0.06859436 0.27682027 0.050898466 0.43811524
0003a0 6b e0 b0 3e 00 3b 5d bb 0f ad f5 3d 06 33 56 bd
       0.34546217 -0.003375709 0.11995899 -0.052294753
0003b0 87 67 69 bd 1c e1 ce be de 42 19 3e d3 1e 61 be
       -0.056983497 -0.4040612 0.14966914 -0.21984415
0003c0 11 cd ad 3d d9 71 f6 3d 49 e4 90 3e 38 dc b0 be
       0.08486379 0.120334335 0.28299168 -0.34543014
0003d0 a9 8c 84 3e c8 51 36 3d 70 14 e6 be 4c ec 79 3d
       0.25888565 0.044511586 -0.44937468 0.061016366
0003e0 a4 d5 02 bf d8 f0 b6 3d 3d 89 2e 3d 70 a6 b7 bb
       -0.5110724 0.08932656 0.04261135 -0.0056045577
0003f0 df 74 38 bd a3 30 f0 bc ce 67 0b bf f3 9b e9 be
       -0.045033332 -0.029320067 -0.5445527 -0.45626792

net.4.bias f4 [3]
000000 fc a9 a5 3c 9d fa fd bc d1 6e 0f 3d
       0.020222656 -0.03100329 0.035017792
