saved_models/dqn_episode_8.pth (torch, 74333 bytes, 6 tensors)

net.0.weight f4 [128, 6]
0	0xbed51020	-0.41613865
1	0xbec15258	-0.37758136
2	0xbe7d3f5c	-0.24731201
3	0xbece7d79	-0.40330103
4	0x3d83d366	0.064368054
5	0x3e82acab	0.2552236
6	0xbe5c9d78	-0.21544445
7	0xbe766fcc	-0.24066085
8	0x3eafc5a0	0.34330463
9	0x3e3ff995	0.18747552
10	0x3edf10fe	0.43567652
11	0x3e2bae3e	0.16765687
12	0x3ef4d327	0.47817346
13	0x3e3497a4	0.17635971
14	0x3dfb69d0	0.122760415
15	0xbe83b786	-0.25725955
16	0x3afb1748	0.0019156719
17	0xbe2da2d9	-0.16956653
18	0x3e86876b	0.2627519
19	0x3e70c51d	0.23512693
20	0x3e8f4c94	0.27988112
21	0x3dc92549	0.09821565
22	0x3cdc8fce	0.02692404
23	0xbc89d088	-0.016823068
24	0x3cddc299	0.02707033
25	0xbe6f011c	-0.23340267
26	0xbf001208	-0.50027514
27	0x3e0beb12	0.13663891
28	0xbe6842a1	-0.22681667
29	0xbcd926d2	-0.026507769
30	0x3ef4bdf2	0.47801167
31	0xbea8a70a	-0.3293994
32	0xbce97b88	-0.028501287
33	0xbdcc5c0b	-0.09978493
34	0x3d039329	0.032122765
35	0xbd317329	-0.043322716
36	0x3e62974f	0.22128032
37	0x3ed3e789	0.41387585
38	0x3dab792e	0.083727226
39	0xbe473547	-0.19453917
40	0xbd38674a	-0.04502038
41	0x3e3899e1	0.1802745
42	0x3ec42e44	0.38316548
43	0xbe90bb84	-0.28268063
44	0xbddf2945	-0.108965434
45	0xbebdddf0	-0.37083387
46	0x3ca1ef18	0.01976733
47	0x3d61d940	0.055138826
48	0xbebe20e5	-0.37134472
49	0x3ecc0839	0.39850023
50	0x3db19a29	0.08671982
51	0x3e0674ff	0.13130568
52	0x3eae7467	0.34073183
53	0x3ec1e7ce	0.37872165
54	0x3e62243f	0.2208414
55	0xbe8fa3a9	-0.2805455
56	0x3e7191de	0.235908
57	0x3ebfc544	0.3745519
58	0xbe400144	-0.18750483
59	0x3e93501c	0.28772056
60	0xbe5cadb7	-0.21550642
61	0x3ebc9ade	0.36836904
62	0xbe87f062	-0.26550585
63	0x3cfd5a8f	0.03092697
64	0x3e4da3b0	0.20081973
65	0x3eaf4cf9	0.34238413
66	0xbe926bd3	-0.28597888
67	0x3e953bdd	0.29147235
68	0xbec4aa06	-0.38410968
69	0xbe42248a	-0.18959251
70	0x3e30bfad	0.17260619
71	0xbe6dbe63	-0.23217158
72	0xbee4f085	-0.44714752
73	0xbe63c5ac	-0.22243375
74	0xbe55e9ef	-0.2089002
75	0x3deaf183	0.11471846
76	0xbddd016e	-0.10791288
77	0x3eae875b	0.34087643
78	0xbe01df4a	-0.12682834
79	0x3d2ad86d	0.041710306
80	0xbdfe530a	-0.12418182
81	0x3e531c31	0.20616223
82	0xbe2dcff6	-0.16973862
83	0xbe863655	-0.26213327
84	0xbea6f5f8	-0.32609534
85	0xbd72cb55	-0.059275944
86	0x3e9f205d	0.3107938
87	0xbecd1de7	-0.40061876
88	0x3ed3ad9b	0.41343388
89	0x3e305925	0.17221506
90	0xbe5dea3d	-0.21671386
91	0xbd51b5b8	-0.05119869
92	0xbe8338b4	-0.256292
93	0xbd661b10	-0.056178153
94	0xbe8eb4b2	-0.27872235
95	0xbe9ce669	-0.3064454
96	0x3e791870	0.24325728
97	0xbe5136c0	-0.20431042
98	0x3bc2c2c9	0.0059436304
99	0x3dd4b4eb	0.1038607
100	0xbeb90423	-0.3613597
101	0x3e55e080	0.20886421
102	0xbe7ee4a5	-0.24891908
103	0x3e17ef28	0.14837325
104	0x3ed3eca5	0.41391483
105	0xbd9b1cfe	-0.07573889
106	0xbd02dcd4	-0.03194888
107	0x3e9d0789	0.3066981
108	0x3eaec78a	0.3413661
109	0xbc17ae63	-0.009257886
110	0x3e077db2	0.13231543
111	0x3da7c1d8	0.0819127
112	0x3dfa4d6a	0.12221797
113	0xbe08840f	-0.13331626
114	0xbeac8a34	-0.3369919
115	0xbdbd6744	-0.09248212
116	0x3e55d420	0.208817
117	0x3cfc4030	0.030792326
118	0xbecca5e8	-0.39970326
119	0xbeaf028c	-0.3418163
120	0xbec78b6e	-0.38973564
121	0x3c8c22d0	0.017106444
122	0xbe0911d0	-0.13385701
123	0xbdaf6dce	-0.085658655
124	0x3ecd635d	0.4011487
125	0xbd48cb6d	-0.049022127
126	0xbeb61376	-0.35561723
127	0xbe8502b2	-0.2597862
128	0xbe66f451	-0.22554137
129	0x3d71131a	0.058856107
130	0x3ea5a179	0.32349756
131	0x3eb30770	0.34966612
132	0xbe0c23b9	-0.13685502
133	0xbe54458e	-0.20729658
134	0x3e4391e0	0.19098616
135	0x3ea8cb81	0.3296776
136	0x3e8db327	0.27675745
137	0x3d80ed77	0.06295293
138	0xbd98e078	-0.07464689
139	0x3e7be614	0.24599487
140	0xbd4194c0	-0.047261
141	0xbec4dc47	-0.38449308
142	0x3e116234	0.14197618
143	0xbecaac2a	-0.39584476
144	0x3b9b3619	0.0047366736
145	0xbd3955d8	-0.045247883
146	0xbe09dec1	-0.1346388
147	0xbebff1d4	-0.37489188
148	0xbea53ab2	-0.32271343
149	0xbe98b50c	-0.29825628
150	0x3ebd4ac7	0.36971113
151	0x3d4f6ab0	0.050638855
152	0x3ee2faef	0.44332072
153	0xbe4cd59f	-0.20003365
154	0x3e140e7b	0.14458649
155	0x3e203241	0.1564417
156	0x3eace7bc	0.3377055
157	0xbebbc732	-0.3667541
158	0x3ec449f9	0.38337687
159	0xbe67b3d7	-0.22627197
160	0x3e4d3843	0.20040993
161	0x3e00c669	0.12575687
162	0xbe4991d5	-0.19684537
163	0xbe67ec8b	-0.22648828
164	0x3e988aab	0.29793295
165	0x3e8f1767	0.27947542
166	0xbdc35722	-0.09538104
167	0x3e03c9e6	0.12869987
168	0x3e5fc2dd	0.21851678
169	0xbd9fab13	-0.07796302
170	0xbe3d1864	-0.18466336
171	0x3dc28a07	0.09498983
172	0x3e176ac9	0.14786829
173	0xbd091a39	-0.033472273
174	0x3e88fb0c	0.26754034
175	0xbe9df510	-0.3085103
176	0xbd4e6128	-0.050385624
177	0xbd0a4f10	-0.033766806
178	0xbd291840	-0.041282892
179	0xbeb9a42a	-0.3625806
180	0x3ed026bd	0.40654555
181	0xbeb37fa4	-0.3505832
182	0x3e581d4e	0.21104929
183	0xbe2190c6	-0.15777883
184	0xbe96e0a4	-0.29468262
185	0x3cb103e7	0.021608306
186	0xbddfd8d1	-0.10930026
187	0x3ec3d072	0.3824497
188	0xbea3ac6b	-0.31967482
189	0xbdd42a3a	-0.103596166
190	0xbdd2fb71	-0.10301865
191	0x3da520fb	0.08062931
192	0x3d212ce7	0.039349463
193	0xbe68d738	-0.2273835
194	0xbe21ed59	-0.15813197
195	0xbe426c23	-0.18986563
196	0xbe809a6f	-0.25117823
197	0x3e024540	0.1272173
198	0xbe8c98d9	-0.27460364
199	0x3cfd0990	0.030888349
200	0xbeaa76c2	-0.3329373
201	0x3e4f65e6	0.20253715
202	0x3e6a0495	0.2285331
203	0xbe26ef29	-0.1630217
204	0x3e4ce13e	0.20007798
205	0x3e4c2c99	0.19938888
206	0xbe13fab5	-0.14451106
207	0x3e9190b6	0.28430718
208	0x3eb457f1	0.35223344
209	0x3e9a6475	0.30154768
210	0xbcf8bce6	-0.030363511
211	0xbca60e24	-0.020270415
212	0x3e80005f	0.25000283
213	0xbde7b2c6	-0.11313395
214	0xbe8cfabf	-0.27535054
215	0x3d84b308	0.0647946
216	0x3e06c317	0.13160358
217	0xbe31ed0b	-0.17375581
218	0xbe8a4508	-0.27005792
219	0x3e2bea59	0.16788615
220	0xbe9bbd45	-0.3041784
221	0x3d0e0d99	0.034680936
222	0x3edae3c5	0.427519
223	0xbe48f4b3	-0.19624595
224	0x3ea45f3e	0.32103914
225	0xbe622025	-0.22082575
226	0x3eef927a	0.4679144
227	0xbe42160a	-0.1895372
228	0xbec16d89	-0.3777888
229	0x3e96213e	0.29322237
230	0xbec3e854	-0.3826319
231	0x3e1c6711	0.15273692
232	0xbe52ee05	-0.2059861
233	0x3c93af9c	0.018028073
234	0x3d5a1ad4	0.05324824
235	0x3cf9c690	0.03049019
236	0xbeb5d847	-0.3551657
237	0xbe466d4b	-0.1937763
238	0xbebb960d	-0.36637917
239	0x3e47de11	0.19518305
240	0x3e9716ce	0.29509586
241	0x3e4c6ad0	0.1996262
242	0x3e102ea4	0.14080292
243	0x3eafac2a	0.34311038
244	0xbda3cb48	-0.07997757
245	0xbe97457a	-0.29545194
246	0x3dbed93f	0.0931878
247	0x3de2db63	0.11077001
248	0xbb48d113	-0.0030642196
249	0x3d03f66e	0.032217436
250	0xbeb2b601	-0.34904483
251	0x3e5430b9	0.20721711
252	0xbd5832a0	-0.052782655
253	0xbe652edf	-0.22381161
254	0xbe68b2c3	-0.22724442
255	0xbdb7a000	-0.089660645

net.0.bias f4 [128]
0	0x3eab1f13	0.33422145
1	0xbd3c3a47	-0.045954015
2	0xbb50764c	-0.0031808792
3	0x3e94c619	0.29057387
4	0x3e1dacca	0.15397945
5	0x3c55b040	0.01304251
6	0x3ea0f309	0.3143542
7	0x3e63b7a2	0.22238019
8	0x3d68413c	0.056702837
9	0x3d481561	0.048848514
10	0xbeb1ce91	-0.3472791
11	0xbcac8c0d	-0.021062875
12	0x3e859662	0.26091295
13	0x3e7e3331	0.24824215
14	0xbd48d217	-0.049028482
15	0xbeb36a3e	-0.35041994
16	0x3e320863	0.17386012
17	0xbd8e4da7	-0.06948405
18	0x3dd4f342	0.1039796
19	0xbe8232e4	-0.2542945
20	0x3d265d61	0.040616397
21	0xbe4a75a6	-0.19771442
22	0x3e22939c	0.15876621
23	0xbe99e107	-0.30054495
24	0x3ed0f262	0.40809923
25	0x3e1037f4	0.14083844
26	0x3eba6e1a	0.36412126
27	0x3df546b2	0.11976375
28	0x3d9cd5ea	0.07657988
29	0xbe26b2ae	-0.16279098
30	0x3e9cef62	0.30651385
31	0xbe64dcfa	-0.22349921
32	0xbdc821db	-0.097720824
33	0x3dbf0f9d	0.0932915
34	0xbec7bcfc	-0.3901137
35	0x3e2da5a0	0.16957712
36	0xbdef667a	-0.11689468
37	0xbd14ae7e	-0.03629922
38	0x3d689644	0.05678393
39	0xbc4c51e6	-0.012470698
40	0xbeb6f04a	-0.357302
41	0x3e5883be	0.21144006
42	0xbe029598	-0.12752378
43	0x3df308a8	0.118668854
44	0x3e505b80	0.20347404
45	0x3d47f976	0.04882189
46	0x3e316da7	0.17326985
47	0xbebf9d10	-0.37424517
48	0x3cc38bdc	0.023870401
49	0xbe9ea41a	-0.30984575
50	0xbe93014c	-0.28711927
51	0x3d029ecc	0.03188972
52	0xbd9cb1b0	-0.07651079
53	0xbe76dffd	-0.24108882
54	0x3eb8d882	0.36102682
55	0xbe99919e	-0.2999391
56	0xbce83ae7	-0.0283484
57	0x3e978a02	0.2959748
58	0x3e4b0632	0.19826582
59	0xbe04e07f	-0.12976263
60	0x3dab4ea8	0.08364612
61	0xbd1ab523	-0.0377704
62	0xbe89a601	-0.26884463
63	0x3e2835a0	0.16426706
64	0xbd588438	-0.05286047
65	0x3d7a3b38	0.06109163
66	0x3e8e5348	0.27797914
67	0xbdecacfe	-0.11556433
68	0x3ebb8689	0.3662608
69	0x3dc3fa9a	0.09569283
70	0x3d615643	0.055013906
71	0xbdf55585	-0.11979202
72	0xbd69d850	-0.057091057
73	0xbdfcb6d4	-0.12339559
74	0x3ea0ab50	0.313807
75	0xbd3b3825	-0.04570784
76	0xbe6410be	-0.22272012
77	0x3e970e7a	0.29503232
78	0xbe4acf99	-0.19805755
79	0xbe9aef91	-0.302609
80	0xbda64b70	-0.08119857
81	0x3c23701d	0.00997546
82	0xbe81fce9	-0.25388268
83	0xbdf3fe9e	-0.11913799
84	0xbd4ef0fd	-0.050522793
85	0xbc9da938	-0.019245729
86	0x3d1d3e04	0.03838922
87	0x3d369a82	0.044580944
88	0xbc8c317d	-0.017113442
89	0xbda3a7e1	-0.07991005
90	0xbe317040	-0.17327976
91	0x3cd496b2	0.025950763
92	0xbd1cdaa5	-0.038294453
93	0xbd98ac55	-0.07454745
94	0x3e63dddb	0.222526
95	0x3dfcefc0	0.12350416
96	0xbe88e672	-0.26738316
97	0xbec05966	-0.37568206
98	0xbe0ff9e5	-0.14060171
99	0xbe5346ad	-0.2063243
100	0x3e7375dc	0.23775429
101	0x3dff5b50	0.12468588
102	0x3e8fac89	0.2806132
103	0xbe00c4f4	-0.12575132
104	0x3e9f590d	0.31122628
105	0x3ddd976f	0.10819899
106	0x3e7a21f2	0.24427012
107	0x3d37a610	0.044836104
108	0x3e99719c	0.2996949
109	0x3eb5c387	0.35500738
110	0x3e0c4ead	0.13701887
111	0xbe1b75b4	-0.15181619
112	0x3daec185	0.08533005
113	0x3e67fa5c	0.22654098
114	0x3bd31cbf	0.006442636
115	0x3ed8a2d8	0.4231174
116	0xbdaf23ab	-0.08551725
117	0x3eb82d11	0.35971883
118	0x3e83b393	0.25722942
119	0xbdf34357	-0.118780784
120	0x3df2b136	0.118502066
121	0x3ea53d34	0.32273257
122	0x3e9810eb	0.29700407
123	0xbd89ebd8	-0.06734437
124	0xbea08e1f	-0.3135843
125	0xbdbc6692	-0.09199251
126	0x3e448efd	0.1919517
127	0x3edffad1	0.43746045

net.2.weight f4 [128, 128]
0	0x3c249f9d	0.01004782
1	0xbcb795bf	-0.022410272
2	0xbc840ba3	-0.01611883
3	0x3da26c46	0.07930808
4	0xbcd9265a	-0.026507545
5	0x3ddd6203	0.1080971
6	0x3d3fd5ef	0.046834882
7	0xbdea0864	-0.11427382
8	0x3d3c2198	0.045930475
9	0xbdf4caba	-0.119527295
10	0x3dc10ea1	0.09426618
11	0x3ccfd5c3	0.025370484
12	0x3d0431bc	0.032273993
13	0xbb8e2be6	-0.004338729
14	0xbdd55f2e	-0.10418545
15	0xbd2fc3f4	-0.042911485
16	0xbbb110fc	-0.005403636
17	0x3b2a8497	0.002601897
18	0xbc6020c1	-0.013679684
19	0xbca3ecdc	-0.020010404
20	0x3ce5579f	0.027995883
21	0xbd74be5f	-0.059751865
22	0x3d99a1bf	0.07501554
23	0x3d9ae011	0.075622685
24	0xbd5eba3e	-0.054376833
25	0xbced3419	-0.028955506
26	0xbd7a53da	-0.061115123
27	0xbd79a2db	-0.060946327
28	0xbd861b9e	-0.06548236
29	0xbd92b2b2	-0.0716299
30	0x3d524fcc	0.05134563
31	0xbd06d41f	-0.03291714
32	0x3db9e333	0.09076538
33	0x3c5bdc7b	0.013419266
34	0xbd5245f0	-0.05133623
35	0xbd97724e	-0.07394849
36	0xbe0eeb98	-0.1395706
37	0xbceea14c	-0.029129647
38	0x3d0928c2	0.033486135
39	0x3c22ec13	0.00994398
40	0xbc5d6068	-0.013511755
41	0x3d5817d6	0.052757107
42	0x3dab43b5	0.083625235
43	0x3d8a5347	0.06754165
44	0xbd4b3d1b	-0.04961882
45	0x3d07fa69	0.033197794
46	0x3bf0ba76	0.0073464466
47	0xbd1c48b3	-0.03815527
48	0x3de2bb99	0.11070938
49	0xbd040340	-0.032229662
50	0x3e0284e6	0.12746009
51	0x3866092c	5.4844815e-05
52	0xbc919072	-0.017769072
53	0xbcc5614c	-0.024094246
54	0x3b876bf9	0.0041327444
55	0x3c4c4804	0.012468342
56	0x3d67328b	0.056444686
57	0xbd88be3c	-0.06676909
58	0xbc0b7969	-0.008512833
59	0xbe176e8e	-0.14788267
60	0x3d8b1c4f	0.06792509
61	0xbe15175f	-0.14559697
62	0xbe0b83c0	-0.13624477
63	0x3da62ddd	0.081142165
64	0x3d1767b2	0.036964126
65	0xbbcfde3c	-0.006343631
66	0x3d9df877	0.077134065
67	0xbd802b98	-0.06258315
68	0x3d93687b	0.071976624
69	0x3cba17ce	0.02271643
70	0xbd65a23f	-0.056062933
71	0x3d4890e0	0.04896629
72	0xbd7a1965	-0.061059374
73	0xbdab99b6	-0.083789274
74	0x3d64be3c	0.055845484
75	0x3db1a831	0.08674658
76	0x3d08b670	0.03337711
77	0x3d7b2223	0.061311852
78	0xbe76c80c	-0.2409975
79	0x3dc0bfd8	0.09411591
80	0x3d9dd8d1	0.0770737
81	0x3d0eca2d	0.03486078
82	0xbdc14cd1	-0.0943848
83	0xbd2bb2cf	-0.041918572
84	0x3d960e03	0.07326891
85	0x3ddd9eef	0.1082133
86	0xbeaba061	-0.33520797
87	0xbcf8463e	-0.030306932
88	0x3dda00b3	0.106446646
89	0x3db262b2	0.08710231
90	0xbd4cdcf5	-0.05001541
91	0x3cae1855	0.021251837
92	0x3d5e5a29	0.054285202
93	0xbca0e46f	-0.019640176
94	0x3d26b31a	0.04069815
95	0xbccfa4dc	-0.025347166
96	0x3c87060b	0.016482374
97	0xbd482bce	-0.0488699
98	0x3d4cabf7	0.049968686
99	0x3de42c60	0.11141276
100	0xbbe05d85	-0.006847086
101	0xbd84dbe5	-0.06487254
102	0x3c0055d4	0.007832963
103	0xbd82a24d	-0.06378613
104	0x3bf8a3d0	0.0075878873
105	0x3da649bb	0.08119532
106	0xbc10a5f9	-0.008828633
107	0xbdec40cf	-0.11535799
108	0x3cf7f809	0.03026964
109	0x3d92cbcb	0.07167777
110	0xbe0ba1e9	-0.13635983
111	0xbc849114	-0.01618246
112	0xbdf3b4a7	-0.11899691
113	0x3ccb1127	0.024788452
114	0x3c52884e	0.01284988
115	0x3d1240a6	0.035706185
116	0x3cc2004e	0.023681786
117	0x3d0947ec	0.033515856
118	0xbc9396cd	-0.018016243
119	0xbcd2d4a0	-0.025736153
120	0xba3d1e3b	-0.00072142825
121	0xbcf92bdf	-0.030416427
122	0xbdf2a93d	-0.11848686
123	0x3d308306	0.043093704
124	0x391109f4	0.00013831985
125	0x3dc0a2da	0.094060615
126	0xbdd2c80b	-0.102920614
127	0xbdc5b47b	-0.096535645
128	0x3bb06ea5	0.0053842836
129	0xbd9b3cd0	-0.075799584
130	0xbd6b7d52	-0.05749256
131	0x3d883c58	0.06652135
132	0xbcec9b7a	-0.02888273
133	0xbdb1b7eb	-0.08677658
134	0x3c3808ba	0.011232549
135	0xbd9146c2	-0.07093574
136	0xbd0b48ba	-0.034004904
137	0xbd25d620	-0.04048741
138	0xbc1dee72	-0.009639369
139	0xbd55a03b	-0.05215476
140	0x3c498742	0.012300314
141	0xbbf804c1	-0.007568926
142	0xbd702c72	-0.058636136
143	0x3d89d3db	0.06729861
144	0xbd4ca2e3	-0.04996003
145	0xbd8e33d1	-0.06943477
146	0xbdac749d	-0.0842068
147	0xbccaa30c	-0.02473595
148	0x3d45fd49	0.048337255
149	0xbd345849	-0.044029508
150	0x3d439da3	0.047757756
151	0x3d0ea474	0.034824803
152	0x3d323f82	0.043517597
153	0x3d9b3147	0.07577758
154	0x3d581e57	0.05276331
155	0x3d54e668	0.051977545
156	0x3ceabdb6	0.028654914
157	0xbdab9cf1	-0.083795436
158	0x3cfa1514	0.030527629
159	0x3d8ba49c	0.06818506
160	0xbd31d621	-0.0434171
161	0xbcb82c7d	-0.022482151
162	0xbd36599a	-0.044519044
163	0xbcd95d2f	-0.026533691
164	0xbd133f2a	-0.03594891
165	0xbd5e17d7	-0.054221954
166	0xbd415766	-0.04720249
167	0x3c1a483b	0.009416635
168	0x3d377b6e	0.044795446
169	0x3da07b85	0.078360595
170	0x3cc43410	0.023950607
171	0x3bec5ae0	0.0072129816
172	0xbc8add08	-0.016951099
173	0xbd53d774	-0.051719144
174	0xbd8af48c	-0.06784925
175	0xbd1764bb	-0.0369613
176	0xbc97c1a1	-0.018524947
177	0x3ca29658	0.01984708
178	0xbd61b34c	-0.05510263
179	0xbd910555	-0.07081095
180	0xbd43ddc2	-0.047818907
181	0xbb8436c0	-0.004034847
182	0x3d022355	0.031771977
183	0x3ce6da58	0.028180286
184	0xbd5db437	-0.054126944
185	0x3cd1c92c	0.025608622
186	0xbd9a5366	-0.07535438
187	0xbcd26c53	-0.025686419
188	0xbdb69674	-0.089154154
189	0xbd67747f	-0.056507584
190	0x3db1ba21	0.086780794
191	0xbb9cfdc0	-0.0047909915
192	0xbdae4e9e	-0.08511089
193	0x3d12bdcd	0.03582554
194	0xbc65a82e	-0.014017148
195	0xbd1ae31e	-0.037814252
196	0xbd602da1	-0.054731015
197	0x3d7996db	0.060934883
198	0xbd7dec31	-0.061992828
199	0x3d7aa9f1	0.061197225
200	0xbd41b89e	-0.047295205
201	0x3bd93a00	0.0066292286
202	0x3cce91bd	0.025215978
203	0x3da89b69	0.08232767
204	0xbd729931	-0.059228126
205	0xbcf4ca0a	-0.029881496
206	0xbcb79234	-0.022408582
207	0xbd37b625	-0.04485144
208	0x3d1adabe	0.037806265
209	0xbd34272c	-0.04398267
210	0xbd4c32ec	-0.04985325
211	0x3d0fab76	0.035075627
212	0x3d9f0bf3	0.07765951
213	0x3d965da7	0.073420815
214	0x3d9c9e79	0.07647414
215	0x3d13643b	0.03598426
216	0xbd3be542	-0.045872934
217	0x3d587d72	0.05285401
218	0x3d610472	0.05493588
219	0xbd242f21	-0.040084008
220	0xbd6771fb	-0.056505185
221	0x3cba50b9	0.02274357
222	0xbcbd6aa8	-0.023122147
223	0xbd7c2f6c	-0.061568663
224	0x3d8dea0d	0.06929407
225	0x3d607ac6	0.054804586
226	0xbd3fa08b	-0.046783965
227	0xbce9cfeb	-0.028541526
228	0xbd893910	-0.06700337
229	0x3d53b87a	0.051689602
230	0x3d6dd734	0.05806656
231	0x3d38c31e	0.045107953
232	0xbd9aafb0	-0.07553041
233	0x3cbc2571	0.022967072
234	0xbd8e2718	-0.0694105
235	0x3d119510	0.035542548
236	0x3d04e210	0.032442153
237	0xbaabe699	-0.0013114988
238	0x3ccc694e	0.024952557
239	0xbd4631cb	-0.04838733
240	0xbdb1d162	-0.08682515
241	0x3dab17e3	0.083541654
242	0xbd6b5bfc	-0.05746077
243	0x3d16c912	0.03681285
244	0xbd645dd1	-0.055753533
245	0xbd6ec6a6	-0.058294915
246	0x3d4b9530	0.049702823
247	0x3da06318	0.07831401
248	0xbd2b862a	-0.041875996
249	0xbdacf93f	-0.084459774
250	0xbd244a4d	-0.04010992
251	0x3d56dd96	0.052457415
252	0x3c8f8adc	0.017522268
253	0xbc38a315	-0.011269351
254	0xbd9622b9	-0.073308416
255	0xbcfdfd0a	-0.031004447

net.2.bias f4 [128]
0	0x3dad536a	0.084631756
1	0xbd0e0732	-0.03467483
2	0x3d03766d	0.03209536
3	0x3da2905c	0.079376906
4	0x3d3fd088	0.04682973
5	0xbd4a0996	-0.049325548
6	0xbd160bdc	-0.036632404
7	0x3d56b412	0.052417822
8	0x3d33a4d6	0.04385837
9	0x3d0bf5eb	0.034170073
10	0xbd045b7c	-0.03231381
11	0xbd16e2d7	-0.036837425
12	0x3d0f1108	0.03492835
13	0x3d710c9e	0.058849923
14	0x3d9608db	0.07325908
15	0xb9e47da2	-0.00043581153
16	0xbc9890b5	-0.01862369
17	0x3d165f21	0.036711816
18	0xba36737f	-0.0006959959
19	0xbd379c8f	-0.04482704
20	0xbcf2e8fa	-0.029652108
21	0xbc9e60fa	-0.019333351
22	0xbd2512d0	-0.040301144
23	0xbdb41b5e	-0.087942824
24	0x3d36f422	0.044666417
25	0xbd58ee1c	-0.052961454
26	0xbdacf7f0	-0.08445728
27	0x3d4dc14a	0.050233163
28	0xbdb8cf40	-0.09023905
29	0x3d643382	0.055713184
30	0x3cf3910b	0.029732248
31	0xbcb9ecec	-0.022695981
32	0xbd6a4d26	-0.05720248
33	0xbcd45943	-0.02592147
34	0xbce0ecae	-0.027456608
35	0x3c19e6d6	0.0093934145
36	0xbc944514	-0.018099345
37	0xbdaf6232	-0.08563651
38	0xbb985880	-0.004649222
39	0xbd434e1b	-0.04768191
40	0x3d14b93d	0.03630947
41	0x3d18ab9a	0.037273027
42	0x3b0b6e69	0.0021275526
43	0x3d941c7a	0.07231994
44	0xbda304c3	-0.079598926
45	0xbd687d03	-0.056759845
46	0x3b2b968e	0.0026182267
47	0x3d209d28	0.039212376
48	0xbd877616	-0.0661432
49	0xbd849360	-0.06473422
50	0xbcb1e8ed	-0.021717513
51	0x3d9bfd2d	0.07616649
52	0x3cebb644	0.028773434
53	0x3d0aeef4	0.03391929
54	0x3c3aee66	0.011409378
55	0xbd1a86ff	-0.0377264
56	0x3d881cf6	0.06646149
57	0x3c644d1e	0.013934402
58	0xbd374d6a	-0.044751562
59	0xbd2bd8a0	-0.041954637
60	0xbc603657	-0.013684831
61	0xbd71e9fb	-0.05906103
62	0x3d6c3512	0.0576678
63	0x3d36ee32	0.044660755
64	0x3d25909e	0.04042112
65	0xbd7f07e4	-0.062263384
66	0xbbb7dadb	-0.0056108064
67	0x3b040fce	0.0020151022
68	0xbd6a7d27	-0.05724826
69	0x3b7ed889	0.003888639
70	0x3d837fe7	0.0642088
71	0xbbd09bec	-0.0063662436
72	0x3d4cf585	0.050038833
73	0xbccee77f	-0.02525687
74	0x3db22b27	0.08699637
75	0x3da04798	0.078261554
76	0xbd9ba99e	-0.07600711
77	0xbd63ab02	-0.055583008
78	0x3d18c806	0.037300132
79	0xbd45cc12	-0.04829032
80	0x3d63dc2d	0.055629898
81	0x3d5b157c	0.053487286
82	0x3abcedef	0.0014414171
83	0x3d157a58	0.03649363
84	0x3da189a5	0.07887582
85	0x3d0a6bfa	0.03379438
86	0x3cab8145	0.020935664
87	0xbd8b57fc	-0.06803891
88	0xbb77c9e6	-0.003780955
89	0x3d1bcb97	0.038035955
90	0xbd1e9cc0	-0.038723707
91	0x3d45c275	0.04828115
92	0x3d728099	0.05920467
93	0xbcafe620	-0.021472037
94	0xbd233c96	-0.0398527
95	0xbcb125fc	-0.021624558
96	0x3da0b522	0.07847048
97	0xbd8c014e	-0.06836186
98	0xbd292f02	-0.041304596
99	0xbd11bc4c	-0.035579965
100	0x3b687451	0.003546972
101	0xbd298156	-0.04138311
102	0xbdb2ac06	-0.08724217
103	0xbc1aba88	-0.009443887
104	0x3c08fed0	0.008361533
105	0x3d8017b5	0.06254522
106	0x3d3d4b5e	0.046214454
107	0xbd240672	-0.04004521
108	0x3c5ba6dc	0.013406482
109	0xbd53cf39	-0.051711295
110	0x3ccf74e1	0.025324287
111	0xbd960468	-0.07325059
112	0x3d0342ee	0.03204625
113	0xbcc5b4a5	-0.02413399
114	0x3d52264a	0.051306047
115	0xbc531990	-0.012884513
116	0xbc1f9055	-0.009739001
117	0xbd980b7d	-0.07424066
118	0x3bbef2f4	0.005827302
119	0xbd8fdaa4	-0.07024124
120	0xbdabc4e7	-0.083871655
121	0x3c3c1b85	0.011481171
122	0xbd5566a3	-0.052099835
123	0x3ba289ee	0.00496029
124	0x3d700c90	0.05860573
125	0x3ca63de9	0.020293193
126	0xbd919a50	-0.07109511
127	0xbd840e08	-0.06447989

net.4.weight f4 [3, 128]
0	0xbd292660	-0.041296363
1	0xbd9fab8c	-0.07796392
2	0xbd86f323	-0.065893434
3	0x3c4b3b14	0.012404222
4	0xbc06a8f4	-0.0082189925
5	0x3da63c74	0.08116999
6	0xbd9230d8	-0.071382225
7	0xbc6fd434	-0.0146379955
8	0x3c111dc0	0.008857191
9	0xbd8cb236	-0.068699285
10	0x3d0db666	0.034597777
11	0xbd5935de	-0.053029887
12	0x3c8759e8	0.016522363
13	0xbd2fdcc5	-0.04293515
14	0xbd8a7f2f	-0.067625396
15	0x3cca8175	0.024719933
16	0xbd64e83a	-0.05588553
17	0x3d630c69	0.055431757
18	0xbcd4e945	-0.025990138
19	0x3dbf4e0e	0.093410596
20	0x3d95562d	0.07291827
21	0xbd1c1825	-0.038108964
22	0xbd82f02b	-0.06393465
23	0xbd59674e	-0.053077035
24	0xbdace89a	-0.08442803
25	0xbd5f9840	-0.054588556
26	0x3d8f38d5	0.06993262
27	0xbd283bf4	-0.0410728
28	0x3bcf16d0	0.006319858
29	0x3df88068	0.121338665
30	0xbdbf25f5	-0.093334116
31	0xbd83f905	-0.06443981
32	0x3d8935dd	0.06699727
33	0x3c052615	0.008126755
34	0x3d16403a	0.036682345
35	0x3bf65874	0.0075178687
36	0x3d5838a6	0.0527884
37	0xbd9cbce1	-0.07653213
38	0xbd7e8345	-0.062136907
39	0xbd555d8c	-0.052091166
40	0xbd288a15	-0.04114731
41	0x3d9914e7	0.0747469
42	0x3dc5ff14	0.09667793
43	0x3cdab803	0.026699072
44	0xbd867397	-0.06565016
45	0xbda13e97	-0.07873266
46	0xbdb8d274	-0.09024516
47	0xbb831c6a	-0.00400119
48	0x3da73f75	0.081664
49	0x3b19d040	0.0023470074
50	0xbcee8db9	-0.029120313
51	0xbbb54d3e	-0.0055328896
52	0x3d0e406b	0.034729403
53	0x3d0efb0b	0.034907382
54	0xbd3a961b	-0.045553308
55	0xb9804024	-0.0002446185
56	0xbb42d9c5	-0.0029731852
57	0x3d21bd49	0.039487157
58	0xbe072e2e	-0.1320121
59	0x3d4a6cde	0.04942023
60	0xbd16be02	-0.0368023
61	0x3bf94080	0.007606566
62	0x3c63d109	0.013904818
63	0xbd4a86b4	-0.04944487
64	0x3d0e0a26	0.034677647
65	0x3db0fb34	0.08641663
66	0x3d9eec6d	0.077599384
67	0xbdab8e07	-0.08376699
68	0x3cd035b1	0.025416227
69	0x3d14d4f0	0.036335886
70	0xbbca5e42	-0.006175787
71	0xbd9122e4	-0.07086733
72	0xbc58bb8f	-0.013228311
73	0xbd070d8b	-0.0329719
74	0x3cc78308	0.024354473
75	0x3d6dff90	0.05810505
76	0x3d001bd2	0.03127653
77	0x3c8d9894	0.017284669
78	0xbd4270fa	-0.047471024
79	0xbd879937	-0.0662102
80	0x3d40dac0	0.047083616
81	0xbd2f9e00	-0.04287529
82	0x3ca2974c	0.019847535
83	0xbd238212	-0.039918967
84	0xbd82d247	-0.063877635
85	0x3e1e8a6b	0.1548249
86	0x3d10a2e7	0.035311606
87	0xbd529a22	-0.051416524
88	0xbcf33277	-0.02968715
89	0x3db2373c	0.08701941
90	0xbd95da60	-0.07317042
91	0xbd3042e0	-0.043032527
92	0x3d33ddbe	0.04391264
93	0xbc86da3f	-0.01646149
94	0xbdf2f0f5	-0.11862365
95	0x3db2aed9	0.08724756
96	0xbd3e733e	-0.046496622
97	0xbb37b6b4	-0.0028032484
98	0x3cec8eb8	0.028876647
99	0xbd634002	-0.055480964
100	0xbde89e9e	-0.11358379
101	0xbae68f0c	-0.0017590239
102	0x3d903cff	0.07042884
103	0x3cd1c19e	0.02560502
104	0x3de12c9c	0.10994837
105	0xbbfa3cc0	-0.0076366365
106	0x3d88d98b	0.06682118
107	0xbd3f3b3c	-0.04668735
108	0xbcc3f412	-0.023920093
109	0xbcca7ec3	-0.024718648
110	0xbd15402b	-0.03643815
111	0xbccd4a0b	-0.02505972
112	0x3cf04b14	0.029332675
113	0x3dd126a8	0.10212451
114	0x3d8d05ad	0.06885848
115	0xbcc13820	-0.023586333
116	0xbd242f5a	-0.04008422
117	0x3cfc8bf0	0.030828446
118	0x3cb7e595	0.02244834
119	0xbd5629e4	-0.052286044
120	0x3d926efd	0.071500756
121	0xbd1ae603	-0.037817013
122	0x3cc690a4	0.024238892
123	0xbd4f4696	-0.050604425
124	0x3d8366e4	0.06416109
125	0x3d5bf475	0.05369993
126	0xbda4c490	-0.08045304
127	0xbb32c400	-0.002727747
128	0xbda57704	-0.08079341
129	0x3cbe70b0	0.023247093
130	0xbde949d1	-0.113910325
131	0x3c6e3eec	0.014541369
132	0xbcb1ead4	-0.02171842
133	0x3d5206e8	0.051276118
134	0x3d18b787	0.0372844
135	0x3d47c9a3	0.04877628
136	0x3c8e7838	0.01739131
137	0x3b6b0b85	0.003586502
138	0x3a7b1900	0.00095786154
139	0x3ca84d21	0.02054459
140	0x3ca37536	0.019953351
141	0xbd6c4a28	-0.05768791
142	0xbd96eda4	-0.07369545
143	0xbd9e73a9	-0.07736904
144	0xbbb595db	-0.005541546
145	0x3ddb92cf	0.10721361
146	0x3d44fea1	0.048094396
147	0x3db2489f	0.087052576
148	0xbd90a09e	-0.07061885
149	0x3d6840f6	0.056702577
150	0xbcc87e97	-0.024474425
151	0xbd4063f4	-0.046970323
152	0xbd828caf	-0.063744895
153	0xbd8905c9	-0.066905566
154	0x3c607530	0.013699815
155	0x399d07bc	0.00029951136
156	0x3da7cdd2	0.08193554
157	0x3c5f5a68	0.013632394
158	0xbd87129e	-0.06595348
159	0x3c9ff690	0.01952675
160	0x3d2f3a06	0.042779945
161	0xbd9405dd	-0.07227681
162	0x3d0ba52a	0.03409306
163	0xbccd46e9	-0.025058227
164	0xbc1ef7b0	-0.009702608
165	0x3d523c5e	0.051327102
166	0xb98e2900	-0.00027114898
167	0x3c22f2c0	0.009945571
168	0xbd87c83f	-0.06629991
169	0x3dea7c7a	0.11449523
170	0x3dc66a47	0.096882395
171	0xbd61a0e2	-0.05508507
172	0xbd1f7452	-0.03892929
173	0x3ce5bbb0	0.028043598
174	0xbd88e368	-0.06683999
175	0x3d70158c	0.0586143
176	0x3cac9934	0.021069147
177	0xbd361923	-0.044457566
178	0xbca8fad1	-0.020627411
179	0x3d1ddad8	0.038538784
180	0x3b35adc7	0.0027721988
181	0x3d026c4b	0.031841557
182	0xbd5e9eef	-0.05435079
183	0xbc421e8a	-0.011848101
184	0xbd681951	-0.05666477
185	0x3d31e014	0.04342659
186	0xbdffb8b5	-0.12486402
187	0xbd67d346	-0.05659797
188	0xbccec09b	-0.025238326
189	0xbd03ebd1	-0.032207314
190	0xbd627e3c	-0.055296168
191	0x3d2a7717	0.04161748
192	0xbd0394ff	-0.032124516
193	0xbd996c21	-0.07491327
194	0xbd724c23	-0.05915464
195	0x3d16d390	0.036822855
196	0x3cb56a11	0.022145303
197	0xbd1cb376	-0.038257085
198	0x3d43da5e	0.047815673
199	0xbdcc5b07	-0.099782996
200	0x3d29854a	0.04138688
201	0xbdb5f6a6	-0.08884935
202	0xbd3d002e	-0.04614275
203	0x3c36ebf4	0.011164654
204	0x3d976b17	0.07393473
205	0xbbc6a5f5	-0.006062264
206	0x3ba39f82	0.00499338
207	0x3d42ad3e	0.047528498
208	0x3d3cd844	0.046104684
209	0xbdbbfecd	-0.09179459
210	0xbd1c30bd	-0.038132418
211	0x3d2988e9	0.041390333
212	0x3c5f3798	0.013624094
213	0x3e13d16c	0.14435357
214	0x3ce29a4d	0.027661467
215	0xbc4393b1	-0.011937068
216	0x3baf19d4	0.005343655
217	0x3d6e5836	0.058189593
218	0xbd953b71	-0.07286728
219	0xbd48639c	-0.04892312
220	0x3d9f9e7a	0.07793899
221	0xbd23976a	-0.03993932
222	0xbdc586d4	-0.09644857
223	0x3d282dfe	0.041059487
224	0xbcfd3d25	-0.030912945
225	0x3d5e92c0	0.05433917
226	0x3da1a847	0.078934245
227	0xbdc69da9	-0.0969804
228	0xbd8e1c15	-0.0693895
229	0xbc15cd5e	-0.009143202
230	0xbc5d8290	-0.013519898
231	0xbc8b401d	-0.016998345
232	0x3dc0086d	0.09376607
233	0x3d20897e	0.039193623
234	0x3ce6273c	0.02809488
235	0x3cf1f1aa	0.02953418
236	0xbd69530f	-0.056963976
237	0x3c2b23f3	0.010445583
238	0xbd2086a4	-0.039190903
239	0xbd989a2a	-0.074512795
240	0x3d54f0ea	0.051987566
241	0x3e106a03	0.1410294
242	0x3d5763d2	0.05258543
243	0xbc4daa58	-0.01255282
244	0x3d69360f	0.05693632
245	0xbd4988f1	-0.049202863
246	0xbd9dc74e	-0.0770403
247	0xbd5d355d	-0.05400597
248	0x3b6b686b	0.0035920392
249	0xbd5b13d9	-0.053485725
250	0x3ce3c969	0.027806
251	0xbda9e095	-0.08294789
252	0x3d36c7f2	0.044624276
253	0x3dad7a9b	0.08470651
254	0xbd921bed	-0.07134233
255	0xbdad8eaf	-0.0847448

net.4.bias f4 [3]
0	0xbcbd1292	-0.023080144
1	0xbd92f91e	-0.071764216
2	0x3d4655a2	0.04842151
