saved_models/dqn_episode_950.pth (torch, 74357 bytes, 6 tensors)

net.0.weight f4 [128, 6]
00000000: 980e 003e 0d3e a13e 905c bf3e dc2c 5cbe
00000010: c57f ab3d 5c60 93be 70c7 bfbe 9676 dabe
00000020: c309 b53e 45f6 1fbe 487e 3e3e 32d6 84be
00000030: de59 77bd 613a ecbe 07dc 1ebf 99eb a0be
00000040: 2a3a 413d 8cb2 37bc 0980 68be 9bd3 873d
00000050: 61ed 633e dd22 43bd be05 2e3e d37e 46be
00000060: 2315 25be 1ca6 c8be 6c22 783e 8b09 843e
00000070: 9720 23be d50e d43e 15d4 093f 33a3 c0be
00000080: dd83 493e 224d 013e 0f76 edbe 9506 19be
00000090: 88b3 41bf c2e8 c93e 4270 20bf 3fd6 eabe
000000a0: 5086 f93e b99a c3be b26e 4ebe c724 95be
000000b0: 64c6 a0be 30a5 20bd 9449 cebe 5ba5 9fbe
000000c0: 7e1f b73e 66fd 69bd b718 fc3c 3f2b d5bc
000000d0: dc3b aabe a967 ebbd 7aac a63e 2c83 26bf
000000e0: 6bf6 dbbb 29d7 773e 7eb3 97be f486 443e
000000f0: 43d6 f9be 4a54 2cbe ada7 c3be 5714 273f
00000100: 5760 c43e 5b59 dd3d 637a 133e 1c03 9b3d
00000110: 5aaf 0cbd 0dfc dd3c 3cb8 163d 957d a5be
00000120: 6c5e 5e3e ceea 58be 5de6 463f 0e08 28bc
00000130: e193 b6bd e226 0ebd b57e 413e 9e46 193f
00000140: a74f 153e d337 f83e 37b5 8dbe 16f7 9abe
00000150: 4605 febe b91a 6d3e 309b 893e 7b27 073e
00000160: 89aa 8b3d fc4f 56be d1c5 f13c c054 123f
00000170: 657e 0b3e 726f 053e d4a1 643d a478 60be
00000180: 49c6 42be b9f5 f8bd e7a3 e5be 72dd 2dbe
00000190: eaed b4bd 7c71 723e 1ed1 143e f3aa 253c
000001a0: 4b4a d63e 87e5 3bbe 32f3 93bd cf20 223d
000001b0: aa70 b1bd aba1 e53c 38d5 f6be b925 443c
000001c0: c0c1 33be 7467 973e dce7 ee3d 4cd0 ed3e
000001d0: 1fda e23e af63 61be ebcb 073d b6e1 b73d
000001e0: c0b6 8fbc 2474 4c3e a45f 683e 6238 ad3e
000001f0: d0d2 053d df8a 83be f9eb 9bbe 5da5 753e
00000200: 9d38 1cbf f557 5b3e 31e0 6d3e 7df9 36be
00000210: 4348 56be 442f 2ebe 43f8 44bf 2450 b6bd
00000220: bdc9 9d3d 360d a73d 538b 32bd 71f1 e13e
00000230: cc15 c6bd 107f 0c3f 3e4b 2b3c e5a0 cebd
00000240: 4f15 0cbe 75b7 383c 45e1 bbbe 82d6 e3b9
00000250: ed79 86bc 5262 073e 720c bb3e 0ab7 1abf
00000260: 2714 053e 11af 3abe 2c07 2c3e 44ae 363e
00000270: 2949 41be e32a 3f3e 2146 8b3d 2ece 2fbc
00000280: 36a8 713d 584d bb3d 1b91 48be 3741 3f3e
00000290: 7120 aa3e 9c9c c73d dae6 65bd 81e9 b4bd
000002a0: d0cb 553d 2cd7 c2bd 0079 10bd fca4 2f3e
000002b0: 42ed 51be 10d5 273d 581a 5e3e 7031 0dbe
000002c0: 4425 76be fad7 c33e a026 3dbe deaa adbe
000002d0: 9633 2bbe 0089 c9be 183d c1be 50a3 8b3d
000002e0: a460 a0bd 90dd 373d 945e df3c c42c ef3e
000002f0: cffc 033e abb3 93bd fd83 06bd 2912 1ebd
00000300: 7984 03be 965d 413e 8c28 33be 0cd5 14bc
00000310: 5d2b a8be 11d3 1ebe fe48 90be a744 eabe
00000320: 0f5c c3bd b71f 063e 25e8 e73e b99a 0c3e
00000330: f7df 1d3a 31f6 853e a029 143f c23e 80be
00000340: a2ef 35be 7aa4 90be 2da4 1abf 9d63 b6be
00000350: fc32 9bbc 7e09 b03e 9906 093f 483f c83c
00000360: 50f4 f53c 4b29 4ebe 037a 57be 88ea 093e
00000370: c0d8 803b f8bc 3fbd f6ec c4bd 296d ddbb
00000380: 3310 05bf 5521 f5bd 8784 67bd fa61 4bbe
00000390: 18ab 813d 1836 9fbe 465a 21bd d750 16bf
000003a0: ecd5 8abd d8d2 a23e da77 02be b2ae 08bf
000003b0: 7e73 033e ff0d 0c3d bd9a 053f 3e2e da3b
000003c0: 1a6a 7bbe 4261 b6be c8e6 b83d af74 963e
000003d0: f57a 0a3d f67d 873e e049 0b3e 5bf2 29be
000003e0: d70a bb3e 2dca 6fbe eba4 873a c67c 8cbe
000003f0: b411 febd 2a29 a3be d392 17bf 3412 7c3d
0.12505567 0.31492653 0.37375307 -0.21501487 0.083739795 -0.28784454 -0.37456846 -0.426686
0.3535901 -0.15621288 0.1860286 -0.25944668 -0.06038844 -0.4613829 -0.62054485 -0.31429747
0.04717461 -0.0112120025 -0.22705092 0.066321574 0.22258522 -0.04764067 0.16994378 -0.19384317
-0.16121344 -0.3918923 0.24231881 0.2578853 -0.15930401 0.41417566 0.53839236 -0.3762451
0.19679208 0.1262708 -0.46379134 -0.14943917 -0.7566457 0.39435393 -0.6267129 -0.45866582
0.48735285 -0.38203982 -0.20159414 -0.2912962 -0.3140136 -0.039220035 -0.4029051 -0.31180844
0.35766214 -0.057126425 0.030773504 -0.026021598 -0.33248794 -0.11494381 0.32553464 -0.650439
-0.006712725 0.24203171 -0.2962913 0.19192106 -0.4879628 -0.16829029 -0.38213864 0.6526541
0.3835475 0.10808059 0.14402156 0.075689524 -0.034346916 0.027097726 0.036796793 -0.32322374
0.21715707 -0.21183321 0.77695256 -0.010255827 -0.089149244 -0.03470505 0.18895991 0.5987338
0.14581166 0.4848009 -0.27677318 -0.30266637 -0.49613398 0.23154725 0.2687621 0.13198654
0.068196364 -0.20928949 0.029513272 0.5716057 0.13622434 0.13030794 0.055818394 -0.21921021
-0.19020952 -0.12156243 -0.4485161 -0.16979006 -0.08834441 0.23676103 0.14532897 0.010111558
0.41853556 -0.18349276 -0.0722412 0.03958207 -0.08664067 0.02803119 -0.48209548 0.011971884
-0.17554379 0.29571116 0.116653174 0.4644798 0.44307038 -0.22010683 0.033153456 0.08978598
-0.017543197 0.19966179 0.22692734 0.3383208 0.03267175 -0.25691888 -0.3045347 0.23988862
-0.61023885 0.21420272 0.23230053 -0.1786861 -0.20926003 -0.17010218 -0.7694132 -0.08902004
0.07704494 0.08156817 -0.0435899 0.44129518 -0.09672126 0.5488138 0.010454951 -0.10089282
-0.13680004 0.011274208 -0.36695305 -0.00043456635 -0.01641556 0.132211 0.36532933 -0.60435545
0.12995969 -0.18230845 0.16799611 0.17839915 -0.18875565 0.18668704 0.068004854 -0.010730309
0.05899831 0.091456115 -0.19586603 0.18677221 0.33227876 0.09746668 -0.05612836 -0.088336
0.052196324 -0.09513697 -0.035271645 0.1715278 -0.20500663 0.040974677 0.21689737 -0.1378839
-0.24037653 0.38250715 -0.18471766 -0.33919424 -0.16718897 -0.39362335 -0.37741923 0.06818259
-0.07830933 0.044889033 0.027266778 0.4671384 0.12889408 -0.07212003 -0.032840718 -0.038591538
-0.12843503 0.18883356 -0.17495936 -0.009083997 -0.32845584 -0.15510203 -0.2818069 -0.45755503
-0.09539043 0.13098036 0.452943 0.13730897 0.0006022448 0.26164392 0.57876015 -0.2504788
-0.17767194 -0.28250486 -0.6040676 -0.35622874 -0.01894521 0.34382242 0.5352569 0.024444237
0.030023724 -0.2013294 -0.21042638 0.13468373 0.0039320886 -0.046811074 -0.09615509 -0.0067573977
-0.51977843 -0.11969248 -0.056522872 -0.19861594 0.06331462 -0.31095958 -0.039392732 -0.587171
-0.067790836 0.31801486 -0.12741032 -0.53391564 0.12837026 0.034193035 0.52189237 0.0066583445
-0.24552193 -0.35621077 0.09028393 0.29385898 0.033808667 0.26463288 0.136024 -0.16596358
0.36531708 -0.23416968 0.0010348832 -0.27438945 -0.1240572 -0.31867343 -0.5920841 0.061540797

net.0.bias f4 [128]
00000000: b6fb 4f3c d109 cfbd cf4f ac3e d591 02be
00000010: 208b f03e 704c f43e 9ea8 273d 2045 df3d
00000020: 2a7d 953e ff33 ae3e 574e bebd 7831 473c
00000030: 94a6 bb3d ed5c 9dbc bfdf 48be 136b 3dbe
00000040: 9cd4 c13d 6306 00be db06 51be b7f5 b8be
00000050: 4a32 8cbe 8f2f b5bc c2f8 aabd 1c3e 25be
00000060: cada 07be 53d8 0b3c 54ce 9fbe 8d50 78be
00000070: cedd 25be f498 56be 91ff 7ebe 4cc6 90be
00000080: d842 263e e7aa 743e abfe d0bd a052 9f3e
00000090: 1e5f 9bbe 2635 7f3e c389 2bbe ff1b 603e
000000a0: 91c9 c6be 769d 8b3e 96d3 be3e 391a 52be
000000b0: dd32 c9be c476 94be d227 343e 1735 1d3e
000000c0: 6d46 553e 7ebc 0fbd 710d 1e3e ea90 883e
000000d0: 80d0 a53e 1cfb 91bd 5739 a2be 5022 a4be
000000e0: 46e7 8fbe 1029 f7bc 29e3 85be 458b ec3d
000000f0: 42bb b5bd 85e1 893d 21de b8bd 7c93 0dbf
00000100: 90c8 a7bd 091c 72be f6ea 11bd cc74 f3be
00000110: 656a 8bbe 28e4 0c3d 424d 573e 67ed 5abe
00000120: 1cd6 2abe 4670 fe3d 71d9 6b3e a8db d6bd
00000130: 6f02 113e 8c0c 0fbe d7fe c3be daef 13bf
00000140: 83a0 9d3d aa41 383e b194 82be e675 38be
00000150: 78e2 6dbe 23cf cebe e776 1e3e f298 ccbe
00000160: 8fe7 b6be 1848 62bd 622c 223d 28b0 16bd
00000170: c029 2abe b181 9dbe 2a09 893e eddd 503c
00000180: 275c a5be 632a 9d3c 61c7 f5bd c3e5 2bbe
00000190: c988 bdbd d707 07be c1b8 50be 905a 07be
000001a0: bbc4 d43e f95a 89be a052 8abe d800 dc3e
000001b0: 988a 36be 4db4 9ebe 3ff0 b2be c89d b93d
000001c0: f1d1 973c 1cb3 903e daa5 6d3e a99d a4be
000001d0: ebfa 8bbe a824 bfbe b610 0bb9 a5e2 36be
000001e0: 40bd 873c 0ea0 733e b0a0 5b3d 4148 093c
000001f0: f0ad d53d fb1f 8c3e 7534 a53e 3808 03bd
0.01269429 -0.10109294 0.3365464 -0.12750943 0.46981144 0.47714567 0.04093229 0.109018564
0.29197055 0.34024045 -0.09292286 0.01215779 0.09162632 -0.01920935 -0.19616602 -0.18497877
0.0946438 -0.12502436 -0.20412771 -0.36124966 -0.27382118 -0.022117404 -0.08348228 -0.16136974
-0.13267055 0.008535462 -0.31212103 -0.24249478 -0.16197893 -0.20956784 -0.24902178 -0.28276289
0.16236436 0.23893319 -0.10204824 0.31117725 -0.30346006 0.24922618 -0.1675177 0.2188568
-0.38825658 0.2726857 0.37270802 -0.20517816 -0.39296618 -0.2899686 0.17593315 0.15352283
0.20827647 -0.03509187 0.15434815 0.2667306 0.32385635 -0.071279734 -0.31684372 -0.32057428
-0.28106135 -0.030170947 -0.26149872 0.11550001 -0.08873607 0.067324676 -0.09026743 -0.5530317
-0.08192551 -0.23643507 -0.035624467 -0.47550046 -0.2722961 0.034397274 0.21025565 -0.21379624
-0.16683239 0.12423758 0.23032166 -0.10491115 0.14161085 -0.1396963 -0.38280365 -0.5778786
0.07696631 0.17993799 -0.25504068 -0.18013725 -0.23230922 -0.40392408 0.15475045 -0.39960438
-0.3572354 -0.055244535 0.039593108 -0.03678909 -0.16617489 -0.3076301 0.26764804 0.012748224
-0.3229687 0.01918525 -0.12000919 -0.16786866 -0.09254605 -0.13186584 -0.20382978 -0.1321814
0.41556343 -0.2682722 -0.27016163 0.42969394 -0.17826307 -0.30996934 -0.34948918 0.090632975
0.018532725 0.2826165 0.23207799 -0.32151535 -0.27339873 -0.37332654 -0.00013262298 -0.17859896
0.016569734 0.23791525 0.05362004 0.008379043 0.104335666 0.2736815 0.32266584 -0.03199026

net.2.weight f4 [128, 128]
00000000: f792 85be b7c3 28bd 123c 1dbe b746 0bbe
00000010: d6f7 03be 6310 023d ed38 09be d8b4 6bbd
00000020: c076 db3c 7c87 573c 51e5 abbd 1c07 22bd
00000030: 7062 f7be 7ba1 253d 4a14 3cbd 1704 1bbd
00000040: 70f2 67bc dd76 81be 2463 08bd 89f5 92be
00000050: 368e 633d 91bf 95bd 9fce 1b3d d0bc f03c
00000060: a603 8cbc 6349 c13d 1e28 0c3e 7b43 50bd
00000070: f335 0bbd 8f66 aabd 0647 2e3d 9212 2b3c
00000080: 50c2 ebbd c4e3 0a3d a89c 79bd b136 32bc
00000090: 3afe 7fbd dd82 23be bc33 cc3c 31c6 1cbc
000000a0: 9034 783c e55d b0be 729c f3be 0d36 58bd
000000b0: 438a 63bd e500 3cbe 47e8 e6bd 4b07 cdbe
000000c0: c9fc 69be 9638 c23c 3134 88bd 565d 553c
000000d0: 2404 69be 6e6b 6b3b 686f 71bd 74db 13be
000000e0: 7e4e 6c3d 3b84 72bd 343d 163b 28cf e1bd
000000f0: 1879 8fbe d6d6 433b 984b 143e db1c 1bbc
00000100: 2913 1dbd ffc0 f8bd 5bde 13bc c86e 6e3d
00000110: 8ec4 573d 333e d7bc 7f83 6b3c ff3e 50bd
00000120: 31eb 873d 3fcc c1be dd0b 9cbd c76b 903d
00000130: f756 25bf 0b74 a13d 9cda f03c 5f60 8e3d
00000140: 3458 73bd f05e 5fbd 044f df3c 15d0 9bbc
00000150: 728c 01bd 685e 18bb a647 aabd 9695 0fbd
00000160: 5a10 973d 30c9 e4bb 2d18 d03c 8740 943d
00000170: 0e2f 423b 710c a4be 71a3 ee3b 603e 10be
00000180: a9b7 963d 33d2 b03b 7e3e 1fbe 0c87 a7bc
00000190: a5bf 79bf 3372 cbbc 8295 18be d4f5 f03c
000001a0: 623a 91ba b3e9 82be 5513 1b3d bd4a 36bd
000001b0: 6628 b3bc 5f8d 10bd d223 243d a009 81bd
000001c0: 7014 c33d 9638 97be 0e96 013c 3f8a 54bd
000001d0: 1aef 57be 4834 98be fe0a 06be 070a 65bd
000001e0: 5e23 febc cfcc 24be f579 3ebe 82f4 19bd
000001f0: e6ca 2a3d cd4d aa3c c696 c3bc 0078 99b8
00000200: 81c7 ff3d 71ef e93c ea09 85be 9a85 8c3d
00000210: bb59 a5be 9f29 f3be 607c 993b aad6 303d
00000220: 18d1 d1bc 87aa e5bd 1d91 bebe 99d5 edbd
00000230: 7a55 afbe 7bcc 203e 7d47 aabd 311a 133e
00000240: 0e5f ec3d 4594 5b3c 1732 1abe 96c2 193e
00000250: 143c 943c 9627 78be d180 27be f527 87bd
00000260: fed2 0fbe e946 2abc 4530 3f3d e12f 39bd
00000270: 8332 923d e002 a03c 1c43 00bd e3ef 4a3a
00000280: ee4e 5c3e 79b5 01be cb63 903d 9fdc e4bc
00000290: 1892 ee3c 363b e5bd e53f fdbd f737 43be
000002a0: d02f a03c 3173 57bf 04cc 81bc ba08 90bc
000002b0: 0070 4939 ac8c 1b3c 4a51 b4bb 2db5 75bd
000002c0: 6f06 27be 130a 2dbe 3745 3d3d 4111 28bd
000002d0: 33f6 13bf 79ed 44be eb86 17bd 3be1 1abe
000002e0: 3a07 193d 6001 49be f770 453e 6e6a 713e
000002f0: a3d9 ff3d cc88 a1bd c21e d2be bceb c43d
00000300: 7ef1 c8bd 7173 893c 0efe 193e ce41 7cbc
00000310: 602f a5bb 59dd 1cbe 9346 84bd 6240 7e3e
00000320: 9e0a 65bd 0015 fcbe 473a 80be e1bd a53d
00000330: 012d 09bf 4a3e 413d 23ac 65bd 8dcd bdbe
00000340: 9407 8fbd 2e5e 56be f495 823c aa81 6abd
00000350: 4e4e 87be bbec 893d 333b 20bb 2a0f 203d
00000360: 1bb5 c23d b533 12be 0339 71bd e6ff 3dbd
00000370: 4b48 e4bc e558 293d a965 163c 1e19 a6be
00000380: bbb6 61bd 844b b43e 4d7e e0be 2749 b3bd
00000390: c917 12bf 158c 133e f732 813c 70d7 54bc
000003a0: eadc 21be 3e7e 353e 5074 35bd 8c2a 78bd
000003b0: 6755 73be b80c ebbe c00e bc3a d29f 9abd
000003c0: d2fe 33be 9192 b1be 4565 0cbe b688 333e
000003d0: cfac edbd 9907 d4bd 1321 b4bd a9e2 423b
000003e0: 0134 31bd d187 95bd 44b1 143d be9a fbbd
000003f0: ef62 9f3e 4a46 c7bd 2fc8 d7bc 30be 733c
-0.26088688 -0.041202273 -0.15354946 -0.13601194 -0.1288751 0.03175391 -0.13400622 -0.057545513
0.026790023 0.013154861 -0.08393348 -0.03955756 -0.4831729 0.040437203 -0.045917787 -0.037845697
-0.014156923 -0.25285998 -0.033297673 -0.28702953 0.055555545 -0.07311929 0.038038846 0.029386908
-0.017091583 0.094378255 0.13687178 -0.050845604 -0.033986997 -0.08320343 0.042548202 0.010441439
-0.115116715 0.03390862 -0.060940415 -0.010877297 -0.06249831 -0.15967889 0.024927013 -0.009568737
0.015149251 -0.34446636 -0.47580296 -0.05278592 -0.05555178 -0.18359716 -0.11274772 -0.40044627
-0.22850336 0.023708623 -0.0665058 0.013022741 -0.22755486 0.0035922187 -0.058944136 -0.14439183
0.057692043 -0.059208136 0.0022924663 -0.1102584 -0.28022075 0.002988269 0.14481962 -0.009467329
-0.03834835 -0.12146186 -0.009025182 0.058211118 0.052677684 -0.026274776 0.014374613 -0.050841328
0.06636656 -0.3785114 -0.0761945 0.07051807 -0.6458582 0.078834616 0.029401116 0.06951975
-0.05941029 -0.0545339 0.027259357 -0.01902012 -0.03162808 -0.002324963 -0.08314447 -0.035054766
0.07376166 -0.006981991 0.025402153 0.0723887 0.0029630098 -0.32040742 0.0072826673 -0.14086294
0.07359249 0.0053961514 -0.15551183 -0.020450138 -0.9755805 -0.024834728 -0.14900783 0.029414095
-0.0011080022 -0.25568923 0.037860233 -0.04450487 -0.02186985 -0.035291072 0.040073223 -0.06300664
0.095253825 -0.2953536 0.007909311 -0.051889654 -0.21087304 -0.29727387 -0.1309013 -0.055917766
-0.031022724 -0.16093753 -0.1860121 -0.037586696 0.041697405 0.020789051 -0.023875605 -7.31796e-05
0.12489224 0.028556557 -0.25984126 0.0686142 -0.3229502 -0.47492692 0.004684016 0.04317347
-0.025612399 -0.11214166 -0.37220088 -0.11613006 -0.342449 0.15703003 -0.083144166 0.1436546
0.11541568 0.013402049 -0.1505817 0.15015635 0.018095054 -0.24233851 -0.16357733 -0.06599418
-0.14045331 -0.010392883 0.046676893 -0.045211677 0.071385406 0.01953262 -0.031314 0.00077414344
0.21514484 -0.12666883 0.07050284 -0.027937232 0.029122397 -0.11192934 -0.123657025 -0.19064318
0.019554049 -0.84160143 -0.015844353 -0.017582286 0.00019210577 0.009493988 -0.0055028545 -0.059987236
-0.16311048 -0.16898374 0.046208587 -0.04103208 -0.57797545 -0.19231214 -0.036993902 -0.15124981
0.037360407 -0.19629431 0.19281374 0.23575756 0.12492683 -0.0788742 -0.4103909 0.09615275
-0.09811686 0.01677868 0.1503832 -0.015396548 -0.005041048 -0.15318812 -0.064587735 0.24829248
-0.05591833 -0.49234772 -0.25044462 0.08092857 -0.53584296 0.047178544 -0.056072365 -0.37070885
-0.06983867 -0.20934364 0.015940644 -0.057252564 -0.2642693 0.06734606 -0.0024449348 0.03907696
0.095071994 -0.14277537 -0.05889226 -0.046386622 -0.027866503 0.041344542 0.009179511 -0.32441038
-0.055105906 0.35213864 -0.4384636 -0.08754187 -0.57067543 0.14408906 0.015771372 -0.012990817
-0.15806928 0.17723939 -0.044300377 -0.06058745 -0.23763047 -0.4590814 0.0014347658 -0.075500146
-0.17577675 -0.34682134 -0.13710506 0.1753262 -0.11605226 -0.10353012 -0.08795371 0.002973715
-0.043262485 -0.073012955 0.036301866 -0.12285374 0.31130168 -0.097302034 -0.026340572 0.014876887

net.2.bias f4 [128]
00000000: 6767 443d 4cce 8cbd f785 71bc ce22 b8bd
00000010: ae56 73be def1 ce3d c877 61bb d982 0dbd
00000020: 22bc 1abc 432d 54bd 570f 90bd 5441 153e
00000030: 2185 0d3c 26f7 de3d 0b4e dbbc d978 7dbd
00000040: 7fdc 3eba 19f1 9fbd a6dd 2d3d de38 9cbc
00000050: 7637 8ebc cbff a7bc 53c4 ebbc bb73 bbbc
00000060: 13bd 423e a887 abbd d499 75bd 7987 55bd
00000070: 6247 03be 351b 493c cff7 34bd 3d66 1e3e
00000080: dc2d 663b d13f a4bc 3c26 2f3e 852d 8cbd
00000090: c724 aabd 3b42 bcbd e234 a8bd f108 0ebe
000000a0: bacf 03bd ba36 8f3c 6d75 f43d 7c88 16bd
000000b0: a295 01bd f40f 7ebd 08c1 58bc 1dca bebd
000000c0: 8d7d 203d 3522 dd3c 7067 54bd b94c 56bd
000000d0: 62ca f1bc 8c19 86be c91b c9bd 4716 33bd
000000e0: 2c5e 383c 5221 44bd 8363 efbd a72a 8e3b
000000f0: c0eb dbbb 8291 ec3c d9b4 ec3c 2021 d0bd
00000100: 28c2 7bbd 262a 4cbc d749 953c 07a6 5abc
00000110: ca0e bbbd 58f9 d7bc d47f 26be 308a 01be
00000120: 036e b3bc ca50 8d3a 6ebe 443e ee98 96bd
00000130: 0785 203d 5c70 d43b d5dc 1cbc 63e1 79bd
00000140: 8825 b5bd e46e abbd 273a 11bd f7de 0a3e
00000150: 8bdc fcbb b03b 53bc 1010 9bbd 7d64 433d
00000160: 4b38 ecbd 5cdf 0a3d fb3a abbd 73b9 2c3d
00000170: bd1f bd3d df86 31bd 0759 2e3e 8dcb 4d3d
00000180: 3267 fabd fa6a 08be e372 1a3e 0675 96bb
00000190: df4e 85bc 99dd 0e3e a663 8b3c c955 903e
000001a0: bea2 4a3e 092a abbd 49c3 153d 287d 9ebd
000001b0: b3a8 69bd b737 b6bd 676a f1bd 144f e03d
000001c0: f117 83bd 2c96 193e 2a7f 123d fa65 423d
000001d0: 9a63 4bbd 74b4 4b3e b292 0dbe e1fe 58bd
000001e0: 670a d53c 36e2 7fbd e313 92bd f5a1 aabd
000001f0: 9899 25bd a82c 553c 8641 9b3c 7236 97bd
0.047950175 -0.068752855 -0.014741412 -0.089910135 -0.23763534 0.10104726 -0.003440367 -0.034548614
-0.009444268 -0.051800977 -0.07034176 0.14575702 0.008637697 0.108869836 -0.026770612 -0.061882827
-0.0007280781 -0.078096576 0.04244771 -0.019070085 -0.01736043 -0.020507714 -0.028780138 -0.022882333
0.19017439 -0.08375484 -0.059961155 -0.05213115 -0.12820199 0.012274553 -0.04418164 0.15468688
0.003512255 -0.020049961 0.17104429 -0.0684462 -0.08307796 -0.0919232 -0.082132116 -0.13870598
-0.032180525 0.01748215 0.1193646 -0.036751255 -0.03163684 -0.062026933 -0.013229616 -0.09315894
0.039182235 0.02699385 -0.05185646 -0.052319262 -0.029515449 -0.26191366 -0.09819753 -0.043722417
0.011252921 -0.04788334 -0.11688902 0.0043385806 -0.006711453 0.028877977 0.028894829 -0.10162568
-0.06146446 -0.012461221 0.018223686 -0.013345248 -0.0913368 -0.026364014 -0.162597 -0.1265037
-0.021903044 0.0010781523 0.19213268 -0.07353388 0.039189365 0.006483121 -0.009574135 -0.06100596
-0.08845049 -0.0837076 -0.03545585 0.13561617 -0.0077167205 -0.012892649 -0.07571423 0.047703255
-0.115341745 0.03390442 -0.08360859 0.042169046 0.09234569 -0.043341514 0.17026149 0.05024295
-0.12226714 -0.13322058 0.15082888 -0.004591587 -0.01627296 0.1395172 0.01701529 0.2819045
0.19788644 -0.08357627 0.03656319 -0.077387154 -0.05704565 -0.088973455 -0.11787873 0.10952583
-0.06401051 0.14998692 0.035765804 0.047460534 -0.049655534 0.19893056 -0.13825491 -0.052977446
0.026005937 -0.06247159 -0.07132699 -0.08331672 -0.04042968 0.013011135 0.018952142 -0.073834315

net.4.weight f4 [3, 128]
00000000: dc6e 83bd 5963 f9be 1a98 c53b 9413 98bd
00000010: 01f1 64bd 8f55 bf3d 9bf6 80bf 512e a2bd
00000020: 1fae e03c 3ca4 2b3c 8412 a13d e82a f33d
00000030: ab5f 0bbc 2507 a73d b2ca 1c3e cf36 893e
00000040: cd8e c13d f2da 983d ded1 ca3c b249 7d3d
00000050: 0f58 50bd ec4d 0b3d 112c 24bd 0315 a13d
00000060: 0707 e73d 25dd abbd 0e7c 8bbd c8ed 463c
00000070: 5fec 50bc 3e3b 2f3e 5d0f 17bd 5d72 c8be
00000080: e7fe 413e 576e b7bd 57b1 183e 98a1 273c
00000090: cc78 bc3c ca75 7aba 888d 903c 5835 483d
000000a0: c18f 853d dbae 693e 67fa e63d a39e e63d
000000b0: 3397 5bbd 0c01 963d a1eb acbd bfc5 c13d
000000c0: fe2e a63d e1b8 8c3d 88bb 1d3d ef0d deba
000000d0: 98a2 1ebb 300d 85bd 5787 bbbc d718 e3bb
000000e0: ba1a 9f3d 803c 403d 6de6 3e3d 3636 213d
000000f0: 2e25 d03d 5b90 d03d c5ef e73e 6739 203e
00000100: 87ce e3bd 0652 963d 8f39 0f3e a698 81bd
00000110: 886f 733d 0223 9cbd b36d 18bf a5f4 77bf
00000120: 8051 61bc 65c0 47bd 2d5c debe 0290 663d
00000130: 3fa7 713d a247 b6bd 3fff 673d 1f9a 113e
00000140: 8392 c2bc 1e00 06bd 59bd f53c 931c ec3d
00000150: 1332 3d3d 8b7f 1abd d0b7 36bf 281c 863e
00000160: 515e 5dbd 286c 923d 1f48 c3bd fb5f 173e
00000170: 6c52 ae3d c7a2 80bd a529 d33d 26de 453d
00000180: 09ff b7be 591c 1bbe 6dbb b33d 4a13 833e
00000190: a4d2 503c 2810 383e 55cb 953d 610f 8a3e
000001a0: 5376 6e3e 13e7 b3bd 3813 b13c 5537 8c3d
000001b0: 1f88 5d3c 9eda d1be 47e9 0a3e 9139 bfbe
000001c0: e40c 883d 7cd6 333e 915b 8d3e aee2 69be
000001d0: 40ed eb3c 0737 133e d7cf 0cbf 8dc5 523d
000001e0: f8be 5ebf 2ada 4e3d bc09 823d 1c30 873c
000001f0: 53da ac3d 389e 23bd 1d16 3dbf 2fc8 f6be
00000200: 8448 16bd c86c 71be 206b dabd d39a 98bd
00000210: 60a3 85bd 2f8b e43d 1447 14bf dbf7 053c
00000220: 9b23 663c 92b1 27bd d368 5a3d 49bd ec3d
00000230: 69e3 9b3c 9cef 993d fd4e f33d d99c 083e
00000240: 7750 7c3d 287d b53c ca68 12bd 1578 14bd
00000250: 94e5 aabd 9eb8 96bd a993 bebd 88e9 e83d
00000260: 9833 9a3e 9163 ae3d 0deb 95bd 6f3f c03c
00000270: b752 14bd 285a 2e3e 2902 9e3d 9462 2cbf
00000280: 2110 143e cebe 16be 09cc 033e 4df5 15bd
00000290: ede6 8f3d 05f4 903c 15ea 55bc 5497 ae3c
000002a0: b378 37bd aa70 333e 7a8b 6c3d 5586 013e
000002b0: f504 72bd 6b6c 373d 266d a7bd b53a 23ba
000002c0: 179e 39bd 01a4 663d 5040 393d ec4b f8bc
000002d0: 93b1 7d3d 5ff0 e3bd 12d5 e3bd 3bc6 27bd
000002e0: f35e 27bc f027 81bd b8dc 263c a424 fe3c
000002f0: c022 0c3e b44a 79bc 4308 1a3f 61a2 1b3e
00000300: 3a26 1dbe c72d ad3d e276 6f3d 8be1 e5bd
00000310: bc30 ab3d d55c 2fbd 2711 2abf 8d89 3dbf
00000320: 60c7 493d 1e52 ffbc 3067 43bf 2e37 333d
00000330: 8f48 033b ff0b 0ebe 09e3 a43d 8138 9c3e
00000340: 3fe9 b2bd 80a1 453d 4f8e 453d 1e7b fc3d
00000350: 36f0 d33d ddfa 043d 8a9c c6bd 0080 3f3e
00000360: 40da cebd 89e2 933d b400 0fbe d437 b43d
00000370: 1948 d33d 3291 313c 9498 f73d b35e 633d
00000380: ba29 bfbc f117 2bbe 0020 403e 98e9 643e
00000390: 337b 8c3d 3faa 923e e97a 503d e4af 033f
000003a0: f572 b43e 003b 5dbb bb24 183d 0633 56bd
000003b0: 8767 69bd 1ce1 cebe de42 193e 2cf1 83bd
000003c0: 11cd ad3d 8486 0e3e 49e4 903e d6ec b3be
000003d0: a98c 843e 44cc d93d 3445 dcbe 4cec 793d
000003e0: 19a9 1bbf d8f0 b63d a5c9 1f3d 70a6 b7bb
000003f0: 4d8f 7b3a a330 f0bc 9264 06bf f39b e9be
-0.06417629 -0.4870861 0.006030095 -0.07425609 -0.0558939 0.09342491 -1.0075258 -0.079189904
0.027426777 0.010476168 0.0786486 0.11873418 -0.008506696 0.081556596 0.15311697 0.26799628
0.09451065 0.074636355 0.024758276 0.06183786 -0.05086523 0.03400986 -0.040081087 0.07865336
0.11280637 -0.08391789 -0.06810771 0.012141652 -0.012751668 0.17112443 -0.036879886 -0.39149752
0.18944894 -0.089565925 0.149114 0.010231398 0.02300682 -0.0009554295 0.017645612 0.048878998
0.065215595 0.22820608 0.11278229 0.11260726 -0.05361099 0.073244184 -0.0844338 0.09461545
0.08114432 0.068712 0.03850892 -0.0016941408 -0.00242058 -0.06496656 -0.022891684 -0.0069304514
0.077687696 0.046932697 0.04660647 0.03935834 0.101633415 0.101837836 0.45300117 0.15646897
-0.11123376 0.073398635 0.139868 -0.063279435 0.059432536 -0.07623865 -0.5954239 -0.9685767
-0.013752341 -0.048767466 -0.434297 0.05628968 0.05899739 -0.089003816 0.056639906 0.14218949
-0.023751503 -0.032714956 0.029997515 0.115288876 0.046190333 -0.03771929 -0.71374226 0.26193357
-0.054045025 0.071495354 -0.095352404 0.14782707 0.085118145 -0.06281047 0.103106774 0.04830756
-0.35936764 -0.15147533 0.08775983 0.25600654 0.012745533 0.17974913 0.07314173 0.26964858
0.23287325 -0.08784308 0.02161561 0.06846491 0.013521223 -0.40987104 0.1356555 -0.37348607
0.06643084 0.17562288 0.27608922 -0.22840378 0.028799653 0.1437646 -0.5500464 0.05145793
-0.87010145 0.050501026 0.06349513 0.016502433 0.084400795 -0.03994581 -0.7386187 -0.48199603
-0.03669025 -0.23576653 -0.10664964 -0.074514054 -0.06525302 0.1115936 -0.57920957 0.008176769
0.014046575 -0.04094083 0.053322624 0.11559541 0.019029336 0.07516405 0.118803 0.13341083
0.061600175 0.022154406 -0.035744466 -0.03624733 -0.0834457 -0.07359432 -0.09305508 0.113726676
0.30117488 0.085150845 -0.07320223 0.023467747 -0.036211696 0.1702658 0.07715256 -0.6733792
0.14459278 -0.14721224 0.12870802 -0.03661089 0.070264675 0.017694483 -0.013056298 0.021312393
-0.044792842 0.17523447 0.057750203 0.126489 -0.05908676 0.04478113 -0.08175115 -0.00062267046
-0.04531678 0.05630875 0.04522735 -0.03030964 0.061936926 -0.111298315 -0.11124624 -0.04096053
-0.010215509 -0.063064456 0.010184459 0.031023331 0.13685131 -0.0152155645 0.60168856 0.15198661
-0.15346614 0.08455997 0.058462985 -0.112246595 0.08358905 -0.04281314 -0.6643242 -0.7403801
0.049262404 -0.031167086 -0.76329327 0.043753795 0.0020032262 -0.13871764 0.08051116 0.3051186
-0.087358944 0.04824972 0.04823142 0.1232817 0.10348551 0.032465804 -0.09697826 0.18701172
-0.10100222 0.072209425 -0.13965112 0.08799711 0.10316486 0.01083784 0.12089649 0.055510234
-0.023335326 -0.16708352 0.18762207 0.22354734 0.06859436 0.28645512 0.050898466 0.5144026
0.35243955 -0.003375709 0.037144404 -0.052294753 -0.056983497 -0.4040612 0.14966914 -0.06442484
0.08486379 0.13918501 0.28299168 -0.3514163 0.25888565 0.10634664 -0.43021548 0.061016366
-0.608049 0.08932656 0.039010663 -0.0056045577 0.00095962436 -0.029320067 -0.5249721 -0.45626792

net.4.bias f4 [3]
00000000: ba63 0d3c 8c0d 96bd 3146 893c
0.008629734 -0.073268026 0.016757103
