saved_models/dqn_episode_10.pth (torch, 75369 bytes, 6 tensors)

net.0.weight f4 [128, 8]
00000000: 0321 8ebe 2808 7bbd 4712 a33e 480c 9dbd
00000010: ab2f 08be 7e6b f1bd 106d 3fbe 113d 8dbe
00000020: 11ad a23d cb2f 1e3e 06f7 e5be ce00 81be
00000030: a132 0c3f ea27 f43c 6ae5 0f3f 0e17 293e
00000040: 5aca 863e 15aa bf3e 5f54 c1bd 5fb9 ba3e
00000050: d30c cd3e 4959 023f f97b 1abe e031 99bd
00000060: 200f 263e 08f2 fd3e 1248 873b 4f2c 05be
00000070: c1df babe 25b4 923d 6895 213d 1832 71be
00000080: ae0c 36be 3902 0dbf 9a7e 94bc 8384 063d
00000090: 92a2 af3e 11b7 c03e 9462 febd 22a4 3b3e
000000a0: e264 98be 4fef 873e 5280 623d 6077 8d3e
000000b0: 9ed7 e13e 5d89 b73e 9ee5 abbd 87b1 1e3e
000000c0: e3b9 0fbe d376 b13e bb1d 5fbe d640 dfbe
000000d0: e028 e2be 9e37 79be a873 2f3e 8e63 37be
000000e0: 19ed 0bbf fa8c a4be 4202 a83d 7bcf 1cbe
000000f0: 4b4a c03e 3085 ccbd 2299 8d3e 0db7 ee3d
00000100: 46fa 643e 3ad7 52be ca60 1c3f 0d6b b03e
00000110: 8c99 49be c5d3 773d b595 34be 2db2 57bd
00000120: 0c3d 403e 5930 c3bd ae9a 573e 905e 953d
00000130: f4ed 8c3e 9b07 0b3f e905 1e3e a078 69bd
00000140: 0e9f ba3e c832 83bd 431f 57be 0a4e 323f
00000150: 17a7 b63d 967a 7e3e 83a9 87be ad47 a93e
00000160: 1205 ccbe e673 bcbd 845a 24bf 348b ab3b
00000170: 2c84 d63e 6df9 8d3e ff53 fc3e b781 183e
00000180: f1b2 4a3e 2ba7 0a3f d2d3 c1bd ac02 5f3f
00000190: 1f6f 0d3e 2946 d63e 9786 7f3e 1512 323e
000001a0: a967 fb3e ee1b a73e c81b 42be 0d74 fd3e
000001b0: 339f b33e d0f7 fcbd 6463 313e de3c 2c3e
000001c0: 8af9 0d3d 32ce 003e fa17 8abe 686d c13d
000001d0: 0510 4cbe 73b8 c63e 18bd 9d3e 6eba 863d
000001e0: b4a3 9e3e 0d21 35be 4d80 1c3f c949 b9bc
000001f0: 5841 2bbe ecc4 833e 6b3a d9be 2634 9a3e
00000200: 2a0f 34be 2411 a0be 5870 4ebe a427 d2bd
00000210: 286b 89be c681 f1bd e0e1 44bc b058 8dbe
00000220: d8a9 b3bd 752e cb3e 5751 3fbe 6149 523e
00000230: 5ccb 3fbf 7188 1abe 7e25 543e b6cf 603d
00000240: 632c d03e c28d 563d 8143 1bbe 3b01 e23d
00000250: 3f6c c4be d9e7 843d ea37 84be 5d9e 173c
00000260: 84f5 bfbd d9dd 5abe 7379 813e 10a1 0abd
00000270: 8585 a33e 1ae2 34be 56de 223e a6f7 a6be
00000280: 8cc7 32bd 4b66 30bd f0c4 fcbe 325e 823e
00000290: 4d03 ab3e f3ad 17be 4700 033f 594c 8dbe
000002a0: bab8 833e 8347 383d da0e bd3e 6b19 7c3e
000002b0: d760 523d f5a5 4ebd 68a2 d63d c524 a2bd
000002c0: 21a8 b23e a7e0 9dbe 7ad1 6c3e bc89 c63e
000002d0: f9a4 9fbe 70e8 19be e233 163f 49a6 913e
000002e0: 7647 70be ad8a cebc 9f19 aebe fd4b 0a3f
000002f0: bd64 74be 55d3 a23e 69b0 3e3e 84ee d83e
00000300: 3951 ebbe e9c3 2e3e 8e86 11be fd31 243f
00000310: 79c7 b43e b88e 3c3e 537e b8bd 2b98 bc3e
00000320: 8790 b6bd 59b7 81be c763 eebe 36d4 b7bb
00000330: 251c ae3e 562e 23be ae9e df3e 2ac8 e43e
00000340: 02ed b03e 88a6 a73e 8e90 0b3f a730 053e
00000350: 67b7 8fbe 1ccb b93e fcf0 f1bb d3a2 bd3e
00000360: 4441 b13e fc3d 51bd 674c 5dbd 02ed 18be
00000370: 4583 eb3e ba10 c9bd 8c11 4e3e 96a2 8fbe
00000380: a20e eb3e d314 d3bd 2b85 fabe 4304 8cbe
00000390: a199 a43e 4a35 923e b37e 9d3e 5a6d ea3d
000003a0: 4af8 cb3e 6d38 5b3e dd50 b53e e036 e43e
000003b0: a726 4fbe 8739 be3c 4c2b 2c3e a7bb 0c3e
000003c0: 9041 a4be 86f2 8ebf 01d3 433e 14f0 b0be
000003d0: 07f2 243e c4b1 9bbe e41f 27bf a575 48be
000003e0: 494c 193f 7eed cb3e 62f2 d0be 0f11 a13a
000003f0: 5f08 9f3e a6e8 1c3e cf8a 383e 510a 7d3d
-0.2775956 -0.061287075 0.31849882 -0.07668358 -0.13299434 -0.11788081 -0.18693948 -0.27585652
0.07943166 0.15447919 -0.44915026 -0.25195926 0.54764754 0.029804189 0.56209433 0.16512701
0.26326257 0.3743445 -0.09439921 0.36469552 0.40048847 0.5091749 -0.15086354 -0.07480216
0.16216707 0.49598718 0.0041284645 -0.13005184 -0.36498836 0.07163266 0.039449126 -0.23554265
-0.17778274 -0.55081517 -0.018126775 0.032841217 0.3430372 0.3763967 -0.12421146 0.1832433
-0.29764467 0.26549765 0.055298157 0.27630138 0.44109815 0.35846987 -0.083934054 0.15497409
-0.14035754 0.34660968 -0.21788685 -0.43604153 -0.4417181 -0.24337623 0.17133963 -0.17909071
-0.5465866 -0.32138807 0.08203556 -0.15313523 0.3755668 -0.09986341 0.27655894 0.11656008
0.22361097 -0.20589915 0.6108519 0.34456673 -0.1968748 0.060504694 -0.17635234 -0.052660156
0.18773288 -0.09530706 0.210551 0.07293427 0.27525294 0.5430848 0.15431942 -0.056999803
0.36449474 -0.0640617 -0.21008019 0.6965033 0.089185886 0.2485145 -0.26496515 0.33062497
-0.39847618 -0.092017934 -0.64200616 0.0052351 0.41897714 0.2772936 0.49282834 0.14893232
0.19794823 0.5416133 -0.0946423 0.8711345 0.1381192 0.41850403 0.24953686 0.1738971
0.49102524 0.32638496 -0.1895591 0.49502602 0.35082397 -0.12351954 0.17323071 0.16820094
0.034661807 0.12578657 -0.26971418 0.09444696 -0.19927986 0.388126 0.3080833 0.065785274
0.3098427 -0.17688389 0.6113327 -0.022618191 -0.16724145 0.25736177 -0.42427382 0.3011791
-0.1758391 -0.31263077 -0.20160043 -0.10261467 -0.26839566 -0.117923304 -0.012016743 -0.27606726
-0.087726295 0.3968388 -0.18683372 0.20535804 -0.74919677 -0.15091111 0.20717427 0.05488559
0.40658864 0.052381285 -0.1516247 0.11035391 -0.38363835 0.06489534 -0.2582391 0.009254065
-0.09373 -0.2137369 0.2528797 -0.033845007 0.31937805 -0.17664376 0.15905127 -0.32610816
-0.043647334 -0.043066304 -0.49369 0.2546249 0.33400956 -0.1481245 0.511723 -0.2759731
0.25726873 0.044990074 0.36925393 0.24619071 0.051361885 -0.050451238 0.10480195 -0.079171695
0.34893897 -0.3083546 0.23126784 0.38776958 -0.31180552 -0.15030074 0.58672917 0.28447178
-0.2346476 -0.02521261 -0.34003922 0.540222 -0.23866554 0.3180186 0.18621983 0.42369473
-0.45960405 0.17066921 -0.14211485 0.64138776 0.35308436 0.18413818 -0.090084694 0.36834845
-0.08914285 -0.25335196 -0.465605 -0.0056100143 0.34005848 -0.15935645 0.4367575 0.44683963
0.34555823 0.3274424 0.5451745 0.1300684 -0.28069612 0.36287773 -0.007383464 0.37038288
0.34620106 -0.051084504 -0.05402794 -0.14934161 0.45998588 -0.098176435 0.20123881 -0.2805373
0.459096 -0.10306706 -0.48929724 -0.27347 0.3214846 0.2855628 0.30760726 0.114466384
0.39837867 0.21408243 0.35413256 0.44573116 -0.20229588 0.02322079 0.16813391 0.13743459
-0.3208127 -1.1167762 0.1912346 -0.34558165 0.16107951 -0.30409062 -0.65283036 -0.19576128
0.59882027 0.3982963 -0.40809923 0.0012288409 0.31061074 0.15323123 0.18021701 0.061777417

net.0.bias f4 [128]
00000000: f006 4cbe f0ff 1a3e 6c1d c13e f883 a2be
00000010: dd1a d43d a47a f63e acfc 153e 40ba da3e
00000020: d58a 2abe b294 083f 9aaa e73d d998 06bc
00000030: dd0f 4bbe 60f5 fbbd fd31 7b3e 8755 123e
00000040: 220c 82be 8915 98be be54 35be 5d88 afbe
00000050: 057e 063e 44bf ce3e 5544 7cbe 5afc 553e
00000060: 3d82 3f3e 261c 253e 600f 363e dc4e 42be
00000070: a7b1 a5bc d5a7 65bc e197 dc3d 0756 423e
00000080: 6cba 59be 3fec bfbb bef6 f3bd c8fb 90be
00000090: aa75 3ebe bef7 5c3b d7c5 b63e 9a0e 043f
000000a0: 83dc 3cbe 1ca0 6fbe 937b 093f 3827 583e
000000b0: 050f 9dbe 6df0 c73e 7a22 b43d 5ce3 e53e
000000c0: 375e 433e f8b8 ea3e 665f af3e bd40 443e
000000d0: fe12 87be f599 8fbe a886 aabe f29a e13e
000000e0: c404 93be d30c 173e d5be ca3e 585e ef3e
000000f0: 0a4b 093f 8946 873e cee9 b63e 1213 883e
00000100: 7017 c3bd 924a 903e 8812 703e c9c5 9e3e
00000110: 9d8a 243e 2b2e 1a3d 8ce9 0b3f 965c cfbd
00000120: 31b5 a8be a62f 03be 68b9 dcbd 2efe da3e
00000130: 119f 96bd d4f5 d93e efba 67be e993 083f
00000140: 1b64 213e 2374 de3e ae38 a4be 5561 853e
00000150: 9aba 953c 988e cbbc 373c 4cbe 47e9 683e
00000160: c841 18be 51a8 dd3d f482 253d 5f0e 28be
00000170: 7301 f1bd 7619 e03c 4f17 79be b35c 1d3f
00000180: 278d 913d e56e 8b3e 5a18 833d 405a 83bc
00000190: b405 bbbd c026 b3be 7532 703e afed 293d
000001a0: 66d3 903e d602 b13e 98dc a4be aa94 133e
000001b0: 15d1 d5bb d958 38be 7354 e03e 0bfe 47be
000001c0: daff 77be c26a 003f f4cb fdbb f0b0 3cbe
000001d0: e9f5 02be 33f5 6cbe d98e 70be e3a9 8d3b
000001e0: 0572 493e ddbd b73e 8ed6 23be 0046 a53e
000001f0: b24f 083f ef4c 243e 3b35 89be a4fa 96bd
-0.19924521 0.15136695 0.3771776 -0.3174131 0.10356686 0.48140442 0.14647168 0.42720222
-0.16654523 0.5335189 0.113118365 -0.008215153 -0.1983027 -0.12302661 0.24530788 0.14290439
-0.25399882 -0.2970393 -0.17708108 -0.34283724 0.1313401 0.403803 -0.24635442 0.20897046
0.18702026 0.16124019 0.17779303 -0.18975395 -0.020226313 -0.014017065 0.10771156 0.1897813
-0.2126252 -0.00585702 -0.11912297 -0.28317094 -0.18599573 0.0033717002 0.35697815 0.5158478
-0.18443494 -0.2340092 0.53704184 0.21108711 -0.30675521 0.39050618 0.087956384 0.44900024
0.19078909 0.45844245 0.3425247 0.1916532 -0.26381677 -0.28047147 -0.3330586 0.44063526
-0.28714573 0.14750986 0.39598718 0.46751666 0.53630126 0.26421002 0.35725254 0.2657705
-0.09525955 0.28181893 0.23444569 0.31010273 0.16068502 0.037641685 0.5465324 -0.10125081
-0.32950738 -0.12811145 -0.10777551 0.4277205 -0.07354558 0.42570364 -0.22629903 0.53350693
0.15760843 0.4344798 -0.32074493 0.2605082 0.018277455 -0.024848267 -0.19944845 0.22745238
-0.14868844 0.108231194 0.04040809 -0.16411732 -0.117678545 0.02735589 -0.24325298 0.6146957
0.07107001 0.27233043 0.06401129 -0.016034245 -0.09131947 -0.349905 0.23456748 0.04148644
0.28286284 0.34572476 -0.3219955 0.1441218 -0.0065251687 -0.18002643 0.4381443 -0.19530503
-0.24218693 0.501629 -0.0077452604 -0.18426871 -0.1278912 -0.23140411 -0.23491992 0.0043232306
0.19672401 0.35887042 -0.15999815 0.32279968 0.53246605 0.16044973 -0.26798424 -0.07372025

net.2.weight f4 [128, 128]
00000000: 5af8 643d 8755 333e bece bb3d e99c 513f
00000010: bdef 2e3f 02b9 f6bd 5ad5 a93e b978 bd3e
00000020: b087 ebbd 2ac8 61bd 9394 c33c 662c a9be
00000030: 7ecb 883d d831 d53d 1081 cf3d bcd1 b9bd
00000040: b2b7 43bd 2814 313f 9fa9 433f 0709 1ebd
00000050: d051 483e 85dc 97bd 184d c03f 01fe 15bd
00000060: f7d0 debd 0386 17bf 1642 5e3d ab0b a93e
00000070: 255c e73d e0d3 c43d 6754 b4be 5762 963d
00000080: 20f9 eb3c f61d fdbd 3dd9 253d 35f0 a23d
00000090: fb99 0dbf 3ce9 28bd 38ba e6ba 0ee0 26bd
000000a0: 0a2b 02be 80fb 5dbb 0ceb 7b3d 948c 87be
000000b0: 1185 cdbe 2084 a0bd bca0 b03d 33e8 633d
000000c0: 74db ee3c 83e6 bd3d 8e66 8b3d bcea 9dbd
000000d0: 00e0 d637 604e c33c 22a1 c43f 62ba 5cbe
000000e0: 40ec 293c 858a 6bbe 32b4 c1bd 2c48 9abd
000000f0: c8d9 f9b9 2d34 9fbb 63e1 273d 319c 29be
00000100: 02c7 3c3d 7a62 583c 48bc f0bd 62c4 d9bd
00000110: 7a67 003f 3d1c 85be 0f06 c7bd acd9 bbbd
00000120: 41c3 b3bd 7ee1 d33e b3f3 d73e 9755 d53c
00000130: 3171 803f 3d6c 07bd c531 10bd 2768 bcbd
00000140: 2b70 d13c a906 22be 4772 683f a1b9 3f3d
00000150: 8ee6 8a3d 716c afbd 9f82 49bd 038a da3e
00000160: 562a 1e3d 6cc8 5c3e 8576 a3be d943 b73e
00000170: 54ec 8abe 2fd5 e63e d670 8d3f eb0f ef3d
00000180: 9a4e 7b3d d100 93be 3b0a 213d 0976 a93e
00000190: 1381 c33d 4ee2 413d cf21 003d 8f3d f03e
000001a0: ea2c 7a3d e73c 2bbc c028 8dba 2847 db3e
000001b0: 52bf ce3e d5f4 66be 5a6c 833d 7599 b13f
000001c0: e7fc 5e3f 9aa8 0fbd d6e1 813d 64ae 90bc
000001d0: db23 1f3e b69a aa3d 6e81 a43d 5ffd 5abc
000001e0: d35f 87bd cca7 00bd 97ce dbbd 2e9a 763e
000001f0: 2ac3 8c3d 0825 193c 5185 8ebd f2a5 973e
00000200: d649 523d 69bf 163e 3c97 8abb e809 623f
00000210: 268f 213f 574d e8bd bea1 ec3e 0890 703e
00000220: 84f3 70be 492c aabd 99d6 113c 84e8 57be
00000230: 19d7 b4bc 0823 753d c3e6 6c3c a384 58be
00000240: 784a 8ebc 273f 643f 1205 7d3f 3d93 8ebd
00000250: 5bdb 093d e9a8 9d3c fd3b 8b3f d853 adbd
00000260: cc93 c3bd 22cb d8be 9461 323d 5daa 983e
00000270: 7f28 743d f294 023e 13bd acbe 3425 e93d
00000280: 6d70 a4bd 4d45 12be 618a b83d dbbb 833d
00000290: d674 00bf ae24 553c 40f3 3a3d b0b0 e83c
000002a0: a519 3ebe 00b2 93b9 7381 b03c 0ab5 debd
000002b0: 8a7c dabe c011 913d e7af 2a3c 82fb c03c
000002c0: 822e 50ba 2016 b3bc 66c2 70bd 3866 03be
000002d0: 6a57 2fbd e49d 993c b6dc c83f 6046 38be
000002e0: f9df 2bbd 07de e4bd 7746 433d 72d1 343d
000002f0: 38fb eabc 8928 e33c 9e56 4d3e 150c 9cbd
00000300: 9417 52bd 7443 ddbd fb4b f6bd 3167 d5bc
00000310: 06f1 193f 6ec4 8fbe 3719 95bd 0daf 51be
00000320: 3d72 51bd 0ac7 9c3e 83b4 003f 817e 123d
00000330: d1bd 8b3f a19c 6b3d d940 8d3d c07b 94bd
00000340: e1ee df3c 2aee 28be 0fdf 373f 79e7 1cbd
00000350: 7138 15bc 6448 893d 14c1 e83c 6a46 e53e
00000360: 8aad 633d c0c3 b43e e3e9 44be c4ea af3e
00000370: 5808 19be 2347 b73e 54cd 973f 4ae5 a13d
00000380: a4ba 023d 401a 42be 5770 873d 5fdc c43e
00000390: e345 c63d 1238 7e3d 8838 c7bd b1ee b03e
000003a0: 3d10 1e3c 4e26 f43c 22ea 643d 51c7 123f
000003b0: ad3e d73e 456b 94be 3811 9b3d fa0d bb3f
000003c0: 1a16 5e3f 9105 b33d ed0c be3d 200b 2dbc
000003d0: 8b1a 233d d733 8e3d c66e 103e 7bd2 85bd
000003e0: ae1e eb3c 0da5 a8bc f565 92be bd42 be3e
000003f0: 31d0 14bd c5da 873d dea6 e5bc f177 ce3e
0.05590091 0.17513095 0.09170292 0.8188005 0.6833456 -0.12047006 0.33170587 0.37006167
-0.1150049 -0.055122532 0.023874557 -0.33041686 0.06679438 0.104098976 0.101320386 -0.09073207
-0.047782607 0.6917138 0.76430696 -0.038582828 0.19562459 -0.07415108 1.5023527 -0.03661919
-0.10879701 -0.5918886 0.054262243 0.33016714 0.11296872 0.096107244 -0.35220644 0.073429756
0.028805315 -0.1235923 0.040490378 0.07955972 -0.5531308 -0.041238055 -0.0017603105 -0.04074102
-0.1271173 -0.003387183 0.061503455 -0.2647444 -0.40140584 -0.07837701 0.08624408 0.055641364
0.029157378 0.09272482 0.0680667 -0.07710788 2.5615096e-05 0.023841083 1.5361674 -0.21555474
0.010371268 -0.2300206 -0.09458198 -0.07533297 -0.0004765524 -0.0048585148 0.04098643 -0.16563489
0.046088226 0.013207072 -0.11754662 -0.1063316 0.5015789 -0.25998107 -0.097179525 -0.09172377
-0.08777476 0.41382974 0.42178115 0.026041789 1.0034543 -0.03306221 -0.035203714 -0.09199553
0.025566181 -0.15822853 0.90799373 0.04680789 0.06782256 -0.085656054 -0.049196836 0.4268342
0.038614593 0.2156083 -0.3192636 0.3579395 -0.2713343 0.4508452 1.105006 0.11672958
0.061354257 -0.2871156 0.039316397 0.33097866 0.09546103 0.04733496 0.031282242 0.46921965
0.06107799 -0.010451532 -0.0010769591 0.42827725 0.4038034 -0.22554334 0.06417151 1.3874956
0.8710465 -0.0350729 0.06341903 -0.01766128 0.15541022 0.0833029 0.08032499 -0.013366072
-0.06610074 -0.031410024 -0.10732763 0.24082252 0.06873162 0.009347208 -0.06959022 0.29618794
0.051339947 0.14721455 -0.0042294543 0.88296366 0.6310905 -0.113428764 0.4621715 0.23492444
-0.23530394 -0.08309228 0.008901262 -0.21084791 -0.022075223 0.05984786 0.014459315 -0.21144347
-0.017369494 0.8915886 0.9883586 -0.06961677 0.03365646 0.019245582 1.0877682 -0.084632576
-0.095496744 -0.42342478 0.04355009 0.29817477 0.059608933 0.1275213 -0.33738002 0.11384049
-0.08029256 -0.14284249 0.09010769 0.06432315 -0.5017828 0.013009233 0.045642138 0.028404564
-0.1856447 -0.00028170645 0.021546101 -0.10874374 -0.4267314 0.07083464 0.010417915 0.023557428
-0.00079415005 -0.021861136 -0.058779143 -0.12831962 -0.042807974 0.018752046 1.5692356 -0.17995596
-0.041961644 -0.11175161 0.047674622 0.044145055 -0.028684244 0.02772929 0.20052573 -0.07619492
-0.051292017 -0.10803881 -0.12026211 -0.026050182 0.601334 -0.2807955 -0.072802 -0.20476933
-0.051134337 0.30620605 0.5027544 0.035765175 1.0917302 0.05752242 0.06897134 -0.07250166
0.027335586 -0.16497102 0.71824735 -0.038306687 -0.009107695 0.067032605 0.02841238 0.44780284
0.05558542 0.35305595 -0.19229846 0.343588 -0.14944589 0.3579646 1.1859536 0.079050615
0.031916276 -0.18955326 0.06613224 0.3844938 0.096812986 0.06206519 -0.09727579 0.34557107
0.009647426 0.029803421 0.05588735 0.5733538 0.42040005 -0.2898809 0.075716436 1.461364
0.86752474 0.08741296 0.09279809 -0.010561734 0.039820235 0.069434814 0.14104757 -0.065342866
0.028701153 -0.020586515 -0.28593412 0.37160292 -0.03633136 0.06633524 -0.02803367 0.40325883

net.2.bias f4 [128]
00000000: eed6 8fbc 1737 bebc ba15 b4bd 006a acb9
00000010: 1dd0 4cbd 3215 c23c deb8 d03d c2f3 9fbd
00000020: d7c6 533e 65a8 a4bd 6548 6d3e 11ce 7ebd
00000030: ba34 0dbd 2224 bbbc 9176 153d ca27 5ebd
00000040: 275c c73d f54c d23d 1c5e 913d 80c0 203d
00000050: aba1 b5bd d584 973d 8e88 6abd f861 f43d
00000060: f5f1 ff3d 97b1 f43d aa3c 11bd 4d01 b2bd
00000070: 2158 f83d 3c17 893e a572 833e 0398 dfbc
00000080: e7a1 c63d e869 663c 3244 613e 0b38 4e3e
00000090: 9b92 00bd abb3 b43d a68a efbc 251e 403e
000000a0: 1674 ad3d 8bda 683e 59a8 d33d a2ed 3c3e
000000b0: 49af abbd 585d 7f3c 9330 b63d b987 b6bd
000000c0: 1bd8 153e 98f8 7b3e 303f e73c a11b 85bd
000000d0: e81a 25bc 415d 293d 4c9b b8bc 4262 4d3d
000000e0: 5ca0 d63b 2df8 86bd ce54 e03c 3d76 9fbc
000000f0: 90c6 e5bc 2d1a bfbd bad2 1c3d ee25 723e
00000100: 469c 2a3e 3c5e d4bc 14d8 aabd 000b 9c3b
00000110: c32e 063e 3805 7d3c 2782 9f3d ecd6 aa3c
00000120: d48e 283e 4827 c3bd 5034 90bd e23c 67bd
00000130: e8dc debc 8ed4 3b3e 4102 4ebd 1c9c ccbd
00000140: dce6 93bb f4e2 933d f1a3 b43d 5ea7 593e
00000150: c47b cc3c 15c1 36bd 68da afbc dfea 583c
00000160: e677 833e f177 9ebb e359 873e 8651 9dbd
00000170: 2ce9 833e a21c b53b 7035 b9bd a281 d83d
00000180: 6a96 583e d408 723e 3bcd 0abd 4ab4 373e
00000190: f9fb 303e 50ea a9bc 0a7c 983d 8c70 833d
000001a0: 81a2 1fbe 3b68 883d ab62 ca3d 7ef1 3c3d
000001b0: 5808 30bd e8e0 833e 2fba 353e ee63 da3c
000001c0: bbfa a2bd cb26 b73d 80f8 0fbe 3cb9 663e
000001d0: d556 623e f61c c4bd f529 01bc 9e36 3c3e
000001e0: 673f 5a3e adcc 373e d2a4 693e c6f1 d5bd
000001f0: 2a84 493e 901a 8fbb af5c 92bd b3fd 6fbd
-0.017558541 -0.023219628 -0.087932065 -0.00032885373 -0.05000316 0.023691747 0.101915106 -0.07810165
0.2068132 -0.08039931 0.23172148 -0.06220824 -0.034474112 -0.022844378 0.036490027 -0.054237165
0.097343735 0.10268585 0.07098028 0.039246082 -0.08868726 0.073983826 -0.057259135 0.119327486
0.124973215 0.11947935 -0.035458244 -0.08691654 0.12126184 0.2677554 0.25673404 -0.027294165
0.09698849 0.014063336 0.2199867 0.20138566 -0.031389814 0.088233314 -0.029240917 0.18761499
0.08469407 0.22739618 0.10334844 0.18450025 -0.08383042 0.01558622 0.088959835 -0.08912606
0.14633219 0.2460655 0.028228372 -0.064994104 -0.010077216 0.0413487 -0.022534989 0.050142534
0.006549878 -0.065903045 0.027384188 -0.01946556 -0.028048784 -0.093311645 0.038286902 0.23647282
0.16661176 -0.02592384 -0.08341995 0.0047620535 0.13103776 0.015443139 0.077884965 0.020854436
0.16460735 -0.09528977 -0.07041228 -0.056454547 -0.027204946 0.18342802 -0.05029512 -0.09990713
-0.0045136046 0.07221022 0.08820332 0.21255252 0.02496136 -0.04461773 -0.021466449 0.013239591
0.25677413 -0.0048360755 0.26435766 -0.07681565 0.25763834 0.005527095 -0.090433955 0.105716005
0.21151128 0.2363618 -0.03388713 0.17939869 0.1728362 -0.020741612 0.074455336 0.06417951
-0.15589334 0.066605054 0.09882101 0.046128742 -0.042976707 0.25757527 0.17746805 0.026658978
-0.07957979 0.08942946 -0.14059639 0.22531599 0.22103436 -0.09575836 -0.0078835385 0.1838021
0.21313249 0.17949171 0.2281678 -0.10446505 0.19679323 -0.00436718 -0.07146584 -0.058591556

net.4.weight f4 [3, 128]
00000000: 9b51 9fbe 7886 bcbe d1da d5be 76f7 643d
00000010: 648d 5fbe 2690 81bd ae08 683e 2fbb 173c
00000020: 017c 713e e9d7 f1be 5693 fa3d e9f0 9cbc
00000030: 1473 9cbe 1588 42be 018f 033e 45a0 dcbe
00000040: 2011 3c3f ede1 ac3d 931e af3e 3f16 523d
00000050: 3307 82be 7570 89bd 5aee 2d3d c8a3 5a3e
00000060: 90b5 d73d af4c 9d3d 3371 d1be 95e9 0ebe
00000070: 7988 da3d 8739 193e 6c30 793e 51de b6bd
00000080: 0304 953d bb8f 853d 009d 813e bc9e 6a3e
00000090: b835 75be 632a 85bd f1fe 8bbd e7f5 4a3e
000000a0: e4be 483e e4f5 6d3e ac15 1b3e dc56 2d3e
000000b0: be89 533d 2cf8 b53d 24a7 eb3d e990 0fbe
000000c0: 95f2 fa3d 0fb5 df3d 6763 d03d aae2 183d
000000d0: 5caf ef3c 28d4 93bc a06c 0abb 5639 5d3d
000000e0: c668 eb3d ac35 ad3c 5cca 87be a4f6 b0be
000000f0: 7ca4 2cbe fc67 dabe ea1d a6be 354d 663e
00000100: e334 4b3e 1646 cbbd 8f6d e5be 0d7d 02bd
00000110: 2267 a03d 8010 f9bb 2f1d 8d3e aff4 7cbd
00000120: 3012 5d3e 6c89 0abe 002a a63c 95a9 9fbe
00000130: f95c 3b3d 90aa 293e 0971 a8bd 7d6e 90be
00000140: 7bb3 b53c af77 313f af07 793e 8d27 0a3e
00000150: 13da de3c d9f4 4ebe 73e9 dbbd af33 50be
00000160: d608 c23d 64dd c2be 3f6d 0d3e 9f83 473e
00000170: 632c 493e 80da b2be a2ae 9dbe 6c6e e73d
00000180: 7053 543e e1ec 4e3e b025 74be 9e4f 493e
00000190: 0648 0a3e fa9b 523d 740e bd3e f811 2d3e
000001a0: 33b2 12bf 46eb e4bc 412a f33d 32e4 473d
000001b0: 395e a0be 7ed6 233e 81f5 2a3e c435 9f3e
000001c0: 7d5f 713d 2db4 213f d4de 2abf a094 4c3e
000001d0: 8d94 273f 5072 ecbe 8fde b0be e6cf 603e
000001e0: ac7a 7b3e 87c5 293e b40e e03d 3f3a afbd
000001f0: 1521 eb3d c6f7 223d 75af 0b3b 6c4e a1be
00000200: fba4 3ebf 88d4 2bbf 2ce8 b4bf c9f3 07bd
00000210: 0a8d 4dbf 9db4 553d fbdd 8d3e 81fc 18bd
00000220: 5236 473e 843f 19bf 981c 8f3e cc11 47bd
00000230: 5520 013e 11a6 aebe c466 163e 1f53 40bf
00000240: 17ab 1b3f 9997 903e 6748 d83e 2888 39bd
00000250: 1fa2 3fbf aeef 99bd a593 b43d 5332 843e
00000260: e79d 943e 713a a13e 50b8 3dbf 516e 15bf
00000270: be9b 8e3e ee96 823e 547e 543e 9762 6cbf
00000280: 0c21 a03e 6b81 b4bd c143 353e 8b81 7c3e
00000290: 6d50 2cbf 114b 183e 59f4 bcbd a168 933e
000002a0: fa82 46be 51d3 843e caa7 613e 94d3 923e
000002b0: 98d3 08bd 064d a53e 98e6 933e 1f69 22bf
000002c0: 7461 653e 68eb 933e e564 b73d dca4 d43c
000002d0: 16da 84bd 292e 663d 2880 123d dc6a cb3c
000002e0: f7f8 13bf e013 92bd f365 52bf 3c41 2bbf
000002f0: f3c2 34bc 3782 9dbf 8324 42bf 4055 993e
00000300: 063c 6b3e 1a58 f6bc daf3 31bf 2a0f 7a3d
00000310: 56d7 a23e 9d6d 9d3d a1c4 5cbd b0a7 d0bc
00000320: 9950 943e cfa0 50be d939 833c 7a28 21bf
00000330: 7db8 2fba beb7 7d3e 452c 333d 7330 4abf
00000340: 6fb6 3dbd b46b 1c3f b7de 0c3e 6296 7f3e
00000350: 1e67 aa3c 92c9 40bf ca49 863c 8006 4fbf
00000360: 50a8 8c3e 9cc9 33bf f48b 703e 9117 1fbf
00000370: 7dfe 5e3e 58a4 21bf 70da 27bf dc04 8f3e
00000380: 7e9f 8a3e 5532 913e f38f 54bf f526 693e
00000390: 9cc0 883e 4486 7ebd 498b 6d3e 0d57 7f3e
000003a0: c23a c3bf ffbb 00bd be23 973e 630e 4abd
000003b0: 7e22 35bf dc8b 873e 24f3 763e 38dc d53e
000003c0: 103e ed3c 6301 233f b3a1 a3bf 5f53 743e
000003d0: d702 263f 3d85 64bf e122 2ebf 8033 523e
000003e0: a567 4d3e c01e 583e 637e 8b3e 7bec a6be
000003f0: 27a3 833e cabd 1f3d e1d4 ab3d 1d88 51bf
-0.31116948 -0.36821342 -0.41768506 0.05590006 -0.2183128 -0.06326322 0.22659561 0.009260937
0.2358246 -0.4723504 0.12235133 -0.019157844 -0.30556548 -0.18997224 0.1284752 -0.43091026
0.7346363 0.084415294 0.34203014 0.051290747 -0.25396118 -0.067109026 0.042463638 0.2135154
0.10532677 0.07680642 -0.40906677 -0.13956292 0.10670561 0.14963351 0.24334878 -0.08929122
0.07276156 0.06521555 0.25315094 0.22912115 -0.23946273 -0.06502225 -0.068357356 0.19820367
0.19604069 0.23238331 0.15144986 0.16927665 0.051645033 0.08885226 0.11506489 -0.14020123
0.122533 0.10923206 0.101752095 0.03732554 0.029258423 -0.0180455 -0.0021121874 0.054009758
0.11494593 0.021143757 -0.26521575 -0.34563172 -0.16859621 -0.4265746 -0.32444698 0.2249039
0.19844393 -0.09925477 -0.4481015 -0.03185754 0.07832171 -0.007600844 0.27561328 -0.061756786
0.21588969 -0.13528985 0.020283699 -0.31184068 0.045742963 0.1656897 -0.08224685 -0.28209296
0.02218031 0.6932325 0.24319337 0.1349165 0.027203595 -0.2021059 -0.10737886 -0.20332216
0.094743416 -0.38059533 0.13811205 0.19483803 0.19645838 -0.34932327 -0.30797297 0.11300358
0.20734954 0.2020755 -0.23842502 0.19659278 0.13504037 0.051418282 0.3692509 0.16901386
-0.5730316 -0.027944218 0.11873294 0.04880161 -0.31321886 0.15999791 0.16695215 0.31095707
0.058928955 0.6316555 -0.6674626 0.19978571 0.65461046 -0.46180964 -0.345448 0.21954307
0.24558514 0.16579257 0.109403044 -0.085560314 0.11480919 0.039787076 0.0021314297 -0.31505144
-0.7447049 -0.6712117 -1.4133353 -0.033191476 -0.80293334 0.0521742 0.2770842 -0.03735018
0.19454315 -0.5986254 0.27951503 -0.048600957 0.1260999 -0.34111074 0.1468764 -0.7512683
0.6080794 0.2824066 0.4224274 -0.045295864 -0.7485675 -0.075164184 0.088172235 0.25819644
0.2902672 0.314899 -0.74109364 -0.58371454 0.27853197 0.25505775 0.20751315 -0.92337936
0.31275213 -0.08813747 0.17701627 0.24658792 -0.6731022 0.14872386 -0.09226293 0.28790763
-0.19385901 0.25942472 0.22036663 0.28677046 -0.033404917 0.32285327 0.28886867 -0.6344165
0.22400457 0.28890538 0.08954791 0.025957517 -0.06486909 0.056196366 0.03576675 0.024831228
-0.57801765 -0.07132697 -0.8218681 -0.66896415 -0.011032808 -1.2305363 -0.7583696 0.29947853
0.22972116 -0.030071307 -0.6951271 0.061049618 0.31804913 0.07686923 -0.053898457 -0.025470585
0.2896774 -0.20373844 0.016018795 -0.6295239 -0.0006703211 0.24777123 0.04374339 -0.7898018
-0.04631656 0.6110184 0.13756834 0.2495971 0.020801123 -0.7530757 0.016392607 -0.80869293
0.27472162 -0.70229506 0.23490888 -0.62145334 0.21776767 -0.63141394 -0.65567684 0.27933395
0.27074808 0.28358713 -0.8303215 0.22768767 0.2670945 -0.062139764 0.23197664 0.24935551
-1.5252306 -0.031429287 0.29519457 -0.049330126 -0.70755756 0.26473892 0.24116188 0.41769576
0.028960258 0.6367399 -1.2783722 0.23859929 0.64848083 -0.89265805 -0.6802197 0.20527458
0.20059069 0.2110548 0.27244863 -0.32602295 0.25710413 0.038999356 0.08390213 -0.8184832

net.4.bias f4 [3]
00000000: 77ed 803d 26bf 593e 4c64 ed3d
0.06295293 0.21264324 0.11591396
