saved_models/dqn_episode_250.pth (torch, 75381 bytes, 6 tensors)

net.0.weight f4 [128, 8]
000000 22 83 88 3e b9 35 4c be 19 b3 83 3b f1 70 da bd
       0.26662546 -0.19942369 0.004019153 -0.10666073
000010 a1 96 90 3d 83 64 72 be fb 4d 05 3e cb 5c 82 3e
       0.0705998 -0.23671155 0.13018028 0.2546142
000020 36 1e f7 3d 9d fb b3 be 6f ab 4e 3e fc 45 2a be
       0.12066309 -0.35152903 0.20182584 -0.1662826
000030 d6 1d 91 3d 61 d4 70 3e eb 97 c7 be 35 e3 89 be
       0.07085769 0.23518516 -0.38983092 -0.26931158
000040 38 07 8b be 4c d4 27 bf 4d 65 e4 3d 77 bb 8f 3e
       -0.27153945 -0.65558314 0.11152134 0.28072712
000050 05 27 71 3d 62 f1 ad 3e 91 44 95 bc 71 0b d7 3d
       0.058875103 0.33973223 -0.018221172 0.10500229
000060 ec 09 66 ba 6d 5f d5 be bd dc d8 bc e4 d6 9b bd
       -0.0008775282 -0.41674367 -0.026472444 -0.076093465
000070 72 9d 47 3e 87 03 b3 3d 3b 2f c6 3d 03 2e 68 be
       0.19493654 0.08740907 0.09676977 -0.22673802
000080 88 1f 9c bc ca 24 33 bf 29 a2 0f be f5 21 b6 be
       -0.019058004 -0.6997801 -0.14026703 -0.35572782
000090 68 7f 58 3e 7d 9d 33 3e 15 61 e2 3d 3e 3c c1 bd
       0.21142352 0.17540546 0.11053673 -0.094353184
0000a0 55 59 4a bf d7 92 2b 3e b4 a8 58 be b2 57 ce bd
       -0.7904256 0.16755234 -0.21158105 -0.1007532
0000b0 1e c1 70 3a 0e 94 ae 3d 3f 24 b0 3e 7e 2e 87 be
       0.000918405 0.08524333 0.34402654 -0.26402658
0000c0 60 94 f0 bc 58 e3 a2 3e 10 b3 cd 3e 50 59 7d 3e
       -0.029367626 0.31814075 0.40175676 0.24741101
0000d0 d3 42 ef 3c 19 11 08 be 4d ce 18 bf 12 09 48 3e
       0.029206669 -0.13287772 -0.5968979 0.1953471
0000e0 2f 72 3c be 18 65 85 be ac e7 cc 3d fe cf 3e 3e
       -0.18402933 -0.2605369 0.100051254 0.1863403
0000f0 2c f5 8c be f1 ce 9b be 70 21 73 bd 73 c1 9c 3e
       -0.275308 -0.3043132 -0.05935806 0.3061634
000100 3f 77 29 3c 67 3f e0 be ce 13 53 3e 4c e5 4b 3e
       0.010343372 -0.43798372 0.20613024 0.19911689
000110 74 52 84 be bc b2 41 3e e2 ee ab 3e 07 03 b1 be
       -0.25844157 0.18915838 0.3358069 -0.34572622
000120 bb 0f 95 3e 88 e4 0a be 3a f0 99 3e ae 9d 31 3e
       0.29113564 -0.1356374 0.3006609 0.17345306
000130 fc 51 77 3c 10 1e 44 be 4d a3 a4 3e e5 c3 0b 3e
       0.01509523 -0.19152093 0.3215584 0.13648947
000140 44 60 81 be 27 b0 11 3e 26 c9 cc be cb 78 84 be
       -0.25268757 0.14227353 -0.39997214 -0.25873408
000150 78 57 20 bc 89 15 e7 3e 24 e8 b7 be 52 99 8f 3d
       -0.009786479 0.45133618 -0.35919297 0.070116654
000160 47 4c cb be 71 af dd 3e 3b 11 62 bd 65 b3 d9 be
       -0.39706632 0.43297914 -0.055192214 -0.4251968
000170 95 41 1e 3c 2c 4a b8 be 6f 2e bd 3e 20 6f ae bc
       0.009659191 -0.3599409 0.3694949 -0.021293223
000180 b4 3d d5 3d 60 ed 47 bd 80 f1 75 bd ce 0f 45 3e
       0.104121596 -0.048810363 -0.060044765 0.1924431
000190 23 ee 91 be 70 42 50 be b1 e0 3e be fd 39 60 be
       -0.28501996 -0.20337844 -0.186404 -0.21897121
0001a0 8b a3 1f 3e 86 2f 3d 3e 1c 23 5e 3e 0d 83 85 bd
       0.1558973 0.1847516 0.2169308 -0.065191366
0001b0 d5 0b 68 be 5a 80 67 bd 9c ca 90 3e f9 05 11 bd
       -0.22660764 -0.05651889 0.2827958 -0.035406087
0001c0 af de a7 3a b8 19 05 be 7d 42 9e 3e 38 08 b8 bc
       0.0012807454 -0.12998092 0.30910102 -0.022464857
0001d0 6d 44 3c 3e a2 bf 8c bc a8 5e f7 3e 4b 09 bf be
       0.18385477 -0.017181221 0.48314404 -0.37311777
0001e0 51 df ab be e6 02 19 be c0 41 3e bc 95 99 0e be
       -0.33568814 -0.14942512 -0.011612356 -0.13925774
0001f0 66 1f 73 3e cf ea 9b be 01 c0 87 3e 17 f2 1b be
       0.23742446 -0.30452582 0.26513675 -0.15229069
000200 0e ea 60 be b6 f6 47 3e 30 c6 53 bd 39 62 fa bd
       -0.21964285 0.19527707 -0.05170268 -0.12225766
000210 a6 12 1b bd 6f 39 0c be 54 f6 96 3d d0 40 1a be
       -0.03785958 -0.13693784 0.07371202 -0.15063787
000220 b6 50 2d 3e 1b 1c e1 be a8 9f b7 3e 2e d7 c5 3e
       0.1692532 -0.43966755 0.35863996 0.38640732
000230 b4 6c 8b bb b8 4b 82 be 5f cc e1 3d a3 48 b6 3e
       -0.004254902 -0.25448394 0.11025309 0.35602292
000240 f3 b2 f8 3e db 93 9e bd 21 c9 dd bd 18 40 d6 bd
       0.48574027 -0.07743045 -0.10829378 -0.10461444
000250 6d 6f 95 bb 5a 9b 43 be 37 21 89 bd 1e a5 a8 be
       -0.004560402 -0.1910223 -0.06695788 -0.32938474
000260 a0 60 d7 be 68 f9 99 3c 5f 61 aa 3e a9 47 81 3e
       -0.42065907 0.018795684 0.33277413 0.25249985
000270 8b 27 18 3f 22 70 8e be 68 e0 91 be 5a 22 cb 3c
       0.5943534 -0.27819926 -0.2849152 0.024796654
000280 ec 1b 87 3e 55 67 b2 be c2 29 c8 bd 62 68 17 3e
       0.2638849 -0.3484446 -0.0977359 0.14785913
000290 eb 69 9a be 87 b7 1c 3e 4d f6 7f be b4 14 9f 3e
       -0.30158934 0.15304385 -0.249963 0.31070483
0002a0 8d 87 0a 3c 39 1c ce 3d 95 07 4a bd fe c3 a2 bd
       0.008455169 0.10063977 -0.049323637 -0.07947539
0002b0 f8 8e 90 be ab a8 3a 3d 91 30 9f bd 06 f5 be bd
       -0.28234076 0.04557101 -0.07772935 -0.09324078
0002c0 3b 65 ce 3e c8 5b c6 bf 6b 37 df 3e 29 ca bf be
       0.40311608 -1.549676 0.43596968 -0.37458923
0002d0 66 3b cb 3c 32 7f 1e 3e d3 dc 85 bd d4 1f 22 3e
       0.024808597 0.15478209 -0.065362595 0.15832454
0002e0 c4 4e 14 3e 06 75 44 3e 4f f9 15 be 02 bd 12 3e
       0.14483172 0.19185266 -0.14645885 0.14329913
0002f0 ee c0 9e 3d 5e 28 8c 3d d7 d4 4a be e7 b8 af be
       0.07751642 0.06843637 -0.19807754 -0.34320757
000300 ed d3 18 be e4 6c c0 3d 61 31 0d bf 24 78 e3 3e
       -0.14924593 0.09395769 -0.5515347 0.44427598
000310 72 10 b6 be ff 7a 02 3e 65 d8 2c 3e 47 c4 4e 3e
       -0.35559422 0.12742232 0.16879423 0.20192061
000320 61 9e 8e 3e 8a 00 92 be 91 f6 a9 bd bc ef ad 3e
       0.2785521 -0.28516036 -0.08298982 0.33971965
000330 a3 aa ea 3b 04 d9 5d 3e c8 82 2e be dc 09 10 be
       0.0071614548 0.21664816 -0.17042077 -0.14066261
000340 03 c6 4e 3e 08 28 4e 3e af fb 38 3e 6b 93 57 3d
       0.20192723 0.20132458 0.1806476 0.052630823
000350 c9 e0 d1 3e 8a 63 a3 be 53 8b bb bd 22 98 c2 be
       0.4099181 -0.3191188 -0.09157433 -0.38006693
000360 2b 94 bf bc 66 d3 62 3d 7d 10 6d be 1b 71 23 be
       -0.023386082 0.055377387 -0.23150821 -0.15961115
000370 7c 71 c8 3d f9 1d 43 3e 5e 47 f7 be 5d a5 15 bc
       0.097872704 0.19054402 -0.48296636 -0.009133664
000380 40 4e 3b be 1f 98 b2 3d 2e fc a6 bd 27 a3 ca 3e
       -0.18291569 0.08720421 -0.08153568 0.395776
000390 d5 5d db 3c 3a 1c dd 3d c2 26 e6 3d 15 4f aa 3c
       0.026778141 0.107963994 0.11237861 0.020789662
0003a0 3f b2 4c be 9f 3e 01 be 80 47 00 3e 51 a0 24 be
       -0.1998987 -0.12621544 0.12527275 -0.16076781
0003b0 70 c4 99 bd 9a 16 8d be 80 25 4b bd c6 50 45 3e
       -0.075081706 -0.27556306 -0.04959631 0.19269094
0003c0 b9 6e d0 3e 9f ac 0a 3f 81 4f 90 be 8c 06 c4 be
       0.40709475 0.5416965 -0.28185657 -0.38286245
0003d0 ca 1c 21 3e 84 01 22 3e 4f 85 45 be d6 1f 84 bd
       0.15733638 0.1582089 -0.19289134 -0.06451385
0003e0 bf da a2 be 21 b0 82 3e e6 31 86 3e d3 ed 1b bf
       -0.31807515 0.25525 0.26209944 -0.60909766
0003f0 f1 7c 99 bc 2e bd 82 be 63 14 ff be 21 72 92 3e
       -0.018736335 -0.25534958 -0.4982024 0.28602698

net.0.bias f4 [128]
000000 0a a1 f7 3d 10 be 0e 3e fe 71 33 3e 8d fd 65 3e
       0.12091263 0.1393969 0.17523953 0.22460003
000010 70 d8 6f bd 3b 64 1d 3e 52 4c d0 be c0 d6 3b bc
       -0.05855602 0.15370266 -0.40683228 -0.011464775
000020 ef 4c 49 3e 03 38 29 bd 57 7d 4f be 2c f8 48 3e
       0.19658254 -0.041313183 -0.20262657 0.1962592
000030 30 d8 87 bc 68 50 25 bd 68 bd 89 3c 6b 7c a0 be
       -0.016582578 -0.040359885 0.016813949 -0.31344923
000040 66 f6 1c 3e b2 08 5a bc 4a d0 5e be 9b 36 11 bd
       0.15328369 -0.013307737 -0.21759143 -0.035452466
000050 7d 3a 3a 3e d5 90 e1 3d 55 25 e3 bd 10 5b 35 3e
       0.18186374 0.11013953 -0.11091105 0.17710519
000060 33 ef 8d bd 86 f3 9e bd e9 cf 03 be 50 3e 81 3d
       -0.06930389 -0.07761292 -0.1287228 0.06310713
000070 bc 2a 9f be 64 9e 98 bd e0 8d e8 be d9 2d 82 3e
       -0.3108729 -0.074520856 -0.45420742 0.25425604
000080 38 f4 8a 3e 57 e9 89 bb 6e 61 9f be 30 fc 97 be
       0.2713945 -0.0042087245 -0.3112902 -0.2968459
000090 9f 13 0f be bf d3 78 be 7a f8 b1 3d e5 d8 bb be
       -0.13972329 -0.24299525 0.08689971 -0.36688915
0000a0 5d ae 70 bb d5 c9 e5 be 3c 0d 40 3e 5a bd ea bd
       -0.0036725022 -0.44880548 0.18755049 -0.11461897
0000b0 e0 23 74 3e 94 2b 47 be f8 e5 96 be af dd 93 be
       0.2384181 -0.19450217 -0.29472327 -0.2888007
0000c0 3f 56 9f be ad c4 9b be 17 55 3f be 5e 31 46 3e
       -0.31120488 -0.3042349 -0.18684803 0.1935477
0000d0 81 09 89 be 5b d8 26 be 4c 87 53 be 37 bb a7 be
       -0.26765063 -0.1629347 -0.2065708 -0.3276002
0000e0 aa f6 20 3e 88 be 82 3d 28 5e 97 3e 71 e5 0a be
       0.15719095 0.06383997 0.29564023 -0.13564087
0000f0 c4 e1 4a be ad 6f ff bd 78 43 f1 3d fb 6d 63 be
       -0.19812685 -0.12472472 0.11780447 -0.22209923
000100 08 8b 70 be 0f 08 8b be ac 3f 12 be d6 64 33 be
       -0.23490536 -0.27154586 -0.14282101 -0.17518935
000110 b4 60 13 3c 68 fb 93 3e 75 40 9a 3e 58 44 b3 3d
       0.008995224 0.28902745 0.30127302 0.0875327
000120 1d 2c 74 3e 0b 20 af 3d 7e 97 25 be d6 25 82 3e
       0.23844953 0.085510336 -0.16171071 0.25419492
000130 c5 32 b2 be fe 12 41 be 8b f5 e3 3c 03 d8 4c be
       -0.3480436 -0.18854901 0.027827045 -0.20004277
000140 40 97 4e be 9d 58 9d be 2a 8d 21 3e 2d a2 bb 3d
       -0.20174885 -0.3073167 0.15776506 0.09161792
000150 a7 44 10 be ff 26 91 3d 76 ec 1b 3e 8c 58 63 3c
       -0.14088689 0.07087516 0.15226921 0.013876092
000160 5d 0b 07 3e 48 13 fb 3d ec 63 5d 3e 1f df fd bc
       0.13187928 0.12259537 0.21620148 -0.030990181
000170 d6 08 2a 3e 84 91 6d bd 29 1c bb be b1 ad 0d 3e
       0.16604933 -0.058000103 -0.36544922 0.1383579
000180 31 93 5e 3e 70 6c 60 be d0 30 fa 3d eb ca 42 bd
       0.21735837 -0.21916366 0.122163415 -0.0475568
000190 bf ed be bc 94 e4 1d be 2f 39 82 be bc 6b 01 bd
       -0.023306726 -0.15419227 -0.25434253 -0.031596884
0001a0 74 ab a0 3e e9 28 ed bc ec 4b 2d 3e 2d 58 98 be
       0.31380808 -0.028950172 0.16923493 -0.29754773
0001b0 8e 52 f3 3c 79 e2 8f 3d cf 0b 1e 3d 22 bf 7b 3e
       0.029702451 0.07025618 0.03858548 0.2458463
0001c0 c0 0f 16 bc 4d da 18 be d4 cc 9d 3e 1c a2 92 be
       -0.0091590285 -0.14927025 0.30820334 -0.28639305
0001d0 39 22 8d 3c 16 6c 74 bb bf 55 35 3e 18 15 de 3d
       0.017228233 -0.003729587 0.17708491 0.10843867
0001e0 c0 a4 63 3e e8 8b ae 3b ac 44 59 3e f5 f9 93 be
       0.22230816 0.0053267367 0.21217602 -0.2890164
0001f0 48 4f 2c bc 76 70 89 be ea 59 60 bd 0f 54 9a bd
       -0.010516949 -0.26843613 -0.05477325 -0.07535564

net.2.weight f4 [128, 128]
000000 5c 0d 99 bd 20 02 5d be a1 ec 17 be 66 ec 28 bd
       -0.07473251 -0.21582842 -0.1483636 -0.041241072
000010 5e e0 a9 bd 7b 1f 7d bd 3d 43 7f 3e 84 9e 83 bd
       -0.08294748 -0.0617976 0.24927993 -0.06426719
000020 a1 84 34 3c 7b 70 9f bc 50 ef 18 3e 77 f7 9f bc
       0.011017949 -0.019462815 0.1493504 -0.01952718
000030 68 72 7c bc d3 b8 26 3e 7b 3e 2a 3d 42 12 24 3d
       -0.015408136 0.16281442 0.041563492 0.040056475
000040 a0 84 1c 3e 02 d3 76 be 9e 7f 0c 3e fd c0 53 be
       0.15284967 -0.2410393 0.13720557 -0.20679088
000050 36 26 da bc 2a 64 17 3e 70 de 8a be fd d8 f8 3d
       -0.026629549 0.14784303 -0.2712283 0.12150762
000060 e6 bb 9d 38 71 ae 98 bd 3a 0c 08 be a9 7f 4b bd
       7.521342e-05 -0.07455147 -0.13285914 -0.049682293
000070 31 9c 2b 3d b6 7b 30 3d ad be 00 bd f4 d7 b8 be
       0.041897003 0.04308673 -0.031431843 -0.3610226
000080 11 f8 3e 3d 02 e1 27 be 1e de e3 3d 03 31 ab 3d
       0.046623293 -0.16394427 0.1112635 0.083589576
000090 fc d2 4a be e6 48 6f be 15 8e 2f 3d 74 17 56 3d
       -0.19807047 -0.23367652 0.04286011 0.05226846
0000a0 dd 62 c6 3b f8 18 d6 ba 6e ed 3e be 0a c7 24 3d
       0.006054266 -0.0016334346 -0.1864526 0.04022888
0000b0 d4 15 28 3e 51 dd 4e bd 5c 02 0c 3d 41 19 91 3d
       0.16414577 -0.050504033 0.034181938 0.07084895
0000c0 aa 00 55 3c 18 95 c1 bd 20 dd 0e be d6 b2 ac bc
       0.013000647 -0.094522655 -0.1395154 -0.02108137
0000d0 2b 1d 8c be 67 bf 20 3d 66 f0 92 bd 6c 8e 36 bd
       -0.27366003 0.039245035 -0.071747586 -0.044569418
0000e0 d7 c4 c8 3d 76 98 0f bd 52 0c 5e be ee ba 22 3d
       0.09803169 -0.035057507 -0.21684387 0.03972905
0000f0 bc 90 12 be 0e f3 3e bd dc dc 50 bb 33 83 9b bd
       -0.14313024 -0.046618514 -0.0031869924 -0.07593384
000100 f9 df 0b be 5c 02 59 3d 71 60 11 be 22 b1 4f bd
       -0.13659658 0.052980766 -0.14196946 -0.050706036
000110 43 d4 60 3d 4a 87 65 ba 9b ac b4 3d e4 ed ce 3c
       0.05488993 -0.00087558164 0.088219844 0.02525992
000120 ce 64 f5 3c b8 28 8a 3d 10 68 08 be ac d0 77 3d
       0.029955294 0.06746048 -0.13320947 0.06050174
000130 53 62 33 bd 63 a1 32 3d 69 5a 24 bd b7 9d 54 bd
       -0.04379494 0.04361094 -0.040125284 -0.05190822
000140 70 31 cc 3d 23 55 84 3e ad 65 34 3e 73 a9 28 bf
       0.09970367 0.25846204 0.17616911 -0.6588356
000150 5a 6e 7a bd 74 4c ba be e9 27 c1 3d e2 0e 03 3d
       -0.061140396 -0.36386454 0.094314404 0.031996615
000160 d5 1b a1 bd 4f f7 17 3e f6 99 55 be 10 d6 88 3e
       -0.07866637 0.14840434 -0.20859513 0.26725817
000170 f4 8e 38 3d fc 24 27 3d 43 94 00 3e be 95 3b 3e
       0.045058206 0.040806755 0.12556557 0.18318841
000180 aa df 50 3e 9e 00 20 bd d9 8b 41 3d f7 69 95 3d
       0.20397821 -0.03906309 0.04725251 0.07295602
000190 c6 02 4b bc 03 55 fd 3d c8 b4 cc 3e aa f5 b5 3d
       -0.012390798 0.1236973 0.39981675 0.08884747
0001a0 da f6 08 3e 44 df e0 3c c9 4e f4 bd 8c 34 1d be
       0.13375416 0.027450211 -0.119290896 -0.15352076
0001b0 db 94 cc 3d f1 42 2c 3d 75 31 7c bb b4 fc f2 bd
       0.099893294 0.042056028 -0.0038481627 -0.118646055
0001c0 60 70 18 bb dc 27 b0 bd c2 c1 f9 bc 8e 85 72 3d
       -0.002326034 -0.086013526 -0.030487899 0.0592094
0001d0 95 c4 3b be e7 b2 e2 3d fc ad b5 3d fb 4b 99 bc
       -0.18336709 0.11069279 0.088710755 -0.018712988
0001e0 7d ec b2 3d 99 1e 9d be d9 a2 58 3e c5 a5 cc 3d
       0.08736513 -0.30687407 0.21155871 0.099925555
0001f0 39 60 86 3c f5 25 b7 bd 11 75 6e 3e b0 ac 9b 3b
       0.016403304 -0.089427866 0.23286845 0.0047508106
000200 dd 35 01 bb 29 2a 04 3e 3f 51 a6 3d 10 2a 22 3e
       -0.0019715943 0.12906708 0.08120965 0.15836358
000210 6b ef d6 3d 06 a6 2d 3e c4 45 65 3e 92 87 39 3d
       0.10494884 0.16957864 0.22389895 0.045295306
000220 9a 88 41 3d 19 4a 39 bd 33 6a 70 3e 40 8d a1 bd
       0.047249414 -0.04523668 0.23478012 -0.078882694
000230 b6 89 26 bd 74 bf 8b be 70 4f 17 bd cc 44 0b bd
       -0.040658675 -0.27294505 -0.036940992 -0.034001157
000240 bd 79 cf 3c 5d 9c 8b bf 7e 5e 20 3e b8 0e 2f 3d
       0.025326604 -1.0907093 0.15661046 0.042738646
000250 93 23 23 3e 2c 51 13 3e c3 8c 6e 3e 11 d8 1a bd
       0.15931539 0.14386433 0.23295884 -0.037803713
000260 5f b5 4d 3b 90 3f 2a bd ef 61 8a 3d ad d7 a4 3d
       0.0031388623 -0.041564524 0.067569606 0.080489494
000270 c3 6b 32 be eb 43 a4 3d 16 86 aa be d3 11 78 3c
       -0.1742392 0.08020767 -0.33305424 0.015140968
000280 b1 c4 18 be 72 8a 57 3e bf ad 7f be f1 c1 98 3d
       -0.14918782 0.21048906 -0.24968623 0.074588664
000290 71 a8 01 bf 18 18 9a 3e 3c f8 78 3e 0d b0 ac bf
       -0.50647646 0.30096507 0.24313444 -1.3491226
0002a0 88 b2 d4 3c 00 de c2 bd 79 d9 91 be f8 df ed 3c
       0.025964037 -0.095149994 -0.2848623 0.02903746
0002b0 54 36 24 3e 17 da af bd 44 d8 58 3e c0 f5 45 3d
       0.1603635 -0.08586519 0.21176249 0.04833007
0002c0 2b 5c 12 be cd 7a f3 be 71 60 96 3c af 35 5d bd
       -0.14292972 -0.47554627 0.018356534 -0.054006275
0002d0 75 ef da bd 94 4b 8f bd 68 5d bc bc f6 55 69 bd
       -0.10690204 -0.06996837 -0.022993758 -0.056966744
0002e0 57 37 0e be cc 48 95 3d 1f fb 9b 3d fd fa b9 bc
       -0.13888298 0.072892755 0.07616257 -0.022702688
0002f0 7b f6 33 bf 3c 14 d2 3d 6c 53 e1 3d db 26 71 bf
       -0.70297974 0.10257766 0.110022396 -0.94199914
000300 12 f2 b7 bd 90 88 01 3e 53 20 61 3d 79 d9 03 3e
       -0.08981718 0.1264975 0.054962467 0.12875928
000310 9a da 8e 3d 01 15 83 3e 1a 3a 3c be c5 31 ae be
       0.06975289 0.25601962 -0.18381539 -0.34022346
000320 6a 75 3b 3e f0 66 54 bc c2 63 e4 bd c7 5d 46 bb
       0.18306509 -0.012963995 -0.1115184 -0.0030268298
000330 29 24 f9 be 69 38 f9 be 61 9f 89 3d e8 13 22 3e
       -0.486604 -0.4867585 0.06719852 0.15827906
000340 35 9d 0c 3e a5 51 9b be 2f 75 03 3e 1e 5a 37 3d
       0.13731845 -0.30335727 0.1283767 0.044763677
000350 3b 1a 2f 3e 7b 73 2a 3e af ab ed 3d 47 eb 86 3d
       0.1709985 0.16645615 0.11605012 0.06587844
000360 eb 65 7e 3d a7 3c cd 3d 28 f9 6e 3e 82 18 35 3e
       0.062108915 0.10021334 0.23337233 0.1768513
000370 18 bb 67 bd d2 1f 4d bc e7 5d 80 be 4b 42 85 3d
       -0.05657491 -0.012519794 -0.25071642 0.06506785
000380 25 0c 3f 3e 22 73 99 bd 40 8d ce bd 31 43 50 3e
       0.18656977 -0.07492663 -0.10085535 0.20338131
000390 aa 56 c8 bd 22 33 69 3e c6 4e f6 3e 91 ae ff 3d
       -0.09782155 0.22773412 0.48106974 0.12484468
0003a0 ce 39 ee 3a 49 60 eb bc c6 1d c7 3d 69 b0 52 3b
       0.0018175186 -0.028732436 0.09722476 0.0032148606
0003b0 82 25 81 be 88 17 bc bd 45 b6 a2 3d 1f 5c d9 3d
       -0.2522393 -0.09184176 0.079449214 0.10613274
0003c0 48 cf b4 bc 6d 00 07 c0 01 92 01 3e 2a 5e 27 be
       -0.022071496 -2.109401 0.12653352 -0.16344514
0003d0 2f 34 29 bd 24 37 92 3e c9 e7 fb 3c f2 d1 05 3e
       -0.04130953 0.28557694 0.030750172 0.13068369
0003e0 f7 b2 c8 bb b4 22 38 3e 72 08 d7 3d d6 88 22 3c
       -0.00612485 0.17981988 0.10499658 0.00992032
0003f0 c6 ef 8a 3c e2 69 29 bd 03 95 e7 bd 02 3f 76 be
       0.016960036 -0.041360743 -0.113077186 -0.24047473

net.2.bias f4 [128]
000000 e1 a7 a9 3d 80 2c 26 3d a2 38 06 bd f4 71 29 3d
       0.082839735 0.040569782 -0.032768853 0.04136844
000010 8e dd 5a 3d 87 99 96 3d ce 60 d2 3c a4 e6 e2 3c
       0.053433947 0.07353502 0.025680926 0.027697869
000020 b7 22 51 39 ba 87 13 bd 73 b1 dc b9 f4 3e 87 3c
       0.00019944725 -0.03601811 -0.0004209388 0.01650951
000030 a7 21 89 bd 69 14 fc 3d ce be d3 bb a5 18 81 bb
       -0.06695872 0.123085804 -0.0064619547 -0.0039397054
000040 0e c9 8d 3c 16 a2 1d 3d 47 5c 0a 3d 33 a4 0b bc
       0.017307784 0.038484655 0.03377941 -0.008523035
000050 3f 6c d1 3b 6c 0b 3d bc 45 50 aa 3c 5e e3 9e 3b
       0.006391078 -0.011538368 0.020790229 0.0048488816
000060 e8 9a c3 bd 1d 08 73 3d 64 d7 5b 3c 02 3c 8d 3d
       -0.095510304 0.05933391 0.013418052 0.06896211
000070 b3 f9 9d bd ae 7b 06 bd 0d a3 8c 3b 18 f7 ff ba
       -0.07713642 -0.032832794 0.004291898 -0.0019528596
000080 9c b0 ff 3d 1a 7c 77 3c 6b 92 64 bd a5 7c d9 3b
       0.124848574 0.015105272 -0.055803698 0.0066371732
000090 8a a1 b6 bd 36 52 8f 3c 49 55 8e 3c e7 b6 2e bd
       -0.0891753 0.017495256 0.017374652 -0.042654898
0000a0 21 c3 f4 3c 87 9e 72 bd f8 7b ca bc 03 3e cf bc
       0.029878201 -0.059233215 -0.024717316 -0.025298124
0000b0 98 22 11 be 99 9a c3 bb c8 4e 50 3d bd f7 fb bc
       -0.14173353 -0.005969357 0.05085638 -0.03075778
0000c0 f1 fd 30 3c fb d9 82 3d 90 41 a9 bd c9 6f 9d 3c
       0.010802732 0.06389233 -0.08264458 0.019218342
0000d0 2d 2d 70 3d 75 5b 49 3d 82 5d 8f bd d2 4d 71 3d
       0.058636833 0.049159486 -0.07000257 0.058912106
0000e0 70 74 28 3c f9 8e 8b bd 95 9a 86 3c 5b 82 75 3d
       0.010281667 -0.06814379 0.016431132 0.05993877
0000f0 7f 76 9d bc f7 5b 0e 3c 32 ae 26 bc 72 3a d0 3c
       -0.019221542 0.008688918 -0.010173367 0.025418494
000100 6d 35 7b 3d ca 74 74 bd ca 33 7a bd da 3b 4e bd
       0.061330248 -0.05968169 -0.061084546 -0.050350048
000110 9a 3e dd bc 38 90 d5 3b 19 91 9b bd d2 03 b5 bd
       -0.02700739 0.0065174364 -0.075960346 -0.08838619
000120 71 e7 ce 3d 14 1c 61 bd fd 85 6f bd 56 4a b8 bd
       0.10102738 -0.054958418 -0.05847739 -0.089985535
000130 9e b8 ac 3c 16 52 26 bd 1f 7d 67 bd 47 fc b2 3d
       0.021084126 -0.040605627 -0.05651581 0.08739524
000140 b8 a2 87 bd 36 23 a8 bd 9f 0b 7f 3b 12 76 12 3d
       -0.06622833 -0.08209841 0.0038916839 0.035757132
000150 6c 5c 3c bd a5 4c 96 bc e4 b7 9d 3d 98 e3 87 3d
       -0.045986578 -0.018347094 0.0770109 0.06635207
000160 25 7a 9c 3d 70 f3 fe 3c 5d 4e 6e 3c 29 52 38 bd
       0.07640485 0.03112194 0.01454505 -0.04500023
000170 56 51 70 3d c8 49 dd bb 52 0a 3d bb 72 bb 84 bd
       0.058671318 -0.00675318 -0.0028845263 -0.06481065
000180 22 7a 54 bc 5b 60 d7 bc 97 ea db 3d bb eb e8 3c
       -0.012968572 -0.026291063 0.10738104 0.028432718
000190 bd b8 24 3d b0 2d f6 bc 96 ce 2d 3d 05 1c b7 bd
       0.040215243 -0.030051082 0.042433344 -0.08940891
0001a0 d2 ad 2f bc ba 22 79 bd 48 b1 bd 3b 8e 86 9e 3d
       -0.010722594 -0.060824133 0.005788956 0.07740508
0001b0 02 25 f1 3b f8 ef e9 bd 40 11 26 bd 62 ea 6c 3c
       0.007359148 -0.114227235 -0.040543795 0.014460178
0001c0 64 49 20 3b e7 ca d2 bc dc df a1 3c 4a cd 43 3d
       0.0024457807 -0.025731517 0.019760065 0.0478032
0001d0 3f eb 4b bd 47 fb 8e bb 56 f5 6f bd 2c c4 6f bd
       -0.049784895 -0.0043634507 -0.05858358 -0.058536693
0001e0 85 7c 11 bd 16 a4 2b bd 69 f8 73 3d 09 55 79 3d
       -0.03551914 -0.04190453 0.059563074 0.06087211
0001f0 31 1f 06 3d 84 df 89 bc c7 9b a4 bd a5 0b 7e 3c
       0.03274459 -0.016830213 -0.08037525 0.015505706

net.4.weight f4 [3, 128]
000000 1c 7c aa 3b b9 01 b3 3e 2b 0b b1 3e eb bc 3f 3d
       0.0052027833 0.34962252 0.34578833 0.046811026
000010 72 36 9a 3e 59 c1 23 be b4 d5 40 be 6e 46 99 be
       0.30119663 -0.15991725 -0.18831521 -0.29936546
000020 60 d0 ab be 6a 17 9e bc 98 ba 0b bd 9a 43 18 3e
       -0.33557415 -0.019298274 -0.034113497 0.14869538
000030 b6 7a aa 3b 92 3c e2 3e 3f b4 1a 3e fc f1 a0 3d
       0.0052026166 0.44186836 0.15107821 0.07858655
000040 43 d7 05 bf e3 3a bc be a3 5e f9 be d9 d2 eb be
       -0.5228159 -0.36763677 -0.48705015 -0.46059301
000050 a5 d2 80 3e 2b 42 ca 3e d9 e4 eb 3d 80 97 41 bf
       0.2516071 0.39503607 0.115182586 -0.75621796
000060 cf b6 87 3e ac ae 87 be a2 d4 fd bd 70 41 b9 3e
       0.2650666 -0.26500452 -0.12394072 0.36182737
000070 bf 05 9b 3d 06 5d b4 be 0a e0 4e 3f 59 3d f4 3c
       0.07569455 -0.3522722 0.80810606 0.02981441
000080 49 fb c1 3e 45 27 fb 3e 45 e4 c5 be af 50 b0 bc
       0.37887028 0.49053398 -0.38650718 -0.021522848
000090 a4 06 18 3f 5a 89 ac bf 88 a2 f0 be 44 00 b6 3e
       0.5938513 -1.3479416 -0.46999002 0.35547078
0000a0 c0 c4 2d 3e 7b b2 66 be f1 e5 84 bf 26 19 4a bf
       0.16969585 -0.22529022 -1.0382673 -0.78944623
0000b0 2f f7 ef bd e8 24 12 3e 42 9b 84 3d 47 c1 93 bf
       -0.117170684 0.14271891 0.064749256 -1.1543359
0000c0 eb 4e 17 3e e0 87 5c be 59 9b aa bd bf 67 3a 3e
       0.14776199 -0.21536207 -0.083304115 0.18203638
0000d0 5e 4d 1d 3e 56 7b 04 bf 8b 9c 71 3e d5 68 a4 be
       0.15361544 -0.51750696 0.23594873 -0.3211123
0000e0 3c 34 78 be e0 4b 10 3e 20 ed c7 bd d9 e8 4a be
       -0.24238676 0.14091444 -0.09762025 -0.19815387
0000f0 05 8b 44 3e 70 3f c8 bf 23 05 8a be 00 78 72 be
       0.19193657 -1.564436 -0.26957044 -0.23678589
000100 a2 ad 85 3d a6 69 55 c0 da 3d 81 3f c4 37 d3 be
       0.065272585 -3.3345733 1.0097001 -0.41253483
000110 9b 00 3c be e9 dc 34 3d 40 34 58 bc b7 38 9e 3e
       -0.18359606 0.04415599 -0.013196051 0.30902645
000120 df 63 b0 3d 79 73 4f bf 69 76 db bf 9a da 52 bc
       0.08612799 -0.8103557 -1.7145511 -0.0128695015
000130 b8 34 bd 3b f4 b6 14 be 36 ab b3 3e 50 53 96 be
       0.005774107 -0.14522916 0.3509156 -0.29360437
000140 1c 68 09 bf 6e ee b6 3e dc 70 66 bf 75 4e ed 3d
       -0.53674483 0.35728782 -0.9001596 0.1158723
000150 2d 5c ae 3d 48 d5 16 bd 6b c0 1a be dd ed d0 3d
       0.08513675 -0.036824495 -0.15112464 0.10201619
000160 d2 dd e4 be c4 e6 b6 be f1 d7 c7 bf 38 08 a0 3e
       -0.44700485 -0.35722935 -1.5612775 0.3125627
000170 2d 70 74 3d 5a 74 a5 bd 95 6b c3 bf f6 23 91 bf
       0.05967729 -0.08078833 -1.5267206 -1.13391
000180 dc 1b ca 3c 03 7f e6 3e f5 98 02 bf 48 4e 08 3f
       0.024671488 0.45018777 -0.51014644 0.5324445
000190 a6 b9 9c 3c e8 3d a9 be ed 5d 6a 3d 84 ef 3f bc
       0.019131493 -0.33055043 0.05721848 -0.01171482
0001a0 f4 da 44 be d4 0e f2 3d 11 9a 24 3e 42 19 ca be
       -0.19224149 0.118192345 0.16074397 -0.39472395
0001b0 e1 60 af 3e 41 43 23 bf 18 61 0c 3f 88 6c 12 3e
       0.342536 -0.63774496 0.54835653 0.14299214
0001c0 14 c8 aa 3d ef 46 1c be a9 77 9a 3e c8 68 29 be
       0.08338943 -0.15261434 0.30169418 -0.16543877
0001d0 89 0d 19 3d 35 4c 8d be b4 bf 78 bb 12 22 8e 3d
       0.037366424 -0.27597204 -0.003795606 0.06940092
0001e0 68 8d 3f 3c c2 0c fc 3e 92 a5 39 3d fd 84 a2 3d
       0.011691429 0.49228483 0.045323916 0.07935522
0001f0 e6 bf 0d bf 1a 38 a1 3e 62 f5 34 bf ab 93 fc 3d
       -0.5537094 0.31488115 -0.70686924 0.12332853
000200 83 41 12 bc ed f9 d0 3e 55 58 4a 3e e3 28 5d bd
       -0.008926752 0.40815678 0.19760258 -0.05399407
000210 c9 76 52 3e 68 1e 87 be 26 65 49 be fa 51 78 be
       0.20553125 -0.26390386 -0.19667491 -0.24250022
000220 90 46 9d be 17 de 8f be ca 7d ae bd 19 e8 3a 3e
       -0.30717897 -0.2809913 -0.08520086 0.182526
000230 67 92 9b 3c 15 23 af 3e 92 5e 37 3d 3e 81 b2 3d
       0.018990709 0.34206453 0.044767924 0.08716057
000240 38 46 16 bf 0f 67 8f be a8 65 4f bf a5 d4 d4 be
       -0.58700895 -0.28008315 -0.8101449 -0.41568485
000250 d6 24 f3 3e 8e 97 1a 3e f2 b2 fb 3d 1d 80 b3 be
       0.4748904 0.15096876 0.122899905 -0.3505868
000260 ea c4 92 3e c6 9e 1a be 1f 28 92 be 31 fc bc 3e
       0.28665859 -0.1509963 -0.28546235 0.36911157
000270 44 a7 ea 3d 02 9a 06 bf 7b ef 71 3f 56 77 71 3d
       0.11457685 -0.5257875 0.94506043 0.0589517
000280 25 4d d1 3e 29 d7 fc 3e 25 7c b9 be 20 65 f3 3b
       0.4087917 0.49382904 -0.36227527 0.0074278265
000290 19 07 b6 3e dc 84 04 bf f8 d2 fb be ca c6 a5 3e
       0.3555229 -0.5176523 -0.49184394 0.32378227
0002a0 66 b3 38 3e d3 46 94 be cc 5c 34 bf 97 9f 0b bf
       0.18037185 -0.28960285 -0.70454097 -0.5454039
0002b0 d8 f7 de bd 7f 2d 5c 3e 6c d0 91 3d f9 ff 58 bf
       -0.10887116 0.2150173 0.071198314 -0.84765583
0002c0 64 80 18 3e 84 c2 36 be 0e 7d 67 3d e7 86 3c 3e
       0.14892727 -0.1784764 0.056515746 0.18410836
0002d0 20 af 25 3e a7 f5 d4 be e2 00 82 be ae e9 f6 be
       0.16180086 -0.41593668 -0.253913 -0.48225158
0002e0 3f 1b b0 bc 71 b2 42 3e 59 8c 94 be f7 04 b8 3c
       -0.021497367 0.19013382 -0.29013327 0.022463305
0002f0 94 af 1d 3e 19 1c 76 bf 24 24 c8 be 79 ec 91 be
       0.15399009 -0.96136624 -0.39090073 -0.28500727
000300 f7 8f 05 be 6c f8 08 c0 93 e3 80 3f 41 cb a1 be
       -0.130432 -2.1401625 1.006945 -0.31600383
000310 72 09 af be 00 8a be 3c e0 4f 06 bc 47 6c e1 3e
       -0.34186894 0.023259163 -0.008197755 0.44027922
000320 cf ec 9a 3d 58 4a 18 bf bb 3d ac bf 08 8e ed 3b
       0.07564699 -0.5948844 -1.3456339 0.0072495975
000330 04 bb 2d be 90 e0 c1 bd 4a 72 86 3e b4 19 a2 be
       -0.16965872 -0.0946666 0.2625907 -0.31660235
000340 12 4d c1 be 0a 79 ef 3e 6f 0e 84 bf 9f b6 f2 3d
       -0.37754112 0.46772033 -1.0316905 0.118512385
000350 cc 04 03 3d 43 bd 49 3c 1b 1b 27 be 26 7e 11 3e
       0.031986997 0.01231319 -0.16318934 0.14208278
000360 c2 b4 cb be b9 e9 8c be 21 c2 60 bf 65 e9 9b 3e
       -0.39786345 -0.27522066 -0.8779622 0.30451503
000370 f5 c5 2d 3e d0 4d 3f 3d e8 c2 c2 bf 6e 06 3f bf
       0.16970046 0.046705067 -1.5215731 -0.74619186
000380 17 00 20 3d 7c 71 20 3c 74 e7 e3 be d9 fe f3 3e
       0.039062586 0.009792682 -0.44512522 0.4765537
000390 52 39 8c 3c 16 81 ae be 6e 8b b3 3d ae b1 69 bd
       0.017117176 -0.3408286 0.087668285 -0.057054214
0003a0 d4 77 24 be d3 de 2a be 1f 25 0d 3e 67 58 c9 be
       -0.16061336 -0.16686563 0.13783692 -0.39325258
0003b0 ce e8 87 3d 9f a5 0d bf f4 d6 28 3f e7 08 2f 3e
       0.06636201 -0.5533084 0.6595299 0.1709324
0003c0 2d 5a 80 bd a2 87 85 bd ec fe be 3e 04 16 cd bd
       -0.062672 -0.065200105 0.37303865 -0.10013965
0003d0 5f 01 97 3d 50 94 20 be 4b 5c fe 3c 0f 1a 73 3d
       0.073733084 -0.15681577 0.031049868 0.059351023
0003e0 43 ba 61 3d 00 21 96 3e 19 7e 9a 3d ed 6b 3f 3d
       0.055109274 0.29322052 0.075435825 0.046733785
0003f0 ae 90 ec be e8 04 d2 3e 58 18 67 bf 77 4e 62 3e
       -0.46204132 0.41019368 -0.9027152 0.22100244

net.4.bias f4 [3]
000000 70 17 61 3d 95 9c d4 3c 1f c3 79 3d
       0.054953992 0.02595357 0.060977098
