saved_models/dqn_episode_100.pth (torch, 75381 bytes, 6 tensors)

net.0.weight f4 [128, 8]
0.30081567 -0.2487504 0.0074017956 -0.20993282 0.11051051 -0.18108353 0.16484602 0.3102268
0.16287118 -0.38251078 0.26301417 -0.10758096 0.1843457 0.19270357 -0.36835343 -0.31179753
-0.23843071 -0.5413981 0.11746996 0.33239466 0.04355172 0.3071467 0.069796644 0.072409496
-0.05388876 -0.4691128 0.055165928 -0.06566188 0.2650386 0.118176274 0.06433901 -0.19597676
-0.11093723 -0.7297562 -0.20606966 -0.3203005 0.24657908 0.18872726 0.085007586 -0.08102925
-0.71123683 0.26655346 -0.15944737 -0.15761456 0.15486856 0.043416623 0.208254 -0.30584955
-0.058115687 0.30702192 0.3775532 0.22319148 -0.0036789402 -0.08917189 -0.43176532 0.23905683
-0.18402933 -0.2605369 0.100051254 0.1863403 -0.275308 -0.3043132 -0.05935806 0.3061634
-0.019420903 -0.4401205 0.23931578 0.18966487 -0.20369904 0.2211984 0.30393183 -0.31369707
0.26805538 -0.15702176 0.22864416 0.15906627 -0.06452884 -0.15953495 0.3626784 0.16847482
-0.15572809 0.16525578 -0.33287227 -0.33247945 0.04837014 0.39544627 -0.371155 0.014233781
-0.28371012 0.3792651 -0.07532981 -0.3805161 0.09628419 -0.3612086 0.2199778 -0.022571228
0.104121596 -0.048810363 -0.060044765 0.1924431 -0.28501996 -0.20337844 -0.186404 -0.21897121
0.10109037 0.27705267 0.14536487 -0.058042236 -0.30785024 -0.005325622 0.3308073 0.01578495
0.037705358 -0.16585167 0.3015471 -0.051257953 0.16063115 -0.0047037327 0.5014967 -0.36063513
-0.33568814 -0.14942512 -0.011612356 -0.13925774 0.23742446 -0.30452582 0.26513675 -0.15229069
-0.16939022 0.26302162 -0.0023171762 -0.10146016 -0.052793626 -0.098527245 0.0043993224 -0.11223047
0.1619803 -0.356621 0.3834367 0.32530564 -0.03963689 -0.26305306 0.11978426 0.34745196
0.43614912 -0.079114355 -0.09766356 -0.14699668 0.020563764 -0.18321966 -0.0743345 -0.32157302
-0.09365837 -0.028407834 0.38243386 0.29601425 0.50020134 -0.30163378 -0.11634128 0.0013676867
0.20513499 -0.32433945 -0.057535853 0.16773182 -0.32663313 0.18621539 -0.2060754 0.34387916
-0.01799302 0.13843347 0.019256867 -0.10552436 -0.3632695 0.12186906 -0.0867391 -0.01694599
0.34866938 -1.338007 0.4231273 -0.37355405 0.04192096 0.11607178 -0.029128052 0.11961316
0.13004103 0.32825503 -0.13417627 0.20086698 0.10943489 0.083094895 -0.19647676 -0.32855728
-0.19207683 0.08207992 -0.4535135 0.33878198 -0.43192482 0.15468694 0.035940934 0.22918801
0.25469607 -0.2157226 -0.11925832 0.3581034 -0.045189593 0.20468253 -0.12063688 -0.15262641
0.25626332 0.09986877 0.0052894647 0.021873936 0.29321536 -0.2461353 -0.015603103 -0.3070827
-0.034149714 0.010734409 -0.22074866 -0.1300415 0.15810451 0.21971929 -0.46813813 0.020046458
-0.055815224 0.108021595 0.030946277 0.33269763 -0.035073046 0.11535338 0.067070186 0.028181348
-0.1998987 -0.12621544 0.12527275 -0.16076781 -0.075081706 -0.27556306 -0.04959631 0.19269094
0.3976406 0.40432066 -0.2952195 -0.37177697 0.15183409 0.14231822 -0.20153338 -0.080399044
-0.27175498 0.108866 0.29711744 -0.52734864 -0.044707883 -0.21625866 -0.5297269 0.32512295
00000000: 8304 9a3e 6db8 7ebe c38a f23b a1f8 56be
00000010: 5653 e23d f66d 39be 65cd 283e 0cd6 9e3e
00000020: b4c7 263e 74d8 c3be cba9 863e 6853 dcbd
00000030: 1fc5 3c3e 1654 453e d298 bcbe eda3 9fbe
00000040: 2e27 74be 1199 0abf 1794 f03d a22f aa3e
00000050: 4a63 323d 5542 9d3e 8bf1 8e3d 6e4b 943d
00000060: 76ba 5cbd 8e2f f0be abf5 613d bc79 86bd
00000070: 24b3 873e 6706 f23d 2cc4 833d 22ae 48be
00000080: 0f33 e3bd 4dd1 3abf ed03 53be 6dfe a3be
00000090: 3a7f 7c3e b841 413e 7518 ae3d aaf2 a5bd
000000a0: 9e13 36bf b279 883e 2c46 23be b665 21be
000000b0: dd95 1e3e a1d5 313d 8940 553e 5098 9cbe
000000c0: b70a 6ebd fa31 9d3e a74e c13e 4f8c 643e
000000d0: 601a 71bb c09f b6bd 5810 ddbe 50cb 743e
000000e0: 2f72 3cbe 1865 85be ace7 cc3d fecf 3e3e
000000f0: 2cf5 8cbe f1ce 9bbe 7021 73bd 73c1 9c3e
00000100: 9618 9fbc 7957 e1be 320f 753e 8237 423e
00000110: 7b96 50be d581 623e f49c 9b3e e79c a0be
00000120: 8e3e 893e 50ca 20be b221 6a3e 45e2 223e
00000130: b227 84bd 215d 23be fcb0 b93e aa84 2c3e
00000140: 2f77 1fbe d038 293e 3c6e aabe bf3a aabe
00000150: c51f 463d ef77 ca3e 0708 bebe ce34 693c
00000160: 7442 91be 092f c23e 8446 9abd 02d3 c2be
00000170: a530 c53d 55f0 b8be dc41 613e 4ce7 b8bc
00000180: b43d d53d 60ed 47bd 80f1 75bd ce0f 453e
00000190: 23ee 91be 7042 50be b1e0 3ebe fd39 60be
000001a0: 7808 cf3d d9d9 8d3e 87da 143e b2bd 6dbd
000001b0: 8c9e 9dbe 8e82 aebb 935f a93e 714f 813c
000001c0: ef70 1a3d 05d5 29be 6264 9a3e dcf3 51bd
000001d0: 7e7c 243e c521 9abb 1662 003f 2ba5 b8be
000001e0: 51df abbe e602 19be c041 3ebc 9599 0ebe
000001f0: 661f 733e cfea 9bbe 01c0 873e 17f2 1bbe
00000200: a174 2dbe c5aa 863e c4db 17bb 58ca cfbd
00000210: 213e 58bd a7c8 c9bd 3128 903b 17d9 e5bd
00000220: 2ade 253e 0797 b6be d151 c43e 768e a63e
00000230: 4b5a 22bd e4ae 86be 7351 f53d 39e5 b13e
00000240: f04e df3e b506 a2bd d503 c8bd 4c86 16be
00000250: 5775 a83c ef9d 3bbe b03c 98bd 38a5 a4be
00000260: f6cf bfbd 8cb7 e8bc 5fce c33e 2e8f 973e
00000270: 320d 003f be6f 9abe 5644 eebd f343 b33a
00000280: e80e 523e d20f a6be b7aa 6bbd e4c1 2b3e
00000290: 753c a7be 3faf 3e3e 6e05 53be ee10 b03e
000002a0: 1966 93bc 81c1 0d3e 94c0 9d3c 281d d8bd
000002b0: 76fe b9be 7c96 f93d 45a4 b1bd 51d2 8abc
000002c0: cb84 b23e d043 abbf 24a4 d83e 7a42 bfbe
000002d0: 50b5 2b3d 0bb7 ed3d f49d eebc bff7 f43d
000002e0: 7a29 053e 0b11 a83e 8165 09be 13b0 4d3e
000002f0: 661f e03d a82d aa3d 3431 49be a938 a8be
00000300: caaf 44be 8419 a83d ec32 e8be d574 ad3e
00000310: 4025 ddbe 4166 1e3e cd36 133d 43b0 6a3e
00000320: 8667 823e 63e6 5cbe b53d f4bd 5459 b73e
00000330: b918 39bd 4c98 513e 7810 f7bd 194a 1cbe
00000340: f234 833e ff87 cc3d 3f53 ad3b f830 b33c
00000350: 5320 963e e40a 7cbe 28a4 7fbc f239 9dbe
00000360: 92e0 0bbd 60df 2f3c f00b 62be 9929 05be
00000370: 26e6 213e 18fe 603e cdaf efbe 7838 a43c
00000380: 819e 64bd 6d3a dd3d 0c83 fd3c 5857 aa3e
00000390: c1a8 0fbd 653e ec3d 185c 893d 92dc e63c
000003a0: 3fb2 4cbe 9f3e 01be 8047 003e 51a0 24be
000003b0: 70c4 99bd 9a16 8dbe 8025 4bbd c650 453e
000003c0: 8c97 cb3e 1e03 cf3e 0327 97be 8d59 bebe
000003d0: 657a 1b3e debb 113e c45e 4ebe 41a8 a4bd
000003e0: 7823 8bbe 23f5 de3d c71f 983e 5200 07bf
000003f0: 9d1f 37bd e972 5dbe 2f9c 07bf 8476 a63e

net.0.bias f4 [128]
0.17653921 0.09691851 0.14264661 0.25536817 -0.04523407 0.11187667 -0.36312836 -0.011464775
0.22862256 -0.009325952 -0.25851297 0.19497308 -0.016582578 0.010833008 0.02929205 -0.31344923
0.19169363 -0.021872967 -0.20978901 -0.058890436 0.21503572 0.18643837 -0.14962488 0.19176203
-0.042036336 -0.08958307 -0.05574121 0.092289686 -0.30348057 -0.074520856 -0.47008777 0.293353
0.26023617 -0.011606656 -0.29006293 -0.2968459 -0.19136812 -0.20622 0.12942787 -0.34235913
0.02978844 -0.44503734 0.21774781 -0.09805398 0.2649541 -0.21033598 -0.2942186 -0.28718773
-0.28508276 -0.3285517 -0.24352233 0.19972292 -0.2491989 -0.1627766 -0.2065708 -0.3276002
0.16396639 0.089115374 0.27837613 -0.13940446 -0.2642436 -0.13007715 0.13680252 -0.24926983
-0.22351566 -0.2861146 -0.09843253 -0.18557717 0.037690565 0.30558363 0.3434423 0.10656964
0.25329044 0.093752585 -0.10197839 0.29384565 -0.33115295 -0.2374192 -0.058895156 -0.18965974
-0.16507894 -0.29657498 0.14793476 0.05334877 -0.1329601 0.0437494 0.17383556 -0.034605257
0.14047152 0.14241077 0.20655125 -0.027822321 0.20303956 -0.058000103 -0.36824918 0.16618663
0.23945305 -0.21916366 0.12770933 -0.05587055 -0.0020983072 -0.13503551 -0.2237263 -0.039657496
0.31675264 -0.04327643 0.19656195 -0.34006912 0.04440655 0.07694613 0.0663474 0.2694533
-0.0091590285 -0.15140007 0.32985118 -0.23000893 -0.013600148 0.009362839 0.20323926 0.11499639
0.23823912 0.040895198 0.22690195 -0.22682013 0.06117337 -0.29784945 -0.031964693 -0.041011922
00000000: b2c6 343e 367d c63d f411 123e 9ebf 823e
00000010: 5c47 39bd 981f e53d f6eb b9be c0d6 3bbc
00000020: 081c 6a3e e1cb 18bc d05b 84be 06a7 473e
00000030: 30d8 87bc ee7c 313c e2f5 ef3c 6b7c a0be
00000040: 564b 443e f02e b3bc eed2 56be 1937 71bd
00000050: 5332 5c3e b3e9 3e3e 4437 19be 445d 443e
00000060: 4b2e 2cbd 5477 b7bd e550 64bd 6002 bd3d
00000070: ce61 9bbe 649e 98bd 58af f0be 5d32 963e
00000080: ad3d 853e d829 3ebc 2183 94be 30fc 97be
00000090: 01f6 43be 562b 53be bd88 043e b249 afbe
000000a0: e306 f43c efdb e3be 48f9 5e3e 86d0 c8bd
000000b0: 10a8 873e 5162 57be d2a3 96be 450a 93be
000000c0: 5ef6 91be ee37 a8be eb5d 79be 2a84 4c3e
000000d0: ff2d 7fbe e9ae 26be 4c87 53be 37bb a7be
000000e0: cee6 273e 1f82 b63d 5187 8e3e 0bc0 0ebe
000000f0: f04a 87be f232 05be f615 0c3e 9740 7fbe
00000100: 4ae1 64be 9d7d 92be ff96 c9bd f107 3ebe
00000110: 6c61 1a3d 7575 9c3e abd7 af3e 2f41 da3d
00000120: 49af 813e 5b01 c03d 0cda d0bd f072 963e
00000130: e18c a9be 051e 73be 0c3c 71bd 2a36 42be
00000140: 740a 29be add8 97be 367c 173e 3d84 5a3d
00000150: b126 08be 9232 333d f301 323e 3ebe 0dbd
00000160: c4d7 0f3e 21d4 113e 2c82 533e a3eb e3bc
00000170: 9ae9 4f3e 8491 6dbd 288b bcbe d42c 2a3e
00000180: 2e33 753e 706c 60be 3cc6 023e 85d8 64bd
00000190: c183 09bb c046 0abe 8218 65be e66f 22bd
000001a0: 672d a23e a042 31bd 8947 493e 8a1d aebe
000001b0: a4e3 353d ef95 9d3d 25e1 873d c8f5 893e
000001c0: c00f 16bc 9f08 1bbe 41e2 a83e 7687 6bbe
000001d0: 28d3 5ebc 9866 193c f41d 503e 3a83 eb3d
000001e0: f5f4 733e b981 273d fc58 683e 8943 68be
000001f0: ed90 7a3d b97f 98be 69ed 02bd 1efc 27bd

net.2.weight f4 [128, 128]
-0.05861684 -0.088916175 -0.18009298 -0.04844508 -0.080224164 0.001972312 0.1011849 -0.06426719
0.009299006 0.005857093 0.09785031 -0.05952302 -0.015408136 0.1465949 -0.0046864897 0.040056475
0.09055962 0.14387453 -0.13385828 -0.08429929 -0.051602457 0.104476795 -0.38943365 0.110285394
0.04056966 -0.12331633 -0.16977946 -0.016287945 -0.027127855 0.04308673 -0.013169831 -0.24494857
0.12197461 -0.3419551 0.1112635 0.083589576 -0.10480079 -0.09329606 0.057068266 0.06704356
0.031953648 -0.03865972 -0.20470765 0.038748685 0.14398322 -0.007621799 0.049113397 0.07084895
-0.046756305 -0.16362867 0.016447557 0.043300446 -0.088867806 0.026017282 -0.071747586 -0.044569418
-0.0009596955 -0.08061943 -0.24382576 0.036388233 -0.19838372 0.016976679 0.1222838 0.054807015
-0.2093755 0.040935174 -0.09066166 -0.045633867 0.033784017 -0.16483228 0.054628026 -0.04041746
0.065477945 0.0045352117 -0.15601145 -0.017504517 -0.0038508417 0.06816561 0.0364403 -0.020156352
0.052345823 0.18669032 0.25266165 -0.13772312 0.0071265073 -0.055641305 0.10741773 0.105225354
-0.12592162 0.14749293 -0.28476596 0.26725817 0.043966312 0.040806755 0.14011113 0.17159753
0.09532431 -0.03906309 0.042745005 -0.034894884 -0.00067997805 0.10477506 0.19604929 0.10276785
0.12316209 0.021015855 -0.07192745 -0.07017061 0.2831847 0.07985497 -0.059740458 -0.06511092
-0.002326034 0.071947075 -0.03577282 0.07891158 -0.16791125 0.0731778 0.08322483 0.059172057
0.04943356 -0.10674276 0.118042454 0.054571263 0.034957845 0.07119248 0.060914364 -0.003389436
0.010894299 0.14210434 0.0821294 0.18667768 0.21238121 0.12685518 0.15708403 0.045295306
0.06421676 -0.076290704 0.12378001 -0.25570706 -0.040658675 -0.28975534 -0.0063678278 -0.034001157
-0.11298043 -0.7665768 0.86969346 -0.17661999 0.14415142 0.07902882 0.20538478 -0.03682136
-0.013045536 -0.14663006 0.030871538 0.065958045 -0.041697115 0.08020767 -0.47155318 0.0066037024
0.019246459 0.16962767 -0.2697798 0.074588664 -0.545843 0.035492003 0.12260337 -1.145363
-0.022792563 -0.06650283 -0.13052765 -0.011299914 0.14723311 -0.08480998 -0.09410958 0.054538246
-0.3523136 -0.42206618 0.014402616 -0.070585586 -0.0027633498 -0.10720412 -0.022993758 -0.056966744
0.020057661 -0.1119692 0.16586319 -0.05326555 -1.0413651 0.048316773 0.083880976 -0.6643486
-0.102527514 -0.07615606 -0.0075160754 0.096629165 0.032413825 0.16691855 -0.18961966 -0.039558772
0.2271356 0.057998993 -0.06651313 0.051888447 -0.41107106 -0.34228268 0.1883078 0.24902609
0.09613048 0.036068633 0.097814664 0.050301358 0.28271973 0.11226924 0.12541585 0.13500819
0.060983602 0.055692922 0.24236968 0.17682841 -0.0050067743 -0.012519794 -0.22133628 -0.017876508
0.2768666 -0.07492663 -0.11599949 0.025364434 -0.10913945 0.07391935 0.011942228 0.17443785
0.037664242 -0.04979844 0.14686805 -0.060921945 -0.36976632 0.022732876 0.09902618 0.11061941
-0.022071496 -1.7978482 0.14815745 -0.24466448 -0.095916994 0.27188793 -0.014270422 0.16047911
-0.038500994 0.18868904 0.023397487 -0.09963247 -0.02832586 -0.052766908 -0.028641889 -0.24432307
00000000: 3618 70bd af19 b6bd 4b6a 38be 596e 46bd
00000010: 914c a4bd e841 013b 073a cf3d 849e 83bd
00000020: dc5a 183c dbec bf3b be65 c83d 69ce 73bd
00000030: 6872 7cbc f91c 163e 2091 99bb 4212 243d
00000040: 5277 b93d d853 133e 2512 09be 1ba5 acbd
00000050: 195d 53bd eef7 d53d d963 c7be 4fdd e13d
00000060: 5f2c 263d 468d fcbd abda 2dbe 4c6e 85bc
00000070: 3c3b debc b67b 303d 46c6 57bc ccd3 7abe
00000080: d3cd f93d bd14 afbe 1ede e33d 0331 ab3d
00000090: cca1 d6bd 0112 bfbd 6ac0 693d 224e 893d
000000a0: d4e1 023d a859 1ebd e29e 51be f1b6 1e3d
000000b0: 5670 133e 49c0 f9bb 212b 493d 4119 913d
000000c0: 8a83 3fbd 468e 27be 07bd 863c cf5b 313d
000000d0: 5300 b6bd 3222 d53c 66f0 92bd 6c8e 36bd
000000e0: 1394 7bba cd1b a5bd 76ad 79be d40b 153d
000000f0: 1a25 4bbe ad12 8b3c ee6f fa3d 527d 603d
00000100: 8866 56be a4ab 273d d2ac b9bd 94ea 3abd
00000110: 1c61 0a3d cbc9 28be a3c1 5f3d c78c 25bd
00000120: 4d19 863d 1d9c 943b 77c1 1fbe a265 8fbc
00000130: 675e 7cbb 699a 8b3d 6d42 153d ef1e a5bc
00000140: 9368 563d bf2b 3f3e de5c 813e 4a07 0dbe
00000150: 7a85 e93b 23e8 63bd d4fd db3d 6480 d73d
00000160: 99f1 00be 6308 173e d8cc 91be 10d6 883e
00000170: 0516 343d fc24 273d 4b79 0f3e 43b7 2f3e
00000180: 6439 c33d 9e00 20bd 6315 2f3d f0ed 0ebd
00000190: 8e40 32ba 4f94 d63d 25c1 483e f377 d23d
000001a0: 683c fc3d 7129 ac3c b34e 93bd 9cb5 8fbd
000001b0: 96fd 903e 018b a33d 69b2 74bd e058 85bd
000001c0: 6070 18bb fd58 933d 8586 12bd 659c a13d
000001d0: edf0 2bbe 3ede 953d c871 aa3d 665e 723d
000001e0: d87a 4a3d f39b dabd 3ec0 f13d 1e86 5f3d
000001f0: f52f 0f3d 5dcd 913d 5781 793d 4d21 5ebb
00000200: 007e 323c cd83 113e 7533 a83d 6f28 3f3e
00000210: 767a 593e 53e6 013e a3da 203e 9287 393d
00000220: 1484 833d 4d3e 9cbd 6080 fd3d 09ec 82be
00000230: b689 26bd d05a 94be 36a9 d0bb cc44 0bbd
00000240: 4962 e7bd 613e 44bf 3ba4 5e3f dfdb 34be
00000250: 6e9c 133e ddd9 a13d 6350 523e ffd1 16bd
00000260: f2bc 55bc 3126 16be 4fe6 fc3c 0315 873d
00000270: 98ca 2abd eb43 a43d 6b6f f1be df63 d83b
00000280: c0aa 9d3c e0b2 2d3e 9420 8abe f1c1 983d
00000290: 5ebc 0bbf 1060 113d 7a17 fb3d 419b 92bf
000002a0: 78b7 babc a332 88bd 0aa9 05be 4623 39bc
000002b0: 47c4 163e dbb0 adbd 86bc c0bd 7f63 5f3d
000002c0: 7362 b4be 0f19 d8be f3f8 6b3c 2d8f 90bd
000002d0: 5119 35bb d58d dbbd 685d bcbc f655 69bd
000002e0: f74f a43c 1c50 e5bd 0ad8 293e fa2c 5abd
000002f0: 744b 85bf cfe7 453d cac9 ab3d c012 2abf
00000300: f2f9 d1bd b5f7 9bbd 6949 f6bb 83e5 c53d
00000310: 5cc4 043d b2ec 2a3e a82b 42be 6108 22bd
00000320: 3c96 683e 5a90 6d3d 0938 88bd fb88 543d
00000330: e877 d2be ad3f afbe c3d3 403e b200 7f3e
00000340: 0fe0 c43d b4bc 133d 0e53 c83d cc08 4e3d
00000350: a4c0 903e 6aed e53d 036d 003e 963f 0a3e
00000360: f1c9 793d 431e 643d c22f 783e 8212 353e
00000370: de0f a4bb d21f 4dbc faa5 62be c171 92bc
00000380: 76c1 8d3e 2273 99bd 2491 edbd 13c9 cf3c
00000390: 8184 dfbd 0763 973d 56a9 433c d69f 323e
000003a0: d245 1a3d 73f9 4bbd 9464 163e 4a89 79bd
000003b0: 0352 bdbe 4c3a ba3c 3dce ca3d 6e8c e23d
000003c0: 48cf b4bc e41f e6bf 96b6 173e 5389 7abe
000003d0: 2170 c4bd e534 8b3e 7dce 69bc a354 243e
000003e0: 38b3 1dbd b337 413e 16ac bf3c 1c0c ccbd
000003f0: a20b e8bc 1d22 58bd 65a2 eabc d42f 7abe

net.2.bias f4 [128]
0.06534869 0.049766224 -0.022380272 0.05434405 0.052142095 0.052785773 0.019296687 0.0041445466
0.054245066 -0.043869518 0.025719592 -0.010199081 -0.06411829 0.11274321 0.029605249 -0.018327994
0.0266626 0.03439729 0.040380668 -0.021669418 0.016393008 -0.02573351 0.003995564 -0.0072675943
-0.07441408 0.055276576 -0.0019200176 0.041941557 -0.08419641 0.0018673901 0.01354963 0.019612968
0.07083458 0.04735944 -0.07889218 0.009776651 -0.06686729 0.012655903 0.032380395 -0.08363229
0.0058788736 -0.072171114 -9.3040304e-05 -0.010559619 -0.055195037 0.0028621112 0.04857644 -0.004021793
0.010459479 0.10104602 -0.07391322 0.01819358 0.048352964 0.055649426 -0.0012729219 0.06738892
-0.010216833 -0.06227854 0.0049032937 0.08563112 -0.009599063 0.045670964 -0.02646836 0.044958502
0.051557567 0.003130924 -0.024189457 -0.058654822 -0.046207435 0.0065174364 -0.075960346 -0.07400866
0.103942685 -0.03294496 -0.05323503 -0.08525347 0.004042043 -0.008558378 -0.045010656 0.07929581
-0.08727772 -0.061762247 0.031142041 0.044006966 -0.04633018 -0.015269536 0.07564452 0.043503154
0.043587565 0.046942495 0.05818763 -0.060254086 0.06887781 0.0005839405 0.019129455 -0.043554123
-0.0047688084 -0.022508914 0.054625213 0.016333811 0.07775823 -0.0075984537 0.03775525 -0.08940891
-0.04107093 -0.050500844 -0.020357572 0.06770668 0.0374316 -0.09307143 -0.030732388 0.012690371
0.03226549 0.024617169 -0.038461074 0.05611023 -0.032759782 -0.008198485 -0.017699396 -0.06292674
-0.03551914 -0.04174616 0.09570959 0.05536284 0.042579927 0.009955342 -0.060567096 0.00943052
00000000: 89d5 853d abd7 4b3d d556 b7bc de97 5e3d
00000010: f392 553d e535 583d 1614 9e3c face 873b
00000020: 1330 5e3d 86b0 33bd e5b1 d23c 0c1a 27bc
00000030: 7350 83bd e9e5 e63d b586 f23c 9724 96bc
00000040: 866b da3c 2ce4 0c3d 3366 253d 1084 b1bc
00000050: a14a 863c 15cf d2bc 38ed 823b 0025 eebb
00000060: 6966 98bd b169 623d 1aa9 fbba e9ca 2b3d
00000070: 2b6f acbd 37c3 f43a 44ff 5d3c 60ab a03c
00000080: b811 913d f9fb 413d 3992 a1bd 3f2e 203c
00000090: b8f1 88bd b45a 4f3c 4ea1 043d 6847 abbd
000000a0: 91a3 c03b 73ce 93bd a21e c3b8 4102 2dbc
000000b0: 3114 62bd 4292 3b3b 17f8 463d 3fc9 83bb
000000c0: 3c5e 2b3c 37f1 ce3d d05f 97bd b40a 953c
000000d0: c20d 463d a7f0 633d 2cd8 a6ba 3403 8a3d
000000e0: 8164 27bc c817 7fbd cfab a03b 5e5f af3d
000000f0: 6345 1dbc 7a11 3b3d 2dd4 d8bc 6826 383d
00000100: 072e 533d 3030 4d3b f828 c6bc 0a40 70bd
00000110: 0244 3dbd 3890 d53b 1991 9bbd da91 97bd
00000120: e7df d43d 4bf1 06bd fa0c 5abd 5f99 aebd
00000130: 1d73 843b 7038 0cbc 185d 38bd d765 a23d
00000140: a9be b2bd 69fa 7cbd 981d ff3c a640 343d
00000150: b7c4 3dbd 132d 7abc 84eb 9a3d 5d30 323d
00000160: e088 323d c646 403d 2756 6e3d fdcc 76bd
00000170: cf0f 8d3d 9513 193a 60b5 9c3c cf65 32bd
00000180: aa43 9cbb 9d64 b8bc b0be 5f3d 7cce 853c
00000190: b53f 9f3d 73fc f8bb 40a5 1a3d 051c b7bd
000001a0: fe39 28bd f9d9 4ebd ecc4 a6bc cda9 8a3d
000001b0: e151 193d 3c9c bebd 7dc2 fbbc 46eb 4f3c
000001c0: d228 043d f2a9 c93c 5c89 1dbd d7d3 653d
000001d0: 1f2f 06bd f052 06bc 53fe 90bc bcdf 80bd
000001e0: 857c 11bd 05fe 2abd 6403 c43d 25c4 623d
000001f0: 4a68 2e3d bb1b 233c 3415 78bd 7882 1a3c

net.4.weight f4 [3, 128]
-0.060077988 0.32657123 0.39582962 0.08448338 0.30785513 -0.41258228 -0.08164437 -0.37674695
-0.40899265 0.12302696 0.02555907 0.13818003 0.0049236286 0.30855116 0.104135424 0.11597558
-0.60294366 -0.399937 -0.41497225 -0.78709346 0.2572997 0.38992226 0.11442676 -0.6924583
0.13016546 -0.34438387 -0.04934444 0.22186601 0.114083305 -0.2654712 0.6408599 0.06305214
0.38040063 0.20532073 -0.5544427 -0.023062931 0.6776093 -1.0181051 -0.33873358 0.36009157
0.14647521 -0.24064724 -0.90974325 -0.60543185 0.10520734 0.16146576 0.08983464 -0.85685086
0.1405345 -0.30641538 -0.08586318 0.17234765 0.17816347 -0.6254951 0.22771254 -0.315247
-0.22763927 0.18557638 -0.08723851 -0.24898396 0.18518731 -1.4217368 -0.30359814 -0.28385162
0.07669728 -2.940003 0.740875 -0.41729197 -0.17875934 0.04415599 -0.013196051 0.23728497
0.1220841 -0.95349747 -1.7601234 -0.020273931 0.08887597 -0.18636695 0.24609812 -0.3297902
-0.50558716 0.41525954 -0.82219756 0.16107918 0.10002241 -0.036824495 -0.25921583 0.11808456
-0.2668942 -0.440647 -1.2123823 0.38506538 0.055856414 -0.08461608 -1.3304607 -1.0231004
0.07100329 0.2816778 -0.48216254 0.68206006 0.099558786 -0.25949633 0.08911597 -0.01171482
-0.37625656 0.08598783 0.18450226 -0.29628742 0.058626194 -0.2943397 0.41606507 0.12831488
0.07376183 -0.14574732 0.32452935 -0.24287795 0.08872045 -0.38736495 0.039800793 0.12746821
0.011691429 0.5002155 0.076273926 0.12390496 -0.62129325 0.30460945 -0.67047197 0.10614009
0.024073744 0.4336597 0.22922646 -0.10438201 0.22522557 -0.2187879 -0.020938845 -0.18766709
-0.31633145 -0.42128497 -0.019809647 0.15008843 0.018990709 0.151985 0.049609184 0.097494066
-0.6517953 -0.2642642 -0.5327654 -0.5165372 0.621769 0.13071857 0.16277333 -0.22532009
-0.022221511 -0.16829827 -0.31846216 0.2627728 0.14139056 -0.10837735 0.819536 0.10788872
0.38672227 0.37514755 0.30655703 0.0074278265 0.27836657 -0.4277799 -0.38835007 0.07689175
0.15214872 -0.44857138 -0.6112033 -0.3762585 0.038699888 0.30698913 0.08250303 -0.45834547
0.13866663 -0.24888979 0.065780066 0.20857297 0.16831887 -0.31239 -0.183622 -0.44842464
0.049493033 0.17855129 -0.32557702 0.043507326 0.124642506 -0.66337687 -0.42881513 -0.39717662
-0.10542927 -1.491531 1.0028092 -0.3609958 -0.33279043 0.023259163 -0.008197755 0.38881123
0.07665458 -0.5244364 -0.9567729 0.006263255 -0.16182888 -0.053592477 0.06555224 -0.26331168
-0.19968499 0.42836392 -0.52139294 0.14403062 0.038086966 0.012979928 -0.25178042 0.056934554
-0.13972987 -0.296118 -0.5027515 0.38550484 0.15782738 0.0669036 -0.9590359 -0.61243963
0.057874843 -0.21455856 -0.3945389 0.375832 0.010992737 -0.20020384 0.1332545 -0.057054214
-0.37569088 0.1519918 0.14863457 -0.3010388 -0.004982378 -0.47474957 0.5124389 0.20200877
-0.034272876 0.11351837 0.471608 -0.08906443 0.12193605 -0.23409545 0.016369006 0.08611279
0.055109274 0.35843468 0.15011941 0.06670367 -0.37809893 0.420303 -0.42943123 0.24077375
00000000: 5614 76bd 5834 a73e 2eaa ca3e 9f05 ad3d
00000010: 309f 9d3e fc3d d3be 2a35 a7bd fae4 c0be
00000020: 7c67 d1be 8ff5 fb3d 4161 d13c 117f 0d3e
00000030: 6456 a13b 6bfa 9d3e f444 d53d 9b84 ed3d
00000040: 845a 1abf 8bc4 ccbe 3e77 d4be f57e 49bf
00000050: c9bc 833e e4a3 c73e 9458 ea3d f244 31bf
00000060: 184a 053e 1553 b0be 651d 4abd d830 633e
00000070: 82a4 e93d d7eb 87be 650f 243f 7b21 813d
00000080: dfc3 c23e 993f 523e f5ef 0dbf 79ee bcbc
00000090: ce77 2d3f 4551 82bf 7d6e adbe ec5d b83e
000000a0: 99fd 153e 3b6c 76be efe4 68bf 95fd 1abf
000000b0: f276 d73d 4857 253e 39fb b73d 945a 5bbf
000000c0: 47e8 0f3e 7ae2 9cbe 09d9 afbd e77b 303e
000000d0: 7c70 363e 7220 20bf 7a2d 693e 0e68 a1be
000000e0: 451a 69be bc07 3e3e 1baa b2bd a7f5 7ebe
000000f0: bea1 3d3e 79fb b5bf 3771 9bbe 0055 91be
00000100: 7713 9d3d 0229 3cc0 fca9 3d3f 4ba7 d5be
00000110: b00c 37be e9dc 343d 4034 58bc d5fa 723e
00000120: 3b07 fa3d 6918 74bf b94b e1bf 8415 a6bc
00000130: 9b04 b63d fad6 3ebe 2501 7c3e 43da a8be
00000140: 296e 01bf e69c d43e 8a7b 52bf f1f1 243e
00000150: 8dd8 cc3d 48d5 16bd f0b7 84be 51d6 f13d
00000160: 5ba6 88be 7c9c e1be 582f 9bbf 4a27 c53e
00000170: b2c9 643d 324b adbd 894c aabf f4f4 82bf
00000180: 2c6a 913d 1338 903e 02de f6be 7d9b 2e3f
00000190: 7ae5 cb3d b4dc 84be 6f82 b63d 84ef 3fbc
000001a0: b3a4 c0be 631a b03d 29ee 3c3e fcb2 97be
000001b0: 0522 703d b1b3 96be 7b06 d53e fa64 033e
000001c0: 7110 973d c93e 15be b628 a63e ffb4 78be
000001d0: 11b3 b53d b354 c6be 2806 233d 0787 023e
000001e0: 688d 3f3c 1f0e 003f 8135 9c3d e2c1 fd3d
000001f0: 130d 1fbf c5f5 9b3e 0da4 2bbf fa5f d93d
00000200: 4d36 c53c a508 de3e 57ba 6a3e 3cc6 d5bd
00000210: 88a1 663e ef09 60be f187 abbc cd2b 40be
00000220: 32f6 a1be aab2 d7be d747 a2bc c8b0 193e
00000230: 6792 9b3c f5a1 1b3e 0033 4b3d f8aa c73d
00000240: 0fdc 26bf a34d 87be 5063 08bf c83b 04bf
00000250: 412c 1f3f 17db 053e 0dae 263e 4fba 66be
00000260: e309 b6bc 6256 2cbe 790d a3be 288a 863e
00000270: b0c8 103e f2f4 ddbd 1ccd 513f c3f4 dc3d
00000280: 7600 c63e 5713 c03e 0bf5 9c3e 2065 f33b
00000290: 1086 8e3e f805 dbbe d2d5 c6be 6c79 9d3d
000002a0: e0cc 1b3e 26ab e5be d277 1cbf f4a4 c0be
000002b0: c683 1e3d ae2d 9d3e 59f7 a83d 42ac eabe
000002c0: a0fe 0d3e f7dc 7ebe b3b7 863d 2794 553e
000002d0: c85b 2c3e 95f1 9fbe 6807 3cbe ea97 e5be
000002e0: 35b9 4a3d 26d6 363e 08b2 a6be bd34 323d
000002f0: 9244 ff3d 11d3 29bf a88d dbbe bc5a cbbe
00000300: 4deb d7bd 7dea bebf 0d5c 803f 71d4 b8be
00000310: 8263 aabe 008a be3c e04f 06bc 4412 c73e
00000320: 14fd 9c3d 7741 06bf 12ef 74bf fe3b cd3b
00000330: 78b6 25be c983 5bbd 4140 863d cad0 86be
00000340: 397a 4cbe 8452 db3e 027a 05bf c37c 133e
00000350: 1401 1c3d c4a9 543c 5de9 80be 3534 693d
00000360: 5915 0fbe c79c 97be 53b4 00bf e460 c53e
00000370: 809d 213e c104 893d 6083 75bf d8c8 1cbf
00000380: 2c0e 6d3d 3db5 5bbe 0101 cabe 0d6d c03e
00000390: e11a 343c 3c02 4dbe de73 083e aeb1 69bd
000003a0: 8e5a c0be bda3 1b3e a933 183e c221 9abe
000003b0: 3743 a3bb 6012 f3be 322f 033f 63db 4e3e
000003c0: b761 0cbd 527c e83d 9b76 f13e 6967 b6bd
000003d0: 9cb9 f93d b8b6 6fbe 4b18 863c e75b b03d
000003e0: 43ba 613d c084 b73e e7b8 193e ef9b 883d
000003f0: 2f96 c1be f431 d73e 69de dbbe 658d 763e

net.4.bias f4 [3]
0.039581258 -0.01007078 0.034587998
00000000: f51f 223d eaff 24bc 25ac 0d3d
