saved_models/dqn_episode_7.pth (torch, 74333 bytes, 6 tensors)

net.0.weight f4 [128, 6]
000000 2a c2 d1 be f9 72 c3 be 68 dc 79 be 6f 00 d0 be
       -0.40968448 -0.38173655 -0.24400485 -0.4062533
000010 1d 79 88 3d b9 cd 80 3e 48 ee 5c be 65 d1 77 be
       0.066637255 0.25156954 -0.21575272 -0.24200971
000020 52 a5 b0 3e 61 0e 3e 3e f9 86 de 3e f9 7a 29 3e
       0.3450113 0.18560173 0.4346235 0.16550817
000030 f0 15 f5 3e 5e 05 35 3e 7f 81 f9 3d cb 6c 83 be
       0.478683 0.17677829 0.121829025 -0.2566894
000040 17 4a 50 ba ac 73 2d be 27 01 87 3e e3 84 73 3e
       -0.00079456106 -0.16938657 0.26368067 0.23781161
000050 12 db 8d 3e c2 4a cc 3d 9f b1 f7 3c 3b 04 62 bc
       0.277062 0.099751964 0.030236064 -0.013794954
000060 34 7d cf 3c 97 3b 74 be 41 b7 fd be 42 29 06 3e
       0.025328256 -0.23850857 -0.49553874 0.13101676
000070 7d 9e 5e be 4e f4 ff bc d9 29 f5 3e fa 07 a8 be
       -0.21740146 -0.031244423 0.4788349 -0.32818586
000080 dd 46 08 bd d7 29 d3 bd cf 0d 01 3d 27 19 2f bd
       -0.033270705 -0.10310715 0.03150731 -0.042748597
000090 42 43 5f 3e 19 e1 d3 3e 72 13 ac 3d 6e 67 47 be
       0.21803 0.41382673 0.084021464 -0.19473049
0000a0 86 e3 2d bd a2 e8 38 3e 4a 51 c4 3e 6b 8b 90 be
       -0.04245331 0.18057492 0.3834327 -0.28231367
0000b0 6a 6b de bd b4 4b bd be 65 4a 8a 3c 0d ec 62 3d
       -0.10860331 -0.3697182 0.016881177 0.055400897
0000c0 36 5c be be de f9 cc 3e f7 79 ae 3d f9 7b 07 3e
       -0.37179726 0.40034384 0.08519357 0.13230886
0000d0 34 0a b0 3e cc cc c2 3e 00 e9 62 3e 59 af 8f be
       0.34382784 0.38046873 0.22159195 -0.28063467
0000e0 73 cf 71 3e 53 b7 bf 3e 56 5e 43 be cb 8c 93 3e
       0.23614292 0.37444553 -0.19078955 0.28818354
0000f0 f8 91 5f be dc 05 bd 3e a0 7e 88 be c6 6e 02 3d
       -0.21833026 0.36918533 -0.26659107 0.031843923
000100 44 ba 50 3e 93 5c af 3e 97 ad 93 be 57 0c 95 3e
       0.20383555 0.34250316 -0.28843376 0.29110977
000110 55 79 c4 be bd 44 43 be 78 8c 31 3e cc fd 6d be
       -0.3837382 -0.1906919 0.17338741 -0.23241347
000120 f3 09 e3 be 53 bb 60 be b1 bd 56 be 4c be ee 3d
       -0.44343528 -0.21946459 -0.20970799 0.1165739
000130 ed bb d3 bd 39 f6 af 3e af 37 07 be 6d 86 32 3d
       -0.103385784 0.3436754 -0.13204835 0.04358523
000140 c5 4c 01 be 65 e8 54 3e 56 cf 1e be fc c1 84 be
       -0.12626942 0.20791776 -0.1550878 -0.25929248
000150 9d 08 a6 be 81 92 7b bd 95 68 a0 3e 7d 3a ce be
       -0.32428446 -0.061419014 0.3132979 -0.40278998
000160 f9 6c d3 3e 29 d0 2d 3e 3d ea 5d be b8 b5 51 bd
       0.41294077 0.16973938 -0.21671386 -0.05119869
000170 b4 38 83 be 10 1b 66 bd b2 b4 8e be 69 e6 9c be
       -0.256292 -0.056178153 -0.27872235 -0.3064454
000180 f8 2d 7a 3e 58 eb 50 be f5 c1 ba 3b 52 b3 d7 3d
       0.24431598 -0.20402277 0.005699391 0.105322495
000190 6c bf b9 be 6f df 56 3e 68 d0 80 be a0 89 18 3e
       -0.36278856 0.2098367 -0.25159 0.1489625
0001a0 0e 26 d3 3e df 9a 9c bd 6d 36 c1 bc e9 55 9d 3e
       0.4123997 -0.07646727 -0.023585523 0.30729607
0001b0 cd f4 af 3e 96 8f c8 bb 32 68 05 3e 0e fb b0 3d
       0.34366456 -0.0061206324 0.13028029 0.08641635
0001c0 b7 b8 fb 3d 9c 92 03 be 34 8a ac be 44 67 bd bd
       0.12291091 -0.12848896 -0.3369919 -0.09248212
0001d0 20 d4 55 3e 30 40 fc 3c e8 a5 cc be 8c 02 af be
       0.208817 0.030792326 -0.39970326 -0.3418163
0001e0 c9 f4 c7 be 01 63 96 3c ed 9a 07 be ea fb af bd
       -0.39053944 0.018357756 -0.13242693 -0.08592971
0001f0 35 1a cc 3e c3 95 49 bd ef 55 b5 be c1 e7 86 be
       0.39863744 -0.04921509 -0.35417125 -0.2634869
000200 de 25 63 be b1 77 60 3d e6 af a4 3e a1 05 b1 3e
       -0.22182414 0.054801647 0.3216545 0.34574607
000210 cb 4e 0a be 16 17 52 be a8 7d 43 3e 8f 14 aa 3e
       -0.1350662 -0.20516619 0.19090903 0.3321881
000220 56 16 8e 3e ce 51 85 3d 78 e0 98 bd 14 e6 7b 3e
       0.27751416 0.06509744 -0.07464689 0.24599487
000230 c0 94 41 bd 47 dc c4 be 34 62 11 3e 2a ac ca be
       -0.047261 -0.38449308 0.14197618 -0.39584476
000240 a1 e9 33 3c 6b a0 33 bd 0f 12 09 be 2d 78 bf be
       0.010980994 -0.04385416 -0.13385795 -0.37396374
000250 10 4d ad be 62 d2 97 be dd 53 c2 3e f0 bd 58 3d
       -0.33847857 -0.29652697 0.37954608 0.052915514
000260 7b 2c e2 3e eb 3d 4a be c4 45 16 3e 79 6d 23 3e
       0.4417456 -0.19750182 0.14675051 0.15959729
000270 0f 7d ae 3e f0 1f bb be 5a 0c c4 3e b4 dc 65 be
       0.34079787 -0.36547804 0.38290673 -0.22447473
000280 92 3d 4c 3e 9c f4 02 3e 7f f6 3e be d6 bb 69 be
       0.19945362 0.12788624 -0.18648718 -0.2282556
000290 b0 cf 96 3e b0 0c 8d 3e 64 f9 bc bd 32 42 03 3e
       0.29455328 0.27548742 -0.09227255 0.1281822
0002a0 27 9a 63 3e 02 ae 99 bd 4e 5f 3f be 68 32 c4 3d
       0.22226773 -0.075038925 -0.186887 0.09579927
0002b0 27 79 17 3e 30 98 f4 bc 0c fb 88 3e 10 f5 9d be
       0.1479231 -0.029857725 0.26754034 -0.3085103
0002c0 28 61 4e bd 10 4f 0a bd 40 18 29 bd 2a a4 b9 be
       -0.050385624 -0.033766806 -0.041282892 -0.3625806
0002d0 d7 57 d1 3e 40 dc b3 be 4b f4 54 3e 65 36 25 be
       0.4088733 -0.35128975 0.20796315 -0.16134031
0002e0 e4 ac 91 be 56 c1 bc 3c da 93 e2 bd 63 1d c4 3e
       -0.28452218 0.023041409 -0.11063357 0.3830367
0002f0 f5 e5 a3 be f8 6b d5 bd fd 55 c9 bd f3 54 a6 3d
       -0.3201138 -0.10420984 -0.09830854 0.081216715
000300 15 82 c0 3b cc cd 81 be 17 f0 ff bd 0e 2c 21 be
       0.005874882 -0.25352323 -0.124969654 -0.15739462
000310 6a 0c 90 be 32 7f bf 3d 03 d9 8b be 02 47 08 3d
       -0.2813447 0.093504325 -0.27314004 0.033270843
000320 06 2c ab be 74 e6 50 3e 15 c8 6d 3e 9f 0b 25 be
       -0.33432025 0.20400411 0.23220856 -0.16117714
000330 6f db 4e 3e 5c f3 50 3e b8 96 18 be 73 cb 93 3e
       0.20200895 0.20405334 -0.14901245 0.28866157
000340 1e 02 b8 3e 67 d7 9c 3e 17 dd 1d bd d9 00 be bc
       0.35939115 0.3063309 -0.038540926 -0.023193764
000350 12 a1 80 3e 21 3c f0 bd 53 7a 8d be 0e ba 7a 3d
       0.25122887 -0.11730219 -0.27632388 0.06121259
000360 42 b7 09 3e 1a e9 23 be 8f 43 8e be f6 1b 39 3e
       0.13448814 -0.1600689 -0.27785918 0.18077073
000370 2f 7d 8f be 16 04 2e 3d 1b f0 df 3e f1 78 3d be
       -0.28025195 0.042484365 0.43737873 -0.18503167
000380 da dc 9e 3e ff f8 5b be 67 ee f1 3e 72 ae 39 be
       0.3102787 -0.21481703 0.472522 -0.18132952
000390 43 6d c1 be c4 8d 96 3e 35 1d c4 be ff d1 1b 3e
       -0.37778673 0.29405034 -0.38303533 0.15216826
0003a0 52 6e 4d be 8e b6 9b 3c 63 68 55 3d f6 22 f6 3c
       -0.20061615 0.019007947 0.052101504 0.030045968
0003b0 97 0a b7 be 6f fc 44 be b1 f5 b9 be 34 0c 49 3e
       -0.35750267 -0.19236921 -0.3632026 0.19633561
0003c0 ce 16 97 3e d0 6a 4c 3e a4 2e 10 3e 2a ac af 3e
       0.29509586 0.1996262 0.14080292 0.34311038
0003d0 48 cb a3 bd 7a 45 97 be e7 3e c0 3d 1e b6 e6 3d
       -0.07997757 -0.29545194 0.09386998 0.11265205
0003e0 1d 19 ca bb 7b ce 0a 3d 37 55 b1 be c0 18 57 3e
       -0.0061675445 0.03388832 -0.34635326 0.21005535
0003f0 a0 32 58 bd df 2e 65 be c3 b2 68 be 00 a0 b7 bd
       -0.052782655 -0.22381161 -0.22724442 -0.089660645

net.0.bias f4 [128]
000000 20 40 a9 3e 37 07 45 bd 02 a8 44 bb 20 53 96 3e
       0.33056736 -0.048102584 -0.0030007367 0.29360294
000010 f5 d2 18 3e 99 18 5f 3c 5e 1a a1 3e 27 fc 63 3e
       0.14924224 0.013616704 0.3146543 0.22264157
000020 9c 68 6f 3d 39 fb 49 3d f8 be b1 be a1 86 ae bc
       0.058449373 0.04931185 -0.3471601 -0.02130443
000030 44 05 87 3e f4 8d 80 3e c2 f5 52 bd 3e 6a b3 be
       0.26371205 0.25108302 -0.051503904 -0.35041994
000040 56 07 33 3e 31 14 8d bd 08 d6 de 3d e4 32 82 be
       0.17483267 -0.06888617 0.10880667 -0.2542945
000050 0f 93 25 3d 62 79 4e be e8 c5 24 3e 07 e1 99 be
       0.04042345 -0.20163491 0.1609112 -0.30054495
000060 0b d5 d1 3e 2a 73 13 3e 40 85 bb 3e 09 37 f4 3d
       0.4098285 0.143994 0.366251 0.119245596
000070 ee 3c a4 3d ae b2 26 be 58 ab 9d 3e 00 43 64 be
       0.08019434 -0.16279098 0.30794787 -0.22291183
000080 47 99 06 be 71 d6 c2 3d 09 4a c5 be a0 fa 29 3e
       -0.13144408 0.09513558 -0.38533047 0.16599512
000090 48 6b df bd bb 1f e6 bc be 99 6c 3d 26 70 39 bc
       -0.10909134 -0.028091302 0.057763807 -0.011318242
0000a0 4a f0 b6 be c1 6b 5b 3e 98 95 02 be a8 08 f3 3d
       -0.357302 0.21427824 -0.12752378 0.118668854
0000b0 76 c3 54 3e a6 69 24 3d 62 1c 37 3e 10 9d bf be
       0.20777687 0.040139817 0.17881921 -0.37424517
0000c0 16 cd d6 3c 1a a4 9e be 27 6b 94 be b0 c1 18 3d
       0.02622084 -0.30984575 -0.28988 0.03729409
0000d0 28 50 9c bd fd df 76 be 56 dc b9 3e e3 99 96 be
       -0.07632476 -0.24108882 0.36300915 -0.2941428
0000e0 38 30 dc bc 66 0d 99 3e 31 f3 4e 3e 69 a5 06 be
       -0.026878461 0.29893035 0.20209958 -0.13149036
0000f0 70 af af 3d 97 33 39 bd 7f ae 88 be a0 35 28 3e
       0.08578384 -0.045215216 -0.2669563 0.16426706
000100 38 84 58 bd 4e db 88 3d 01 b5 92 3e 64 ca f0 bd
       -0.05286047 0.06682454 0.2865372 -0.11757353
000110 c0 d0 bc 3e ce d9 bf 3d 6c 80 6f 3d 3d f1 ea bd
       0.36878014 0.09367715 0.058472082 -0.11471794
000120 66 17 4e bd d4 b6 fc bd 79 19 a1 3e cb 6f 3c bd
       -0.050315283 -0.12339559 0.31464747 -0.04600505
000130 59 9b 60 be 7c 3c 98 3e b8 64 52 be 91 ef 9a be
       -0.2193426 0.29733646 -0.20546234 -0.302609
000140 70 4b a6 bd 4c b8 b1 3c 51 44 83 be 88 2a e9 bd
       -0.08119857 0.021694325 -0.2563806 -0.11385065
000150 ba 89 36 bd 2b 96 ff bc bb dc 1a 3d c3 dc 3c 3d
       -0.04456494 -0.031199535 0.03780816 0.046108972
000160 6c d6 72 bc 35 c9 9f bd a5 de 2f be b5 d6 d8 3c
       -0.01482163 -0.07802049 -0.17174776 0.026469568
000170 a5 da 1c bd 1f 13 98 bd 2c db 66 3e c0 ef fc 3d
       -0.038294453 -0.07425522 0.22544545 0.12350416
000180 72 e6 88 be 66 59 c0 be 04 61 0e be 4e 00 55 be
       -0.26738316 -0.37568206 -0.13904196 -0.20800897
000190 f6 2c 7f 3e a2 05 02 3e a4 88 90 3e f4 c4 00 be
       0.24919495 0.12697461 0.2822925 -0.12575132
0001a0 5b 6c a0 3e e6 45 d4 3d 62 9b 7f 3e 2f 3c 38 3d
       0.3133267 0.103648946 0.24961618 0.04497927
0001b0 33 78 9b 3e 62 ca b5 3e 01 4d 0b 3e b4 75 1b be
       0.30365142 0.35505968 0.13603593 -0.15181619
0001c0 da ba a3 3d 1e 22 6a 3e b8 79 46 3b b6 77 d7 3e
       0.079946235 0.22864577 0.0030284952 0.4208352
0001d0 b1 67 af bd 71 97 b8 3e 85 5d 84 3e 9f 81 f0 bd
       -0.085646994 0.3605304 0.258526 -0.11743473
0001e0 c6 88 fb 3d 73 b3 a5 3e 0a 2c 98 3e d8 eb 89 bd
       0.12281947 0.3236347 0.297211 -0.06734437
0001f0 71 e2 a0 be fe da bd bd ad 1a 47 3e 30 0b de 3e
       -0.3142276 -0.09270285 0.1944377 0.4336791

net.2.weight f4 [128, 128]
000000 a5 a8 9d 3c 94 60 c6 bc c2 24 86 bc 70 d9 a3 3d
       0.019245455 -0.024215974 -0.01637495 0.08000457
000010 d2 60 24 bd fe 87 dc 3d 6c c3 43 3d 2d e4 e6 bd
       -0.040131398 0.10768126 0.04779379 -0.1127399
000020 5f 9b 43 3d 97 36 fd bd f9 bb c5 3d eb c5 f0 3c
       0.047755595 -0.12363928 0.096549936 0.02939125
000030 08 75 0a 3d 84 e5 c9 bb 38 4b d7 bd f4 c3 2f bd
       0.033803016 -0.0061613936 -0.10512394 -0.042911485
000040 d5 b3 19 bc 02 3c e6 3b 48 d6 6b bc dc ec a3 bc
       -0.009381254 0.0070261965 -0.01439435 -0.020010404
000050 02 a0 e4 3c 98 bd 74 bd 5e 92 9e 3d 11 e0 9a 3d
       0.027908329 -0.059751123 0.07742761 0.075622685
000060 af eb 40 bd 61 39 ea bc 80 39 7a bd f5 0c 43 bd
       -0.047099765 -0.028591814 -0.061089993 -0.04761978
000070 08 b6 84 bd b2 b2 92 bd 8e d5 3f 3d 2f 94 01 bd
       -0.06480032 -0.0716299 0.04683452 -0.03163546
000080 90 5a cf 3d 40 8c 87 3c 66 70 4d bd 95 dc a0 bd
       0.10124695 0.016546369 -0.05015602 -0.07854573
000090 ea a6 00 be 59 bf fa bc ff c9 0e 3d 0a 6c e2 3b
       -0.12563673 -0.03060882 0.034860607 0.006909852
0000a0 68 60 5d bc 12 2c 59 3d b5 43 ab 3d 47 53 8a 3d
       -0.013511755 0.053020544 0.083625235 0.06754165
0000b0 43 70 4a bd b7 ba 15 3d e2 f0 f7 3b b3 48 1c bd
       -0.049423467 0.03655502 0.0075665573 -0.03815527
0000c0 43 33 e5 3d 40 03 04 bd c4 cd e3 3d d8 68 85 bb
       0.11191418 -0.032229662 0.11123231 -0.0040713362
0000d0 39 1a 9d bc 4c 61 c5 bc 2b 1a 09 38 9d 86 9a 3c
       -0.019177543 -0.024094246 3.2687716e-05 0.018863017
0000e0 5b 44 6a 3d 0c 8f 84 bd 02 c2 d5 bb 94 10 07 be
       0.057194095 -0.064725965 -0.0065233717 -0.13189918
0000f0 88 cc 8d 3d 5c e5 0b be 02 14 0c be dd 2d a6 3d
       0.06923777 -0.13661712 -0.13679507 0.081142165
000100 b2 67 17 3d 7d 99 b9 bb 83 26 a0 3d 9c e3 7d bd
       0.036964126 -0.005664049 0.078198455 -0.061984643
000110 b1 ed 95 3d 9e 4c af 3c 56 f4 61 bd ae e9 50 3d
       0.07320727 0.021398839 -0.055164658 0.051004104
000120 9e 56 81 bd b6 99 ab bd d3 3a 6f 3d 1c b1 99 3d
       -0.06315349 -0.083789274 0.05840571 0.07504484
000130 60 d2 2e 3d 2e c9 80 3d 5d ae 6c be d8 bf c0 3d
       0.042681098 0.06288372 -0.2311339 0.09411591
000140 d1 d8 9d 3d 0e 1a 06 3d 56 55 ca bd dd 1c 21 bd
       0.0770737 0.03273969 -0.09879558 -0.039334167
000150 b4 8c 98 3d 3b ca e9 3d 62 bf 9a be 48 11 f0 bc
       0.07448712 0.114155255 -0.30224138 -0.029305115
000160 97 2d ea 3d 44 0a b4 3d 91 0d 60 bd 50 8a a9 3c
       0.11434477 0.087910205 -0.054700438 0.020695835
000170 29 5a 5e 3d 28 2b 96 bc d8 94 2e 3d dc a4 cf bc
       0.054285202 -0.018331125 0.042622417 -0.025347166
000180 0b 06 87 3c ce 2b 48 bd 92 7d 56 3d 05 bb e8 3d
       0.016482374 -0.0488699 0.052365847 0.11363796
000190 b9 62 0e bc d5 6a 8c bd 92 56 24 3c 4d a2 82 bd
       -0.0086905295 -0.06856314 0.010030406 -0.06378613
0001a0 39 bc 09 3c 29 57 b0 3d e1 e1 03 bc 90 35 eb bd
       0.008406692 0.086103745 -0.008049459 -0.114848256
0001b0 53 51 00 3d 75 3a 95 3d 1b 33 0c be 14 91 84 bc
       0.031327557 0.072865404 -0.1369137 -0.01618246
0001c0 f7 63 be bd 77 13 b6 3c c9 cf 2d 3c 02 31 0f 3d
       -0.092964105 0.022226078 0.010608622 0.034958847
0001d0 28 c9 d4 3c 93 9a 02 3d 29 58 85 bc dd 7c be bc
       0.025974825 0.031885695 -0.01627739 -0.023252899
0001e0 d0 76 c5 b8 6e b8 f4 bc 83 a7 f4 bd 06 83 30 3d
       -9.4158226e-05 -0.0298731 -0.11946013 0.043093704
0001f0 32 40 ad 39 81 9d c3 3d 08 ce d7 bd 5b e4 bf bd
       0.0003304496 0.09551526 -0.10537344 -0.09369727
000200 a5 6e b0 3b d0 3c 9b bd 52 7d 6b bd 58 3c 88 3d
       0.0053842836 -0.075799584 -0.05749256 0.06652135
000210 7a 9b ec bc eb b7 b1 bd ba 08 38 3c c2 46 91 bd
       -0.02888273 -0.08677658 0.011232549 -0.07093574
000220 ba 48 0b bd 20 d6 25 bd 72 ee 1d bc 3b a0 55 bd
       -0.034004904 -0.04048741 -0.009639369 -0.05215476
000230 42 87 49 3c c1 04 f8 bb 72 2c 70 bd db d3 89 3d
       0.012300314 -0.007568926 -0.058636136 0.06729861
000240 e3 a2 4c bd d1 33 8e bd 9d 74 ac bd 0c a3 ca bc
       -0.04996003 -0.06943477 -0.0842068 -0.02473595
000250 49 fd 45 3d 49 58 34 bd a3 9d 43 3d 74 a4 0e 3d
       0.048337255 -0.044029508 0.047757756 0.034824803
000260 82 3f 32 3d 47 31 9b 3d 57 1e 58 3d 68 e6 54 3d
       0.043517597 0.07577758 0.05276331 0.051977545
000270 b6 bd ea 3c f1 9c ab bd 14 15 fa 3c 9c a4 8b 3d
       0.028654914 -0.083795436 0.030527629 0.06818506
000280 21 d6 31 bd 7d 2c b8 bc 9a 59 36 bd 2f 5d d9 bc
       -0.0434171 -0.022482151 -0.044519044 -0.026533691
000290 2a 3f 13 bd d7 17 5e bd 66 57 41 bd 3b 48 1a 3c
       -0.03594891 -0.054221954 -0.04720249 0.009416635
0002a0 6e 7b 37 3d 85 7b a0 3d 10 34 c4 3c e0 5a ec 3b
       0.044795446 0.078360595 0.023950607 0.0072129816
0002b0 08 dd 8a bc 74 d7 53 bd 8c f4 8a bd bb 64 17 bd
       -0.016951099 -0.051719144 -0.06784925 -0.0369613
0002c0 a1 c1 97 bc 58 96 a2 3c 4c b3 61 bd 55 05 91 bd
       -0.018524947 0.01984708 -0.05510263 -0.07081095
0002d0 c2 dd 43 bd c0 36 84 bb 55 23 02 3d 58 da e6 3c
       -0.047818907 -0.004034847 0.031771977 0.028180286
0002e0 37 b4 5d bd 2c c9 d1 3c 66 53 9a bd 53 6c d2 bc
       -0.054126944 0.025608622 -0.07535438 -0.025686419
0002f0 74 96 b6 bd 7f 74 67 bd 21 ba b1 3d c0 fd 9c bb
       -0.089154154 -0.056507584 0.086780794 -0.0047909915
000300 9e 4e ae bd cd bd 12 3d 2e a8 65 bc 1e e3 1a bd
       -0.08511089 0.03582554 -0.014017148 -0.037814252
000310 a1 2d 60 bd db 96 79 3d 31 ec 7d bd f1 a9 7a 3d
       -0.054731015 0.060934883 -0.061992828 0.061197225
000320 9e b8 41 bd 00 3a d9 3b bd 91 ce 3c 69 9b a8 3d
       -0.047295205 0.0066292286 0.025215978 0.08232767
000330 31 99 72 bd 0a ca f4 bc 34 92 b7 bc 25 b6 37 bd
       -0.059228126 -0.029881496 -0.022408582 -0.04485144
000340 be da 1a 3d 2c 27 34 bd ec 32 4c bd 76 ab 0f 3d
       0.037806265 -0.04398267 -0.04985325 0.035075627
000350 f3 0b 9f 3d a7 5d 96 3d 79 9e 9c 3d 3b 64 13 3d
       0.07765951 0.073420815 0.07647414 0.03598426
000360 42 e5 3b bd 72 7d 58 3d 72 04 61 3d 21 2f 24 bd
       -0.045872934 0.05285401 0.05493588 -0.040084008
000370 fb 71 67 bd b9 50 ba 3c a8 6a bd bc 6c 2f 7c bd
       -0.056505185 0.02274357 -0.023122147 -0.061568663
000380 0d ea 8d 3d c6 7a 60 3d 8b a0 3f bd eb cf e9 bc
       0.06929407 0.054804586 -0.046783965 -0.028541526
000390 10 39 89 bd 7a b8 53 3d 34 d7 6d 3d 1e c3 38 3d
       -0.06700337 0.051689602 0.05806656 0.045107953
0003a0 b0 af 9a bd 71 25 bc 3c 18 27 8e bd 10 95 11 3d
       -0.07553041 0.022967072 -0.0694105 0.035542548
0003b0 10 e2 04 3d 99 e6 ab ba 4e 69 cc 3c cb 31 46 bd
       0.032442153 -0.0013114988 0.024952557 -0.04838733
0003c0 62 d1 b1 bd e3 17 ab 3d fc 5b 6b bd 12 c9 16 3d
       -0.08682515 0.083541654 -0.05746077 0.03681285
0003d0 d1 5d 64 bd a6 c6 6e bd 30 95 4b 3d 18 63 a0 3d
       -0.055753533 -0.058294915 0.049702823 0.07831401
0003e0 2a 86 2b bd 3f f9 ac bd 4d 4a 24 bd 96 dd 56 3d
       -0.041875996 -0.084459774 -0.04010992 0.052457415
0003f0 dc 8a 8f 3c 15 a3 38 bc b9 22 96 bd 0a fd fd bc
       0.017522268 -0.011269351 -0.073308416 -0.031004447

net.2.bias f4 [128]
000000 e8 8e af 3d 32 07 0e bd 0b a9 0b 3d b3 ef a2 3d
       0.08572179 -0.03467483 0.03409676 0.07955875
000010 d5 f2 39 3d 56 65 4b bd 6b 00 12 bd dd d2 51 3d
       0.0453976 -0.04965719 -0.03564493 0.051226486
000020 d6 a4 33 3d eb f5 0b 3d 7c 5b 04 bd d7 e2 16 bd
       0.04385837 0.034170073 -0.03231381 -0.036837425
000030 49 d8 1b 3d 9e 0c 71 3d 87 d2 93 3d a2 7d e4 b9
       0.038048062 0.058849923 0.07217889 -0.00043581153
000040 b5 90 98 bc 57 92 2f 3d ad 56 30 39 a7 37 35 bd
       -0.01862369 0.04286417 0.00016816957 -0.044242527
000050 fa e8 f2 bc fa 60 9e bc c2 2a 19 bd 99 d5 b0 bd
       -0.029652108 -0.019333351 -0.037394293 -0.086344905
000060 22 f4 36 3d 10 cb 57 bd 66 c0 af bd 4a c1 4d 3d
       0.044666417 -0.05268389 -0.08581619 0.050233163
000070 40 cf b8 bd 78 fe 73 3d 00 39 f4 3c ec ec b9 bc
       -0.09023905 0.059568852 0.029812336 -0.022695981
000080 26 4d 6a bd ed e4 c4 bc ae ec e0 bc 13 d6 1a 3c
       -0.05720248 -0.024034942 -0.027456608 0.009450453
000090 14 45 94 bc 32 62 af bd 80 58 98 bb 1b 4e 43 bd
       -0.018099345 -0.08563651 -0.004649222 -0.04768191
0000a0 42 0f 1c 3d b9 26 2d 3d 38 77 17 b9 7a 1c 94 3d
       0.03810049 0.042273257 -0.00014444895 0.07231994
0000b0 81 d0 a1 bd 03 7d 68 bd 4e 08 86 3b 23 24 2d 3d
       -0.07901097 -0.056759845 0.0040903455 0.04227079
0000c0 16 76 87 bd 60 93 84 bd ed e8 b1 bc 2d fd 9b 3d
       -0.0661432 -0.06473422 -0.021717513 0.07616649
0000d0 54 6c ca 3c 91 64 03 3d 66 ee 3a 3c ff 86 1a bd
       0.024709858 0.03207833 0.011409378 -0.0377264
0000e0 f0 69 8b 3d a0 27 74 3c cc d9 37 bd a0 d8 2b bd
       0.06807315 0.014902025 -0.04488544 -0.041954637
0000f0 da d1 41 bc fb e9 71 bd 12 35 6c 3d 32 ee 36 3d
       -0.011829818 -0.05906103 0.0576678 0.044660755
000100 9e 90 25 3d e4 07 7f bd db da b7 bb 9c fe 38 3b
       0.04042112 -0.062263384 -0.0056108064 0.002822793
000110 2c a3 67 bd 89 d8 7e 3b 32 81 80 3d 20 4d b3 bb
       -0.056552097 0.003888639 0.06274642 -0.0054718405
000120 c5 07 51 3d dc aa cd bc 27 2b b2 3d db 31 a1 3d
       0.0510328 -0.025105886 0.08699637 0.07870837
000130 9e a9 9b bd 50 af 64 bd ca 17 1a 3d 12 cc 45 bd
       -0.07600711 -0.055831254 0.037620343 -0.04829032
000140 e8 a0 60 3d 38 f7 60 3d ef ed bc 3a 58 7a 15 3d
       0.054840952 0.054923266 0.0014414171 0.03649363
000150 a5 89 a1 3d 67 cd 0b 3d 5f 56 b3 3c 4e e7 8a bd
       0.07887582 0.034131434 0.02189177 -0.06782399
000160 dc 36 55 bb 3c 42 11 3d d0 9b 2b bd 45 97 4d 3d
       -0.003253392 0.035463557 -0.04189664 0.05019309
000170 af 24 6b 3d 51 fa ad bc e6 e0 23 bd bf c5 9e bc
       0.05740803 -0.021237524 -0.0400094 -0.019381402
000180 22 b5 a0 3d 5f 84 85 bd ee c1 0f bd 4c bc 11 bd
       0.07847048 -0.065193884 -0.035097055 -0.035579965
000190 87 51 af 3b 56 81 29 bd 06 ac b2 bd 88 ba 1a bc
       0.005350295 -0.04138311 -0.08724217 -0.009443887
0001a0 e5 d9 31 3c b5 17 80 3d 5e 4b 3d 3d ee 50 21 bd
       0.010855173 0.06254522 0.046214454 -0.03938382
0001b0 dc a6 5b 3c 1f 3c 51 bd 82 97 d3 3c 06 27 91 bd
       0.013406482 -0.051082727 0.02582908 -0.07087521
0001c0 ee 42 03 3d 23 11 bb bc 4a 26 52 3d 90 19 53 bc
       0.03204625 -0.02283532 0.051306047 -0.012884513
0001d0 47 41 32 bc 9f 7f 92 bd e2 14 af 3b c7 7a 8f bd
       -0.010879821 -0.07153248 0.0053430656 -0.0700584
0001e0 66 e1 b4 bd 0a 34 53 3c 77 ab 5a bd ee 89 a2 3b
       -0.08832054 0.012890825 -0.053386178 0.00496029
0001f0 50 81 69 3d a1 e7 94 3c 50 9a 91 bd 08 0e 84 bd
       0.057008088 0.018176856 -0.07109511 -0.06447989

net.4.weight f4 [3, 128]
000000 95 f6 32 bd 8c ab 9f bd 34 86 91 bd ad 7d 4a 3c
       -0.04369219 -0.07796392 -0.07105675 0.012359065
000010 49 e6 d2 bb f6 1f 82 3d c2 47 97 bd 5c 25 39 bc
       -0.0064361435 0.06353752 -0.073867336 -0.011300411
000020 c0 1d 11 3c 36 b2 8c bd 66 b6 0d 3d de 35 59 bd
       0.008857191 -0.068699285 0.034597777 -0.053029887
000030 c4 30 92 3c c5 dc 2f bd 4b 5a 7b bd 75 81 ca 3c
       0.017845519 -0.04293515 -0.061365407 0.024719933
000040 3a e8 64 bd ae c4 73 3d ac 03 e9 bc 1d 2e c4 3d
       -0.05588553 0.05951374 -0.028444134 0.09579108
000050 2d 56 95 3d 25 18 1c bd b7 ed 80 bd 11 94 4c bd
       0.07291827 -0.038108964 -0.062953405 -0.049945895
000060 9a e8 ac bd 14 5c 6b bd 7c ef 94 3d f4 3b 28 bd
       -0.08442803 -0.05746086 0.072722405 -0.0410728
000070 d0 16 cf 3b 36 38 f9 3d db b2 c8 bd 05 f9 83 bd
       0.006319858 0.121689245 -0.09799739 -0.06443981
000080 dd 35 89 3d 15 26 05 3c 3a 40 16 3d 5d 63 69 3b
       0.06699727 0.008126755 0.036682345 0.0035612204
000090 a6 38 58 3d e1 bc 9c bd 45 83 7e bd 8c 5d 55 bd
       0.0527884 -0.07653213 -0.062136907 -0.052091166
0000a0 bf 6c 80 bd 98 ec 98 3d ed bc c8 3d 03 b8 da 3c
       -0.06270742 0.07467002 0.0980166 0.026699072
0000b0 73 7a 8f bd 97 3e a1 bd 9e fe c3 bd 6a 1c 83 bb
       -0.07005777 -0.07873266 -0.09570049 -0.00400119
0000c0 75 3f a7 3d 40 d0 19 3b b9 8d ee bc 3e 4d b5 bb
       0.081664 0.0023470074 -0.029120313 -0.0055328896
0000d0 8d 18 40 3d 40 e2 cb 3c 1b 96 3a bd 24 40 80 b9
       0.046898413 0.024888158 -0.045553308 -0.0002446185
0000e0 ae 08 1d bb b7 b2 2d 3d b9 c4 03 be de 6c 4a 3d
       -0.0023961472 0.042406764 -0.12868012 0.04942023
0000f0 48 44 22 bd 80 40 f9 3b 09 d1 63 3c b4 86 4a bd
       -0.0396159 0.007606566 0.013904818 -0.04944487
000100 26 0a 0e 3d 34 fb b0 3d 6d ec 9e 3d 2b 82 b3 bd
       0.034677647 0.08641663 0.077599384 -0.08765062
000110 c0 47 a7 3c f0 d4 14 3d 03 4e f6 bb bb 55 95 bd
       0.020419955 0.036335886 -0.007516624 -0.072917424
000120 30 45 6e bc a5 14 12 bd 08 83 c7 3c 6a da 6b 3d
       -0.014542863 -0.03566422 0.024354473 0.057581343
000130 d2 1b 00 3d 2d 27 83 3c a1 76 4d bd 37 99 87 bd
       0.03127653 0.016009891 -0.05016196 -0.0662102
000140 73 40 44 3d ab fc 35 bd 4c 97 a2 3c 12 82 23 bd
       0.047913026 -0.044430416 0.019847535 -0.039918967
000150 47 d2 82 bd 05 6b 11 3e 71 dc 2f 3d 92 b0 5d bd
       -0.063877635 0.14200981 0.04293484 -0.05412347
000160 55 37 03 bd 1e 1f c1 3d 71 af 91 bd 20 a1 39 bd
       -0.03203519 0.09429763 -0.07113541 -0.045319676
000170 83 0b 53 3d 06 be af bc 33 df fb bd ac 59 b6 3d
       0.05152465 -0.021452915 -0.12298431 0.08903822
000180 3e 73 3e bd 89 51 2f bb 42 41 fc 3c 02 40 63 bd
       -0.046496622 -0.002675148 0.030792836 -0.055480964
000190 56 ec f3 bd 0c 8f e6 ba ff 3c 90 3d 9e c1 d1 3c
       -0.11910312 -0.0017590239 0.07042884 0.02560502
0001a0 5d 71 ce 3d c0 3c fa bb 8b d9 88 3d ad bd 46 bd
       0.10080216 -0.0076366365 0.06682118 -0.048520733
0001b0 12 f4 c3 bc c2 6d dc bc ae c6 11 bd f5 51 d6 bc
       -0.023920093 -0.026907805 -0.035589866 -0.026162127
0001c0 14 4b f0 3c f1 45 db 3d ad 05 8d 3d 20 38 c1 bc
       0.029332675 0.107067 0.06885848 -0.023586333
0001d0 0b b3 38 bd 7f 99 0c 3d 5b 0d bc 3c 06 25 58 bd
       -0.045092624 0.034326073 0.022955587 -0.052769683
0001e0 21 44 92 3d c8 70 25 bd 21 4e fd 3c 96 46 4f bd
       0.07141901 -0.04039076 0.030921044 -0.050604425
0001f0 5e 98 8c 3d ff e1 3f 3d 90 c4 a4 bd 00 c4 32 bb
       0.06864999 0.046846386 -0.08045304 -0.002727747
000200 c7 5a aa bd b0 70 be 3c b9 40 f0 bd de 24 26 3c
       -0.08318096 0.023247093 -0.11731095 0.010140626
000210 1f be 93 bc 59 35 b1 3c e2 6e 16 3d 32 13 68 3d
       -0.018034993 0.021631883 0.03672684 0.05665893
000220 38 78 8e 3c 85 0b 6b 3b 00 19 7b 3a 21 4d a8 3c
       0.01739131 0.003586502 0.00095786154 0.02054459
000230 0e 65 b2 3c 28 4a 6c bd ce 46 8b bd a9 73 9e bd
       0.021776702 -0.05768791 -0.06800614 -0.07736904
000240 db 95 b5 bb ca c8 e1 3d 90 f4 43 3d f2 d0 b2 3d
       -0.005541546 0.110246256 0.047840655 0.087312594
000250 9e a0 90 bd f6 40 68 3d 76 5e 89 bc ea e0 33 bd
       -0.07061885 0.056702577 -0.016768675 -0.043915667
000260 af 8c 82 bd ec f9 86 bd 7e b6 31 3c bc 07 9d 39
       -0.063744895 -0.065906376 0.010846732 0.00029951136
000270 d2 cd a7 3d 0b af 24 3c 0b 3a 8d bd 90 f6 9f 3c
       0.08193554 0.010051499 -0.068958364 0.01952675
000280 06 3a 2f 3d a5 de 94 bd 2a a5 0b 3d af 38 e4 bc
       0.042779945 -0.072690286 0.03409306 -0.02785906
000290 b0 f7 1e bc 5e 3c 52 3d 00 29 8e b9 c0 f2 22 3c
       -0.009702608 0.051327102 -0.00027114898 0.009945571
0002a0 70 20 7c bd be e2 e7 3d 4d 6a c3 3d e2 a0 61 bd
       -0.061554372 0.113225445 0.0954176 -0.05508507
0002b0 da ea 26 bd b0 bb e5 3c 82 fd 8d bd 3d c3 75 3d
       -0.040751316 0.028043598 -0.069331184 0.060000647
0002c0 34 99 ac 3c 23 19 36 bd d1 fa a8 bc d8 da 1d 3d
       0.021069147 -0.044457566 -0.020627411 0.038538784
0002d0 a2 06 8f bb ed 92 bf 3c ef 9e 5e bd 8a 1e 42 bc
       -0.0043648044 0.02338549 -0.05435079 -0.011848101
0002e0 0d 77 74 bd 1d 89 2b 3d 71 06 e4 bd 46 d3 67 bd
       -0.05968385 0.04187881 -0.11134041 -0.05659797
0002f0 a8 a4 d1 bc d1 eb 03 bd 3c 7e 62 bd 17 77 2a 3d
       -0.02559121 -0.032207314 -0.055296168 0.04161748
000300 ff 94 03 bd 21 6c 99 bd 23 4c 72 bd 93 01 11 3d
       -0.032124516 -0.07491327 -0.05915464 0.035401892
000310 f0 41 84 ba 76 b3 1c bd 15 5e 31 3d 37 6e d1 bd
       -0.0010090452 -0.038257085 0.043302614 -0.102261
000320 7d 64 2a 3d 3e 97 b8 bd 2e 00 3d bd a6 15 2e 3c
       0.04159974 -0.09013222 -0.04614275 0.010625279
000330 17 6b 97 3d 8a 1c 00 bc c5 33 76 3b 3e ad 42 3d
       0.07393473 -0.007819304 0.0037567478 0.047528498
000340 9e 9f 3b 3d 7d a9 bf bd bd 30 1c bd e9 88 29 3d
       0.04580652 -0.09358499 -0.038132418 0.041390333
000350 98 37 5f 3c c6 b4 d2 3d 3f ad e2 3c 9f 1c 1e bc
       0.013624094 0.10288386 0.0276705 -0.0096503785
000360 10 41 88 3b 04 f3 7c 3d 61 cc 80 bd 49 70 4f bd
       0.0041581467 0.061755195 -0.06288982 -0.050644193
000370 29 c9 aa 3d 57 a1 2a bd dd 12 c9 bd 8b d2 17 3d
       0.083391495 -0.041657772 -0.09818051 0.037066024
000380 25 3d fd bc f5 aa 5a 3d 50 04 a3 3d a9 9d c6 bd
       -0.030912945 0.053385694 0.07959807 -0.0969804
000390 fa ce 95 bd 5e cd 15 bc 90 82 5d bc 1d 40 8b bc
       -0.07314868 -0.009143202 -0.013519898 -0.016998345
0003a0 c6 e3 aa 3d 7e 89 20 3d 3c 27 e6 3c 95 be ee 3c
       0.083442256 0.039193623 0.02809488 0.029143611
0003b0 0f 53 69 bd bd 60 66 3c 49 cd 1b bd 47 19 9e bd
       -0.056963976 0.01406115 -0.038037572 -0.07719665
0003c0 ea f0 54 3d 9f de f2 3d d2 63 57 3d 58 aa 4d bc
       0.051987566 0.11858868 0.05258543 -0.01255282
0003d0 ba a0 60 3d 27 c1 53 bd da 29 a5 bd e2 01 6c bd
       0.05484078 -0.051697876 -0.08064623 -0.057618983
0003e0 10 65 88 3b ec e8 61 bd 5d 67 0a 3d 95 e0 a9 bd
       0.004162438 -0.055153772 0.03378998 -0.08294789
0003f0 f9 c1 2b 3d 8b 01 9d 3d ed 1b 92 bd af 8e ad bd
       0.041933034 0.0766631 -0.07134233 -0.0847448

net.4.bias f4 [3]
000000 81 c7 c6 bc e8 be 95 bd 5f 88 48 3d
       -0.024265053 -0.07311803 0.04895818
