saved_models/dqn_episode_200.pth (torch, 75381 bytes, 6 tensors)

net.0.weight f4 [128, 8]
00000000: 9ddb 8c3e 882d 66be be89 8138 0c22 f3bd
00000010: 0c26 8a3d d327 69be 6177 133e 0afa 863e
00000020: 09b1 123e 3780 b1be 5c73 4f3e 5071 27be
00000030: ca3a aa3d d41b 653e 9cd8 c6be f1bf 8fbe
00000040: 7f71 85be 36e3 20bf 70fd fc3d 01d2 963e
00000050: 0d0e 443d 2b29 aa3e ce3a 8a3c dfea c73d
00000060: 6d82 dcbc b989 e5be c123 b3bc 53dd 7bbd
00000070: 2c19 5e3e 8b88 c23d c53d bf3d 026b 60be
00000080: 6b89 3cbc 432e 3ebf f059 22be d635 b0be
00000090: 2df3 4f3e 72cd 383e 9fdc fe3d 62db b6bd
000000a0: a27c 47bf 9bc1 233e 212c 50be dd25 eabd
000000b0: 2b9b 243c 2468 aa3d 5bc7 a83e fa38 88be
000000c0: 85f8 a43c c5e7 a63e 93d0 ca3e a792 773e
000000d0: 408e 5f3d d730 f5bd 2265 13bf b282 553e
000000e0: 2f72 3cbe 1865 85be ace7 cc3d fecf 3e3e
000000f0: 2cf5 8cbe f1ce 9bbe 7021 73bd 73c1 9c3e
00000100: 12f7 033c 4aba debe 7f0a 553e 1fcf 403e
00000110: d725 84be 354d 503e a7d2 ab3e c1b5 a9be
00000120: fc83 933e 411c 02be 4587 923e 36e7 253e
00000130: b983 0c3c c3dd 3dbe bc93 b13e 5c04 123e
00000140: 95c1 78be 5d23 2d3e c8e6 cbbe 5889 8fbe
00000150: ab1f 3bbb 8278 e23e cc03 bfbe e551 7a3d
00000160: e2ee c6be 0171 e03e 272c 32bd a316 d0be
00000170: 2de3 ff3c f512 b7be 5f47 af3e 4104 9bbc
00000180: b43d d53d 60ed 47bd 80f1 75bd ce0f 453e
00000190: 23ee 91be 7042 50be b1e0 3ebe fd39 60be
000001a0: e2a7 0d3e f777 793e 9196 223e 6960 2cbd
000001b0: f3f7 8cbe 8cb1 dfbc fb19 a23e bb00 cbbb
000001c0: fe07 bd3b b26b 0bbe 72dd a33e bc9e 4cbd
000001d0: 5cf3 423e aa3e 21bc fd3e fb3e 0e47 bbbe
000001e0: 51df abbe e602 19be c041 3ebc 9599 0ebe
000001f0: 661f 733e cfea 9bbe 01c0 873e 17f2 1bbe
00000200: 4bc6 59be ca05 5f3e 42e0 09bd c83f d7bd
00000210: 2918 7fbd 7a98 14be 1d91 733d e89f 22be
00000220: 1a6b 273e 98e2 c9be 0cff bb3e 75d0 be3e
00000230: d363 91bc 87a9 80be 1afd ef3d 52ea b73e
00000240: 5757 f23e 2ee7 a3bd d0d5 e7bd 7c94 ddbd
00000250: fbbc 2c3b c8bf 3fbe b891 90bd 10b7 a6be
00000260: 33cd a3be 61ad d63b f891 d53e 8afa 8a3e
00000270: 5531 0c3f ef78 98be afee 8abe ec7e aa3b
00000280: 7d03 7e3e 8583 a5be 6ada 8cbd 8943 383e
00000290: 4719 a6be dfdb 333e 1f20 7bbe b1a6 aa3e
000002a0: 7403 063c 4870 e73d 1ab6 8bbd bde4 b3bd
000002b0: 9ecf a9be 8ed6 883d de3b 64bd da73 93bd
000002c0: d3eb ca3e 4c73 c2bf 0423 dd3e ab12 babe
000002d0: 71ff 083d c7af 173e 8b62 5cbd 2a50 1b3e
000002e0: 77d2 0f3e 0051 6d3e f56a 0fbe 9527 1d3e
000002f0: ad3e ad3d 8552 8f3d b523 4cbe 8bee aebe
00000300: 3438 27be 7424 b53d 1b3f 01bf 4916 d53e
00000310: 601d d2be b77e 053e 3a7a 0d3e ddc8 513e
00000320: 3e2f 903e 754e 85be 657b a1bd 3254 a73e
00000330: 541d d43a 2bc4 553e 52d5 2abe 451e 18be
00000340: 015f 483e 62ef 163e dc3e 063e aad3 213d
00000350: 87cf bf3e 22f2 93be 30d6 d3bd 8827 b3be
00000360: 5565 e4bc b4bd 473d 717f 6dbe e825 25be
00000370: 6898 ef3d 2e24 4f3e 850f f3be 1838 2b3b
00000380: c4f2 22be 4ca5 ac3d 4907 1dbd 3d47 b73e
00000390: 5e02 2b3d 7d77 db3d 65cc a13d c1bb a33c
000003a0: 3fb2 4cbe 9f3e 01be 8047 003e 51a0 24be
000003b0: 70c4 99bd 9a16 8dbe 8025 4bbd c650 453e
000003c0: aa56 c73e 5a24 f43e c1cf 9bbe 947f cfbe
000003d0: 8ce9 173e 8a35 1d3e c70d 50be cab5 8dbd
000003e0: 26f7 9bbe 3932 483e d3af 903e 0cd8 18bf
000003f0: 6d3e 1fbd b251 79be 7666 02bf d286 983e
0.27511302 -0.22478306 6.176856e-05 -0.11871728 0.06745538 -0.22769098 0.14401008 0.2636264
0.14325346 -0.34668133 0.2025885 -0.16351819 0.083119944 0.22373897 -0.38837135 -0.28076127
-0.26063153 -0.62846696 0.12353027 0.29457095 0.047864962 0.33234534 0.016873743 0.09761595
-0.02691766 -0.44831637 -0.021867635 -0.061490368 0.2168929 0.094987 0.093379535 -0.2191582
-0.011507372 -0.7428934 -0.15854621 -0.34416074 0.20307608 0.18047121 0.12444424 -0.08928563
-0.7792455 0.15991823 -0.20329334 -0.11433003 0.010046761 0.083206445 0.32964596 -0.2660597
0.020138035 0.325987 0.39612255 0.24177037 0.05457902 -0.11972206 -0.5757619 0.20850638
-0.18402933 -0.2605369 0.100051254 0.1863403 -0.275308 -0.3043132 -0.05935806 0.3061634
0.008054512 -0.43501502 0.20804785 0.1882901 -0.2581012 0.20341952 0.33559152 -0.3314648
0.28811634 -0.1270609 0.28618827 0.16201481 0.008576327 -0.18541627 0.34683025 0.14259475
-0.24292596 0.16908021 -0.3982451 -0.28034472 -0.002855281 0.44232565 -0.37307584 0.061113257
-0.38854128 0.43836215 -0.04349914 -0.4064227 0.031236256 -0.3575665 0.3423414 -0.018922927
0.104121596 -0.048810363 -0.060044765 0.1924431 -0.28501996 -0.20337844 -0.186404 -0.21897121
0.13833573 0.24362169 0.15877749 -0.04208413 -0.2753292 -0.02730634 0.31660447 -0.0061951554
0.005768775 -0.13615301 0.32004887 -0.04995607 0.19038147 -0.0098416 0.49071494 -0.36577648
-0.33568814 -0.14942512 -0.011612356 -0.13925774 0.23742446 -0.30452582 0.26513675 -0.15229069
-0.21267049 0.21779552 -0.033661135 -0.10510212 -0.0622789 -0.1451129 0.059464563 -0.15881312
0.1634945 -0.3943069 0.36718023 0.37268415 -0.017747795 -0.2512934 0.11718197 0.3592096
0.4733226 -0.080030784 -0.113200784 -0.10819337 0.0026357758 -0.18725502 -0.07059044 -0.3256154
-0.31992492 0.00655143 0.41712928 0.2714427 0.54762775 -0.29779765 -0.27135226 0.0052031185
0.24806018 -0.32326904 -0.06877597 0.17994513 -0.3244116 0.17564343 -0.24523972 0.333303
0.008179534 0.11300713 -0.068218425 -0.08783863 -0.33166212 0.06681548 -0.055721156 -0.07199831
0.39633045 -1.5191436 0.43190777 -0.36342368 0.033446733 0.14813147 -0.053804915 0.15167299
0.1404513 0.2317543 -0.14005645 0.1534713 0.0845922 0.06998161 -0.19935496 -0.3416637
-0.16330034 0.088448435 -0.50486916 0.41618565 -0.41038036 0.13036619 0.13816157 0.2048678
0.28161043 -0.2603642 -0.07884864 0.32681423 0.0016183057 0.20875613 -0.16682938 -0.14855297
0.19567491 0.14739755 0.13109916 0.0395085 0.37463018 -0.2889567 -0.103435874 -0.34991097
-0.02788035 0.0487649 -0.23193146 -0.16127741 0.11698991 0.20228645 -0.47472778 0.0026125964
-0.1591292 0.084299654 -0.038337026 0.35796538 0.041750304 0.1071615 0.07900313 0.019986989
-0.1998987 -0.12621544 0.12527275 -0.16076781 -0.075081706 -0.27556306 -0.04959631 0.19269094
0.38933307 0.47683984 -0.3043194 -0.40527022 0.14835185 0.15352455 -0.20317756 -0.06919439
-0.30461997 0.19550408 0.28259143 -0.5970466 -0.038877893 -0.2434757 -0.50937593 0.2979036

net.0.bias f4 [128]
00000000: f70c 053e 9c05 033e f4e1 2b3e 63c0 6d3e
00000010: c718 5bbd 1f4e 1b3e 0f90 c9be c0d6 3bbc
00000020: 62e7 573e a036 10bd 0bb6 58be e064 4b3e
00000030: 30d8 87bc 21a4 36bc 6fde c53c 6b7c a0be
00000040: 5b97 143e 09c4 25bc b9f4 5abe 687d 61bd
00000050: d95e 513e a188 063e 8ac5 f0bd 28f0 363e
00000060: ebe5 87bd a51e afbd 8fdc c9bd cf4c 993d
00000070: 1195 9fbe 649e 98bd 90f2 eabe 8342 883e
00000080: 2fb5 833e ca89 b93a 694c 9dbe 30fc 97be
00000090: 2e5d 1abe 062e 5ebe 3123 d23d 7036 b9be
000000a0: eae8 1b3b 6a3f e5be 8962 483e 44c3 d6bd
000000b0: 9152 803e 4743 4abe 06f6 98be 7308 93be
000000c0: eac0 96be 3b40 9fbe 7980 52be a648 4f3e
000000d0: f4e5 83be 0be0 22be 4c87 53be 37bb a7be
000000e0: 4eb0 293e 4f30 7a3d 79ec 963e 52be 03be
000000f0: 3802 5ebe e9c2 e5bd dd3f 003e 69f1 5cbe
00000100: 973c 72be 5604 8dbe 98bb 0ebe 10cf 32be
00000110: 4d48 cd3c 5d91 953e 31a8 a03e d213 a13d
00000120: 2670 783e 4a53 b33d 4e42 14be 08f9 8a3e
00000130: ca88 b4be be31 5cbe bda4 013c 3bd2 5bbe
00000140: 4dc7 44be c5e8 9dbe 2013 213e c3ee 9e3d
00000150: 75f3 13be af2d 933d 1ab8 283e c9ce ab3b
00000160: 2db6 073e 242c fd3d 1d05 5a3e 1fdf fdbc
00000170: 2026 3b3e 8491 6dbd 2b8f c0be 637f 1a3e
00000180: 6cb6 813e 706c 60be a4bc fb3d 1cb7 33bd
00000190: 1142 a7bc aba0 17be 049b 75be 14d0 19bd
000001a0: cd41 a33e 06c2 03bd 1cbe 3c3e d111 adbe
000001b0: 6187 0c3d 7839 843d 6659 2c3d 2267 803e
000001c0: c00f 16bc fd77 1bbe d427 a33e 9a2d 89be
000001d0: 61ea 9d3c b342 58bb e7ac 3a3e 2295 df3d
000001e0: db24 693e e833 753b 2567 5c3e 4dfc 8dbe
000001f0: 508a 43bc 00a4 90be 0694 4ebd 3028 6bbd
0.12993227 0.12795109 0.16785413 0.23217921 -0.053490426 0.1516652 -0.3936772 -0.011464775
0.2108436 -0.035208344 -0.21163194 0.198627 -0.016582578 -0.01114753 0.024153916 -0.31344923
0.14510863 -0.010117539 -0.21382417 -0.055051237 0.20446338 0.13138057 -0.117564276 0.1786505
-0.0663565 -0.08550767 -0.09856521 0.07485353 -0.31168416 -0.074520856 -0.45888186 0.26613244
0.2572417 0.0014155444 -0.3072236 -0.2968459 -0.15074608 -0.21697244 0.102606185 -0.36174345
0.002378995 -0.44774944 0.19568838 -0.10486463 0.25062993 -0.19752227 -0.298752 -0.28717384
-0.29444057 -0.3110369 -0.20556821 0.20242557 -0.25761378 -0.15905778 -0.2065708 -0.3276002
0.16571161 0.061081227 0.2947729 -0.1286557 -0.21680534 -0.11218817 0.12524362 -0.21576466
-0.23655926 -0.2754237 -0.13938749 -0.174618 0.02505889 0.29212466 0.3137832 0.078651085
0.24261531 0.087561205 -0.14478418 0.2714312 -0.35260612 -0.2150335 0.007912812 -0.21466915
-0.19216652 -0.30841652 0.15729952 0.07760384 -0.1444834 0.07186448 0.16476479 0.0052431566
0.13253088 0.12361935 0.21291013 -0.030990181 0.18276262 -0.058000103 -0.37609228 0.15087657
0.2533449 -0.21916366 0.1229184 -0.0438758 -0.020417245 -0.14807384 -0.23984915 -0.037551954
0.3188614 -0.032167457 0.18431896 -0.33802655 0.034308795 0.06456274 0.042077444 0.25078684
-0.0091590285 -0.1518249 0.31866324 -0.26792604 0.0192768 -0.003299874 0.1823002 0.10917117
0.22767965 0.0037414972 0.21523722 -0.27731553 -0.011934832 -0.28250122 -0.050434135 -0.057411373

net.2.weight f4 [128, 128]
00000000: 5991 a8bd bade 04be 24e9 30be 3047 3cbd
00000010: c031 c6bd b1b0 87bd 6018 833e 849e 83bd
00000020: 8310 fe3a e3e3 d2bc 0198 153e a90e 2cbc
00000030: 6872 7cbc daf4 1f3e 4938 9d3a 4212 243d
00000040: 005f 0a3e d14f cebd 2e6a 043d 45d9 4dbe
00000050: eec5 dabc 28c8 0f3e a573 82be b344 f43d
00000060: 78f4 24bc 4072 abbd eb0d f7bd d624 09bd
00000070: 0bfe 5d3d b67b 303d ae34 fcbc 34bb 9abe
00000080: 12eb 903d a600 46be 1ede e33d 0331 ab3d
00000090: 243e 2cbe 8578 1fbe e2e5 543d 1c09 903d
000000a0: 566a c53c 1507 143d acb7 5ebe b9c1 473d
000000b0: 3221 2e3e a199 f8bc e76c 223d 4119 913d
000000c0: c623 7a3b 6bbe dbbd 9ce0 a7bd 8123 9cbb
000000d0: 03fa 88be 83de 2a3d 66f0 92bd 6c8e 36bd
000000e0: 1827 773d 73b9 59bd 3d90 44be fc8f 273c
000000f0: ce27 18be 3081 2fbc 74ec 113e 09d2 26bd
00000100: 2020 d7bd d8f6 7a3d a128 b8bd ae89 913d
00000110: 8554 633d ab9e cabd fcc3 b53d 384d 3a3c
00000120: 90d2 5c3d 5269 8f3d 95e3 1dbe f005 083d
00000130: c8ac 2abd dc67 8d3d 4166 d23c ef7e a23a
00000140: 7d71 b53d 6596 793e 7883 5b3e 9072 e9be
00000150: f092 b4bb c337 23be fd4c eb3d 3dbd 983d
00000160: ff8d 8dbd b2db 3a3e 8952 5dbe 10d6 883e
00000170: 7f6a 933d fc24 273d 983e 2c3e 2629 5d3e
00000180: 1011 203e 9e00 20bd e184 353d aac2 803d
00000190: b158 1fbc 2375 fd3d 2ac2 d83e 87f4 dc3d
000001a0: f119 213e fb70 d63c f038 5dbe b30a 23be
000001b0: 2d00 393e ed0a eb3c a9f2 d8bc de57 82bd
000001c0: 6070 18bb 9d7d 8bbd 2ea4 ecbc f19d 313d
000001d0: 17a3 30be e449 cc3d da99 d53d 680c b7bc
000001e0: b17e c63d 0a90 7bbe 9d49 333e bcad 6f3d
000001f0: 9ba6 1c3d 114c 1abd 34c8 3a3e 7b36 8bbc
00000200: 5cec 0abc 0dff 0e3e cd08 b43d 100a 303e
00000210: 8bf8 f93d 6a4c 323e 6a1b 123e 9287 393d
00000220: c409 723d 03fd 66bd 4135 7c3e 2dde cabd
00000230: b689 26bd 6d7c 8ebe 31b1 f7bc cc44 0bbd
00000240: 3a4b 0cbd 588a 77bf 0171 c03e bd2f 19bd
00000250: 19b6 273e a804 0b3e 0769 5c3e 8036 20bd
00000260: 0baf 90ba c66f d8bd f5b7 323d 63de ac3d
00000270: f3a9 3abe eb43 a43d efcd b2be 88b9 3a39
00000280: 2d83 f6bd 0213 3a3e c880 7cbe f1c1 983d
00000290: 5a4c 0cbf 9314 793e 6558 6d3e 40a3 a2bf
000002a0: 01c0 29ba 5631 d5bd bd34 92be e377 033d
000002b0: 9398 363e 3263 afbd 1e02 babb c0f5 453d
000002c0: 1780 38be 30d4 01bf eff4 c23c 82a0 62bd
000002d0: ce4e a3bd 1ab1 ccbd 685d bcbc f655 69bd
000002e0: f24f edbd f263 593d 4049 c73d b2a9 a6bc
000002f0: dbe3 45bf a0dc fd3d d84a d13d 9fd0 6bbf
00000300: 26b0 f8bd 54ba cc3d fe56 10bd fb05 e93d
00000310: 70db 8b3d 3b74 813e fa0d 36be 7a79 8fbe
00000320: 2510 473e eb93 44bc 3898 d7bd 7a90 ab3c
00000330: 1c69 f0be 5766 f9be e3e7 703d 4055 273e
00000340: 5403 ff3d 1fad 97be 4d59 bd3d 5b66 263d
00000350: 756a 853e 2d68 1a3e d059 ed3d b131 9e3d
00000360: d165 523d d6f1 b33d 2c92 783e 8218 353e
00000370: 13d7 1fbd d21f 4dbc 55e2 31be bdfb 473d
00000380: 14c7 643e 2273 99bd b28e e1bd 1d43 313e
00000390: 46f2 11be 70f3 6b3e dd58 b83e 0eda 173e
000003a0: ac2a ba3b 8bf8 05bd 01d5 ec3d e8a9 05bd
000003b0: 4735 8dbe f49f 79bd 2ae0 aa3d 70c1 d43d
000003c0: 48cf b4bc 99e1 04c0 024e 0f3e 0b02 33be
000003d0: 913f 62bd 3e51 953e e7c4 193d 2278 013e
000003e0: 9e02 533a d442 3f3e 44ce d13d 5b03 85bb
000003f0: cdc9 c83c 123b 5ebd 83d6 d2bd 3e63 87be
-0.08230848 -0.12975588 -0.17276436 -0.045966327 -0.09677458 -0.06625498 0.25604534 -0.06426719
0.0019383583 -0.02574343 0.14608766 -0.010501542 -0.015408136 0.15620747 0.0011994924 0.040056475
0.13512802 -0.100738175 0.032327823 -0.20102413 -0.026705708 0.14041197 -0.25478855 0.11927166
-0.0100680515 -0.08371401 -0.120632015 -0.033482395 0.054197352 0.04308673 -0.030786838 -0.3022095
0.07076086 -0.19336185 0.1112635 0.083589576 -0.1682058 -0.15573318 0.051977046 0.070329875
0.024098556 0.036139566 -0.21749753 0.048768733 0.1700485 -0.030346693 0.03965464 0.07084895
0.0038168295 -0.10729679 -0.08197138 -0.0047649746 -0.26753244 0.04171611 -0.071747586 -0.044569418
0.060340017 -0.053155374 -0.19195648 0.0102272 -0.14858934 -0.010711953 0.14250356 -0.04072765
-0.10504174 0.061270565 -0.08992124 0.071063384 0.055500526 -0.09893545 0.08875272 0.011370949
0.053911746 0.0700251 -0.15418847 0.033208787 -0.041668683 0.06904575 0.025683524 0.0012397448
0.08859537 0.24373777 0.2143687 -0.45595217 -0.0055106804 -0.1593924 0.11489294 0.07457969
-0.06911849 0.1824787 -0.21613516 0.26725817 0.07198047 0.040806755 0.16820753 0.21597728
0.15631509 -0.03906309 0.044316176 0.06287129 -0.0097257355 0.12375858 0.42335635 0.107888274
0.15732552 0.02617692 -0.21603751 -0.1592205 0.18066473 0.028691733 -0.026482897 -0.063644156
-0.002326034 -0.06811068 -0.02888688 0.043363515 -0.17249714 0.09975031 0.104297355 -0.022344783
0.09692133 -0.24566665 0.1750855 0.058515295 0.038244825 -0.0376702 0.18240434 -0.016993752
-0.008479204 0.13964482 0.08790741 0.17191339 0.12205609 0.17411962 0.1426827 0.045295306
0.059091344 -0.056393635 0.2462969 -0.09905658 -0.040658675 -0.27829304 -0.030235859 -0.034001157
-0.03425143 -0.9669547 0.37586215 -0.037399042 0.16378058 0.13575995 0.2152444 -0.039114475
-0.0011038495 -0.10568194 0.043632466 0.084408544 -0.18228893 0.08020767 -0.3492274 0.00017807458
-0.120367385 0.18171313 -0.24658501 0.074588664 -0.54804003 0.24324255 0.23178251 -1.270607
-0.0006475449 -0.10409801 -0.2855586 0.032096755 0.1783164 -0.08563842 -0.005676522 0.04833007
-0.18017612 -0.507144 0.023798434 -0.055328853 -0.07974015 -0.09994717 -0.022993758 -0.056966744
-0.11587514 0.05307383 0.09730768 -0.020344589 -0.77300805 0.123955965 0.102193534 -0.92115206
-0.12142973 0.09996477 -0.035239212 0.11378094 0.06828964 0.2528399 -0.17778769 -0.28022367
0.19439752 -0.011998157 -0.1052708 0.020942915 -0.46955192 -0.48710892 0.058814894 0.16341114
0.12451807 -0.29624268 0.092455484 0.040624958 0.26057783 0.15078802 0.11589396 0.07724322
0.05136663 0.08786361 0.2427451 0.1768513 -0.03902347 -0.012519794 -0.17371495 0.04882406
0.22341567 -0.07492663 -0.11013545 0.17310758 -0.14252576 0.23042083 0.36005297 0.14829275
0.0056813564 -0.032707732 0.11564065 -0.03263274 -0.2757971 -0.06094356 0.08343537 0.10388458
-0.022071496 -2.0762694 0.13994601 -0.17481248 -0.055236403 0.29163545 0.037541296 0.12643483
0.0008049401 0.18677837 0.1024442 -0.004059238 0.024510289 -0.054255553 -0.10294821 -0.26442903

net.2.bias f4 [128]
00000000: 4f52 9b3d 8654 513d c08a cebc 03f8 3d3d
00000010: b4bb 653d ebfc 923d 06cc b03c 8566 8b3c
00000020: 4171 e73c 06eb 14bd 84f2 9a3b 5792 323c
00000030: 8dbf 85bd 6132 f23d 2ebf 9c3c 302d 02bc
00000040: d25d c83c 55dc 1a3d fef4 1e3d 7c18 0abc
00000050: f928 683c 00f2 72bc 7a55 653c 3e42 113b
00000060: 96aa c4bd ced1 663d b501 ee3a db73 8b3d
00000070: 8dd4 aebd 8c96 c6bc bad4 a53b 49c7 af3b
00000080: 116d e23d 8f87 a53c b464 8bbd a57c d93b
00000090: 8a06 b4bd c1ae b43c 3c4e e33c 795b 98bd
000000a0: a358 b23c 553b 88bd c151 1bbc bf09 e2bc
000000b0: 713c 98bd 24b6 c3bb 4e84 553d 95e7 98bc
000000c0: 3aae 3a3c deb0 9b3d ebea a0bd f096 b83c
000000d0: 5906 723d 8bbf 4a3d 8345 c3bc 64f4 713d
000000e0: 9164 0d3b db6f 84bd 85de 6d3c 41ed 8b3d
000000f0: 05b4 9ebc 89b1 9d3c 50e3 73bc e310 b83c
00000100: 1e0a 753d 30b0 33bd 7df6 4fbd 37b0 71bd
00000110: 920a b5bc 3890 d53b 1991 9bbd d1f5 a4bd
00000120: 41a7 da3d d8ce 56bd d52c 5dbd 5814 b5bd
00000130: 2090 6c3c 17d9 dfbc cf59 3fbd 4f36 b03d
00000140: d99f 95bd 1d07 8ebd 6705 6a3c f974 3b3d
00000150: 5d01 51bd a54c 96bc ad5c 9e3d 4b4e 813d
00000160: 0dc6 a03d 5819 f23c 7a05 d03c 1d49 3dbd
00000170: a268 833d 00df 29bb 24af a93a c63d 4ebd
00000180: a285 29bc f821 b7bc d297 b33d 5439 c43c
00000190: a346 803d d8c2 c1bc 1a17 273d 051c b7bd
000001a0: 3e6b b5bc fab3 65bd fce5 a8bb 091d a23d
000001b0: ac7f 633c 0aa5 edbd 6a22 08bd 1899 7a3c
000001c0: dc5b 2b3c 91a9 24bc bf09 28bb ff2f 4b3d
000001d0: 94f8 19bd c4a6 a6bb a0be 34bd e011 8fbd
000001e0: 857c 11bd 2bc5 31bd fda2 a33d b201 843d
000001f0: 1c77 013d d05f 9bbc 7dd9 97bd cd3f 7e3c
0.075840585 0.051106 -0.025212646 0.0463791 0.05608721 0.071771465 0.021581661 0.017016659
0.028252246 -0.03635695 0.004728617 0.010899148 -0.06530676 0.11826015 0.01913413 -0.007945344
0.0244588 0.03780778 0.03880786 -0.008428689 0.014169925 -0.014828205 0.01399743 0.0022164728
-0.09602849 0.05635243 0.0018158468 0.06809207 -0.085366346 -0.024241708 0.0050607594 0.005364333
0.11055959 0.020206241 -0.06806317 0.0066371732 -0.0879031 0.022055985 0.027747266 -0.07439322
0.02177078 -0.06651942 -0.009479941 -0.027592538 -0.07433403 -0.0059726406 0.05212813 -0.018665114
0.011394078 0.07602094 -0.07857307 0.02253291 0.059088085 0.049499076 -0.023836857 0.05907096
0.0021574835 -0.06466647 0.014518385 0.06832362 -0.01937295 0.019249694 -0.0148857385 0.02246899
0.0598241 -0.043869197 -0.05077218 -0.059005942 -0.022099767 0.0065174364 -0.075960346 -0.08054698
0.106764324 -0.052443355 -0.053997833 -0.08841771 0.014438659 -0.027325196 -0.046716508 0.086041085
-0.07305879 -0.069349505 0.014283515 0.04576585 -0.05102669 -0.018347094 0.0773252 0.06313761
0.07850275 0.0295531 0.025393236 -0.046212304 0.064164415 -0.0025920272 0.0012945873 -0.05035188
-0.010346802 -0.022355065 0.08769192 0.023953117 0.06263473 -0.023652479 0.040793516 -0.08940891
-0.022145864 -0.056079842 -0.0051543694 0.07915694 0.01388542 -0.11603744 -0.033235945 0.015295289
0.010458913 -0.010050193 -0.0025640575 0.04960632 -0.03759058 -0.005085798 -0.044127107 -0.06985831
-0.03551914 -0.043400925 0.07990072 0.06445636 0.031607732 -0.018966585 -0.074145295 0.015518141

net.4.weight f4 [3, 128]
00000000: c350 16bc c8e6 b33e 6cdf bb3e 57c5 633d
00000010: b0f4 983e 4be5 5ebe a63a 4ebe f271 a3be
00000020: bc80 b6be 132c 233d 05b7 43bc 2927 213e
00000030: b67a aa3b d088 d13e 9caf 343e ca0f bc3d
00000040: 8bff 0dbf 2166 c2be 6211 aebe ce72 03bf
00000050: f681 703e 2c5f ce3e 9a10 ed3d 51bf 56bf
00000060: ef49 893e f17d 92be e1fb e6bd 7f31 b43e
00000070: 486e bb3d 75c8 a3be f5b9 473f dffd 233d
00000080: 3615 c43e 750c e23e 2956 edbe af50 b0bc
00000090: 2ba2 203f 6cb4 a5bf 0c4f efbe 50ea c03e
000000a0: d61f 293e 35e2 81be 1ea5 81bf 9394 3ebf
000000b0: ee3e 223c 0e61 2a3e 73f6 983d 9698 85bf
000000c0: d752 1c3e 7539 76be 09d9 afbd 856c 303e
000000d0: 0e17 2d3e 340a 08bf 9018 7f3e 17e5 a8be
000000e0: 8961 87be 83a5 163e 46cd c9bd 87a1 65be
000000f0: 7422 3b3e 9b50 cabf e382 8fbe d092 80be
00000100: ede0 bd3d edc4 54c0 5837 7f3f c587 d6be
00000110: eacd 44be e9dc 343d 4034 58bc 722c 973e
00000120: f333 c63d 688d 64bf 759b e1bf 3043 8cbc
00000130: de21 203d 1f97 29be dde7 a33e f4a0 9ebe
00000140: c6b7 07bf 9403 bd3e f73c 54bf 082d 073e
00000150: 62b4 d53d 48d5 16bd c99c 3fbe b842 e53d
00000160: 965d f5be fdab c6be b558 e0bf bc1d a33e
00000170: e731 7b3d ebea a6bd 69fe bfbf c5d6 8cbf
00000180: 6b0a 853c c032 f03e a4e5 09bf c834 183f
00000190: 1e95 333d bff6 96be 7870 8a3d 84ef 3fbc
000001a0: 22ef 80be db4f 373e 8ffa 293e b351 cdbe
000001b0: 8afb 7a3e e5eb 13bf 030b 043f bbe8 0c3e
000001c0: cea1 a93d d375 26be f17c a23e 64c8 41be
000001d0: b6a1 6d3d f318 89be 4803 b2bb 5a67 783d
000001e0: 688d 3f3c 33c9 053f d8f8 613d b39b c63d
000001f0: 2252 1cbf 992f 9e3e 804e 2abf cfc0 f13d
00000200: 3726 e63b 76f7 dc3e 82b1 6d3e 7b97 85bd
00000210: 374f 5c3e 3d8f 98be f9c7 34be 2776 6dbe
00000220: 8a21 a1be e312 9dbe 3f26 9ebd e4fa 2c3e
00000230: 6792 9b3c 338c 8e3e d7ff 2f3d 480b b23d
00000240: c7e1 23bf 8407 90be 2cd5 3abf 31f6 d7be
00000250: 0c6b 0a3f e236 043e b10b 0c3e 703d a6be
00000260: b926 853e 4fbc 2abe eab3 98be 173a a83e
00000270: 2b61 fa3d 879e f6be fd2f 6d3f 5b21 963d
00000280: 9cbe cc3e 76e8 e23e 3545 11be 2065 f33b
00000290: e5df a73e 5297 ddbe 5cab 02bf a781 983e
000002a0: 62a2 373e 30c3 9abe 76f5 33bf 9060 ffbe
000002b0: f7db 833c e997 5c3e 390e ad3d 666e 3bbf
000002c0: 14fb 283e 502d 49be 56cd 793d 8c39 473e
000002d0: 12e8 2e3e 817d c7be d371 6dbe eec6 f4be
000002e0: 0c59 3bbc bcf7 413e 055a 9fbe 3e88 e93c
000002f0: 163a 1a3e fe6d 62bf eef3 d1be 0973 a4be
00000300: 95ba 0bbe 58b2 00c0 085a 873f 8c95 a5be
00000310: fad3 bebe 008a be3c e04f 06bc f9f6 df3e
00000320: a800 a03d f009 1abf f783 a3bf fe3b cd3b
00000330: 40e1 39be c84a c2bd 7b0a 7f3e 314e a4be
00000340: 6951 bdbe 18ed ec3e 0bcf 6bbf aba1 023e
00000350: e1d0 cd3c 43bd 493c 4294 4cbe 5cc2 093e
00000360: 060a cabe a02a 90be 9a3d 59bf 62eb ab3e
00000370: 7208 303e c104 893d 9d76 babf 87a3 39bf
00000380: 494e be3c e4f0 83bd c861 ddbe 6e05 f33e
00000390: d3e2 b53c 7bea 6fbe d545 cf3d aeb1 69bd
000003a0: 4c11 55be 8f33 a6bd 0349 0c3e dcc4 d2be
000003b0: 78bf 8bbd 1bb1 0abf 6cb5 263f 5f33 313e
000003c0: fb68 97bd 9963 21bc 960c d83e 41b5 d6bd
000003d0: 1848 b43d 96a8 2dbe c99c 973c c6df 5e3d
000003e0: 43ba 613d 2725 9c3e 78b8 e53d f005 5f3d
000003f0: 8218 f3be 1924 d63e 6cb1 4bbf 0043 6a3e
-0.0091745285 0.3513701 0.36693895 0.05560812 0.29874182 -0.21767156 -0.2013956 -0.3192287
-0.35645092 0.039836954 -0.011945491 0.15737595 0.0052026166 0.40924692 0.17645115 0.09182699
-0.5546805 -0.37968543 -0.33997637 -0.51347053 0.23487076 0.40306985 0.11575432 -0.83885676
0.2681422 -0.2861171 -0.11278511 0.35194013 0.09151894 -0.31988874 0.7801812 0.040037032
0.38297433 0.4415013 -0.46354797 -0.021522848 0.6274745 -1.2945685 -0.46739995 0.37678766
0.1651605 -0.25367895 -1.0128515 -0.74445456 0.009902699 0.16638586 0.074688815 -1.043719
0.15265976 -0.24045356 -0.08586318 0.17228897 0.16903326 -0.5314057 0.24911714 -0.32987282
-0.264416 0.14711575 -0.09853606 -0.22424899 0.18274862 -1.5805849 -0.28029546 -0.2511201
0.09271417 -3.3245194 0.9969382 -0.4190046 -0.19219175 0.04415599 -0.013196051 0.29526097
0.09677877 -0.8927827 -1.7625567 -0.017121881 0.0390948 -0.16561554 0.32012835 -0.30982172
-0.5301479 0.36916792 -0.82905525 0.13200772 0.10434796 -0.036824495 -0.18712153 0.11194366
-0.47922963 -0.38803092 -1.7527071 0.31858623 0.061326887 -0.08150276 -1.4999515 -1.1003042
0.01624032 0.4691372 -0.5386603 0.5945554 0.04384338 -0.29485127 0.06759733 -0.01171482
-0.25182444 0.17901556 0.16599487 -0.40101394 0.24510017 -0.5778182 0.515793 0.13760655
0.08282815 -0.16255884 0.31735948 -0.18924099 0.058015548 -0.26776847 -0.00543252 0.06064544
0.011691429 0.5226013 0.055168957 0.09697666 -0.61062825 0.3089569 -0.6652603 0.118043534
0.0070235985 0.43157548 0.23212245 -0.06523033 0.21514593 -0.29796782 -0.17654409 -0.23189603
-0.314709 -0.30678472 -0.077221386 0.16892582 0.018990709 0.2784134 0.042968597 0.08693558
-0.64016384 -0.28130734 -0.72981524 -0.42180017 0.5406959 0.12911561 0.13676335 -0.32468748
0.26006106 -0.16673397 -0.29824764 0.3285682 0.122255646 -0.48167822 0.9265135 0.07330581
0.39989173 0.4431798 -0.14186557 0.0074278265 0.32788005 -0.4327951 -0.51042724 0.29786417
0.17933038 -0.3022704 -0.7029642 -0.4987836 0.016096098 0.21542324 0.084499784 -0.7321533
0.16502029 -0.19646192 0.06098684 0.19455546 0.17080715 -0.3896294 -0.23187952 -0.4780802
-0.011434805 0.1894216 -0.31123367 0.028507348 0.1506122 -0.88449085 -0.41006416 -0.32119015
-0.13645394 -2.0108852 1.057435 -0.32340658 -0.372711 0.023259163 -0.008197755 0.43743113
0.07812625 -0.60171413 -1.2774647 0.006263255 -0.18152332 -0.0948692 0.24906342 -0.32090905
-0.36976174 0.46274638 -0.921128 0.12756984 0.025124015 0.01231319 -0.19978431 0.13453048
-0.39460772 -0.2815752 -0.8485962 0.3357802 0.17190722 0.0669036 -1.4567448 -0.7251515
0.023230689 -0.064424306 -0.43238664 0.4746508 0.022202885 -0.23429291 0.10120741 -0.057054214
-0.2080738 -0.08115303 0.13699727 -0.41165817 -0.06823629 -0.5417649 0.6512058 0.17304753
-0.0739307 -0.009850406 0.42197102 -0.1048379 0.08802813 -0.16958842 0.018507378 0.054412626
0.055109274 0.30497095 0.11216825 0.05444902 -0.47479635 0.41824415 -0.795676 0.22877121

net.4.bias f4 [3]
00000000: 8665 463d a540 973c bec4 713d
0.048436664 0.018463442 0.05902552
