saved_models/dqn_episode_4.pth (torch, 74333 bytes, 6 tensors)

net.0.weight f4 [128, 6]
-0.38791794 -0.3770984 -0.24524 -0.40108746 0.08422339 0.2554869 -0.2251304 -0.25320157
0.36363178 0.17045884 0.42380878 0.15200941 0.46892884 0.18167017 0.11969597 -0.2559431
0.0005152617 -0.16962405 0.27459493 0.24154162 0.2675086 0.103227474 0.036802273 -0.0061810124
-0.01514265 -0.30553016 -0.44212463 0.032450918 -0.27373847 -0.084683314 0.47617522 -0.31993604
-0.03829592 -0.1074716 0.022124795 -0.041398734 0.22778618 0.41444197 0.07493446 -0.19191232
-0.03399883 0.18727264 0.37329647 -0.2800361 -0.10676871 -0.3701339 0.03182814 0.053710897
-0.366486 0.4001491 0.08223013 0.13365854 0.34480706 0.38309792 0.20621021 -0.27981552
0.2406671 0.3700941 -0.1955609 0.28668097 -0.207843 0.3703936 -0.2687304 0.035599492
0.20750089 0.34636497 -0.27991357 0.28839493 -0.385889 -0.1908671 0.1755571 -0.23010932
-0.4346572 -0.21786085 -0.21320151 0.118073344 -0.102261014 0.3489182 -0.12593633 0.04253236
-0.12973723 0.21164869 -0.13650855 -0.2546515 -0.32599583 -0.06834258 0.3254087 -0.4085191
0.4073535 0.16227439 -0.21671386 -0.05119869 -0.256292 -0.056178153 -0.27872235 -0.3064454
0.23293215 -0.20415951 0.009104137 0.10241232 -0.3616208 0.20864882 -0.23522085 0.15316513
0.40111408 -0.07029292 -0.0066002216 0.316455 0.34898937 0.0051119854 0.12142569 0.0976908
0.13568193 -0.11710606 -0.3369919 -0.09248212 0.208817 0.030792326 -0.39970326 -0.3418163
-0.39319056 0.02063367 -0.13215333 -0.084979646 0.3811195 -0.048063077 -0.3774595 -0.28426698
-0.19723481 0.033118393 0.3018376 0.32305747 -0.12468179 -0.19992924 0.18211871 0.34049815
0.280928 0.07355204 -0.07464689 0.24599487 -0.047261 -0.38449308 0.14197618 -0.39584476
-0.006760874 -0.13457161 -0.09352675 -0.3582251 -0.34538883 -0.33247924 0.390425 0.06531839
0.4330909 -0.18650636 0.15840408 0.1711207 0.33916223 -0.36329028 0.38655725 -0.22520456
0.20357057 0.12845483 -0.18460478 -0.23386092 0.28933278 0.2814647 -0.088356 0.13587439
0.23200701 -0.07134189 -0.18742187 0.095206864 0.14672135 -0.026112908 0.26754034 -0.3085103
-0.050385624 -0.033766806 -0.041282892 -0.3625806 0.41872463 -0.3418184 0.20684667 -0.16122569
-0.26305485 0.028277004 -0.10097751 0.3817843 -0.32451954 -0.103554286 -0.09592757 0.08506161
0.022999018 -0.22773813 -0.13912499 -0.17155316 -0.27358472 0.10766102 -0.26371074 0.03346538
-0.3373471 0.20597304 0.23401806 -0.15758626 0.21622837 0.20685539 -0.15614796 0.2922835
0.36271945 0.3139654 -0.06815614 -0.033324514 0.25453925 -0.11800473 -0.28058723 0.044828102
0.10229421 -0.15902391 -0.25327036 0.16608669 -0.30694422 0.017864853 0.44108048 -0.17825921
0.3166501 -0.22705047 0.45805815 -0.18318947 -0.3687448 0.29411897 -0.38631737 0.15294836
-0.19624062 0.023203712 0.05631785 0.038396455 -0.3693123 -0.18338184 -0.3371497 0.20530844
0.29509586 0.1996262 0.14080292 0.34311038 -0.07997757 -0.29545194 0.1024861 0.122136414
-0.020481441 0.041605685 -0.33045396 0.2216548 -0.052782655 -0.22381161 -0.22724442 -0.089660645
00000000: 2e9d c6be 0b13 c1be 3220 7bbe 565b cdbe
00000010: 507d ac3d 2ecf 823e 9588 66be a3a3 81be
00000020: f22d ba3e c38c 2e3e 77fd d83e 5ba8 1b3e
00000030: 7117 f03e bf07 3a3e 2923 f53d f90a 83be
00000040: a112 073a edb1 2dbe b597 8c3e b056 773e
00000050: e3f6 883e ed68 d33d fbbd 163d 178a cabb
00000060: e118 78bc 736e 9cbe 295e e2be 41eb 043d
00000070: 7327 8cbe 726e adbd 3dcd f33e a8ce a3be
00000080: 2fdc 1cbd 121a dcbd 0f3f b53c b891 29bd
00000090: c840 693e bd31 d43e 3d77 993d aa84 44be
000000a0: 5b42 0bbd 66c4 3f3e b720 bf3e e460 8fbe
000000b0: 8ea9 dabd 3182 bdbe 395e 023d f5ff 5b3d
000000c0: 0ea4 bbbe 58e0 cc3e 4568 a83d c9dd 083e
000000d0: 8d8a b03e 6925 c43e c528 533e fb43 8fbe
000000e0: 7071 763e f97c bd3e 1e41 48be d9c7 923e
000000f0: ccd4 54be 3ba4 bd3e 0897 89be c6d0 113d
00000100: 1d7b 543e c056 b13e d550 8fbe 80a8 933e
00000110: 3e93 c5be aa72 43be 3ec5 333e c7a1 6bbe
00000120: 638b debe ea16 5fbe 7f51 5abe 70d0 f13d
00000130: 396e d1bd 68a5 b23e 74f5 00be 6936 2e3d
00000140: d6d9 04be 6fba 583e e6c8 0bbe ae61 82be
00000150: ede8 a6be 32f7 8bbd f89b a63e 6a29 d1be
00000160: a390 d03e 422b 263e 3dea 5dbe b8b5 51bd
00000170: b438 83be 101b 66bd b2b4 8ebe 69e6 9cbe
00000180: c485 6e3e 310f 51be 8529 153c 8dbd d13d
00000190: 5d26 b9be 09a8 553e bcdd 70be 52d7 1c3e
000001a0: d35e cd3e bcf5 8fbd ac46 d8bb 6406 a23e
000001b0: bcae b23e 7182 a73b 08ae f83d 1d12 c83d
000001c0: 34f0 0a3e 4dd5 efbd 348a acbe 4467 bdbd
000001d0: 20d4 553e 3040 fc3c e8a5 ccbe 8c02 afbe
000001e0: 4650 c9be f107 a93c 3453 07be cf09 aebd
000001f0: 1822 c33e cadd 44bd 5f42 c1be 718b 91be
00000200: ecf7 49be 27a7 073d 758a 9a3e ca67 a53e
00000210: 2b59 ffbd 40ba 4cbe 547d 3a3e c655 ae3e
00000220: cbd5 8f3e 74a2 963d 78e0 98bd 14e6 7b3e
00000230: c094 41bd 47dc c4be 3462 113e 2aac cabe
00000240: 528a ddbb 24cd 09be f48a bfbd 4869 b7be
00000250: ced6 b0be b83a aabe c9e5 c73e a6c5 853d
00000260: 17be dd3e 86fb 3ebe ae34 223e 443a 2f3e
00000270: aca6 ad3e 2f01 babe d5ea c53e 069c 66be
00000280: ce74 503e aa89 033e 0909 3dbe 3d79 6fbe
00000290: 6d23 943e 241c 903e fef3 b4bd a822 0b3e
000002a0: 3f93 6d3e b21b 92bd 85eb 3fbe d1fb c23d
000002b0: 1f3e 163e bdea d5bc 0cfb 883e 10f5 9dbe
000002c0: 2861 4ebd 104f 0abd 4018 29bd 2aa4 b9be
000002d0: 1363 d63e d202 afbe 9dcf 533e 5918 25be
000002e0: 20af 86be 2da5 e73c 4ccd cebd 3b79 c33e
000002f0: 6d27 a6be 4514 d4bd ac75 c4bd c834 ae3d
00000300: 7068 bc3c 2f34 69be c876 0ebe a2ab 2fbe
00000310: 4c13 8cbe 617d dc3d 1805 87be ff12 093d
00000320: c2b8 acbe 99ea 523e 6ea2 6f3e 4b5e 21be
00000330: f86a 5d3e e6d1 533e 40e5 1fbe 2fa6 953e
00000340: 5db6 b93e 13c0 a03e 7295 8bbd 497f 08bd
00000350: f852 823e 77ac f1bd 21a9 8fbe ac9d 373d
00000360: a07f d13d 2ad7 22be a7ac 81be a112 2a3e
00000370: cb27 9dbe 5059 923c 4dd5 e13e 9589 36be
00000380: f61f a23e eb7f 68be 9986 ea3e 0596 3bbe
00000390: 1ecc bcbe c396 963e 64cb c5be 7f9e 1c3e
000003a0: 4df3 48be b615 be3c 8cad 663d 9a45 1d3d
000003b0: 8016 bdbe 73c8 3bbe e39e acbe 603c 523e
000003c0: ce16 973e d06a 4c3e a42e 103e 2aac af3e
000003d0: 48cb a3bd 7a45 97be 3be4 d13d a822 fa3d
000003e0: b2c8 a7bc b96a 2a3d 4331 a9be 7af9 623e
000003f0: a032 58bd df2e 65be c3b2 68be 00a0 b7bd

net.0.bias f4 [128]
0.33448464 -0.06160217 -0.0032377134 0.30121538 0.09580179 0.014966631 0.32135248 0.22095159
0.06107838 0.04780899 -0.34329823 -0.01899993 0.26895502 0.25572437 -0.058968924 -0.35041994
0.1736447 -0.05972611 0.12018975 -0.2542945 0.041575473 -0.22432385 0.16936609 -0.30054495
0.37387457 0.15551762 0.3668207 0.12693751 0.083938934 -0.16279098 0.3131836 -0.21906585
-0.11728811 0.09872764 -0.37769562 0.14960995 -0.13371314 -0.029951109 0.061959557 -0.0023456078
-0.357302 0.22587764 -0.12752378 0.118668854 0.21502383 0.042960424 0.1869606 -0.37424517
0.0325088 -0.30984575 -0.2981837 0.05014296 -0.09525396 -0.24108882 0.3604278 -0.280507
-0.017319424 0.31090346 0.21256271 -0.13509814 0.08974443 -0.037547622 -0.26811105 0.16426706
-0.05286047 0.07370345 0.30278203 -0.120534435 0.37387672 0.08914627 0.0660108 -0.10483964
-0.03592325 -0.12339559 0.3206122 -0.050201014 -0.21764933 0.3067456 -0.2192904 -0.30482835
-0.08119857 0.031412665 -0.25384232 -0.10525414 -0.031001251 -0.033199206 0.038464013 0.053553537
-0.016683878 -0.07527748 -0.17202315 0.03461156 -0.038294453 -0.07154191 0.24243675 0.12350416
-0.26738316 -0.37568206 -0.13531525 -0.2006498 0.26773447 0.12913924 0.28687948 -0.12575132
0.32151002 0.10331919 0.25519666 0.0461977 0.3131927 0.3631253 0.13519008 -0.15181619
0.08032135 0.228567 0.016384179 0.41625157 -0.07895974 0.35472494 0.26533145 -0.112893976
0.13403189 0.32400215 0.29649892 -0.06734437 -0.31714937 -0.083299406 0.20799306 0.4217088
00000000: 9241 ab3e 8f52 7cbd d12f 54bb e738 9a3e
00000010: bb33 c43d 9a36 753c 5088 a43e 2241 623e
00000020: 532d 7a3d 5cd3 433d c9c4 afbe bea5 9bbc
00000030: 79b4 893e 4eee 823e 6689 71bd 3e6a b3be
00000040: ebcf 313e 5ea3 74bd 0b26 f63d e432 82be
00000050: 0b4b 2a3d 27b5 65be 4e6e 2d3e 07e1 99be
00000060: 7d6c bf3e 0340 1f3e eccf bb3e e8fb 013e
00000070: 2de8 ab3d aeb2 26be 9a59 a03e cc52 60be
00000080: c034 f0bd b831 ca3d 5261 c1be 5a33 193e
00000090: 19ec 08be 075c f5bc 4ec9 7d3d c5b8 19bb
000000a0: 4af0 b6be 784c 673e 9895 02be a808 f33d
000000b0: 352f 5c3e 45f7 2f3d 9972 3f3e 109d bfbe
000000c0: f327 053d 1aa4 9ebe 89ab 98be b462 4d3d
000000d0: 8214 c3bd fddf 76be fe89 b83e 9d9e 8fbe
000000e0: 77e1 8dbc bd2e 9f3e 0aaa 593e 2b57 0abe
000000f0: edcb b73d 89cb 19bd da45 89be a035 283e
00000100: 3884 58bd d6f1 963d 3f06 9b3e c2da f6bd
00000110: c56c bf3e 5292 b63d ac30 873d 2ab6 d6bd
00000120: 4224 13bd d4b6 fcbd 4827 a43e 949f 4dbd
00000130: 77df 5ebe c20d 9d3e aa8d 60be 7612 9cbe
00000140: 704b a6bd 91aa 003d 9ff7 81be 7c8f d7bd
00000150: 56f6 fdbc e4fb 07bd 718c 1d3d f45a 5b3d
00000160: a1ac 88bc 142b 9abd d626 30be dac4 0d3d
00000170: a5da 1cbd 9184 92bd 5741 783e c0ef fc3d
00000180: 72e6 88be 6659 c0be 1590 0abe 2477 4dbe
00000190: 7e14 893e 143d 043e dee1 923e f4c4 00be
000001a0: f69c a43e 0399 d33d 23a9 823e cd39 3d3d
000001b0: cb5a a03e 8feb b93e 456f 0a3e b475 1bbe
000001c0: 857f a43d 780d 6a3e 1d38 863c ed1e d53e
000001d0: a5b5 a1bd 829e b53e 86d9 873e f534 e7bd
000001e0: a83f 093e 9ce3 a53e b5ce 973e d8eb 89bd
000001f0: 6761 a2be e198 aabd 22fc 543e 37ea d73e

net.2.weight f4 [128, 128]
0.03192394 -0.02140393 -0.008594566 0.079128146 -0.05413861 0.099617235 0.046741273 -0.09865226
0.04540601 -0.115232304 0.09399609 0.021613093 0.032312427 -0.026638288 -0.099261306 -0.042911485
-0.0038306522 0.0030021553 -0.01470448 -0.020010404 0.015341779 -0.046996336 0.076549485 0.075622685
-0.035791706 -0.028837688 -0.058098786 -0.06956361 -0.06512181 -0.0716299 0.042684637 -0.036503144
0.10513408 0.014242717 -0.0521516 -0.07445001 -0.07047747 -0.040314883 0.030797532 0.00705598
-0.013511755 0.05266377 0.083625235 0.06754165 -0.049916238 0.034223665 0.006773521 -0.03815527
0.109142 -0.032229662 0.13449764 -0.0003903692 -0.060476214 -0.024094246 -0.017990232 0.03797841
0.056157243 -0.06662592 -0.0058151223 -0.105321795 0.06839083 -0.122567065 -0.123460464 0.081142165
0.036964126 -0.005403517 0.07771127 -0.06050525 0.07151157 0.021235516 -0.057099458 0.049995203
-0.062678225 -0.083789274 0.056008752 0.045237504 0.05653363 0.06271565 -0.20658469 0.10066149
0.0770737 0.012117981 -0.09706941 -0.041789148 0.07045528 0.10935756 -0.2392586 -0.030622922
0.10700063 0.08669417 -0.0472104 0.020557353 0.054285202 -0.02115341 0.043769967 -0.025347166
0.016482374 -0.0488699 0.04981383 0.11208224 -0.0066499338 -0.08384771 0.007789444 -0.06378613
0.008352567 0.08460044 -0.009236402 -0.09800343 0.0304215 0.07139737 -0.13679591 -0.01618246
-0.07366939 0.01585153 0.014113308 0.035773076 0.020165801 0.024536176 -0.018175317 -0.025523659
-0.00080670294 -0.026922774 -0.11749694 0.043093704 0.0002998653 0.09460808 -0.11640606 -0.0881311
0.0053842836 -0.075799584 -0.05749256 0.06652135 -0.02888273 -0.08677658 0.011232549 -0.07093574
-0.034004904 -0.04048741 -0.009639369 -0.05215476 0.012300314 -0.007568926 -0.058636136 0.06729861
-0.04996003 -0.06943477 -0.0842068 -0.02473595 0.048337255 -0.044029508 0.047757756 0.034824803
0.043517597 0.07577758 0.05276331 0.051977545 0.028654914 -0.083795436 0.030527629 0.06818506
-0.0434171 -0.022482151 -0.044519044 -0.026533691 -0.03594891 -0.054221954 -0.04720249 0.009416635
0.044795446 0.078360595 0.023950607 0.0072129816 -0.016951099 -0.051719144 -0.06784925 -0.0369613
-0.018524947 0.01984708 -0.05510263 -0.07081095 -0.047818907 -0.004034847 0.031771977 0.028180286
-0.054126944 0.025608622 -0.07535438 -0.025686419 -0.089154154 -0.056507584 0.086780794 -0.0047909915
-0.08511089 0.03582554 -0.014017148 -0.037814252 -0.054731015 0.060934883 -0.061992828 0.061197225
-0.047295205 0.0066292286 0.025215978 0.08232767 -0.059228126 -0.029881496 -0.022408582 -0.04485144
0.037806265 -0.04398267 -0.04985325 0.035075627 0.07765951 0.073420815 0.07647414 0.03598426
-0.045872934 0.05285401 0.05493588 -0.040084008 -0.056505185 0.02274357 -0.023122147 -0.061568663
0.06929407 0.054804586 -0.046783965 -0.028541526 -0.06700337 0.051689602 0.05806656 0.045107953
-0.07553041 0.022967072 -0.0694105 0.035542548 0.032442153 -0.0013114988 0.024952557 -0.04838733
-0.08682515 0.083541654 -0.05746077 0.03681285 -0.055753533 -0.058294915 0.049702823 0.07831401
-0.041875996 -0.084459774 -0.04010992 0.052457415 0.017522268 -0.011269351 -0.073308416 -0.031004447
00000000: adc2 023d 4b57 afbc 39d0 0cbc f00d a23d
00000010: 72c0 5dbd 1f04 cc3d c773 3f3d 320a cabd
00000020: a7fb 393d eafe ebbd 0681 c03d f10d b13c
00000030: 095a 043d 8a38 dabc 8349 cbbd f4c3 2fbd
00000040: ae0b 7bbb cfbf 443b 0feb 70bc dcec a3bc
00000050: 165c 7b3c 3b7f 40bd fac5 9c3d 11e0 9a3d
00000060: 539a 12bd 043d ecbc fef8 6dbd 5e77 8ebd
00000070: 955e 85bd b2b2 92bd 16d6 2e3d 5284 15bd
00000080: 8950 d73d 495a 693c eb9c 55bd 3f79 98bd
00000090: 7e56 90bd 3821 25bd 1b4b fc3c da35 e73b
000000a0: 6860 5dbc f7b5 573d b543 ab3d 4753 8a3d
000000b0: f874 4cbd 1d2e 0c3d 6af4 dd3b b348 1cbd
000000c0: d785 df3d 4003 04bd c0b9 093e 78aa ccb9
000000d0: e8b5 77bd 4c61 c5bc 4060 93bc 408f 1b3d
000000e0: 2305 663d 2c73 88bd c88c bebb f4b2 d7bd
000000f0: 7e10 8c3d 7104 fbbd d7d8 fcbd dd2d a63d
00000100: b267 173d fc0f b1bb 1627 9f3d 5ad4 77bd
00000110: a874 923d 1bf6 ad3c 1fe1 69bd c5c7 4c3d
00000120: 715d 80bd b699 abbd 6f69 653d f64a 393d
00000130: cf8f 673d 1071 803d f08a 53be 9c27 ce3d
00000140: d1d8 9d3d 7f8a 463c 54cc c6bd 192b 2bbd
00000150: dc4a 903d dbf6 df3d 3500 75be ecdc fabc
00000160: 2523 db3d b78c b13d b15f 41bd e567 a83c
00000170: 295a 5e3d eb49 adbc 2348 333d dca4 cfbc
00000180: 0b06 873c ce2b 48bd 9609 4c3d 608b e53d
00000190: b0e7 d9bb 59b8 abbd 983e ff3b 4da2 82bd
000001a0: 35d9 083c ff42 ad3d 4754 17bc 06b6 c8bd
000001b0: 8236 f93c c938 923d 3a14 0cbe 1491 84bc
000001c0: fadf 96bd 11db 813c 813b 673c ca86 123d
000001d0: c032 a53c 1700 c93c 67e4 94bc fe16 d1bc
000001e0: eb78 53ba 268d dcbc 3ca2 f0bd 0683 303d
000001f0: 3d37 9d39 e2c1 c13d 4d66 eebd 147e b4bd
00000200: a56e b03b d03c 9bbd 527d 6bbd 583c 883d
00000210: 7a9b ecbc ebb7 b1bd ba08 383c c246 91bd
00000220: ba48 0bbd 20d6 25bd 72ee 1dbc 3ba0 55bd
00000230: 4287 493c c104 f8bb 722c 70bd dbd3 893d
00000240: e3a2 4cbd d133 8ebd 9d74 acbd 0ca3 cabc
00000250: 49fd 453d 4958 34bd a39d 433d 74a4 0e3d
00000260: 823f 323d 4731 9b3d 571e 583d 68e6 543d
00000270: b6bd ea3c f19c abbd 1415 fa3c 9ca4 8b3d
00000280: 21d6 31bd 7d2c b8bc 9a59 36bd 2f5d d9bc
00000290: 2a3f 13bd d717 5ebd 6657 41bd 3b48 1a3c
000002a0: 6e7b 373d 857b a03d 1034 c43c e05a ec3b
000002b0: 08dd 8abc 74d7 53bd 8cf4 8abd bb64 17bd
000002c0: a1c1 97bc 5896 a23c 4cb3 61bd 5505 91bd
000002d0: c2dd 43bd c036 84bb 5523 023d 58da e63c
000002e0: 37b4 5dbd 2cc9 d13c 6653 9abd 536c d2bc
000002f0: 7496 b6bd 7f74 67bd 21ba b13d c0fd 9cbb
00000300: 9e4e aebd cdbd 123d 2ea8 65bc 1ee3 1abd
00000310: a12d 60bd db96 793d 31ec 7dbd f1a9 7a3d
00000320: 9eb8 41bd 003a d93b bd91 ce3c 699b a83d
00000330: 3199 72bd 0aca f4bc 3492 b7bc 25b6 37bd
00000340: beda 1a3d 2c27 34bd ec32 4cbd 76ab 0f3d
00000350: f30b 9f3d a75d 963d 799e 9c3d 3b64 133d
00000360: 42e5 3bbd 727d 583d 7204 613d 212f 24bd
00000370: fb71 67bd b950 ba3c a86a bdbc 6c2f 7cbd
00000380: 0dea 8d3d c67a 603d 8ba0 3fbd ebcf e9bc
00000390: 1039 89bd 7ab8 533d 34d7 6d3d 1ec3 383d
000003a0: b0af 9abd 7125 bc3c 1827 8ebd 1095 113d
000003b0: 10e2 043d 99e6 abba 4e69 cc3c cb31 46bd
000003c0: 62d1 b1bd e317 ab3d fc5b 6bbd 12c9 163d
000003d0: d15d 64bd a6c6 6ebd 3095 4b3d 1863 a03d
000003e0: 2a86 2bbd 3ff9 acbd 4d4a 24bd 96dd 563d
000003f0: dc8a 8f3c 15a3 38bc b922 96bd 0afd fdbc

net.2.bias f4 [128]
0.084727764 -0.03467483 0.035054266 0.079326674 0.04467683 -0.05148226 -0.034277666 0.05261866
0.04385837 0.034170073 -0.03231381 -0.036837425 0.039009117 0.058849923 0.07762732 -0.00043581153
-0.01862369 0.038850825 0.0019565208 -0.044561997 -0.029652108 -0.019333351 -0.034589753 -0.09103475
0.044666417 -0.053250935 -0.086051375 0.050233163 -0.09023905 0.0613033 0.032196943 -0.022695981
-0.05720248 -0.01339064 -0.027456608 0.012529083 -0.018099345 -0.08563651 -0.004649222 -0.04768191
0.031573538 0.041635863 -0.0013786902 0.07231994 -0.07903953 -0.056759845 0.004109062 0.043698285
-0.0661432 -0.06473422 -0.018706756 0.07616649 0.0284698 0.03408989 0.011409378 -0.0377264
0.0691547 0.016334815 -0.045297585 -0.041954637 -0.007527095 -0.05873864 0.06468251 0.047833193
0.04042112 -0.062263384 -0.0056108064 0.00245825 -0.06019196 0.003888639 0.06491909 -0.0040812823
0.053147294 -0.024564655 0.08699637 0.07753778 -0.07600711 -0.05552842 0.038955104 -0.04829032
0.056833345 0.053811803 0.0014414171 0.03649363 0.07887582 0.03277616 0.022945506 -0.06854599
-0.0035661615 0.034962587 -0.043499526 0.049527872 0.05615418 -0.02294025 -0.04142338 -0.019760072
0.07847048 -0.06534397 -0.03986648 -0.029331883 0.004164779 -0.04138311 -0.08724217 -0.008657173
0.010399448 0.06254522 0.046214454 -0.03855387 0.013406482 -0.04858536 0.016808705 -0.07071707
0.03204625 -0.020394735 0.051306047 -0.012884513 -0.009713923 -0.07013817 0.0068940567 -0.06480662
-0.08832054 0.013591114 -0.05337521 0.008121707 0.05720473 0.018921243 -0.06968525 -0.06447989
00000000: c085 ad3d 3207 0ebd 1095 0f3d 0676 a23d
00000010: 0dff 363d 10df 52bd bd66 0cbd aa86 573d
00000020: d6a4 333d ebf5 0b3d 7c5b 04bd d7e2 16bd
00000030: 06c8 1f3d 9e0c 713d 13fb 9e3d a27d e4b9
00000040: b590 98bc 0b22 1f3d f938 003b a486 36bd
00000050: fae8 f2bc fa60 9ebc fcad 0dbd 6d70 babd
00000060: 22f4 363d a71d 5abd b43b b0bd 4ac1 4d3d
00000070: 40cf b8bd 2b19 7b3d f1e0 033d ecec b9bc
00000080: 264d 6abd 6a64 5bbc aeec e0bc c846 4d3c
00000090: 1445 94bc 3262 afbd 8058 98bb 1b4e 43bd
000000a0: 4153 013d 5e8a 2a3d 2bb5 b4ba 7a1c 943d
000000b0: 7adf a1bd 037d 68bd 4fa5 863b f9fc 323d
000000c0: 1676 87bd 6093 84bd e93e 99bc 2dfd 9b3d
000000d0: 7f39 e93c d7a1 0b3d 66ee 3a3c ff86 1abd
000000e0: fba0 8d3d 97d0 853c f689 39bd a0d8 2bbd
000000f0: d9a5 f6bb ee97 70bd 4478 843d bdec 433d
00000100: 9e90 253d e407 7fbd dbda b7bb 971a 213b
00000110: d88b 76bd 89d8 7e3b 4df4 843d 47bc 85bb
00000120: fab0 593d d13b c9bc 272b b23d 21cc 9e3d
00000130: 9ea9 9bbd c571 63bd 638f 1f3d 12cc 45bd
00000140: 15ca 683d c469 5c3d efed bc3a 587a 153d
00000150: a589 a13d 4b40 063d 37f8 bb3c d761 8cbd
00000160: 43b6 69bb ee34 0f3d 8f2c 32bd bddd 4a3d
00000170: ed01 663d 31ed bbbc 90ab 29bd e0df a1bc
00000180: 22b5 a03d 0fd3 85bd 094b 23bd 6b49 f0bc
00000190: b378 883b 5681 29bd 06ac b2bd d1d6 0dbc
000001a0: 7262 2a3c b517 803d 5e4b 3d3d aaea 1dbd
000001b0: dca6 5b3c 7101 47bd 69b2 893c 1cd4 90bd
000001c0: ee42 033d dc12 a7bc 4a26 523d 9019 53bc
000001d0: 2527 1fbc 9aa4 8fbd 8ae7 e13b 55b9 84bd
000001e0: 66e1 b4bd 44ad 5e3c f79f 5abd e810 053c
000001f0: 824f 6a3d b900 9b3c 24b7 8ebd 080e 84bd

net.4.weight f4 [3, 128]
-0.04074111 -0.07796392 -0.064656295 0.01043109 0.020745702 0.03451701 -0.07583052 -0.020740403
0.008857191 -0.068699285 0.034597777 -0.053029887 -0.0017234269 -0.04293515 -0.05762106 0.024719933
-0.05588553 0.054347657 -0.025916487 0.09163204 0.07291827 -0.038108964 -0.06048649 -0.07192727
-0.08442803 -0.048659217 0.08158762 -0.0410728 0.006319858 0.1312727 -0.093338296 -0.06443981
0.06699727 0.0127651375 0.036682345 0.012810426 0.0527884 -0.07653213 -0.062136907 -0.052091166
-0.038259283 0.06827353 0.09364822 0.026699072 -0.06411042 -0.07873266 -0.08967628 0.0010473395
0.081664 0.0023470074 -0.029120313 -0.0055328896 0.05552425 0.018894155 -0.045553308 -0.0002446185
-0.0003759978 0.040941898 -0.1182617 0.04942023 -0.03262396 0.007606566 0.019503912 -0.052378975
0.034677647 0.08641663 0.077599384 -0.08761827 -0.014754717 0.036335886 -0.019720243 -0.06983325
-0.02762879 -0.02427455 0.024354473 0.06074278 0.03127653 0.02067348 -0.048733946 -0.0662102
0.05242017 -0.041153446 0.019847535 -0.039918967 -0.063877635 0.10385878 0.04858135 -0.04814321
-0.028821861 0.09879904 -0.0728244 -0.042782415 0.05698477 -0.00887635 -0.11392492 0.08575646
-0.046496622 -0.007831317 0.024504032 -0.05436546 -0.11612116 -0.0017590239 0.07042884 0.025656886
0.08277855 -0.0076366365 0.06682118 -0.04713924 -0.023920093 -0.026758442 -0.035928957 -0.023779964
0.029332675 0.077397004 0.06885848 -0.023586333 -0.050564013 0.04207952 0.036319893 -0.058501836
0.07141901 -0.037077934 0.04385321 -0.050604425 0.07266234 0.032205537 -0.08380665 -0.002727747
-0.08165297 0.023247093 -0.111954115 0.0036985711 -0.0011603826 -0.016375575 0.04024579 0.065539695
0.01739131 0.003586502 0.00095786154 0.02054459 0.028806742 -0.05768791 -0.07488496 -0.07736904
-0.005541546 0.10501288 0.053362753 0.082575664 -0.07061885 0.056702577 -0.0048264912 -0.05372749
-0.063744895 -0.05633946 0.001846428 0.00029951136 0.08193554 0.0024248986 -0.063733146 0.01952675
0.042779945 -0.076455094 0.03409306 -0.024468012 -0.009702608 0.051327102 -0.00027114898 0.009945571
-0.059609476 0.10364758 0.085393354 -0.05508507 -0.03328273 0.028043598 -0.06067912 0.06316984
0.021069147 -0.044457566 -0.021315128 0.038538784 -0.013752849 0.013239934 -0.05435079 -0.011848101
-0.06505117 0.028444031 -0.09554403 -0.05659797 -0.020336363 -0.03425407 -0.057436988 0.04161748
-0.032124516 -0.07491327 -0.05915464 0.04206071 -0.038951848 -0.038257085 0.03994984 -0.09992387
0.045596853 -0.088127546 -0.04614275 0.0048726327 0.07393473 -0.0044451207 0.0107748 0.047528498
0.048296392 -0.09171586 -0.038132418 0.041390333 0.013624094 0.031158855 0.03002325 0.003380691
0.008981393 0.06019782 -0.059874304 -0.049069438 0.0946664 -0.034332793 -0.091266826 0.021386938
-0.030912945 0.061979417 0.06882325 -0.10077128 -0.068801045 -0.009143202 -0.013519898 -0.017926548
0.0479106 0.039193623 0.02809488 0.032767773 -0.056963976 0.022485754 -0.044741157 -0.07957113
0.051987566 0.07016651 0.05258543 -0.01255282 0.061164957 -0.06344676 -0.08199734 -0.07642102
0.004162438 -0.05193926 0.04014445 -0.085277006 0.030170621 0.07713555 -0.071075335 -0.0847448
00000000: 26e0 26bd 8cab 9fbd 856a 84bd 2ae7 2a3c
00000010: e4f2 a93c b561 0d3d 084d 9bbd c7e7 a9bc
00000020: c01d 113c 36b2 8cbd 66b6 0d3d de35 59bd
00000030: 9ce4 e1ba c5dc 2fbd 1004 6cbd 7581 ca3c
00000040: 3ae8 64bd a69b 5e3d d04e d4bc 94a9 bb3d
00000050: 2d56 953d 2518 1cbd afc0 77bd 9b4e 93bd
00000060: 9ae8 acbd e34e 47bd 6917 a73d f43b 28bd
00000070: d016 cf3b 5a6c 063e 2628 bfbd 05f9 83bd
00000080: dd35 893d de24 513c 3a40 163d d2e2 513c
00000090: a638 583d e1bc 9cbd 4583 7ebd 8c5d 55bd
000000a0: c4b5 1cbd fed2 8b3d a3ca bf3d 03b8 da3c
000000b0: 534c 83bd 973e a1bd 33a8 b7bd e246 893a
000000c0: 753f a73d 40d0 193b b98d eebc 3e4d b5bb
000000d0: 656d 633d eac7 9a3c 1b96 3abd 2440 80b9
000000e0: 9221 c5b9 b1b2 273d 3133 f2bd de6c 4a3d
000000f0: b4a0 05bd 8040 f93b abc6 9f3c 568b 56bd
00000100: 260a 0e3d 34fb b03d 6dec 9e3d 3571 b3bd
00000110: c5bd 71bc f0d4 143d 598c a1bc bc04 8fbd
00000120: c655 e2bc 6cdb c6bc 0883 c73c 6ccd 783d
00000130: d21b 003d 6e5b a93c 3f9d 47bd 3799 87bd
00000140: 88b6 563d 8490 28bd 4c97 a23c 1282 23bd
00000150: 47d2 82bd e9b3 d43d 3dfd 463d d131 45bd
00000160: d31b ecbc 2757 ca3d f624 95bd 9d3c 2fbd
00000170: dd68 693d 1c6e 11bc 7851 e9bd 15a1 af3d
00000180: 3e73 3ebd ed4e 00bc aebc c83c 51ae 5ebd
00000190: eed0 edbd 0c8f e6ba ff3c 903d 642e d23c
000001a0: cd87 a93d c03c fabb 8bd9 883d 1315 41bd
000001b0: 12f4 c3bc 8534 dbbc 3e2a 13bd 33ce c2bc
000001c0: 144b f03c 5282 9e3d ad05 8d3d 2038 c1bc
000001d0: 361c 4fbd 935b 2c3d 2bc4 143d 9f9f 6fbd
000001e0: 2144 923d 08df 17bd 6c9f 333d 9646 4fbd
000001f0: fecf 943d f4e9 033d d2a2 abbd 00c4 32bb
00000200: ac39 a7bd b070 be3c 3348 e5bd ba63 723b
00000210: fb17 98ba 1226 86bc c5d8 243d ad39 863d
00000220: 3878 8e3c 850b 6b3b 0019 7b3a 214d a83c
00000230: 1efc eb3c 284a 6cbd 495d 99bd a973 9ebd
00000240: db95 b5bb fe10 d73d e792 5a3d 6e1d a93d
00000250: 9ea0 90bd f640 683d 8b27 9ebb 5b11 5cbd
00000260: af8c 82bd 35c4 66bd d803 f23a bc07 9d39
00000270: d2cd a73d 0ceb 1e3b 8686 82bd 90f6 9f3c
00000280: 063a 2f3d 7d94 9cbd 2aa5 0b3d 2471 c8bc
00000290: b0f7 1ebc 5e3c 523d 0029 8eb9 c0f2 223c
000002a0: 1129 74bd 2f45 d43d b6e2 ae3d e2a0 61bd
000002b0: 7953 08bd b0bb e53c ab8a 78bd 305f 813d
000002c0: 3499 ac3c 2319 36bd 109d aebc d8da 1d3d
000002d0: a153 61bc 4fec 583c ef9e 5ebd 8a1e 42bc
000002e0: 8c39 85bd 7503 e93c 97ac c3bd 46d3 67bd
000002f0: 7298 a6bc ff4d 0cbd 0c43 6bbd 1777 2a3d
00000300: ff94 03bd 216c 99bd 234c 72bd da47 2c3d
00000310: f98b 1fbd 76b3 1cbd 72a2 233d e3a4 ccbd
00000320: c4c3 3a3d 377c b4bd 2e00 3dbd 9baa 9f3b
00000330: 176b 973d 60a8 91bb c988 303c 3ead 423d
00000340: 70d2 453d 86d5 bbbd bd30 1cbd e988 293d
00000350: 9837 5f3c db40 ff3c 52f3 f53c 958e 5d3b
00000360: b126 133c fd91 763d c23e 75bd 09fd 48bd
00000370: 75e0 c13d 8ba0 0cbd 1aea babd a933 af3c
00000380: 253d fdbc 21de 7d3d 34f3 8c3d 2c61 cebd
00000390: 90e7 8cbd 5ecd 15bc 9082 5dbc b2da 92bc
000003a0: e83d 443d 7e89 203d 3c27 e63c 8037 063d
000003b0: 0f53 69bd 0b34 b83c 8142 37bd 30f6 a2bd
000003c0: eaf0 543d 76b3 8f3d d263 573d 58aa 4dbc
000003d0: 1b88 7a3d 60f0 81bd 39ee a7bd a082 9cbd
000003e0: 1065 883b 43be 54bd 826e 243d b6a5 aebd
000003f0: 6128 f73c 3ef9 9d3d f28f 91bd af8e adbd

net.4.bias f4 [3]
-0.021815183 -0.071692534 0.04950832
00000000: c1b5 b2bc 89d3 92bd 3cc9 4a3d
