saved_models/dqn_episode_500.pth (torch, 74357 bytes, 6 tensors)

net.0.weight f4 [128, 6]
00000000: e016 273e dcc9 a23e bfb2 bc3e a98d 94be
00000010: 5dd1 b83d 13fd 95be 70c7 bfbe 9676 dabe
00000020: c309 b53e 45f6 1fbe 487e 3e3e 32d6 84be
00000030: 5ad6 d5bd 3cfc f4be 2667 09bf 52a2 7cbe
00000040: 1d91 ec3c bd42 593c 0980 68be 9bd3 873d
00000050: 61ed 633e dd22 43bd be05 2e3e d37e 46be
00000060: 2767 49be 0c65 b0be 971e aa3d 3b9e 7b3e
00000070: f970 31be 2714 cc3e 7d36 ff3e 9ee8 a8be
00000080: 57d6 6a3e 674d 3a3e 9826 ccbe ea40 16be
00000090: bc51 e2be a0a2 a03e 35d3 b8be 8d2c 19bf
000000a0: feb9 d83e 1a41 a7be b26e 4ebe c724 95be
000000b0: 64c6 a0be 30a5 20bd 9449 cebe 5ba5 9fbe
000000c0: 5173 283e 6a91 1dbd c9bb 72be 4289 f8bc
000000d0: 8ade bebe 65f2 02be aa9c b23e 3e1b 11bf
000000e0: cb28 3dbe c1b1 783e dc50 77be cb88 4c3e
000000f0: 10cc febe 74f5 fdbd 95f9 94be 8788 293f
00000100: 780b d23e 6bfc ce3d 637a 133e 1c03 9b3d
00000110: 5aaf 0cbd 0dfc dd3c 3cb8 163d 957d a5be
00000120: 1b23 603e d470 9bbe 43ae 213f 5ec3 dcbd
00000130: 5308 a53b b5b8 74bd f7eb 293e 88b0 023f
00000140: e789 4f3e eb8f e73e 64a4 b3be 793d a5be
00000150: 4605 febe b91a 6d3e 309b 893e 7b27 073e
00000160: 89aa 8b3d fc4f 56be c015 9f3d cb89 033f
00000170: 19f0 8d3d 9dc0 ca3c bc3f e33d 0d53 71be
00000180: 5834 70be 81d7 c7bd 3568 b1be 7b1f 62be
00000190: 3060 26be a307 843e ecb9 973e afc8 a33d
000001a0: 111e a63e 6308 a7be 328e 9dbd 85ff 943c
000001b0: 5702 1cbe 5675 c63d eda6 02bf 7ca9 ba3c
000001c0: 0ca1 61be 43fb a43e 0548 f73d c4b4 063f
000001d0: 175b 963e 9ab0 a0be d4e8 653d b446 b03d
000001e0: c0b6 8fbc 2474 4c3e a45f 683e 6238 ad3e
000001f0: d0d2 053d df8a 83be 4dd7 babe 0aea 413e
00000200: 1610 10bf 9a99 593e 987a 933e 8238 2dbe
00000210: a45a 7dbe 7deb 42be 199a 42bf 0815 073e
00000220: a1b3 8a3e 5e52 a23d 63a5 5d3c eb0d eb3e
00000230: a7d3 2ebb a730 df3e a9a6 253d 6ac7 16be
00000240: 7194 5fbe 3a7c b83d 752d bdbe 7c61 3e3e
00000250: 2842 a23d f557 d93d 4c9c 9b3e fd9c 09bf
00000260: 0d00 223d 743e 58be 3f87 3a3e b699 393e
00000270: 2949 41be e32a 3f3e 2146 8b3d 2ece 2fbc
00000280: 36a8 713d 584d bb3d ee49 44be 3f5f 593e
00000290: ca35 b73e a5f1 fb3d eb76 7bbd 4837 80bd
000002a0: d0cb 553d 2cd7 c2bd 0079 10bd fca4 2f3e
000002b0: 42ed 51be 10d5 273d 581a 5e3e 7031 0dbe
000002c0: 4425 76be fad7 c33e a026 3dbe deaa adbe
000002d0: 9633 2bbe 0089 c9be 183d c1be 50a3 8b3d
000002e0: a460 a0bd 90dd 373d 9e70 213e c266 ef3e
000002f0: e325 e73d 0701 26be 59e8 103d fea1 c73c
00000300: 2c94 aa3b 39d1 443e 655d 5e3e ea1b 5bbd
00000310: f325 c0be 0575 1abe adbc 61be cbed babe
00000320: 9522 4dbd 64c3 bd3d 4d4c e33e f3e7 fc3d
00000330: b18b 313e a1b1 523e 8f28 353f efec b3be
00000340: 6d29 c5bd c8c3 2cbe 8cfb fcbe d174 94be
00000350: 0a21 2b3d f794 a93e bc60 c63e c3e0 e23c
00000360: 50f4 f53c 4b29 4ebe 037a 57be 88ea 093e
00000370: c0d8 803b f8bc 3fbd a200 50be d5c4 e73d
00000380: b505 05bf 2cb5 cbbd 5b3e b0bd 1fc4 4bbe
00000390: 5c48 c8bd bc42 8cbe 42e9 2abe 78c8 e4be
000003a0: db24 063e 7e3f 863e e82d 27bd 3de5 d8be
000003b0: 4f38 3c3e 83db 2a3d c446 fd3e a794 ea3c
000003c0: 1a6a 7bbe 4261 b6be c8e6 b83d af74 963e
000003d0: f57a 0a3d f67d 873e 6262 c33b 331b 02be
000003e0: 8d89 3cbe cd74 99be 57f9 b9bd 1642 87be
000003f0: 30bd 34be 0366 84be ba0e 0fbf 8f92 2c3e
0.1631732 0.3179463 0.36855122 -0.29014328 0.09024308 -0.29294643 -0.37456846 -0.426686
0.3535901 -0.15621288 0.1860286 -0.25944668 -0.10441275 -0.4784869 -0.5367302 -0.24671295
0.02887779 0.013260541 -0.22705092 0.066321574 0.22258522 -0.04764067 0.16994378 -0.19384317
-0.19668256 -0.34452093 0.08306616 0.24572079 -0.17328252 0.39859125 0.4984626 -0.32989973
0.22933327 0.18193589 -0.39873195 -0.146732 -0.44202983 0.31374073 -0.36098638 -0.59833604
0.423294 -0.32666856 -0.20159414 -0.2912962 -0.3140136 -0.039220035 -0.4029051 -0.31180844
0.1645024 -0.038468756 -0.23704447 -0.030338887 -0.3727916 -0.12787779 0.3488515 -0.56682193
-0.18472593 0.24286558 -0.24151939 0.19974057 -0.49765062 -0.12400332 -0.29096666 0.6622395
0.41024375 0.10106739 0.14402156 0.075689524 -0.034346916 0.027097726 0.036796793 -0.32322374
0.21888392 -0.3035952 0.6315653 -0.10779451 0.0050363927 -0.059746463 0.1659392 0.51050615
0.2026745 0.45226988 -0.35086358 -0.32273462 -0.49613398 0.23154725 0.2687621 0.13198654
0.068196364 -0.20928949 0.0776782 0.5138213 0.069305606 0.024750048 0.11096141 -0.23566838
-0.23457468 -0.09757901 -0.34649816 -0.22082321 -0.1624763 0.25787076 0.29634035 0.07997262
0.32444814 -0.32623586 -0.07693137 0.018188247 -0.15235268 0.09690349 -0.5103596 0.022785895
-0.22034091 0.32222947 0.120742835 0.52619576 0.2936637 -0.31384736 0.056130245 0.086072356
-0.017543197 0.19966179 0.22692734 0.3383208 0.03267175 -0.25691888 -0.36492386 0.18936935
-0.56274545 0.2125 0.2880447 -0.16916087 -0.24741608 -0.19035144 -0.76016384 0.13191617
0.2709017 0.079258665 0.013528201 0.45909056 -0.0026676448 0.43591806 0.040442143 -0.14724508
-0.2183397 0.09008069 -0.36948743 0.18591875 0.079227746 0.106124796 0.30392683 -0.5375517
0.03955083 -0.21117574 0.18215655 0.18125042 -0.18875565 0.18668704 0.068004854 -0.010730309
0.05899831 0.091456115 -0.19168827 0.2122774 0.35783225 0.123019494 -0.061392706 -0.06260544
0.052196324 -0.09513697 -0.035271645 0.1715278 -0.20500663 0.040974677 0.21689737 -0.1378839
-0.24037653 0.38250715 -0.18471766 -0.33919424 -0.16718897 -0.39362335 -0.37741923 0.06818259
-0.07830933 0.044889033 0.15765616 0.46758085 0.11286523 -0.1621133 0.035377834 0.024369236
0.0052056517 0.19220437 0.21715315 -0.053493418 -0.37528953 -0.15083702 -0.2204463 -0.36509547
-0.050081808 0.092657834 0.4439415 0.12348928 0.17338444 0.20575573 0.7076501 -0.35141703
-0.09627042 -0.1687156 -0.49410665 -0.28995374 0.041779555 0.33121464 0.38745677 0.027695065
0.030023724 -0.2013294 -0.21042638 0.13468373 0.0039320886 -0.046811074 -0.20312741 0.113168396
-0.51961833 -0.09946665 -0.08605643 -0.19899033 -0.097794265 -0.27394664 -0.16690543 -0.44684196
0.13099997 0.26220316 -0.040815264 -0.42362395 0.18380855 0.04171325 0.49468052 0.028635336
-0.24552193 -0.35621077 0.09028393 0.29385898 0.033808667 0.26463288 0.005962656 -0.12705688
-0.18411846 -0.29971924 -0.09080761 -0.26417607 -0.17650294 -0.2585908 -0.55881846 0.16852783

net.0.bias f4 [128]
00000000: 5949 f93b d109 cfbd 5cd8 b83e d591 02be
00000010: 3190 e83e 0bad f53e 9c2d c53d 2045 df3d
00000020: dedf 8e3e 9c36 b23e 07ab ccbd 7831 473c
00000030: 1d5c 883d 54e9 20bd bfdf 48be 8645 4ebe
00000040: 2a16 ed3d 0df2 15be 6ddf 35be 49dd babe
00000050: 4a32 8cbe 025a 4ebc 3fb2 afbd c0b5 54be
00000060: da92 22be 5391 3a3c 54ce 9fbe c3f4 5dbe
00000070: cedd 25be f498 56be 91ff 7ebe 8913 61be
00000080: d99a 2a3e 8e83 663e 46fc 3d3c adfb a03e
00000090: 1e5f 9bbe bfce 7e3e 2db6 64be e19b 763e
000000a0: 91c9 c6be 55d7 903e 52da be3e 391a 52be
000000b0: dd32 c9be b2b0 9abe 76b9 283e 217f 1f3e
000000c0: 103f 303e 724b e7bc 340a 0a3e 3adc 8b3e
000000d0: bee3 9a3e 2d0e 1dbd 5739 a2be b6a4 9cbe
000000e0: 46e7 8fbe e347 efbc c046 6ebe 83a9 f23d
000000f0: 42bb b5bd 216d 793d 03e8 6dbd 8fc7 0cbf
00000100: 6c15 cdbd ff83 ffbd 8cdd c7bc 9272 eabe
00000110: 656a 8bbe 00e0 44bb 6092 4d3e 98c9 53be
00000120: 1cd6 2abe 1f91 dc3d e994 773e a8db d6bd
00000130: 11a6 d73d 8c0c 0fbe d7fe c3be 5deb bfbe
00000140: 83a0 9d3d 2c67 303e b194 82be 87d0 c3bd
00000150: f3cb 75be def5 cbbe 1a45 193e f298 ccbe
00000160: 8b6e b0be 32e8 1fbd 41ee a53d 28b0 16bd
00000170: 5508 21be 35ca 8bbe 00c6 6f3e b1e5 3d3a
00000180: 275c a5be 904e a33c 5cbe 47be c3e5 2bbe
00000190: fbe0 edbd 4cf1 c4bd d1df 87be 905a 07be
000001a0: 3f37 bd3e a3c2 7bbe a7d3 86be 77c6 c53e
000001b0: 63af 15be e614 9dbe 3ff0 b2be c89d b93d
000001c0: b530 533b 3b7a a13e 8fbc 4e3e bfac 86be
000001d0: 3474 8fbe c85b bdbe 8a7c a73c d032 1cbe
000001e0: 40bd 873c bf6f 603e b0a0 5b3d d83e 653d
000001f0: f0ad d53d 013b 913e 8b96 4e3e 3808 03bd
0.0076076207 -0.10109294 0.3610257 -0.12750943 0.4542251 0.47983584 0.0962784 0.109018564
0.27905172 0.3480729 -0.099935584 0.01215779 0.06658194 -0.03928502 -0.19616602 -0.20143709
0.11576493 -0.14643116 -0.17761011 -0.36496952 -0.27382118 -0.012594702 -0.085789196 -0.20772457
-0.15876332 0.011387187 -0.31212103 -0.216754 -0.16197893 -0.20956784 -0.24902178 -0.21980108
0.16660632 0.22511122 0.011595791 0.31442013 -0.30346006 0.24883555 -0.2233512 0.240829
-0.38825658 0.28289285 0.3727594 -0.20517816 -0.39296618 -0.30212933 0.16476998 0.1557584
0.17211556 -0.028234217 0.13480455 0.27316457 0.30251878 -0.038343597 -0.31684372 -0.30594414
-0.28106135 -0.029209083 -0.23269176 0.11848738 -0.08873607 0.06089509 -0.05808259 -0.54992
-0.100138515 -0.12476348 -0.024397634 -0.45790535 -0.2722961 -0.003004074 0.20075369 -0.2068237
-0.16683239 0.10769867 0.24177898 -0.10491115 0.105297215 -0.1396963 -0.38280365 -0.37484255
0.07696631 0.17226857 -0.25504068 -0.09561258 -0.24003582 -0.3983602 0.14967766 -0.39960438
-0.34459338 -0.039039798 0.08102084 -0.03678909 -0.15725835 -0.2730271 0.23415375 0.00072440045
-0.3229687 0.019934922 -0.1950621 -0.16786866 -0.11615177 -0.09616336 -0.26537946 -0.1321814
0.36956212 -0.24585967 -0.26333353 0.3862798 -0.14617686 -0.30680007 -0.34948918 0.090632975
0.0032225077 0.31538567 0.20189117 -0.2630367 -0.28018343 -0.36984086 0.020445127 -0.15253758
0.016569734 0.21917628 0.05362004 0.055968136 0.104335666 0.2836533 0.20174615 -0.03199026

net.2.weight f4 [128, 128]
00000000: f792 85be b7c3 28bd 123c 1dbe b746 0bbe
00000010: d6f7 03be 6310 023d ed38 09be d8b4 6bbd
00000020: c076 db3c 7c87 573c 51e5 abbd 1c07 22bd
00000030: 7062 f7be 7ba1 253d 4a14 3cbd 1704 1bbd
00000040: 70f2 67bc dd76 81be 2463 08bd 89f5 92be
00000050: 368e 633d 91bf 95bd 9fce 1b3d d0bc f03c
00000060: a603 8cbc 6349 c13d 1e28 0c3e 7b43 50bd
00000070: f335 0bbd 8f66 aabd 0647 2e3d 9212 2b3c
00000080: 50c2 ebbd c4e3 0a3d a89c 79bd b136 32bc
00000090: 3afe 7fbd dd82 23be bc33 cc3c 31c6 1cbc
000000a0: 9034 783c e55d b0be 729c f3be 0d36 58bd
000000b0: 438a 63bd e500 3cbe 47e8 e6bd 4b07 cdbe
000000c0: c9fc 69be 9638 c23c 3134 88bd 565d 553c
000000d0: 2404 69be 6e6b 6b3b 686f 71bd 74db 13be
000000e0: 7e4e 6c3d 3b84 72bd 343d 163b 28cf e1bd
000000f0: 1879 8fbe d6d6 433b 984b 143e db1c 1bbc
00000100: 2913 1dbd ffc0 f8bd 5bde 13bc c86e 6e3d
00000110: 8ec4 573d 333e d7bc 7f83 6b3c ff3e 50bd
00000120: 31eb 873d 3fcc c1be dd0b 9cbd c76b 903d
00000130: f756 25bf 0b74 a13d 9cda f03c 5f60 8e3d
00000140: 3458 73bd f05e 5fbd 044f df3c 15d0 9bbc
00000150: 728c 01bd 685e 18bb a647 aabd 9695 0fbd
00000160: 5a10 973d 30c9 e4bb 2d18 d03c 8740 943d
00000170: 0e2f 423b 710c a4be 71a3 ee3b 603e 10be
00000180: a9b7 963d 33d2 b03b 7e3e 1fbe 0c87 a7bc
00000190: a5bf 79bf 3372 cbbc 8295 18be d4f5 f03c
000001a0: 623a 91ba b3e9 82be 5513 1b3d bd4a 36bd
000001b0: 6628 b3bc 5f8d 10bd d223 243d a009 81bd
000001c0: 7014 c33d 9638 97be 0e96 013c 3f8a 54bd
000001d0: 1aef 57be 4834 98be fe0a 06be 070a 65bd
000001e0: 5e23 febc cfcc 24be f579 3ebe 82f4 19bd
000001f0: e6ca 2a3d cd4d aa3c c696 c3bc 0078 99b8
00000200: d4e3 1d3e 71ef e93c ea09 85be 9a85 8c3d
00000210: 590c 98be 4886 e2be 607c 993b aad6 303d
00000220: fc9a a6bb 1fab edbd 0ce0 cfbe 99d5 edbd
00000230: 8940 abbe 3ef9 3c3e 7d47 aabd 0642 313e
00000240: c868 8e3d 5b8a 113d b9c0 24be 68fa 363e
00000250: 143c 943c 9627 78be d180 27be 5499 1cbd
00000260: 1a4b 12be e946 2abc 4530 3f3d 9b08 5bbd
00000270: 8332 923d e002 a03c 1c43 00bd 0ca8 f23c
00000280: e6db 6b3e 6c0b febd 1aee ca3d 5d03 acbc
00000290: 1892 ee3c 363b e5bd e53f fdbd f38d 2fbe
000002a0: d02f a03c 3173 57bf 04cc 81bc ba08 90bc
000002b0: 0070 4939 c2f2 253d 48c7 c43c c5b6 59bd
000002c0: 26cd 23be 933d 27be 4768 943d 273d 64bc
000002d0: 33f6 13bf 542a 2ebe eb86 17bd 3be1 1abe
000002e0: 3a07 193d 6001 49be e6cd 5f3e d408 843e
000002f0: a3d9 ff3d fcbb 54bd 5d82 d0be bceb c43d
00000300: 8d0e 90bd 3bc2 e13b 033a 233e c2c3 3d3c
00000310: 602f a5bb 7bfb fdbd 9ced 1dbd ed0b 833e
00000320: 9e0a 65bd 0015 fcbe 19e7 81be e1bd a53d
00000330: 012d 09bf 4a3e 413d 23ac 65bd 8dcd bdbe
00000340: 9407 8fbd c7c4 4dbe f495 823c ec44 73bd
00000350: 6728 86be 51a6 c63d 333b 20bb 2a0f 203d
00000360: bbcc fa3d ed9e edbd dee1 4cbd e6ff 3dbd
00000370: 4b48 e4bc 8cb9 8d3d e407 233d 5492 96be
00000380: bbb6 61bd 844b b43e 4d7e e0be 2749 b3bd
00000390: c917 12bf 5a1c 293e d61b b23c 70d7 54bc
000003a0: b621 02be fe5f 513e dd91 b5bc 1162 3abd
000003b0: d27c 95be b80c ebbe c00e bc3a d29f 9abd
000003c0: d2fe 33be 9192 b1be e730 d8bd 772b 3c3e
000003d0: e334 e7bd 329f ddbd 169b 84bd 9098 ac3c
000003e0: 0134 31bd 19da 2cbd 44b1 143d be9a fbbd
000003f0: ef62 9f3e 6c34 8bbd 2fc8 d7bc 30be 733c
-0.26088688 -0.041202273 -0.15354946 -0.13601194 -0.1288751 0.03175391 -0.13400622 -0.057545513
0.026790023 0.013154861 -0.08393348 -0.03955756 -0.4831729 0.040437203 -0.045917787 -0.037845697
-0.014156923 -0.25285998 -0.033297673 -0.28702953 0.055555545 -0.07311929 0.038038846 0.029386908
-0.017091583 0.094378255 0.13687178 -0.050845604 -0.033986997 -0.08320343 0.042548202 0.010441439
-0.115116715 0.03390862 -0.060940415 -0.010877297 -0.06249831 -0.15967889 0.024927013 -0.009568737
0.015149251 -0.34446636 -0.47580296 -0.05278592 -0.05555178 -0.18359716 -0.11274772 -0.40044627
-0.22850336 0.023708623 -0.0665058 0.013022741 -0.22755486 0.0035922187 -0.058944136 -0.14439183
0.057692043 -0.059208136 0.0022924663 -0.1102584 -0.28022075 0.002988269 0.14481962 -0.009467329
-0.03834835 -0.12146186 -0.009025182 0.058211118 0.052677684 -0.026274776 0.014374613 -0.050841328
0.06636656 -0.3785114 -0.0761945 0.07051807 -0.6458582 0.078834616 0.029401116 0.06951975
-0.05941029 -0.0545339 0.027259357 -0.01902012 -0.03162808 -0.002324963 -0.08314447 -0.035054766
0.07376166 -0.006981991 0.025402153 0.0723887 0.0029630098 -0.32040742 0.0072826673 -0.14086294
0.07359249 0.0053961514 -0.15551183 -0.020450138 -0.9755805 -0.024834728 -0.14900783 0.029414095
-0.0011080022 -0.25568923 0.037860233 -0.04450487 -0.02186985 -0.035291072 0.040073223 -0.06300664
0.095253825 -0.2953536 0.007909311 -0.051889654 -0.21087304 -0.29727387 -0.1309013 -0.055917766
-0.031022724 -0.16093753 -0.1860121 -0.037586696 0.041697405 0.020789051 -0.023875605 -7.31796e-05
0.15418941 0.028556557 -0.25984126 0.0686142 -0.2969692 -0.44243073 0.004684016 0.04317347
-0.0050843935 -0.116049044 -0.40600622 -0.11613006 -0.33447674 0.18454453 -0.083144166 0.17310342
0.06953579 0.035532337 -0.16089143 0.1786896 0.018095054 -0.24233851 -0.16357733 -0.038232163
-0.14286461 -0.010392883 0.046676893 -0.053475004 0.071385406 0.01953262 -0.031314 0.029621147
0.23033103 -0.12404522 0.099086955 -0.020997697 0.029122397 -0.11192934 -0.123657025 -0.17143993
0.019554049 -0.84160143 -0.015844353 -0.017582286 0.00019210577 0.040514715 0.024020806 -0.05315282
-0.15996227 -0.16332082 0.07246452 -0.0139305955 -0.57797545 -0.17008334 -0.036993902 -0.15124981
0.037360407 -0.19629431 0.21855888 0.25787985 0.12492683 -0.05193709 -0.4072446 0.09615275
-0.07034025 0.006889609 0.15940098 0.011582317 -0.005041048 -0.12401482 -0.03855668 0.25595036
-0.05591833 -0.49234772 -0.25371626 0.08092857 -0.53584296 0.047178544 -0.056072365 -0.37070885
-0.06983867 -0.20094596 0.015940644 -0.0593919 -0.262027 0.09699691 -0.0024449348 0.03907696
0.122460805 -0.11602578 -0.05002009 -0.046386622 -0.027866503 0.06920156 0.039802447 -0.29408514
-0.055105906 0.35213864 -0.4384636 -0.08754187 -0.57067543 0.16514722 0.021741789 -0.012990817
-0.12708172 0.20446774 -0.02216428 -0.04550368 -0.29196793 -0.4590814 0.0014347658 -0.075500146
-0.17577675 -0.34682134 -0.105562024 0.18375956 -0.11289384 -0.1082138 -0.06474893 0.021068841
-0.043262485 -0.04220018 0.036301866 -0.12285374 0.31130168 -0.06797108 -0.026340572 0.014876887

net.2.bias f4 [128]
00000000: 6767 443d e4da 29bd 8f6e 2dbd 367d c4bd
00000010: a2b0 33be 5892 563d b6fc 1cbc d982 0dbd
00000020: 63ca 01bc 432d 54bd 570f 90bd 7036 2a3e
00000030: 2185 0d3c 29df 043e 0b4e dbbc d978 7dbd
00000040: 9130 953c 5e58 94bd b402 353d de38 9cbc
00000050: 7637 8ebc 6fdf 74bc 53c4 ebbc 9c9b 8abd
00000060: e5a9 ec3d a887 abbd d499 75bd 4b8d 48bd
00000070: ee97 f9bd d0f3 923c cff7 34bd 6ed1 f83d
00000080: 834a 203c f7ad 383d e51a 2c3e 852d 8cbd
00000090: c724 aabd af45 9dbd e234 a8bd fe55 80bd
000000a0: c89a edbc ba36 8f3c 38a6 083e e023 0abd
000000b0: 2bcf 00bd f40f 7ebd e12b d9bb 122f b9bd
000000c0: 5079 2c3d b70b 143d 04aa 40bd b94c 56bd
000000d0: 62ca f1bc ce4b 2dbe c91b c9bd a065 21bd
000000e0: 2c5e 383c a9c7 1dbd 6292 b0bd a72a 8e3b
000000f0: c0eb dbbb 1f05 9f3c e77f 5abc df29 cebd
00000100: f8b7 50bd 262a 4cbc d749 953c d17f 1abd
00000110: 9907 aebd 930d d53c e9ea 1cbe d57c 35bd
00000120: 036e b3bc ca50 8d3a 7549 1c3e ee98 96bd
00000130: d26e 693d a3a6 ee3b 20d6 7d3d 63e1 79bd
00000140: 8825 b5bd 7ae5 a5bd 273a 11bd 040c 283e
00000150: af4d 0fbc 3fea 26bc f476 91bb a75e 503d
00000160: 4b38 ecbd 23b1 183c fb3a abbd 73b9 2c3d
00000170: c7d8 b93d 4a50 0bbd db66 2a3e 8dcb 4d3d
00000180: 7e62 e0bd fa6a 08be b142 c93d 91db c339
00000190: a928 0ebc 1a47 6f3d a663 8b3c f706 223e
000001a0: 15d3 e93d 092a abbd f37e 3b3d 287d 9ebd
000001b0: b3a8 69bd b737 b6bd 676a f1bd 5e1e 5e3d
000001c0: f37a 60bd 8e4d cb3d 1ea3 263d 2ad2 753d
000001d0: 9a63 4bbd 76b0 2e3e 8b45 56bd e1fe 58bd
000001e0: c867 233d b6a8 343d a4d0 90bb f5a1 aabd
000001f0: a133 d0bc 33a8 6c3c bf2c 883c 08b5 90bd
0.047950175 -0.041468516 -0.042341765 -0.095941946 -0.17547849 0.052385658 -0.009581735 -0.034548614
-0.007921788 -0.051800977 -0.07034176 0.16622329 0.008637697 0.12975754 -0.026770612 -0.061882827
0.018211635 -0.07243417 0.04419203 -0.019070085 -0.01736043 -0.014945849 -0.028780138 -0.067679614
0.11555842 -0.08375484 -0.059961155 -0.048962872 -0.121871814 0.017938524 -0.04418164 0.121493205
0.00978339 0.04508778 0.16807134 -0.0684462 -0.08307796 -0.07679307 -0.082132116 -0.06266402
-0.02900447 0.01748215 0.13344657 -0.03372562 -0.03144757 -0.062026933 -0.006627545 -0.09042181
0.04210788 0.036143985 -0.04703714 -0.052319262 -0.029515449 -0.16923448 -0.09819753 -0.039403558
0.011252921 -0.03852049 -0.0862167 0.0043385806 -0.006711453 0.019411622 -0.013336158 -0.1006658
-0.050956696 -0.012461221 0.018223686 -0.03771955 -0.08497543 0.02600745 -0.15323986 -0.044308502
-0.021903044 0.0010781523 0.15262397 -0.07353388 0.056990452 0.0072830482 0.061971784 -0.06100596
-0.08845049 -0.0810041 -0.03545585 0.16410834 -0.008746549 -0.010187685 -0.004439229 0.050871518
-0.115341745 0.009319576 -0.08360859 0.042169046 0.0907455 -0.034012116 0.16640799 0.05024295
-0.10956286 -0.13322058 0.098271735 0.00037356888 -0.008676686 0.058417417 0.01701529 0.1582297
0.11417214 -0.08357627 0.045775365 -0.077387154 -0.05704565 -0.088973455 -0.11787873 0.05422818
-0.054804754 0.09926902 0.040682904 0.06001488 -0.049655534 0.17059502 -0.052312415 -0.052977446
0.039893895 0.044106208 -0.004419403 -0.08331672 -0.025415244 0.014444399 0.0166229 -0.07065779

net.4.weight f4 [3, 128]
00000000: dc6e 83bd 5d63 f7be fc34 9e3c 410e 0dbd
00000010: 18aa eebd 004d 903c 01d1 1abf 512e a2bd
00000020: 6299 bb3c 3ca4 2b3c 8412 a13d 1f5f 363e
00000030: ab5f 0bbc d008 b03d b2ca 1c3e cf36 893e
00000040: a534 183e f2da 983d e2a7 ec3c b249 7d3d
00000050: 0f58 50bd 3ec8 363d 112c 24bd 259e c63d
00000060: b81e 0c3e 25dd abbd 0e7c 8bbd c8ed 463c
00000070: 5fec 50bc 27cd 613e 5d0f 17bd 162c 97be
00000080: e7fe 413e 7080 94bd b10e ca3d 98a1 273c
00000090: cc78 bc3c ee64 b23c 888d 903c cec8 bb3d
000000a0: c18f 853d dbae 693e 50f7 fb3d a39e e63d
000000b0: ca3a 66bd 0c01 963d 93c5 b2bd bfc5 c13d
000000c0: fe2e a63d 6e7b 8d3d 88bb 1d3d ef0d deba
000000d0: 98a2 1ebb 8a6c 2abd 5787 bbbc d816 dfbb
000000e0: ba1a 9f3d 4c38 423d ce7a 2f3d 3636 213d
000000f0: 2e25 d03d b6ed be3d 97c5 ab3e 6739 203e
00000100: 87ce e3bd 0652 963d 8f39 0f3e c9d2 c1bd
00000110: 2286 833d 4665 03be b36d 18bf f806 30bf
00000120: 8051 61bc 65c0 47bd 957a b8be 0290 663d
00000130: 87dc a63d 6b42 96bd 73e7 1c3e 1f9a 113e
00000140: 8392 c2bc 1e00 06bd 59bd f53c 18fb 003e
00000150: a0bd 53bc 8b7f 1abd 4afe 1bbf 281c 863e
00000160: 515e 5dbd 6322 ec3d 1f48 c3bd fb5f 173e
00000170: e627 d93d d4c6 20bd d9ea e83d 26de 453d
00000180: 6b97 b9be 591c 1bbe 2a95 a83d ec01 833e
00000190: a4d2 503c 4e20 063e 55cb 953d 9e5e 673e
000001a0: a395 333e 13e7 b3bd 1582 b13d 5537 8c3d
000001b0: 1f88 5d3c 9eda d1be 47e9 0a3e 0d42 fcbe
000001c0: 98f3 ca3d 5a72 443e a39f 8a3e ee01 86be
000001d0: 40ed eb3c 6162 023e aa19 0cbf 8dc5 523d
000001e0: 35e4 3abf fc2b 6f3d 480b 713d 1c30 873c
000001f0: f64f ffbd 389e 23bd f634 efbe 2fc8 f6be
00000200: 8448 16bd 5a01 88be 9e44 10bd 5749 42bd
00000210: 8896 09be 6765 873d 1bc8 03bf dbf7 053c
00000220: 7960 c6ba 92b1 27bd d368 5a3d 8149 293e
00000230: 69e3 9b3c 143c b33d fd4e f33d d99c 083e
00000240: 4af7 023e 127f b83c f3e4 16bd 1578 14bd
00000250: 94e5 aabd 90b7 97bd a993 bebd b242 ac3d
00000260: 43ff 863e 9163 ae3d 0deb 95bd e277 d73c
00000270: 907e 14bd c474 1f3e 2902 9e3d eddd fabe
00000280: 2110 143e b0e7 92bd 5eec c33d 4df5 15bd
00000290: ede6 8f3d d459 d53b 15ea 55bc 346d 943d
000002a0: 8443 44bd aa70 333e 652c 2c3d 5586 013e
000002b0: f748 71bd 6b6c 373d 1b05 acbd 853c 073b
000002c0: 179e 39bd 453e 713d 5040 393d ec4b f8bc
000002d0: 93b1 7d3d 100f eabd 12d5 e3bd 8071 30bd
000002e0: f35e 27bc 66b8 85bd 5c74 4a3d a424 fe3c
000002f0: c022 0c3e 5efd d63b 651d 9f3e 61a2 1b3e
00000300: 360f 23be c72d ad3d e276 6f3d 42d2 d6bd
00000310: 794b a83d 8880 d4bd 49b1 2bbf 59a0 02bf
00000320: 60c7 493d 1e52 ffbc 77af 11bf 2e37 333d
00000330: 1aa2 333d 06a3 0fbe 2d47 423e 8138 9c3e
00000340: 3fe9 b2bd 80a1 453d 4f8e 453d 62e0 0f3e
00000350: 1a2f 953d 48f1 053d d2bf 9fbe 8426 413e
00000360: 40da cebd c2f9 e93d b400 0fbe d437 b43d
00000370: 3c9b 063e 61be 8dbc fb8a 003e b35e 633d
00000380: a629 04bd f117 2bbe 5a80 113e 0bc4 713e
00000390: 9fbf 983d 61e1 753e e97a 503d 2e99 b23e
000003a0: 92cb a03e 003b 5dbb 10b9 ea3d 0633 56bd
000003b0: 8767 69bd 1ce1 cebe de42 193e 3890 65be
000003c0: 0818 cb3d a21b 193e d343 943e 362a debe
000003d0: a98c 843e 5752 f13d 1539 f7be 4cec 793d
000003e0: 81a1 e3be 8e12 833d 70f8 9d3d 70a6 b7bb
000003f0: a1c8 edbd e290 ffbc 7fe3 ffbe 6939 ebbe
-0.06417629 -0.48317996 0.019312374 -0.03443742 -0.116535366 0.017614841 -0.60475165 -0.079189904
0.022900287 0.010476168 0.0786486 0.17809723 -0.008506696 0.08595431 0.15311697 0.26799628
0.14863832 0.074636355 0.028888647 0.06183786 -0.05086523 0.04462456 -0.040081087 0.096981324
0.13683593 -0.08391789 -0.06810771 0.012141652 -0.012751668 0.22050916 -0.036879886 -0.29525822
0.18944894 -0.0725106 0.098660834 0.010231398 0.02300682 0.021776643 0.017645612 0.0916916
0.065215595 0.22820608 0.123030305 0.11260726 -0.05620841 0.073244184 -0.087290905 0.09461545
0.08114432 0.06908308 0.03850892 -0.0016941408 -0.00242058 -0.041607417 -0.022891684 -0.006808143
0.077687696 0.04741697 0.042841725 0.03935834 0.101633415 0.093226835 0.33549187 0.15646897
-0.11123376 0.073398635 0.139868 -0.09464032 0.06422068 -0.12831602 -0.5954239 -0.68760633
-0.013752341 -0.048767466 -0.36031023 0.05628968 0.08147531 -0.07336887 0.15322666 0.14218949
-0.023751503 -0.032714956 0.029997515 0.12595785 -0.012923628 -0.03771929 -0.6093489 0.26193357
-0.054045025 0.11529996 -0.095352404 0.14782707 0.10603313 -0.039252117 0.11372919 0.04830756
-0.36248335 -0.15147533 0.08231576 0.25587404 0.012745533 0.13098261 0.07314173 0.22594687
0.1753755 -0.08784308 0.08667389 0.06846491 0.013521223 -0.40987104 0.1356555 -0.49269143
0.09909743 0.19184247 0.27074918 -0.26173347 0.028799653 0.12732841 -0.5472666 0.05145793
-0.73004466 0.058391556 0.05884865 0.016502433 -0.12466423 -0.03994581 -0.46720093 -0.48199603
-0.03669025 -0.2656353 -0.03522169 -0.047433224 -0.1343633 0.06611138 -0.5147721 0.008176769
-0.0015134952 -0.04094083 0.053322624 0.16531946 0.019029336 0.08751693 0.118803 0.13341083
0.12789646 0.02252153 -0.036839437 -0.03624733 -0.0834457 -0.07408059 -0.09305508 0.084111586
0.26366624 0.085150845 -0.07320223 0.026302282 -0.036253512 0.15571886 0.07715256 -0.4899744
0.14459278 -0.07173097 0.09566568 -0.03661089 0.070264675 0.0065109525 -0.013056298 0.07247391
-0.04791595 0.17523447 0.042034525 0.126489 -0.058907475 0.04478113 -0.08399411 0.0020635438
-0.04531678 0.058897275 0.04522735 -0.03030964 0.061936926 -0.11428654 -0.11124624 -0.043076992
-0.010215509 -0.06529312 0.049427375 0.031023331 0.13685131 0.0065609654 0.31077114 0.15198661
-0.15923771 0.08455997 0.058462985 -0.10489322 0.0821752 -0.10376078 -0.6706739 -0.5102592
0.049262404 -0.031167086 -0.56908363 0.043753795 0.043855764 -0.14027032 0.18972464 0.3051186
-0.087358944 0.04824972 0.04823142 0.14050439 0.072843745 0.032700807 -0.31201035 0.18862349
-0.10100222 0.11424591 -0.13965112 0.08799711 0.13145155 -0.017302694 0.12553017 0.055510234
-0.03226628 -0.16708352 0.14209118 0.2360994 0.07458424 0.24011756 0.050898466 0.34882492
0.31405312 -0.003375709 0.11461079 -0.052294753 -0.056983497 -0.4040612 0.14966914 -0.22418296
0.09916693 0.14951947 0.28957996 -0.4339158 0.25888565 0.11783283 -0.48285738 0.061016366
-0.44459155 0.064000234 0.07713401 -0.0056045577 -0.116105326 -0.031197015 -0.49978253 -0.45942238

net.4.bias f4 [3]
00000000: 9aad 003d 9997 6bbc 7abf 323d
0.03141556 -0.014379405 0.043639638
