saved_models/dqn_episode_450.pth (torch, 74357 bytes, 6 tensors)

net.0.weight f4 [128, 6]
0	0x3e3bc0e6	0.18335304
1	0x3eaa36ff	0.33245084
2	0x3ea8610d	0.32886544
3	0xbe94a05b	-0.29028592
4	0x3db487c2	0.08814956
5	0xbe947e39	-0.2900255
6	0xbebfc770	-0.37456846
7	0xbeda7696	-0.426686
8	0x3eb509c3	0.3535901
9	0xbe1ff645	-0.15621288
10	0x3e3e7e48	0.1860286
11	0xbe84d632	-0.25944668
12	0xbdca1dcd	-0.09868965
13	0xbee88b60	-0.45418835
14	0xbf0c2b8a	-0.54753935
15	0xbe6e2ece	-0.23260042
16	0x3d623878	0.055229634
17	0x3cee4cba	0.02908932
18	0xbe688009	-0.22705092
19	0x3d87d39b	0.066321574
20	0x3e63ed61	0.22258522
21	0xbd4322dd	-0.04764067
22	0x3e2e05be	0.16994378
23	0xbe467ed3	-0.19384317
24	0xbe4db78f	-0.20089553
25	0xbeb0640d	-0.34451333
26	0x3d7bd828	0.06148544
27	0x3e74dd65	0.2391258
28	0xbe311d91	-0.17296435
29	0x3ec902e3	0.39260015
30	0x3ef36767	0.47539827
31	0xbea5be37	-0.32371685
32	0x3e8e309f	0.2777147
33	0x3e48ce50	0.19609952
34	0xbed09f2f	-0.40746447
35	0xbe0d3478	-0.13789546
36	0xbec80c28	-0.39071774
37	0x3e67471c	0.2258572
38	0xbea07ec8	-0.31346726
39	0xbf10817a	-0.56447566
40	0x3ed7b146	0.42127436
41	0xbeae8b1c	-0.34090507
42	0xbe4e6eb2	-0.20159414
43	0xbe9524c7	-0.2912962
44	0xbea0c664	-0.3140136
45	0xbd20a530	-0.039220035
46	0xbece4994	-0.4029051
47	0xbe9fa55b	-0.31180844
48	0x3dd593e1	0.10428596
49	0xbd507372	-0.050891347
50	0xbe956b0e	-0.2918324
51	0xbcf50e26	-0.029913973
52	0xbeb7eff8	-0.3592527
53	0xbe207778	-0.15670574
54	0x3eb64d5b	0.35605893
55	0xbf0d971d	-0.55308706
56	0xbe570cf6	-0.21001038
57	0x3e849ed5	0.2590243
58	0xbe6b6ec9	-0.2299148
59	0x3e54c157	0.20776878
60	0xbefc1e77	-0.49241993
61	0xbe4e6f11	-0.20159556
62	0xbeb882a3	-0.36037168
63	0x3f18be4c	0.5966537
64	0x3ea173ba	0.31533605
65	0x3d0aabb5	0.03385516
66	0x3e137a63	0.14402156
67	0x3d9b031c	0.075689524
68	0xbd0caf5a	-0.034346916
69	0x3cddfc0d	0.027097726
70	0x3d16b83c	0.036796793
71	0xbea57d95	-0.32322374
72	0x3e735a6d	0.23764963
73	0xbe9a5ed1	-0.30150464
74	0x3f1ee7fa	0.6207272
75	0xbde50d73	-0.11184206
76	0x3b9a9a1e	0.004718079
77	0xbd8566b8	-0.06513733
78	0x3e20998f	0.15683578
79	0x3f0092a0	0.5022373
80	0x3e84e8bd	0.25958815
81	0x3eed86f5	0.46392027
82	0xbeb7d74f	-0.35906455
83	0xbe9f21d7	-0.31080505
84	0xbefe0546	-0.49613398
85	0x3e6d1ab9	0.23154725
86	0x3e899b30	0.2687621
87	0x3e07277b	0.13198654
88	0x3d8baa89	0.068196364
89	0xbe564ffc	-0.20928949
90	0x3dbccad5	0.09218375
91	0x3f01a718	0.5064559
92	0x3d8c80f4	0.06860533
93	0x3c43467c	0.01191866
94	0x3df4b212	0.11948027
95	0xbe7354e4	-0.23762852
96	0xbe71d9ce	-0.23618242
97	0xbde3206c	-0.11090168
98	0xbe8e8078	-0.2783239
99	0xbe6ae90b	-0.22940461
100	0xbdd414e0	-0.10355544
101	0x3e8b03c1	0.27151302
102	0x3ea01a12	0.3126989
103	0x3dd4dc9a	0.10393639
104	0x3e9d2501	0.30692294
105	0xbea3c4f4	-0.319862
106	0xbd8ca113	-0.0686666
107	0x3d394689	0.045233283
108	0xbe33f45d	-0.17573686
109	0x3db822bd	0.08991001
110	0xbf035746	-0.51305044
111	0x3b833e2a	0.0040052133
112	0xbe5de83c	-0.21670622
113	0x3ea0e1c1	0.31422237
114	0x3debfdf2	0.115230456
115	0x3f0a8900	0.54115295
116	0x3e8c85d5	0.27445856
117	0xbeae3cd9	-0.34030798
118	0x3d9c7d08	0.07641035
119	0x3d9e4220	0.07727456
120	0xbc8fb6c0	-0.017543197
121	0x3e4c7424	0.19966179
122	0x3e685fa4	0.22692734
123	0x3ead3862	0.3383208
124	0x3d05d2d0	0.03267175
125	0xbe838adf	-0.25691888
126	0xbec13e5e	-0.37742895
127	0x3e3077a5	0.17233141
128	0xbf04dc2c	-0.51898456
129	0x3e46ceba	0.19414797
130	0x3e997829	0.29974487
131	0xbe3c9642	-0.18416694
132	0xbe8404b3	-0.25784835
133	0xbe36af7b	-0.17840378
134	0xbf431169	-0.7619844
135	0x3e1a8713	0.15090589
136	0x3e985888	0.29755044
137	0x3dad3f29	0.084593125
138	0x3d2542c1	0.040346865
139	0x3eec2c7c	0.4612769
140	0xbc6bd7e7	-0.014394737
141	0x3ed8bc4f	0.42331168
142	0x3d12c194	0.03582914
143	0xbe191d18	-0.14952505
144	0xbe55b8af	-0.20871232
145	0x3dd4c34f	0.10388815
146	0xbec8049a	-0.3906601
147	0x3e4adaae	0.19809982
148	0x3da4ddf3	0.08050146
149	0x3df47a21	0.11937357
150	0x3e8e5cac	0.27805078
151	0xbf0d4490	-0.55182743
152	0xbd049d4e	-0.03237658
153	0xbe6c1337	-0.23054205
154	0x3e29b423	0.16572623
155	0x3e22a55e	0.15883395
156	0xbe414929	-0.18875565
157	0x3e3f2ae3	0.18668704
158	0x3d8b4621	0.068004854
159	0xbc2fce2e	-0.010730309
160	0x3d71a836	0.05899831
161	0x3dbb4d58	0.091456115
162	0xbe36a7f2	-0.17837504
163	0x3e38d187	0.18048678
164	0x3eb0846b	0.34476027
165	0x3dc40157	0.09570568
166	0x3d2972a4	0.041369095
167	0xbd9c7044	-0.076386005
168	0x3d55cbd0	0.052196324
169	0xbdc2d72c	-0.09513697
170	0xbd107900	-0.035271645
171	0x3e2fa4fc	0.1715278
172	0xbe51ed42	-0.20500663
173	0x3d27d510	0.040974677
174	0x3e5e1a58	0.21689737
175	0xbe0d3170	-0.1378839
176	0xbe762544	-0.24037653
177	0x3ec3d7fa	0.38250715
178	0xbe3d26a0	-0.18471766
179	0xbeadaade	-0.33919424
180	0xbe2b3396	-0.16718897
181	0xbec98900	-0.39362335
182	0xbec13d18	-0.37741923
183	0x3d8ba350	0.06818259
184	0xbda060a4	-0.07830933
185	0x3d37dd90	0.044889033
186	0x3e3bfcd4	0.18358165
187	0x3ef392e5	0.4757301
188	0x3db1cef5	0.08682052
189	0xbe2ce897	-0.16885601
190	0x3d16b9db	0.03679834
191	0x3ced1b07	0.028943552
192	0x3d5aa6df	0.053381797
193	0x3e6cbddd	0.23119302
194	0x3de6d4a7	0.11271029
195	0xbddf6425	-0.10907773
196	0xbec4adfb	-0.38413987
197	0xbe1ae97a	-0.15128127
198	0xbe53e548	-0.20692933
199	0xbebd26d3	-0.36943683
200	0xbd1951ef	-0.037431654
201	0x3dacb5fb	0.084331475
202	0x3ee7b5a1	0.4525576
203	0x3dece2a9	0.115666695
204	0x3e3f160d	0.18660755
205	0x3e68a88a	0.22720543
206	0x3f370dd5	0.7150548
207	0xbeaf7f24	-0.34276688
208	0xbdb33188	-0.08749682
209	0xbe1f9ea8	-0.15587866
210	0xbef6a548	-0.48172975
211	0xbe9146c3	-0.283743
212	0x3d9bd2b8	0.07608551
213	0x3eadb4a4	0.3392688
214	0x3eca5287	0.39516088
215	0x3ce4167a	0.027842749
216	0x3cf5f450	0.030023724
217	0xbe4e294b	-0.2013294
218	0xbe577a03	-0.21042638
219	0x3e09ea88	0.13468373
220	0x3b80d8c0	0.0039320886
221	0xbd3fbcf8	-0.046811074
222	0xbe40b1a5	-0.18817766
223	0x3e238e43	0.15972237
224	0xbf04bebc	-0.5185354
225	0xbdc14945	-0.09437803
226	0xbdd80592	-0.105479375
227	0xbe351908	-0.1768533
228	0xbd012508	-0.031529456
229	0xbe8101ec	-0.2519678
230	0xbe173484	-0.14766127
231	0xbed49af3	-0.41524467
232	0x3e038f89	0.12847723
233	0x3e6dc781	0.23220636
234	0xbd26368b	-0.04057936
235	0xbed54479	-0.41653803
236	0x3e25f31b	0.16206019
237	0x3d1f17c7	0.038841035
238	0x3efdb24b	0.4955009
239	0x3cef1b19	0.029187726
240	0xbe7b6a1a	-0.24552193
241	0xbeb66142	-0.35621077
242	0x3db8e6c8	0.09028393
243	0x3e9674af	0.29385898
244	0x3d0a7af5	0.033808667
245	0x3e877df6	0.26463288
246	0xbca4996f	-0.020092694
247	0xbe334f90	-0.1751082
248	0xbe416cd9	-0.18889178
249	0xbe82c1ae	-0.2553839
250	0xbd695840	-0.056968927
251	0xbe6f6b74	-0.23380834
252	0xbe4db2da	-0.20087758
253	0xbe835186	-0.25648135
254	0xbf0f33da	-0.55938494
255	0x3e34f986	0.1767331

net.0.bias f4 [128]
0	0x3c2c7b35	0.010527422
1	0xbdcf09d1	-0.10109294
2	0x3ec0f35d	0.3768567
3	0xbe0291d5	-0.12750943
4	0x3ee57eee	0.44823402
5	0x3efa3375	0.48867384
6	0x3da808c0	0.08204794
7	0x3ddf4520	0.109018564
8	0x3e801e2c	0.2502302
9	0x3eb65313	0.35610256
10	0xbe2b2bd9	-0.16715945
11	0x3c473178	0.01215779
12	0x3d7aa3a0	0.0611912
13	0xbce0222b	-0.027360043
14	0xbe48dfbf	-0.19616602
15	0xbe50474c	-0.20339698
16	0x3e0481e2	0.12940171
17	0xbdf47f1e	-0.11938308
18	0xbe3e10bf	-0.18561076
19	0xbebf5e7d	-0.37376776
20	0xbe8c324a	-0.27382118
21	0xbce2135b	-0.02759712
22	0xbda4c591	-0.08045495
23	0xbe570b78	-0.21000469
24	0xbe150351	-0.14552046
25	0xbc34b7df	-0.011030166
26	0xbe9fce54	-0.31212103
27	0xbe6c1d49	-0.23058046
28	0xbe25ddce	-0.16197893
29	0xbe5698f4	-0.20956784
30	0xbe7eff91	-0.24902178
31	0xbe5c6305	-0.21522148
32	0x3e2a22f3	0.16614895
33	0x3e5e8088	0.21728718
34	0x3cc82b15	0.024434606
35	0x3ea10eb0	0.31456518
36	0xbe9b5f1e	-0.30346006
37	0x3e8abc7f	0.27096936
38	0xbe81b81f	-0.25335786
39	0x3e772c1f	0.24137925
40	0xbec6c991	-0.38825658
41	0x3ea062d4	0.313254
42	0x3ec0fde4	0.37693703
43	0xbe521a39	-0.20517816
44	0xbec932dd	-0.39296618
45	0xbea78168	-0.32715917
46	0x3e2111d9	0.15729465
47	0x3e1ac6b8	0.15114868
48	0x3e41e7ee	0.1893613
49	0xbcda591d	-0.02665382
50	0x3e12e5c9	0.14345469
51	0x3e8d93c6	0.27651805
52	0x3e999241	0.29994395
53	0xbd3aa464	-0.04556693
54	0xbea23957	-0.31684372
55	0xbe9edd97	-0.31028435
56	0xbe8fe746	-0.28106135
57	0xbce3ed5e	-0.027823146
58	0xbe77c78a	-0.24197212
59	0x3de3a368	0.11115152
60	0xbdb5bb42	-0.08873607
61	0x3d963e2a	0.073360756
62	0xbd24a98a	-0.040200748
63	0xbf0cc78f	-0.54992
64	0xbe11c273	-0.14234333
65	0xbe022853	-0.12710695
66	0xbbf48bed	-0.0074629695
67	0xbef6a66e	-0.4817385
68	0xbe8b6a65	-0.2722961
69	0x3ac85bda	0.0015286163
70	0x3e47b99e	0.19504401
71	0xbe4a5e52	-0.19762543
72	0xbe2ad61c	-0.16683239
73	0x3dd7d54f	0.10538732
74	0x3e7bafca	0.24578777
75	0xbdd6dba8	-0.10491115
76	0x3dfa76c9	0.12229688
77	0xbe0f0c8c	-0.1396963
78	0xbec3fed7	-0.38280365
79	0xbebf5d94	-0.37376082
80	0x3d9da083	0.07696631
81	0x3e3ec60b	0.18630235
82	0xbe8294b1	-0.25504068
83	0xbe154d57	-0.14580284
84	0xbe750061	-0.23925926
85	0xbecc8b39	-0.39949968
86	0x3e4848ec	0.19559067
87	0xbecc98f2	-0.39960438
88	0xbeb1c7ff	-0.34722897
89	0xbd4cd4ef	-0.050007757
90	0x3dca4740	0.09876871
91	0xbd16b028	-0.03678909
92	0xbe19a377	-0.15003763
93	0xbe883285	-0.26601043
94	0x3e70fc66	0.23533782
95	0x3b7c6225	0.0038510647
96	0xbea55c27	-0.3229687
97	0x3cdf21bb	0.027237764
98	0xbe422063	-0.18957667
99	0xbe2be5c3	-0.16786866
100	0xbdf3e781	-0.1190939
101	0xbda79188	-0.08182055
102	0xbe7a8d33	-0.24467926
103	0xbe075a90	-0.1321814
104	0x3eb40a8e	0.35164303
105	0xbe76b8a7	-0.24093877
106	0xbe85c21e	-0.26124662
107	0x3eb825a3	0.35966215
108	0xbe19b4b8	-0.15010345
109	0xbe9d14e6	-0.30680007
110	0xbeb2f03f	-0.34948918
111	0x3db99dc8	0.090632975
112	0x3c58897b	0.013216372
113	0x3e9dc792	0.30816323
114	0x3e5018ce	0.20321962
115	0xbe817d18	-0.2529075
116	0xbe897b6e	-0.26851982
117	0xbeb5c6c9	-0.35503224
118	0x3cb70c24	0.022344656
119	0xbe0790f2	-0.13238886
120	0x3c87bd40	0.016569734
121	0x3e589eb5	0.21154292
122	0x3d5ba0b0	0.05362004
123	0x3d3f6073	0.04672284
124	0x3dd5adf0	0.104335666
125	0x3e92fee2	0.28710085
126	0x3e622383	0.22083859
127	0xbd030838	-0.03199026

net.2.weight f4 [128, 128]
0	0xbe8592f7	-0.26088688
1	0xbd28c3b7	-0.041202273
2	0xbe1d3c12	-0.15354946
3	0xbe0b46b7	-0.13601194
4	0xbe03f7d6	-0.1288751
5	0x3d021063	0.03175391
6	0xbe0938ed	-0.13400622
7	0xbd6bb4d8	-0.057545513
8	0x3cdb76c0	0.026790023
9	0x3c57877c	0.013154861
10	0xbdabe551	-0.08393348
11	0xbd22071c	-0.03955756
12	0xbef76270	-0.4831729
13	0x3d25a17b	0.040437203
14	0xbd3c144a	-0.045917787
15	0xbd1b0417	-0.037845697
16	0xbc67f270	-0.014156923
17	0xbe8176dd	-0.25285998
18	0xbd086324	-0.033297673
19	0xbe92f589	-0.28702953
20	0x3d638e36	0.055555545
21	0xbd95bf91	-0.07311929
22	0x3d1bce9f	0.038038846
23	0x3cf0bcd0	0.029386908
24	0xbc8c03a6	-0.017091583
25	0x3dc14963	0.094378255
26	0x3e0c281e	0.13687178
27	0xbd50437b	-0.050845604
28	0xbd0b35f3	-0.033986997
29	0xbdaa668f	-0.08320343
30	0x3d2e4706	0.042548202
31	0x3c2b1292	0.010441439
32	0xbdebc250	-0.115116715
33	0x3d0ae3c4	0.03390862
34	0xbd799ca8	-0.060940415
35	0xbc3236b1	-0.010877297
36	0xbd7ffe3a	-0.06249831
37	0xbe2382dd	-0.15967889
38	0x3ccc33bc	0.024927013
39	0xbc1cc631	-0.009568737
40	0x3c783490	0.015149251
41	0xbeb05de5	-0.34446636
42	0xbef39c72	-0.47580296
43	0xbd58360d	-0.05278592
44	0xbd638a43	-0.05555178
45	0xbe3c00e5	-0.18359716
46	0xbde6e847	-0.11274772
47	0xbecd074b	-0.40044627
48	0xbe69fcc9	-0.22850336
49	0x3cc23896	0.023708623
50	0xbd883431	-0.0665058
51	0x3c555d56	0.013022741
52	0xbe690424	-0.22755486
53	0x3b6b6b6e	0.0035922187
54	0xbd716f68	-0.058944136
55	0xbe13db74	-0.14439183
56	0x3d6c4e7e	0.057692043
57	0xbd72843b	-0.059208136
58	0x3b163d34	0.0022924663
59	0xbde1cf28	-0.1102584
60	0xbe8f7918	-0.28022075
61	0x3b43d6d6	0.002988269
62	0x3e144b98	0.14481962
63	0xbc1b1cdb	-0.009467329
64	0xbd1d1329	-0.03834835
65	0xbdf8c0ff	-0.12146186
66	0xbc13de5b	-0.009025182
67	0x3d6e6ec8	0.058211118
68	0x3d57c48e	0.052677684
69	0xbcd73e33	-0.026274776
70	0x3c6b837f	0.014374613
71	0xbd503eff	-0.050841328
72	0x3d87eb31	0.06636656
73	0xbec1cc3f	-0.3785114
74	0xbd9c0bdd	-0.0761945
75	0x3d906bc7	0.07051807
76	0xbf2556f7	-0.6458582
77	0x3da1740b	0.078834616
78	0x3cf0da9c	0.029401116
79	0x3d8e605f	0.06951975
80	0xbd735834	-0.05941029
81	0xbd5f5ef0	-0.0545339
82	0x3cdf4f04	0.027259357
83	0xbc9bd015	-0.01902012
84	0xbd018c72	-0.03162808
85	0xbb185e68	-0.002324963
86	0xbdaa47a6	-0.08314447
87	0xbd0f9596	-0.035054766
88	0x3d97105a	0.07376166
89	0xbbe4c930	-0.006981991
90	0x3cd0182d	0.025402153
91	0x3d944087	0.0723887
92	0x3b422f0e	0.0029630098
93	0xbea40c71	-0.32040742
94	0x3beea371	0.0072826673
95	0xbe103e60	-0.14086294
96	0x3d96b7a9	0.07359249
97	0x3bb0d233	0.0053961514
98	0xbe1f3e7e	-0.15551183
99	0xbca7870c	-0.020450138
100	0xbf79bfa5	-0.9755805
101	0xbccb7233	-0.024834728
102	0xbe189582	-0.14900783
103	0x3cf0f5d4	0.029414095
104	0xba913a62	-0.0011080022
105	0xbe82e9b3	-0.25568923
106	0x3d1b1355	0.037860233
107	0xbd364abd	-0.04450487
108	0xbcb32866	-0.02186985
109	0xbd108d5f	-0.035291072
110	0x3d2423d2	0.040073223
111	0xbd8109a0	-0.06300664
112	0x3dc31470	0.095253825
113	0xbe973896	-0.2953536
114	0x3c01960e	0.007909311
115	0xbd548a3f	-0.051889654
116	0xbe57ef1a	-0.21087304
117	0xbe983448	-0.29727387
118	0xbe060afe	-0.1309013
119	0xbd650a07	-0.055917766
120	0xbcfe235e	-0.031022724
121	0xbe24cccf	-0.16093753
122	0xbe3e79f5	-0.1860121
123	0xbd19f482	-0.037586696
124	0x3d2acae6	0.041697405
125	0x3caa4dcd	0.020789051
126	0xbcc396c6	-0.023875605
127	0xb8997800	-7.31796e-05
128	0x3e36d289	0.1785375
129	0x3ce9ef71	0.028556557
130	0xbe8509ea	-0.25984126
131	0x3d8c859a	0.0686142
132	0xbe8bc247	-0.2729666
133	0xbed5dd62	-0.41770464
134	0x3b997c60	0.004684016
135	0x3d30d6aa	0.04317347
136	0x3c853b35	0.016263584
137	0xbdcc656d	-0.09980283
138	0xbecfe00c	-0.40600622
139	0xbdedd599	-0.11613006
140	0xbeab52fd	-0.33461753
141	0x3e554215	0.2082599
142	0xbdaa477d	-0.083144166
143	0x3e4a0c63	0.19731288
144	0x3dc5db24	0.096609384
145	0x3d78dacd	0.06075554
146	0xbe13e46c	-0.14442605
147	0x3e4fa2a0	0.2027688
148	0x3c943c14	0.018095054
149	0xbe782796	-0.24233851
150	0xbe2780d1	-0.16357733
151	0xbc68164c	-0.014165472
152	0xbdf9dc54	-0.122002274
153	0xbc2a46e9	-0.010392883
154	0x3d3f3045	0.046676893
155	0xbd12f953	-0.035882305
156	0x3d923283	0.071385406
157	0x3ca002e0	0.01953262
158	0xbd00431c	-0.031314
159	0x3d5ca27b	0.05386589
160	0x3e800daf	0.2501044
161	0xbdf7b4fb	-0.12095066
162	0x3dfc31a6	0.12314157
163	0x3b6c7eb4	0.0036086263
164	0x3cee9218	0.029122397
165	0xbdbbb338	-0.09165043
166	0xbdfd3fe5	-0.123657025
167	0xbe1d36f3	-0.15352993
168	0x3ca02fd0	0.019554049
169	0xbf577331	-0.84160143
170	0xbc81cc04	-0.015844353
171	0xbc9008ba	-0.017582286
172	0x39497000	0.00019210577
173	0x3d732d63	0.059369456
174	0x3d09e058	0.033661216
175	0xbd36fe8e	-0.044676356
176	0xbe23f1be	-0.16010186
177	0xbe1d91a5	-0.1538759
178	0x3dc8f0a6	0.09811525
179	0x3c24b971	0.010053978
180	0xbf13f633	-0.57797545
181	0xbe1a94d4	-0.15095836
182	0xbd1786eb	-0.036993902
183	0xbe1ae13b	-0.15124981
184	0x3d19073a	0.037360407
185	0xbe490160	-0.19629431
186	0x3e77e262	0.24207452
187	0x3e90622f	0.28199908
188	0x3dffd9a3	0.12492683
189	0xbce6f4d1	-0.02819291
190	0xbecd6890	-0.40118837
191	0x3dc4ebbc	0.09615275
192	0xbd52b9fb	-0.051446896
193	0x3cab4b17	0.020909829
194	0x3e37f81a	0.17965737
195	0x3ce66fca	0.028129477
196	0xbba52f60	-0.005041048
197	0xbdcd5ec8	-0.10027844
198	0xbc6cf4ed	-0.014462692
199	0x3e8de4b5	0.27713552
200	0xbd650a9e	-0.05591833
201	0xbefc1500	-0.49234772
202	0xbe81e719	-0.25371626
203	0x3da5bde1	0.08092857
204	0xbf092d01	-0.53584296
205	0x3d413e4a	0.047178544
206	0xbd65ac23	-0.056072365
207	0xbebdcd8d	-0.37070885
208	0xbd8f0794	-0.06983867
209	0xbe2a49c2	-0.16629699
210	0x3c8295f4	0.015940644
211	0xbd7344ec	-0.0593919
212	0xbe862867	-0.262027
213	0x3df788f6	0.1208667
214	0x3bf515d5	0.007479409
215	0x3d200f2a	0.03907696
216	0x3e15f96f	0.14645933
217	0xbdb81830	-0.089889884
218	0xbd035fe9	-0.03207389
219	0xbd3dffe6	-0.046386622
220	0xbce4484b	-0.027866503
221	0x3dbec66a	0.09315188
222	0x3d397093	0.045273375
223	0xbe8badf4	-0.27281153
224	0xbd61b6bb	-0.055105906
225	0x3eb44b84	0.35213864
226	0xbee07e4d	-0.4384636
227	0xbdb34927	-0.08754187
228	0xbf1217c9	-0.57067543
229	0x3e4239f2	0.18967417
230	0x3cc7db11	0.024396451
231	0xbc54d770	-0.012990817
232	0xbdcd16f8	-0.100141466
233	0x3e69b258	0.22821939
234	0x3ab907db	0.0014116721
235	0xbcf4e745	-0.029895434
236	0xbe85ed8a	-0.2615779
237	0xbeeb0cb8	-0.4590814
238	0x3abc0ec0	0.0014347658
239	0xbd9a9fd2	-0.075500146
240	0xbe29240f	-0.16517662
241	0xbeb19291	-0.34682134
242	0xbda218e4	-0.07914904
243	0x3e53f674	0.20699483
244	0xbde12f63	-0.109953664
245	0xbdac16fb	-0.08402821
246	0xbd2d53d7	-0.042316284
247	0x3d1feb71	0.039042894
248	0xbd313401	-0.043262485
249	0xbc8b3188	-0.016991392
250	0x3d14b144	0.036301866
251	0xbdfb9abe	-0.12285374
252	0x3e9f62ef	0.31130168
253	0xbd304f44	-0.043044344
254	0xbcd7c82f	-0.026340572
255	0x3c73be30	0.014876887

net.2.bias f4 [128]
0	0x3d446767	0.047950175
1	0xbc8d54ce	-0.017252352
2	0xbd2dca89	-0.04242948
3	0xbdbda225	-0.09259442
4	0xbe2cc868	-0.16873324
5	0x3d0ccd45	0.034375448
6	0xbc3d3014	-0.011547107
7	0xbd0d82d9	-0.034548614
8	0xbb9c3226	-0.0047667203
9	0xbd542d43	-0.051800977
10	0xbd900f57	-0.07034176
11	0x3e10ee1d	0.14153333
12	0x3c0d8521	0.008637697
13	0x3e059e46	0.13048658
14	0xbcdb4e0b	-0.026770612
15	0xbd7d78d9	-0.061882827
16	0x3c9c1d77	0.019057019
17	0xbd94585e	-0.07243417
18	0x3d3502b4	0.04419203
19	0xbc9c38de	-0.019070085
20	0xbc8e3776	-0.01736043
21	0xbc74df6f	-0.014945849
22	0xbcebc453	-0.028780138
23	0xbd833c23	-0.064079545
24	0x3dd64491	0.10462297
25	0xbdab87a8	-0.08375484
26	0xbd7599d4	-0.059961155
27	0xbd488d4b	-0.048962872
28	0xbdeeac71	-0.11653984
29	0x3c92f3d0	0.017938524
30	0xbd34f7cf	-0.04418164
31	0x3df96b49	0.12178666
32	0x3c204a83	0.00978339
33	0x3c93f9ca	0.018063445
34	0x3e1848e0	0.1487155
35	0xbd8c2d85	-0.0684462
36	0xbdaa24c7	-0.08307796
37	0xbd9d45af	-0.07679307
38	0xbda834e2	-0.082132116
39	0xbd4f03ce	-0.050540738
40	0xbced9ac8	-0.02900447
41	0x3c8f36ba	0.01748215
42	0x3e1059af	0.14096712
43	0xbd0a23e0	-0.03372562
44	0xbd00cf2b	-0.03144757
45	0xbd7e0ff4	-0.062026933
46	0xbbd92be1	-0.006627545
47	0xbdb92f12	-0.09042181
48	0x3d2c7950	0.04210788
49	0x3d140bb7	0.036143985
50	0xbd40aa04	-0.04703714
51	0xbd564cb9	-0.052319262
52	0xbcf1ca62	-0.029515449
53	0xbe269a5f	-0.16269825
54	0xbdc91bc9	-0.09819753
55	0xbd2165a0	-0.039403558
56	0x3c385e2c	0.011252921
57	0xbd13085e	-0.03589665
58	0xbda30cdb	-0.07961436
59	0x3b8e2aa7	0.0043385806
60	0xbbdbebc0	-0.006711453
61	0x3cbcbce7	0.023039294
62	0xbb5a1344	-0.0033275643
63	0xbdc69b8e	-0.096976385
64	0xbd50b7f8	-0.050956696
65	0x3b8b31d8	0.004247885
66	0x3c9549d7	0.018223686
67	0xbcf8bf7c	-0.030364744
68	0xbdae0799	-0.08497543
69	0x3d1f5fe8	0.038909823
70	0xbe1ceae9	-0.15323986
71	0xbd0e6a35	-0.034769256
72	0xbcb36e03	-0.021903044
73	0x3a8d50ca	0.0010781523
74	0x3e2496bc	0.16073126
75	0xbd9698ee	-0.07353388
76	0x3c3ccc86	0.011523372
77	0x3beea6a3	0.0072830482
78	0x3ddd4fd2	0.1080624
79	0xbd79e163	-0.06100596
80	0xbdb52588	-0.08845049
81	0xbda5e57a	-0.0810041
82	0xbd113a27	-0.03545585
83	0x3e177c1c	0.14793438
84	0xbc0f4daf	-0.008746549
85	0xbc26ea3f	-0.010187685
86	0x3c158177	0.009125105
87	0x3d505ea7	0.050871518
88	0xbdec384b	-0.115341745
89	0x3c21fd77	0.009887091
90	0xbdab3afb	-0.08360859
91	0x3d2cb973	0.042169046
92	0x3db51ce6	0.088434026
93	0xbcba8ab5	-0.022771219
94	0x3e22b7fe	0.158905
95	0x3d4dcb8d	0.05024295
96	0xbde0627e	-0.10956286
97	0xbe086afa	-0.13322058
98	0x3db63239	0.08896298
99	0x3a84844c	0.0010110228
100	0xbc0e28a9	-0.008676686
101	0x3d6816dd	0.05666243
102	0x3c8b63a6	0.01701529
103	0x3e26c418	0.16285741
104	0x3ddbb121	0.10727144
105	0xbdab2a09	-0.08357627
106	0x3d1f7678	0.03893134
107	0xbd9e7d28	-0.077387154
108	0xbd69a8b3	-0.05704565
109	0xbdb637b7	-0.088973455
110	0xbdf16a67	-0.11787873
111	0x3d09c937	0.03363916
112	0xbd607af3	-0.054804754
113	0x3dbea9b3	0.09309711
114	0x3d253b82	0.040339954
115	0x3d869cfd	0.06572912
116	0xbd4b639a	-0.049655534
117	0x3e28a568	0.16469347
118	0xbd4b5f4a	-0.04965142
119	0xbd58fee1	-0.052977446
120	0x3d6aad6c	0.057294294
121	0x3d52df2d	0.05148237
122	0xbd899711	-0.06718267
123	0xbdaaa1f5	-0.08331672
124	0xbcd033a1	-0.025415244
125	0x3c6ca833	0.014444399
126	0x3b2d3a69	0.002643252
127	0xbd90b508	-0.07065779

net.4.weight f4 [3, 128]
0	0xbd836edc	-0.06417629
1	0xbef98288	-0.487324
2	0x3c8d3343	0.017236358
3	0xbcce2f1c	-0.025168948
4	0xbdd88c00	-0.10573578
5	0x3d259ad9	0.040430877
6	0xbf070f83	-0.52758044
7	0xbda22e51	-0.079189904
8	0x3cbb9962	0.022900287
9	0x3c2ba43c	0.010476168
10	0x3da11284	0.0786486
11	0x3e48365b	0.19551985
12	0xbc0b5fab	-0.008506696
13	0x3d7cb313	0.061694216
14	0x3e1ccab2	0.15311697
15	0x3e8936cf	0.26799628
16	0x3e1f9195	0.15582879
17	0x3d98daf2	0.074636355
18	0x3ceca7e2	0.028888647
19	0x3d7d49b2	0.06183786
20	0xbd50580f	-0.05086523
21	0x3d36c83e	0.04462456
22	0xbd242c11	-0.040081087
23	0x3da494ec	0.08036217
24	0x3e0ea7d6	0.13931212
25	0xbdabdd25	-0.08391789
26	0xbd8b7c0e	-0.06810771
27	0x3c46edc8	0.012141652
28	0xbc86cc40	-0.016454816
29	0x3e61cd27	0.22050916
30	0xbd170f5d	-0.036879886
31	0xbe93a374	-0.28835642
32	0x3e41fee7	0.18944894
33	0xbc0d1205	-0.008610253
34	0x3e026c93	0.1273673
35	0x3c27a198	0.010231398
36	0x3cbc78cc	0.02300682
37	0x3cb264ee	0.021776643
38	0x3c908d88	0.017645612
39	0x3e003fa6	0.1252428
40	0x3d858fc1	0.065215595
41	0x3e69aedb	0.22820608
42	0x3e026d48	0.12737
43	0x3de69ea3	0.11260726
44	0xbd663aca	-0.05620841
45	0x3d96010c	0.073244184
46	0xbdb2c593	-0.087290905
47	0x3dc1c5bf	0.09461545
48	0x3da62efe	0.08114432
49	0x3d8d7b6e	0.06908308
50	0x3d1dbb88	0.03850892
51	0xbade0def	-0.0016941408
52	0xbb1ea298	-0.00242058
53	0xbd189cc8	-0.037258893
54	0xbcbb8757	-0.022891684
55	0xbbdf16d8	-0.006808143
56	0x3d9f1aba	0.077687696
57	0x3d43d82d	0.047813583
58	0x3da63fb9	0.08117623
59	0x3d213636	0.03935834
60	0x3dd0252e	0.101633415
61	0x3def5821	0.11686731
62	0x3ea52409	0.32254055
63	0x3e1b262f	0.15151285
64	0xbde3ce87	-0.11123376
65	0x3d96f2ca	0.07370527
66	0x3e0f398f	0.139868
67	0xbddeb985	-0.10875229
68	0x3d838622	0.06422068
69	0xbe06c86e	-0.13162395
70	0xbf186db3	-0.5954239
71	0xbf15f7ce	-0.58581245
72	0xbc615180	-0.013752341
73	0xbd47c065	-0.048767466
74	0xbeb4fee7	-0.35350725
75	0x3d669002	0.05628968
76	0x3d166577	0.03671786
77	0xbd96426b	-0.07336887
78	0x3e1d70f6	0.15375122
79	0x3e119a1f	0.14218949
80	0xbcc29283	-0.023751503
81	0xbd06001e	-0.032714956
82	0x3cf5bd59	0.029997515
83	0x3e10a063	0.14123683
84	0xbc53bda0	-0.012923628
85	0xbd1a7f8b	-0.03771929
86	0xbf09f94b	-0.53896016
87	0x3e861c28	0.26193357
88	0xbd5d5e51	-0.054045025
89	0x3e0b8ff5	0.13629134
90	0xbdc3481f	-0.095352404
91	0x3e175ffb	0.14782707
92	0x3dee70d3	0.11642613
93	0xbd121137	-0.03566095
94	0x3e06c901	0.13162614
95	0x3d45de26	0.04830756
96	0xbeb9976b	-0.36248335
97	0xbe1b1c59	-0.15147533
98	0x3d9b01b8	0.07568687
99	0x3e80f76f	0.25188777
100	0x3c50d2a4	0.012745533
101	0x3e040e73	0.12896137
102	0x3d95cb55	0.07314173
103	0x3e684907	0.22684108
104	0x3e2a201f	0.16613816
105	0xbdb3e713	-0.08784308
106	0x3d84df57	0.06487911
107	0x3d8c3755	0.06846491
108	0x3c5d881f	0.013521223
109	0xbed1da9e	-0.40987104
110	0x3e0ae947	0.1356555
111	0xbef17681	-0.47160724
112	0x3dcaf398	0.09909743
113	0x3e3130f8	0.17303836
114	0x3e87faf0	0.26558638
115	0xbeb57392	-0.35439736
116	0x3cebed40	0.028799653
117	0x3e117f8c	0.14208812
118	0xbef40452	-0.47659546
119	0x3d52c58d	0.05145793
120	0xbf3fb3bd	-0.74883634
121	0x3de7e4dd	0.11322949
122	0x3d0dae46	0.03459003
123	0x3c87301c	0.016502433
124	0xbdff4ff6	-0.12466423
125	0xbd239e38	-0.03994581
126	0xbeda9964	-0.42695153
127	0xbef6c82f	-0.48199603
128	0xbd164884	-0.03669025
129	0xbe9dd740	-0.30828285
130	0xbd18b5c7	-0.03728273
131	0xbd59f586	-0.053212665
132	0xbdf1aa3b	-0.11800047
133	0x3da2df0a	0.079526976
134	0xbef6695e	-0.48127264
135	0x3c05f7db	0.008176769
136	0x3ad765fb	0.0016433591
137	0xbd27b192	-0.04094083
138	0x3d5a68d3	0.053322624
139	0x3e2c2da5	0.16814287
140	0x3c9be369	0.019029336
141	0x3d972732	0.07380523
142	0x3df34efd	0.118803
143	0x3e089cd9	0.13341083
144	0x3e2d7759	0.16940059
145	0x3cb87f12	0.02252153
146	0xbd16e4f3	-0.036839437
147	0xbd147815	-0.03624733
148	0xbdaae594	-0.0834457
149	0xbd97b790	-0.07408059
150	0xbdbe93a9	-0.09305508
151	0x3d83c292	0.06433596
152	0x3e813ff3	0.25244102
153	0x3dae6391	0.085150845
154	0xbd95eb0d	-0.07320223
155	0x3cd777e2	0.026302282
156	0xbd140db9	-0.0361459
157	0x3e1f74c4	0.15571886
158	0x3d9e0229	0.07715256
159	0xbef527c1	-0.47881892
160	0x3e141021	0.14459278
161	0xbc22aab3	-0.009928393
162	0x3de122f1	0.10992993
163	0xbd15f54d	-0.03661089
164	0x3d8fe6ed	0.070264675
165	0x3bd559d4	0.0065109525
166	0xbc55ea15	-0.013056298
167	0x3dfb8dd7	0.12282913
168	0xbd444384	-0.04791595
169	0x3e3370aa	0.17523447
170	0x3d290929	0.0412685
171	0x3e018655	0.126489
172	0xbd7148f7	-0.058907475
173	0x3d376c6b	0.04478113
174	0xbdac051b	-0.08399411
175	0x3b073c85	0.0020635438
176	0xbd399e17	-0.04531678
177	0x3d713e45	0.058897275
178	0x3d394050	0.04522735
179	0xbcf84bec	-0.03030964
180	0x3d7db193	0.061936926
181	0xbe00dbcf	-0.1258385
182	0xbde3d512	-0.11124624
183	0xbd307180	-0.043076992
184	0xbc275ef3	-0.010215509
185	0xbd85b866	-0.06529312
186	0x3dcbeebb	0.099576436
187	0x3cfe24a4	0.031023331
188	0x3e0c22c0	0.13685131
189	0x3d7effd0	0.06225568
190	0x3e9c244f	0.3049645
191	0x3e063576	0.13106331
192	0xbe230f36	-0.15923771
193	0x3db2c304	0.087286025
194	0x3d6f76e2	0.058462985
195	0xbdc993c5	-0.09842638
196	0x3da84b79	0.0821752
197	0xbddce2bd	-0.107854344
198	0xbf2bb149	-0.6706739
199	0xbef1de97	-0.47240135
200	0x3d49c760	0.049262404
201	0xbcff521e	-0.031167086
202	0xbf0e1187	-0.55495495
203	0x3d33372e	0.043753795
204	0x3b913432	0.004431271
205	0xbe0fa306	-0.14027032
206	0x3e3c0697	0.18361889
207	0x3e9c3881	0.3051186
208	0xbdb2e93f	-0.087358944
209	0x3d45a180	0.04824972
210	0x3d458e4f	0.04823142
211	0x3e21cf4a	0.15801731
212	0x3d952f1a	0.072843745
213	0x3d05f148	0.032700807
214	0xbe8c1db9	-0.27366427
215	0x3e412684	0.18862349
216	0xbdceda40	-0.10100222
217	0x3e00f1a5	0.1259218
218	0xbe0f00b4	-0.13965112
219	0x3db437d4	0.08799711
220	0x3e198c4f	0.1499493
221	0xbc063bbb	-0.008192952
222	0x3e0b65b9	0.13613023
223	0x3d635eb3	0.055510234
224	0xbd0429a6	-0.03226628
225	0xbe2b17f1	-0.16708352
226	0x3e1234a7	0.14277898
227	0x3e6c146d	0.23054667
228	0x3d98bf9f	0.07458424
229	0x3e683f0a	0.22680297
230	0x3d507ae9	0.050898466
231	0x3eaa131a	0.33217698
232	0x3e9b058a	0.30277663
233	0xbb5d3b00	-0.003375709
234	0x3dd76190	0.105166554
235	0xbd563306	-0.052294753
236	0xbd696787	-0.056983497
237	0xbecee11c	-0.4040612
238	0x3e1942de	0.14966914
239	0xbde944c5	-0.1139007
240	0x3dcb1808	0.09916693
241	0x3ddc7d5b	0.10766097
242	0x3e8b5562	0.2721358
243	0xbef4a5e4	-0.47782815
244	0x3e848ca9	0.25888565
245	0x3e01bf9b	0.12670748
246	0xbedff20c	-0.43739355
247	0x3d79ec4c	0.061016366
248	0xbec3e596	-0.38261098
249	0x3e009be8	0.12559474
250	0x3d7f4ce8	0.062329203
251	0xbbb7a670	-0.0056045577
252	0xbdedc8a1	-0.116105326
253	0xbcff90e2	-0.031197015
254	0xbeebebef	-0.4607844
255	0xbeeb3969	-0.45942238

net.4.bias f4 [3]
0	0x3cd80e0a	0.026373882
1	0xbbd8754a	-0.006605779
2	0x3d2a9070	0.041641653
