saved_models/dqn_episode_6.pth (torch, 74333 bytes, 6 tensors)

net.0.weight f4 [128, 6]
-0.40257004 -0.37855667 -0.24702664 -0.40247214 0.07080396 0.2551756 -0.22850302 -0.2514479
0.35561162 0.17538464 0.42542827 0.15545271 0.47385263 0.17849632 0.12029442 -0.25612396
-0.0058369553 -0.1690998 0.2657352 0.2356956 0.27776563 0.0970045 0.031528987 -0.015132425
0.0067845816 -0.28382194 -0.4775054 0.08443646 -0.22780071 -0.04928137 0.48412862 -0.31908342
-0.045241322 -0.09301204 0.028999127 -0.03737165 0.21780755 0.4106519 0.0853129 -0.19830526
-0.04182012 0.17807624 0.37809438 -0.2814261 -0.10900337 -0.3693875 0.013344591 0.055235147
-0.36855274 0.3968497 0.08811235 0.12882718 0.34524944 0.3777121 0.21901576 -0.27547553
0.23172754 0.3780041 -0.19212905 0.2928192 -0.21538024 0.3655566 -0.26182562 0.028613506
0.20621084 0.33931014 -0.283913 0.28706148 -0.38071415 -0.19415498 0.1753067 -0.23505722
-0.4379405 -0.22276239 -0.20592377 0.11276381 -0.101255834 0.34210658 -0.14898266 0.02518213
-0.10952019 0.19140193 -0.16020545 -0.27539527 -0.3313323 -0.06649892 0.3185764 -0.40791047
0.4085096 0.16447748 -0.21671386 -0.05119869 -0.256292 -0.056178153 -0.27872235 -0.3064454
0.24257848 -0.1982286 0.00010446413 0.11014256 -0.3606628 0.21541008 -0.25085244 0.14398013
0.41617912 -0.081164435 -0.017379683 0.30340818 0.3446578 8.114207e-05 0.123472236 0.09399296
0.12893802 -0.1219863 -0.3369919 -0.09248212 0.208817 0.030792326 -0.39970326 -0.3418163
-0.38782093 0.018264627 -0.13116893 -0.08749452 0.39555195 -0.050171584 -0.36888137 -0.2715069
-0.21312825 0.04619443 0.3135322 0.33705336 -0.13344045 -0.20606846 0.19193214 0.33115172
0.27791882 0.06445652 -0.07464689 0.24599487 -0.047261 -0.38449308 0.14197618 -0.39584476
-0.00074478943 -0.051021725 -0.11581074 -0.39047438 -0.33824077 -0.29660967 0.38596642 0.061488315
0.43454012 -0.18851395 0.14948131 0.16807672 0.34058434 -0.35932204 0.37754813 -0.21919274
0.19944036 0.1337169 -0.1939272 -0.23809704 0.28219396 0.27479568 -0.089440614 0.12359741
0.22991273 -0.07124921 -0.18901755 0.09850728 0.1524047 -0.025693106 0.26754034 -0.3085103
-0.050385624 -0.033766806 -0.041282892 -0.3625806 0.41252422 -0.34882736 0.20865306 -0.15964092
-0.2796779 0.02476337 -0.10792599 0.37790343 -0.31579652 -0.109475695 -0.09713869 0.07732761
0.007016429 -0.2460391 -0.123451024 -0.15587553 -0.28266287 0.091949336 -0.26944992 0.029813655
-0.33124414 0.20001198 0.23341615 -0.1642068 0.2093431 0.20120713 -0.14662147 0.2864813
0.36202577 0.30529988 -0.061247386 -0.03575752 0.26162905 -0.1343087 -0.28805283 0.047552135
0.1008787 -0.1712409 -0.25203586 0.1626168 -0.28461573 0.016632617 0.44976443 -0.17123485
0.30133915 -0.20521829 0.47523597 -0.1706782 -0.37487045 0.28906682 -0.3783109 0.14694129
-0.19785234 0.0151816355 0.052318666 0.036748532 -0.3660005 -0.18423575 -0.355886 0.20284587
0.29509586 0.1996262 0.14080292 0.34311038 -0.07997757 -0.29545194 0.09588009 0.11634716
-0.010548149 0.036632653 -0.3399813 0.21370792 -0.052782655 -0.22381161 -0.22724442 -0.089660645
00000000: a91d cebe 2ed2 c1be 8df4 7cbe d410 cebe
00000010: ab01 913d 60a6 823e b2fc 69be c7bd 80be
00000020: ba12 b63e 0898 333e bcd1 d93e ff2e 1f3e
00000030: d09c f23e bdc7 363e ec5c f63d ae22 83be
00000040: ee43 bfbb 7f28 2dbe 720e 883e 305a 713e
00000050: 4c37 8e3e 4caa c63d 8a24 013d feed 77bc
00000060: 3251 de3b 1c51 91be 967b f4be 06ed ac3d
00000070: 9744 69be 43db 49bd b5df f73e e75e a3be
00000080: f74e 39bd 197d bebd 948f ed3c 0413 19bd
00000090: f108 5f3e f740 d23e 88b8 ae3d 8910 4bbe
000000a0: 934b 2bbd 9e59 363e 9695 c13e 1517 90be
000000b0: 293d dfbd 5c20 bdbe 45a3 5a3c 403e 623d
000000c0: f2b2 bcbe e22f cb3e 3f74 b43d 46eb 033e
000000d0: 89c4 b03e 7b63 c13e ab45 603e 210b 8dbe
000000e0: fc49 6d3e c189 c13e 7abd 44be 66ec 953e
000000f0: a38c 5cbe 3c2a bb3e 020e 86be df66 ea3c
00000100: ef28 533e 0fba ad3e 0b5d 91be b9f9 923e
00000110: f7ec c2be 90d0 46be 9983 333e d7b2 70be
00000120: bd39 e0be d31b 64be aedd 52be b6f0 e63d
00000130: 385f cfbd 9828 af3e e98e 18be c14a ce3c
00000140: 1f4c e0bd defe 433e e60c 24be 9c00 8dbe
00000150: 63a4 a9be 9630 88bd 721c a33e a4d9 d0be
00000160: 2c28 d13e c96c 283e 3dea 5dbe b8b5 51bd
00000170: b438 83be 101b 66bd b2b4 8ebe 69e6 9cbe
00000180: 7e66 783e 70fc 4abe c113 db38 6c92 e13d
00000190: cba8 b8be 7694 5c3e bb6f 80be 876f 133e
000001a0: 6e15 d53e 8a39 a6bd d65f 8ebc 5158 9b3e
000001b0: fd76 b03e d12a aa38 03df fc3d 627f c03d
000001c0: 5408 043e f4d3 f9bd 348a acbe 4467 bdbd
000001d0: 20d4 553e 3040 fc3c e8a5 ccbe 8c02 afbe
000001e0: 7790 c6be b39f 953c 2651 06be 5430 b3bd
000001f0: c985 ca3e b880 4dbd 05de bcbe f402 8bbe
00000200: 4b3e 5abe 5f36 3d3d 4b87 a03e 4292 ac3e
00000210: 9da4 08be 9c03 53be dc89 443e b88c a93e
00000220: 604b 8e3e c801 843d 78e0 98bd 14e6 7b3e
00000230: c094 41bd 47dc c4be 3462 113e 2aac cabe
00000240: f93d 43ba 28fc 50bd 2e2e edbd 42ec c7be
00000250: e52d adbe 39dd 97be 649d c53e 2cdb 7b3d
00000260: 0b7c de3e cd09 41be a111 193e 4e1c 2c3e
00000270: 1261 ae3e 0ff9 b7be fd4d c13e 1074 60be
00000280: 183a 4c3e 15ed 083e da94 46be b6cf 73be
00000290: ba7b 903e 05b2 8c3e a42c b7bd a420 fd3d
000002a0: 3e6e 6b3e 1beb 91bd d18d 41be 2fbe c93d
000002b0: fa0f 1c3e 597a d2bc 0cfb 883e 10f5 9dbe
000002c0: 2861 4ebd 104f 0abd 4018 29bd 2aa4 b9be
000002d0: 6036 d33e 8099 b2be 26a9 553e e978 23be
000002e0: f131 8fbe 8ddc ca3c 4d08 ddbd 8f7c c13e
000002f0: 15b0 a1be cb34 e0bd a6f0 c6bd f05d 9e3d
00000300: 13ea e53b adf1 7bbe e4d3 fcbd d69d 1fbe
00000310: 30b9 90be ef4f bc3d 57f5 89be c43b f43c
00000320: d598 a9be f1cf 4c3e a504 6f3e d425 28be
00000330: 0a5e 563e 3e09 4e3e f023 16be adad 923e
00000340: 715b b93e 4450 9c3e 8ade 7abd 7a76 12bd
00000350: 3ef4 853e 3888 09be a97b 93be 07c6 423d
00000360: 7e99 ce3d c659 2fbe d80a 81be 0585 263e
00000370: 27b9 91be 2041 883c 8647 e63e 3058 2fbe
00000380: 2049 9a3e be24 52be 2152 f33e 44c6 2ebe
00000390: 05ef bfbe 9100 943e f7b1 c1be c777 163e
000003a0: ce99 4abe 65bc 783c 194c 563d a185 163d
000003b0: 6b64 bbbe 4ca8 3cbe b136 b6be d4b6 4f3e
000003c0: ce16 973e d06a 4c3e a42e 103e 2aac af3e
000003d0: 48cb a3bd 7a45 97be c85c c43d 6b47 ee3d
000003e0: 25d2 2cbc 1f0c 163d 0712 aebe 40d6 5a3e
000003f0: a032 58bd df2e 65be c3b2 68be 00a0 b7bd

net.0.bias f4 [128]
0.33417338 -0.05815816 -0.0027138542 0.29226485 0.13120505 0.01899392 0.31215632 0.22247566
0.055692546 0.053948473 -0.3503531 -0.023948247 0.2621434 0.23498048 -0.0567658 -0.35041994
0.18040602 -0.07277373 0.11530952 -0.2542945 0.039466936 -0.21032764 0.16026992 -0.30054495
0.40974572 0.15247351 0.37208292 0.1146608 0.08435875 -0.16279098 0.30966955 -0.22680028
-0.13300137 0.09210621 -0.3863613 0.15233427 -0.1349454 -0.017440028 0.053937502 -0.0048075602
-0.357302 0.2179308 -0.12752378 0.118668854 0.20816763 0.047873653 0.1807471 -0.37424517
0.024740634 -0.30984575 -0.28066653 0.0449931 -0.09237981 -0.24108882 0.36679703 -0.28968784
-0.021616494 0.29851115 0.21473713 -0.13413069 0.08723396 -0.04071371 -0.26072478 0.16426706
-0.05286047 0.06956616 0.29514316 -0.113990165 0.36540002 0.10059384 0.060150586 -0.112463415
-0.046810307 -0.12339559 0.31048578 -0.047935702 -0.22039664 0.30443105 -0.20565929 -0.30152604
-0.08119857 0.02717582 -0.24686036 -0.12351309 -0.041891478 -0.027040439 0.041202947 0.05180668
-0.012542941 -0.079294056 -0.16472845 0.03422653 -0.038294453 -0.07818557 0.23439507 0.12350416
-0.26738316 -0.37568206 -0.1427178 -0.20964113 0.25385973 0.1243809 0.28061423 -0.12575132
0.316389 0.09943351 0.2530767 0.045865428 0.3040987 0.3561858 0.14050709 -0.15181619
0.06534738 0.22001022 0.008035325 0.4164843 -0.08858951 0.3608511 0.25727817 -0.120392725
0.12480916 0.3279016 0.3019493 -0.06734437 -0.3087224 -0.09277964 0.1949565 0.42918596
00000000: c618 ab3e 4037 6ebd ebda 31bb bda3 953e
00000010: 9e5a 063e 2399 9b3c f4d2 9f3e a9d0 633e
00000020: de1d 643d 13f9 5c3d 7b61 b3be 1d2f c4bc
00000030: a937 863e b99e 703e 4183 68bd 3e6a b3be
00000040: 5bbc 383e 650a 95bd 6627 ec3d e432 82be
00000050: 15a8 213d 2160 57be cc1d 243e 07e1 99be
00000060: 31ca d13e 0422 1c3e a781 be3e 48d3 ea3d
00000070: 48c4 ac3d aeb2 26be 028d 9e3e 553e 68be
00000080: 8331 08be 2ea2 bc3d 26d1 c5be 84fd 1b3e
00000090: 202f 0abe 64de 8ebc 92ed 5c3d bd88 9dbb
000000a0: 4af0 b6be 4029 5f3e 9895 02be a808 f33d
000000b0: e529 553e 2a17 443d c515 393e 109d bfbe
000000c0: dfac ca3c 1aa4 9ebe 86b3 8fbe af4a 383d
000000d0: a031 bdbd fddf 76be d2cc bb3e f751 94be
000000e0: 1315 b1bc 74d6 983e 0de4 5b3e 8e59 09be
000000f0: b8a7 b23d 6bc3 26bd b87d 85be a035 283e
00000100: 3884 58bd b478 8e3d 011d 973e ad73 e9bd
00000110: b615 bb3e 2504 ce3d 7660 763d 3853 e6bd
00000120: 2abc 3fbd d4b6 fcbd fef7 9e3e 3a58 44bd
00000130: a8af 61be 63de 9b3e 5998 52be 9f61 9abe
00000140: 704b a6bd d39f de3c f6c8 7cbe 6ef4 fcbd
00000150: 6696 2bbd e983 ddbc 6cc4 283d 3e33 543d
00000160: e880 4dbc ec64 a2bd 93ae 28be 1e31 0c3d
00000170: a5da 1cbd c21f a0bd 4305 703e c0ef fc3d
00000180: 72e6 88be 6659 c0be 9d24 12be 2aac 56be
00000190: e7f9 813e 6abb fe3d abac 8f3e f4c4 00be
000001a0: bdfd a13e cca3 cb3d 4593 813e 63dd 3b3d
000001b0: d3b2 9b3e fc5d b63e 17e1 0f3e b475 1bbe
000001c0: d9d4 853d 5c4a 613e 99a6 033c 6e3d d53e
000001d0: 6b6e b5bd 7ac1 b83e f7b9 833e 7690 f6bd
000001e0: f29b ff3d b8e2 a73e 1999 9a3e d8eb 89bd
000001f0: dd10 9ebe 4003 bebd ada2 473e 43be db3e

net.2.weight f4 [128, 128]
0.021612192 -0.024194313 -0.01099462 0.07738623 -0.025833588 0.10406482 0.044500243 -0.105463274
0.044167403 -0.123115465 0.09276505 0.024931008 0.02664169 -0.028906098 -0.104889095 -0.042911485
-0.012593625 0.0008025386 -0.013559635 -0.020010404 0.023585105 -0.060319755 0.07682778 0.075622685
-0.022826856 -0.029252289 -0.05828794 -0.043583725 -0.065427415 -0.0716299 0.049102813 -0.0396204
0.105439164 0.013460252 -0.051888164 -0.054722305 -0.07830742 -0.034268375 0.025113957 -0.002850928
-0.013511755 0.047955994 0.083625235 0.06754165 -0.053081956 0.033992786 0.0057338406 -0.03815527
0.10952307 -0.032229662 0.13710013 -0.008686555 -0.03623538 -0.024094246 -0.004433892 0.030859161
0.05587784 -0.06926607 -0.008515807 -0.10816382 0.06970891 -0.13087773 -0.13605294 0.081142165
0.036964126 -0.0064902455 0.07602103 -0.058255635 0.06704623 0.013130216 -0.058665913 0.047049433
-0.067570634 -0.083789274 0.055323694 0.063870385 0.06426757 0.061273426 -0.23422055 0.09370372
0.0770737 0.034311812 -0.106582895 -0.025743712 0.07331072 0.13664544 -0.2798926 -0.03430002
0.1164522 0.08462912 -0.055922292 0.01991213 0.054285202 -0.026550226 0.041715983 -0.025347166
0.016482374 -0.0488699 0.05108437 0.10493466 -0.015979014 -0.06541212 0.006875851 -0.06378613
0.0068829516 0.08152187 -0.010658144 -0.107509725 0.029011037 0.068340376 -0.14622271 -0.01618246
-0.054600287 0.007702661 0.0029114338 0.036173318 0.022794822 0.032470904 -0.01790211 -0.026193094
-0.0032740023 -0.02982179 -0.12636204 0.043093704 0.003103394 0.09322156 -0.10664138 -0.09114612
0.0053842836 -0.075799584 -0.05749256 0.06652135 -0.02888273 -0.08677658 0.011232549 -0.07093574
-0.034004904 -0.04048741 -0.009639369 -0.05215476 0.012300314 -0.007568926 -0.058636136 0.06729861
-0.04996003 -0.06943477 -0.0842068 -0.02473595 0.048337255 -0.044029508 0.047757756 0.034824803
0.043517597 0.07577758 0.05276331 0.051977545 0.028654914 -0.083795436 0.030527629 0.06818506
-0.0434171 -0.022482151 -0.044519044 -0.026533691 -0.03594891 -0.054221954 -0.04720249 0.009416635
0.044795446 0.078360595 0.023950607 0.0072129816 -0.016951099 -0.051719144 -0.06784925 -0.0369613
-0.018524947 0.01984708 -0.05510263 -0.07081095 -0.047818907 -0.004034847 0.031771977 0.028180286
-0.054126944 0.025608622 -0.07535438 -0.025686419 -0.089154154 -0.056507584 0.086780794 -0.0047909915
-0.08511089 0.03582554 -0.014017148 -0.037814252 -0.054731015 0.060934883 -0.061992828 0.061197225
-0.047295205 0.0066292286 0.025215978 0.08232767 -0.059228126 -0.029881496 -0.022408582 -0.04485144
0.037806265 -0.04398267 -0.04985325 0.035075627 0.07765951 0.073420815 0.07647414 0.03598426
-0.045872934 0.05285401 0.05493588 -0.040084008 -0.056505185 0.02274357 -0.023122147 -0.061568663
0.06929407 0.054804586 -0.046783965 -0.028541526 -0.06700337 0.051689602 0.05806656 0.045107953
-0.07553041 0.022967072 -0.0694105 0.035542548 0.032442153 -0.0013114988 0.024952557 -0.04838733
-0.08682515 0.083541654 -0.05746077 0.03681285 -0.055753533 -0.058294915 0.049702823 0.07831401
-0.041875996 -0.084459774 -0.04010992 0.052457415 0.017522268 -0.011269351 -0.073308416 -0.031004447
00000000: 0d0c b13c 2733 c6bc c722 34bc ac7c 9e3d
00000010: f6a0 d3bc f01f d53d e345 363d 21fd d7bd
00000020: e1e8 343d f623 fcbd 9afb bd3d 1d3c cc3c
00000030: ac3f da3c 7bcc ecbc 18d0 d6bd f4c3 2fbd
00000040: 7e55 4ebc 7461 523a 3b29 5ebc dcec a3bc
00000050: 8d35 c13c d911 77bd e257 9d3d 11e0 9a3d
00000060: 63ff babc 7fa2 efbc 56bf 6ebd d984 32bd
00000070: cffe 85bd b2b2 92bd 0820 493d 0049 22bd
00000080: 7df0 d73d 6488 5c3c af88 54bd 7f24 60bd
00000090: a45f a0bd ff5c 0cbd c9bb cd3c a3d6 3abb
000000a0: 6860 5dbc 816d 443d b543 ab3d 4753 8a3d
000000b0: 776c 59bd 053c 0b3d f1e2 bb3b b348 1cbd
000000c0: a24d e03d 4003 04bd fa63 0c3e 0d52 0ebc
000000d0: 8d6b 14bd 4c61 c5bc 2f4a 91bb 5acc fc3c
000000e0: 29e0 643d 5fdb 8dbd e285 0bbc fe84 ddbd
000000f0: 8cc3 8e3d d004 06be 7651 0bbe dd2d a63d
00000100: b267 173d 20ac d4bb eab0 9b3d 769d 6ebd
00000110: 894f 893d 1e20 573c ab4b 70bd e8b6 403d
00000120: 7962 8abd b699 abbd 199b 623d 7ace 823d
00000130: b79e 833d d8f9 7a3d 83d7 6fbe bce7 bf3d
00000140: d1d8 9d3d 8b8a 0c3d 2248 dabd 7ae4 d2bc
00000150: ee23 963d c8ec 0b3e 154e 8fbe 2e7e 0cbd
00000160: 7e7e ee3d 0852 ad3d c60e 65bd c31e a33c
00000170: 295a 5e3d dc7f d9bc 61de 2a3d dca4 cfbc
00000180: 0b06 873c ce2b 48bd d83d 513d fce7 d63d
00000190: 6ce6 82bc caf6 85bd d24e e13b 4da2 82bd
000001a0: 628a e13b f0f4 a63d 7f9f 2ebc 0f2e dcbd
000001b0: 8ea8 ed3c 0af6 8b3d 68bb 15be 1491 84bc
000001c0: 8da4 5fbd 9b66 fc3b c1cd 3e3b 792a 143d
000001d0: 35bc ba3c 3600 053d 72a7 92bc e692 d6bc
000001e0: a590 56bb d44c f4bc 0d65 01be 0683 303d
000001f0: 5062 4b3b f2ea be3d cc66 dabd d1aa babd
00000200: a56e b03b d03c 9bbd 527d 6bbd 583c 883d
00000210: 7a9b ecbc ebb7 b1bd ba08 383c c246 91bd
00000220: ba48 0bbd 20d6 25bd 72ee 1dbc 3ba0 55bd
00000230: 4287 493c c104 f8bb 722c 70bd dbd3 893d
00000240: e3a2 4cbd d133 8ebd 9d74 acbd 0ca3 cabc
00000250: 49fd 453d 4958 34bd a39d 433d 74a4 0e3d
00000260: 823f 323d 4731 9b3d 571e 583d 68e6 543d
00000270: b6bd ea3c f19c abbd 1415 fa3c 9ca4 8b3d
00000280: 21d6 31bd 7d2c b8bc 9a59 36bd 2f5d d9bc
00000290: 2a3f 13bd d717 5ebd 6657 41bd 3b48 1a3c
000002a0: 6e7b 373d 857b a03d 1034 c43c e05a ec3b
000002b0: 08dd 8abc 74d7 53bd 8cf4 8abd bb64 17bd
000002c0: a1c1 97bc 5896 a23c 4cb3 61bd 5505 91bd
000002d0: c2dd 43bd c036 84bb 5523 023d 58da e63c
000002e0: 37b4 5dbd 2cc9 d13c 6653 9abd 536c d2bc
000002f0: 7496 b6bd 7f74 67bd 21ba b13d c0fd 9cbb
00000300: 9e4e aebd cdbd 123d 2ea8 65bc 1ee3 1abd
00000310: a12d 60bd db96 793d 31ec 7dbd f1a9 7a3d
00000320: 9eb8 41bd 003a d93b bd91 ce3c 699b a83d
00000330: 3199 72bd 0aca f4bc 3492 b7bc 25b6 37bd
00000340: beda 1a3d 2c27 34bd ec32 4cbd 76ab 0f3d
00000350: f30b 9f3d a75d 963d 799e 9c3d 3b64 133d
00000360: 42e5 3bbd 727d 583d 7204 613d 212f 24bd
00000370: fb71 67bd b950 ba3c a86a bdbc 6c2f 7cbd
00000380: 0dea 8d3d c67a 603d 8ba0 3fbd ebcf e9bc
00000390: 1039 89bd 7ab8 533d 34d7 6d3d 1ec3 383d
000003a0: b0af 9abd 7125 bc3c 1827 8ebd 1095 113d
000003b0: 10e2 043d 99e6 abba 4e69 cc3c cb31 46bd
000003c0: 62d1 b1bd e317 ab3d fc5b 6bbd 12c9 163d
000003d0: d15d 64bd a6c6 6ebd 3095 4b3d 1863 a03d
000003e0: 2a86 2bbd 3ff9 acbd 4d4a 24bd 96dd 563d
000003f0: dc8a 8f3c 15a3 38bc b922 96bd 0afd fdbc

net.2.bias f4 [128]
0.082241006 -0.03467483 0.029869778 0.07977017 0.04298935 -0.047288295 -0.03408067 0.054310575
0.04385837 0.034170073 -0.03231381 -0.036837425 0.041320045 0.058849923 0.0774103 -0.00043581153
-0.01862369 0.043424774 -0.0005382262 -0.0419747 -0.029652108 -0.019333351 -0.040409792 -0.0836055
0.044666417 -0.054054134 -0.08511904 0.050233163 -0.09023905 0.06282484 0.026030734 -0.022695981
-0.05720248 -0.022283869 -0.027456608 0.008847157 -0.018099345 -0.08563651 -0.004649222 -0.04768191
0.044309754 0.04388977 0.00174015 0.07231994 -0.079823926 -0.056759845 1.1185755e-05 0.04292285
-0.0661432 -0.06473422 -0.021717513 0.07616649 0.025295597 0.037075877 0.011409378 -0.0377264
0.06938988 0.017124364 -0.045483194 -0.041954637 -0.01355894 -0.05873864 0.0576678 0.047833193
0.04042112 -0.062263384 -0.0056108064 0.0004751235 -0.053634115 0.003888639 0.066986114 -0.0085585015
0.053779878 -0.03267485 0.08699637 0.077850014 -0.07600711 -0.058239628 0.035008818 -0.04829032
0.054867506 0.051491577 0.0014414171 0.03649363 0.07887582 0.037677016 0.02484372 -0.06913186
-0.0057859235 0.038213853 -0.038137868 0.046861965 0.05855201 -0.0237995 -0.046881083 -0.018306185
0.07847048 -0.06304519 -0.032834224 -0.035579965 0.0023350779 -0.04138311 -0.08724217 -0.009443887
0.014348201 0.06254522 0.046214454 -0.040842537 0.013406482 -0.05282234 0.022356573 -0.07215264
0.03204625 -0.020499678 0.051306047 -0.012884513 -0.008150186 -0.06950652 0.0024834108 -0.071223855
-0.08832054 0.0100130355 -0.05143819 0.00496029 0.06063504 0.021037072 -0.07109511 -0.06447989
00000000: f96d a83d 3207 0ebd 77b1 f43c 8b5e a33d
00000010: 9a15 303d 5fb1 41bd 2c98 0bbd c474 5e3d
00000020: d6a4 333d ebf5 0b3d 7c5b 04bd d7e2 16bd
00000030: 353f 293d 9e0c 713d 4b89 9e3d a27d e4b9
00000040: b590 98bc 2dde 313d c017 0dba aaed 2bbd
00000050: fae8 f2bc fa60 9ebc bd84 25bd 5c39 abbd
00000060: 22f4 363d de67 5dbd e452 aebd 4ac1 4d3d
00000070: 40cf b8bd 4faa 803d 683e d53c ecec b9bc
00000080: 264d 6abd a98c b6bc aeec e0bc aaf3 103c
00000090: 1445 94bc 3262 afbd 8058 98bb 1b4e 43bd
000000a0: 257e 353d c2c5 333d bf15 e43a 7a1c 943d
000000b0: ba7a a3bd 037d 68bd 74aa 3b37 dfcf 2f3d
000000c0: 1676 87bd 6093 84bd ede8 b1bc 2dfd 9b3d
000000d0: b638 cf3c e0dc 173d 66ee 3a3c ff86 1abd
000000e0: 481c 8e3d 6548 8c3c 964c 3abd a0d8 2bbd
000000f0: 5126 5ebc ee97 70bd 1235 6c3d bdec 433d
00000100: 9e90 253d e407 7fbd dbda b7bb ff19 f939
00000110: 72af 5bbd 89d8 7e3b 0430 893d f538 0cbc
00000120: 4a48 5c3d 10d6 05bd 272b b23d d46f 9f3d
00000130: 9ea9 9bbd ad8c 6ebd 6865 0f3d 12cc 45bd
00000140: c0bc 603d d5e8 523d efed bc3a 587a 153d
00000150: a589 a13d 3753 1a3d 0f85 cb3c 0195 8dbd
00000160: d897 bdbb 2186 1c3d 7436 1cbd 55f2 3f3d
00000170: 3cd4 6f3d 2bf7 c2bc 6106 40bd daf6 95bc
00000180: 22b5 a03d d61d 81bd 2e7d 06bd 4cbc 11bd
00000190: 1b08 193b 5681 29bd 06ac b2bd 88ba 1abc
000001a0: b814 6b3c b517 803d 5e4b 3d3d 814a 27bd
000001b0: dca6 5b3c 3d5c 58bd 2225 b73c c3c4 93bd
000001c0: ee42 033d f1ee a7bc 4a26 523d 9019 53bc
000001d0: 5c88 05bc 6f59 8ebd b8c0 223b d0dd 91bd
000001e0: 66e1 b4bd b70d 243c dab0 52bd ee89 a23b
000001f0: 735c 783d f055 ac3c 509a 91bd 080e 84bd

net.4.weight f4 [3, 128]
-0.040686436 -0.07796392 -0.066447355 0.007954658 0.0055481927 0.057339717 -0.07326938 -0.012584429
0.008857191 -0.068699285 0.034597777 -0.053029887 0.00810078 -0.04293515 -0.068008564 0.024719933
-0.05588553 0.057119768 -0.024398873 0.09352068 0.07291827 -0.038108964 -0.05557404 -0.064648874
-0.08442803 -0.052704625 0.07526847 -0.0410728 0.006319858 0.1220911 -0.09367921 -0.06443981
0.06699727 0.0079848375 0.036682345 0.008822839 0.0527884 -0.07653213 -0.062136907 -0.052091166
-0.061108407 0.07245325 0.095902346 0.026699072 -0.065532364 -0.07873266 -0.09092305 0.0010473395
0.081664 0.0023470074 -0.029120313 -0.0055328896 0.04477313 0.021985007 -0.045553308 -0.0002446185
-0.0012186166 0.041449655 -0.11985608 0.04942023 -0.03299463 0.007606566 0.013904818 -0.052378975
0.034677647 0.08641663 0.077599384 -0.08561725 0.01582918 0.036335886 -0.010877419 -0.06968681
-0.020662667 -0.028065532 0.024354473 0.06039012 0.03127653 0.019071024 -0.046624143 -0.0662102
0.05134196 -0.04133384 0.019847535 -0.039918967 -0.063877635 0.13044858 0.043859825 -0.049418516
-0.028329007 0.095454566 -0.07046995 -0.041751556 0.04906647 -0.01491457 -0.116730556 0.08779594
-0.046496622 -0.007874746 0.028271176 -0.055480964 -0.115602426 -0.0017590239 0.07042884 0.02560502
0.09661536 -0.0076366365 0.06682118 -0.04579438 -0.023920093 -0.023679612 -0.0342196 -0.023807865
0.029332675 0.091541395 0.06885848 -0.023586333 -0.046983723 0.034849342 0.030241704 -0.062804244
0.07141901 -0.03636967 0.035462424 -0.050604425 0.06728909 0.038580883 -0.08045304 -0.002727747
-0.080677 0.023247093 -0.113079876 0.0122746555 -0.008592108 0.021140167 0.03804721 0.058835052
0.01739131 0.003586502 0.00095786154 0.02054459 0.022392062 -0.05768791 -0.0813822 -0.07736904
-0.005541546 0.10947172 0.052654035 0.084108636 -0.07061885 0.056702577 -0.006527646 -0.065539904
-0.063744895 -0.060422454 0.008901747 0.00029951136 0.08193554 0.006287437 -0.065044485 0.01952675
0.042779945 -0.07321699 0.03409306 -0.025011845 -0.009702608 0.051327102 -0.00027114898 0.009945571
-0.07274015 0.10927485 0.09097312 -0.05508507 -0.03522833 0.028043598 -0.06431615 0.06307617
0.021069147 -0.044457566 -0.020627411 0.038538784 -0.0075498903 0.023211855 -0.05435079 -0.011848101
-0.060749233 0.03738126 -0.10554441 -0.05659797 -0.021075804 -0.03425407 -0.055296168 0.04161748
-0.032124516 -0.07491327 -0.05915464 0.03901949 0.00045541074 -0.038257085 0.04066618 -0.1001345
0.04145549 -0.08627263 -0.04614275 0.014832125 0.07393473 -0.004622476 0.008099254 0.047528498
0.04854574 -0.09134708 -0.038132418 0.041390333 0.013624094 0.085450895 0.029233158 -0.0038466286
0.008046968 0.061454672 -0.06779192 -0.048053417 0.088470794 -0.03646988 -0.093527116 0.031381052
-0.030912945 0.055112734 0.077503204 -0.0969804 -0.069504686 -0.009143202 -0.013519898 -0.016998345
0.07057358 0.039193623 0.02809488 0.032066546 -0.056963976 0.018347252 -0.040181845 -0.07701999
0.051987566 0.09259455 0.05258543 -0.01255282 0.056543708 -0.0558517 -0.08034727 -0.062059723
0.004162438 -0.051532533 0.03715467 -0.08294789 0.042116098 0.07422197 -0.07134233 -0.0847448
00000000: d2a6 26bd 8cab 9fbd 8d15 88bd 4154 023c
00000010: 9dcd b53b 0ddd 6a3d 420e 96bd ec2e 4ebc
00000020: c01d 113c 36b2 8cbd 66b6 0d3d de35 59bd
00000030: 22b9 043c c5dc 2fbd 1348 8bbd 7581 ca3c
00000040: 3ae8 64bd 6bf6 693d 25e0 c7bc c587 bf3d
00000050: 2d56 953d 2518 1cbd 9ba1 63bd a166 84bd
00000060: 9ae8 acbd cee0 57bd 5b26 9a3d f43b 28bd
00000070: d016 cf3b e60a fa3d e3da bfbd 05f9 83bd
00000080: dd35 893d d6d2 023c 3a40 163d ab8d 103c
00000090: a638 583d e1bc 9cbd 4583 7ebd 8c5d 55bd
000000a0: cf4c 7abd 5f62 943d 7368 c43d 03b8 da3c
000000b0: d535 86bd 973e a1bd dd35 babd e246 893a
000000c0: 753f a73d 40d0 193b b98d eebc 3e4d b5bb
000000d0: 0864 373d e719 b43c 1b96 3abd 2440 80b9
000000e0: fdb9 9fba 1dc7 293d 1b77 f5bd de6c 4a3d
000000f0: 6125 07bd 8040 f93b 09d1 633c 568b 56bd
00000100: 260a 0e3d 34fb b03d 6dec 9e3d 1958 afbd
00000110: 32ac 813c f0d4 143d 3437 32bc f5b7 8ebd
00000120: c144 a9bc b0e9 e5bc 0883 c73c a15b 773d
00000130: d21b 003d d63a 9c3c f5f8 3ebd 3799 87bd
00000140: f24b 523d ac4d 29bd 4c97 a23c 1282 23bd
00000150: 47d2 82bd 5094 053e 5ca6 333d 126b 4abd
00000160: 3c12 e8bc af7d c33d 8d52 90bd ae03 2bbd
00000170: ecf9 483d 3e5c 74bc 6e10 efbd 5cce b33d
00000180: 3e73 3ebd 1405 01bc f498 e73c 0240 63bd
00000190: f7c0 ecbd 0c8f e6ba ff3c 903d 9ec1 d13c
000001a0: 46de c53d c03c fabb 8bd9 883d e392 3bbd
000001b0: 12f4 c3bc bffb c1bc da29 0cbd b608 c3bc
000001c0: 144b f03c 0e7a bb3d ad05 8d3d 2038 c1bc
000001d0: 0172 40bd 2fbe 0e3d 73bd f73c 839f 80bd
000001e0: 2144 923d 5df8 14bd 0c41 113d 9646 4fbd
000001f0: ddce 893d fd06 1e3d 90c4 a4bd 00c4 32bb
00000200: fc39 a5bd b070 be3c 6c96 e7bd a31b 493c
00000210: eac5 0cbc 252e ad3c 64d7 1b3d 06fd 703d
00000220: 3878 8e3c 850b 6b3b 0019 7b3a 214d a83c
00000230: 8f6f b73c 284a 6cbd b6ab a6bd a973 9ebd
00000240: db95 b5bb b632 e03d c2ab 573d 2641 ac3d
00000250: 9ea0 90bd f640 683d dde5 d5bb c939 86bd
00000260: af8c 82bd 897d 77bd a2d8 113c bc07 9d39
00000270: d2cd a73d d806 ce3b 0b36 85bd 90f6 9f3c
00000280: 063a 2f3d caf2 95bd 2aa5 0b3d a4e5 ccbc
00000290: b0f7 1ebc 5e3c 523d 0029 8eb9 c0f2 223c
000002a0: caf8 94bd 7ecb df3d 1d50 ba3d e2a0 61bd
000002b0: 954b 10bd b0bb e53c 30b8 83bd 142e 813d
000002c0: 3499 ac3c 2319 36bd d1fa a8bc d8da 1d3d
000002d0: 1265 f7bb ca26 be3c ef9e 5ebd 8a1e 42bc
000002e0: 30d4 78bd 181d 193d ab27 d8bd 46d3 67bd
000002f0: 2aa7 acbc ff4d 0cbd 3c7e 62bd 1777 2a3d
00000300: ff94 03bd 216c 99bd 234c 72bd e7d2 1f3d
00000310: 32c4 ee39 76b3 1cbd 9591 263d 5113 cdbd
00000320: 3bcd 293d b4af b0bd 2e00 3dbd 7102 733c
00000330: 176b 973d 2478 97bb bcb2 043c 3ead 423d
00000340: e6d7 463d 2e14 bbbd bd30 1cbd e988 293d
00000350: 9837 5f3c e100 af3d 607a ef3c b817 7cbb
00000360: 6ed7 033c e5b7 7b3d 7dd6 8abd a9d3 44bd
00000370: 2d30 b53d 7161 15bd 258b bfbd 6b89 003d
00000380: 253d fdbc e4bd 613d 00ba 9e3d a99d c6bd
00000390: 7958 8ebd 5ecd 15bc 9082 5dbc 1d40 8bbc
000003a0: e288 903d 7e89 203d 3c27 e63c 3658 033d
000003b0: 0f53 69bd fa4c 963c b895 24bd a8bc 9dbd
000003c0: eaf0 543d 36a2 bd3d d263 573d 58aa 4dbc
000003d0: 609a 673d c1c4 64bd 1c8d a4bd 5632 7ebd
000003e0: 1065 883b c713 53bd 7f2f 183d 95e0 a9bd
000003f0: ee81 2c3d b001 983d ed1b 92bd af8e adbd

net.4.bias f4 [3]
-0.021462422 -0.07097133 0.051504157
00000000: f6d1 afbc 6b59 91bd 06f6 523d
