saved_models/dqn_episode_150.pth (torch, 75381 bytes, 6 tensors)

net.0.weight f4 [128, 8]
000000 19 89 8e 3e 9e 33 74 be 75 ea 90 3c a4 b5 21 be
       0.27838972 -0.23847815 0.017689923 -0.15791947
000010 da ec c2 3d 17 83 4c be 45 c7 18 3e 46 4b 95 3e
       0.09517832 -0.19971882 0.14919765 0.29158992
000020 36 a4 1e 3e e4 c3 b5 be 0f 04 5b 3e f8 e4 18 be
       0.15492329 -0.35501015 0.21388267 -0.14931095
000030 6b 7f 13 3e 00 47 65 3e c3 a7 c5 be 29 aa 8f be
       0.14404075 0.22390366 -0.38604555 -0.2805951
000040 fc 50 83 be 32 a0 12 bf 32 72 01 3e 81 4e a7 3e
       -0.25647724 -0.5727569 0.12641218 0.3267708
000050 4a be fa 3c 5a 43 a7 3e b4 1f 2d 3d 2f 53 bc 3d
       0.030608315 0.32668573 0.042266563 0.091955535
000060 87 17 5f bd d2 0d ed be a7 18 17 3c e6 6a 3d bd
       -0.054465797 -0.46299607 0.009222186 -0.046244524
000070 3d 49 72 3e 3c eb d9 3d b0 c7 81 3d 03 bb 54 be
       0.2366075 0.106405705 0.063369155 -0.20774464
000080 67 59 13 bd a0 dd 3f bf 4b 5a 3f be 53 ab a5 be
       -0.035973933 -0.7494755 -0.18686788 -0.32357273
000090 9b 5c 7a 3e 02 21 3d 3e f2 b1 05 3e 98 33 ae bd
       0.24449389 0.18469623 0.13056162 -0.085059345
0000a0 fa 28 43 bf df ad 34 3e 06 0b 39 be 5a d4 10 be
       -0.762344 0.17644452 -0.18070611 -0.14143506
0000b0 8f 63 52 3d 97 f2 9b 3d fc 50 92 3e 6e d6 8b be
       0.051364478 0.0761463 0.2857741 -0.27312034
0000c0 ea 03 a5 3c ef 13 9e 3e 79 bd c6 3e 27 6b 6f 3e
       0.020143468 0.30874583 0.3881643 0.23380719
0000d0 45 a1 a4 3c c2 88 ec bd f1 4c fd be 44 d7 59 3e
       0.02009643 -0.11549522 -0.49472764 0.21273524
0000e0 2f 72 3c be 18 65 85 be ac e7 cc 3d fe cf 3e 3e
       -0.18402933 -0.2605369 0.100051254 0.1863403
0000f0 2c f5 8c be f1 ce 9b be 70 21 73 bd 73 c1 9c 3e
       -0.275308 -0.3043132 -0.05935806 0.3061634
000100 60 15 85 3b ff d9 e0 be 74 b1 5e 3e 0c a7 4a 3e
       0.004061386 -0.43916318 0.2174738 0.19790286
000110 f7 bf 7f be 8a 19 55 3e a0 46 a2 3e b7 50 a7 be
       -0.24975573 0.20810524 0.31694508 -0.32678768
000120 d0 5d 8e 3e 45 65 02 be 4c e0 80 3e c0 46 20 3e
       0.27805948 -0.12733944 0.25171125 0.15651989
000130 d6 f3 66 bb 44 fc 37 be ff 88 bd 3e 12 e6 17 3e
       -0.0035240552 -0.17967325 0.37018582 0.14833859
000140 58 89 4c be c1 1a 12 3e bf 37 bf be 11 fd a7 be
       -0.19974267 0.14268018 -0.37347218 -0.32810262
000150 c0 5c fa bb 7a 0d d9 3e 92 80 c3 be 9f f3 2e 3d
       -0.007640451 0.42393094 -0.3818403 0.042712804
000160 17 cc c0 be 68 e0 ce 3e c0 11 0b bd c2 ac d5 be
       -0.37655708 0.40405583 -0.033952475 -0.41733366
000170 5f b3 92 3d a3 e9 b8 be 63 69 91 3e f7 74 b8 bc
       0.071631186 -0.3611575 0.28400716 -0.02251671
000180 b4 3d d5 3d 60 ed 47 bd 80 f1 75 bd ce 0f 45 3e
       0.104121596 -0.048810363 -0.060044765 0.1924431
000190 23 ee 91 be 70 42 50 be b1 e0 3e be fd 39 60 be
       -0.28501996 -0.20337844 -0.186404 -0.21897121
0001a0 55 19 00 3e 59 37 91 3e 19 19 0f 3e 9c 29 57 bd
       0.12509663 0.2836254 0.13974418 -0.052529916
0001b0 03 5d 91 be 90 2f b5 bc ba 69 ab 3e 56 fb 83 ba
       -0.28391275 -0.022117406 0.334791 -0.0010069411
0001c0 e7 23 06 3d 8e c0 11 be 85 3e a2 3e 61 92 83 bc
       0.032749083 -0.1423361 0.31688324 -0.01606101
0001d0 ef 60 39 3e 0a c9 f6 bb 32 2d 02 3f 31 18 ba be
       0.18103383 -0.00753129 0.5085021 -0.36346582
0001e0 51 df ab be e6 02 19 be c0 41 3e bc 95 99 0e be
       -0.33568814 -0.14942512 -0.011612356 -0.13925774
0001f0 66 1f 73 3e cf ea 9b be 01 c0 87 3e 17 f2 1b be
       0.23742446 -0.30452582 0.26513675 -0.15229069
000200 49 87 38 be fc 5c 80 3e 87 92 2c bb 1e 5c fd bd
       -0.18020357 0.2507094 -0.0026332454 -0.123710856
000210 9e bf 85 bd 3c 37 e6 bd 5c eb 1d 3d 99 23 01 be
       -0.06530689 -0.11241004 0.038554534 -0.12611236
000220 b8 1a 27 3e 1f 40 b9 be 69 8b c3 3e a9 d5 b1 3e
       0.16318786 -0.36181733 0.381923 0.34733322
000230 ed 12 26 bd f3 e8 87 be 20 de f7 3d 3b ab b0 3e
       -0.040545393 -0.26544914 0.12102914 0.34505638
000240 c5 48 e9 3e 05 9d 8d bd d8 b2 e4 bd e4 b8 0c be
       0.4556333 -0.06914715 -0.11166924 -0.13742405
000250 94 0c 91 3b e3 78 3c be 99 a4 96 bd 06 13 a5 be
       0.0044265483 -0.1840549 -0.07355613 -0.32241076
000260 cb ae 45 be 72 9c b0 bc 8e b9 cf 3e e6 78 8f 3e
       -0.1930496 -0.021558974 0.40571254 0.28021926
000270 46 74 0b 3f a1 49 99 be 28 a7 3a be c9 8a 6c 3b
       0.54474294 -0.29938987 -0.18227828 0.0036093465
000280 b1 a9 62 3e 1a 02 a4 be 66 41 70 bd 4b 5f 36 3e
       0.22135045 -0.32032853 -0.05865612 0.17809789
000290 4d 57 ad be d5 e0 3e 3e 7e 62 75 be 07 29 b0 3e
       -0.33855668 0.18640454 -0.23963353 0.344063
0002a0 6e 02 2c bc 7a 61 0d 3e f5 a3 5f bd fa c3 c2 bd
       -0.010498626 0.13806716 -0.05459972 -0.09510036
0002b0 52 bd b3 be 82 74 ca 3d 9d c5 90 bd c1 ad 23 bd
       -0.35105377 0.09885503 -0.07068942 -0.039960627
0002c0 e8 1c c6 3e ae 98 b7 bf 63 ee e2 3e c9 af b9 be
       0.3869393 -1.4343469 0.443225 -0.36266926
0002d0 96 e0 fd 3c e7 9a 05 3e 39 b9 35 bd 6f 3b 09 3e
       0.03099088 0.13047372 -0.044366095 0.13401578
0002e0 52 fe 0b 3e c4 53 9b 3e 37 ec 11 be c3 25 2f 3e
       0.13671234 0.30337346 -0.14250265 0.17104249
0002f0 b9 76 c6 3d 96 0a a0 3d fd ae 47 be b5 c1 aa be
       0.09690613 0.07814519 -0.19500346 -0.33350912
000300 ea 4f 43 be 61 0c 91 3d b3 62 e7 be 89 11 b9 3e
       -0.19073454 0.07082439 -0.4519249 0.3614619
000310 c2 9d de be 16 0c 0f 3e 8b 30 8a 3d eb 56 5b 3e
       -0.43479735 0.13969454 0.0674754 0.21419875
000320 e4 81 86 3e 3e e6 78 be 68 c7 d3 bd b8 92 b2 3e
       0.26270974 -0.2430658 -0.10340768 0.34877563
000330 f4 86 13 bc d6 51 4c 3e dc 5e 20 be 55 90 21 be
       -0.009004343 0.19953093 -0.15661186 -0.15777715
000340 08 7d 6e 3e 09 86 f6 3d 3a ee 92 3d 4e 08 1f 3d
       0.23289883 0.12037284 0.07174344 0.03882628
000350 03 08 a2 3e 58 90 83 be c4 78 76 bd 69 c5 a2 be
       0.31646737 -0.25696063 -0.060173765 -0.31791237
000360 5b e9 dd bc 8e cd b6 3c 35 7a 62 be ff 50 20 be
       -0.027088812 0.022314813 -0.22116931 -0.15655898
000370 94 9e 09 3e 45 51 57 3e 77 4e f5 be 3f 9a 2d 3c
       0.13439399 0.21027096 -0.47911426 0.010595857
000380 96 6d a8 bd 6c 8c d2 3d e2 80 be 3c 76 38 ae 3e
       -0.08224027 0.102806896 0.023254815 0.3402745
000390 db 6e cf 3c 76 9b cc 3d ca a4 9d 3d 55 a0 50 3c
       0.025321415 0.09990589 0.07697447 0.012733539
0003a0 3f b2 4c be 9f 3e 01 be 80 47 00 3e 51 a0 24 be
       -0.1998987 -0.12621544 0.12527275 -0.16076781
0003b0 70 c4 99 bd 9a 16 8d be 80 25 4b bd c6 50 45 3e
       -0.075081706 -0.27556306 -0.04959631 0.19269094
0003c0 9f 76 c8 3e 4f be df 3e 9e f5 93 be 29 c5 c9 be
       0.39153 0.4369988 -0.2889833 -0.39408234
0003d0 cd 17 1d 3e c1 86 12 3e 50 40 56 be 85 13 a3 bd
       0.1534111 0.14309217 -0.20922971 -0.079627074
0003e0 40 e3 92 be 62 af 23 3e 43 05 94 3e b2 94 0e bf
       -0.28689003 0.15984872 0.28910264 -0.5569564
0003f0 3d 06 30 bd 04 c2 64 be e0 28 0e bf b9 ce a2 3e
       -0.0429747 -0.22339636 -0.5553112 0.31798342

net.0.bias f4 [128]
000000 96 b1 21 3e d2 30 03 3e af 15 26 3e b7 70 79 3e
       0.157904 0.12811592 0.16219209 0.24359404
000010 2b ca 49 bd d7 13 14 3e ca 65 c7 be c0 d6 3b bc
       -0.049265068 0.14460693 -0.38944846 -0.011464775
000020 bc b3 5c 3e b2 5f f1 bc 86 8e 6b be b4 b6 47 3e
       0.21552938 -0.029464576 -0.23003587 0.1950329
000030 30 d8 87 bc 0c 44 c3 bb 27 cb d8 3c 6b 7c a0 be
       -0.016582578 -0.0059590396 0.026464058 -0.31344923
000040 f9 13 36 3e 6d d1 c6 bc e0 ad 57 be e6 06 68 bd
       0.17781056 -0.024269784 -0.21062422 -0.056647204
000050 ca 63 5c 3e e2 56 27 3e f3 77 0a be 75 4c 3f 3e
       0.21522442 0.16341737 -0.1352232 0.1868151
000060 78 97 69 bd 25 05 c2 bd 62 56 88 bd eb a6 a9 3d
       -0.057029217 -0.094736375 -0.06657101 0.0828379
000070 5f 4b a3 be 64 9e 98 bd d6 49 f0 be 94 8a 92 3e
       -0.3189344 -0.074520856 -0.46931332 0.28621352
000080 cf 2f 85 3e f5 61 43 bb 58 0b 9a be 30 fc 97 be
       0.26013038 -0.0029813026 -0.3008678 -0.2968459
000090 09 3c 2c be cd 45 5c be 4b 54 e3 3d dc 69 b6 be
       -0.16819777 -0.21511002 0.11100062 -0.3562764
0000a0 5b 11 81 3c 53 e2 e3 be b9 85 55 3e e3 80 c5 bd
       0.015755346 -0.4450861 0.20851792 -0.09643724
0000b0 38 f7 80 3e c8 e7 51 be e8 73 98 be 73 08 93 be
       0.25188613 -0.20498574 -0.2977593 -0.28717384
0000c0 1d 2c 94 be 46 a0 a5 be 18 f0 62 be 3a a3 59 3e
       -0.28939906 -0.3234884 -0.22161901 0.21253672
0000d0 52 88 7f be d5 b1 25 be 4c 87 53 be 37 bb a7 be
       -0.24954346 -0.16181119 -0.2065708 -0.3276002
0000e0 86 18 36 3e 85 0a a1 3d 11 4b 98 3e 10 12 16 be
       0.17782792 0.078633346 0.2974477 -0.14655328
0000f0 87 77 78 be 28 39 de bd 94 7a 08 3e 9c 6b 7a be
       -0.24264346 -0.108507454 0.1332801 -0.24455112
000100 ec c6 71 be 6b c1 90 be 91 34 02 be 5f c8 48 be
       -0.23611039 -0.28272566 -0.12715365 -0.19607686
000110 c4 ed 25 3d b5 c8 9c 3e eb b9 ab 3e b5 c9 b5 3d
       0.040509954 0.30621877 0.33540282 0.08876363
000120 c1 57 74 3e 00 0b c7 3d c1 89 f9 bd c0 3e 90 3e
       0.238616 0.09718895 -0.121844776 0.28172874
000130 c1 f4 ad be bf e9 6f be 41 3c 44 bd 51 c8 53 be
       -0.33975795 -0.23429011 -0.047909025 -0.20681883
000140 58 a9 33 be 87 55 93 be 2e 0e 1e 3e d6 3f 8b 3d
       -0.17545068 -0.2877619 0.15435097 0.06799285
000150 1d db 13 be 03 ff 86 3d e7 4a 1d 3e f9 1e 45 bc
       -0.14439054 0.065916084 0.15360604 -0.01203131
000160 1c b9 17 3e 3a e4 fe 3d e0 58 59 3e a3 eb e3 bc
       0.14816707 0.124458745 0.2122531 -0.027822321
000170 fc 1a 41 3e 84 91 6d bd fb 09 bf be a2 4e 26 3e
       0.1885795 -0.058000103 -0.37312302 0.16240934
000180 75 3c 7b 3e 70 6c 60 be c8 7f f9 3d 8d ad 54 bd
       0.24534781 -0.21916366 0.121825755 -0.051923323
000190 10 45 16 bc 97 16 12 be 3e be 69 be be 47 2b bd
       -0.009171739 -0.1426643 -0.22826478 -0.041816466
0001a0 ed 73 a7 3e 9a eb 19 bd 4e cc 44 3e 56 a8 ae be
       0.32705632 -0.037578203 0.19218561 -0.34112805
0001b0 9c 52 ee 3c 35 f7 87 3d f4 6e 23 3d fa 4d 88 3e
       0.029092126 0.06638948 0.039900735 0.2662199
0001c0 c0 0f 16 bc c2 e4 1a be ad 05 a1 3e 8a fa 79 be
       -0.0091590285 -0.15126327 0.31449643 -0.2441198
0001d0 c3 c3 66 3c ea e2 db b9 8b 75 49 3e f1 8f d3 3d
       0.014084759 -0.0004194 0.19673745 0.10330189
0001e0 23 e3 6f 3e a1 ee a4 3c 74 74 65 3e e2 20 86 be
       0.2342649 0.020133318 0.22407705 -0.26196963
0001f0 5d f6 df 3b b2 6e 93 be fe b1 1d bd ff 9f 80 bd
       0.0068347887 -0.2879539 -0.038499825 -0.06280517

net.2.weight f4 [128, 128]
000000 51 d5 99 bd fb b6 aa bd 69 56 38 be 37 1a 7d bd
       -0.0751139 -0.08335682 -0.18001713 -0.06179258
000010 49 bf 02 be e7 d7 07 bd c1 50 86 3e 84 9e 83 bd
       -0.12768282 -0.033164885 0.26233485 -0.06426719
000020 bd 59 66 3c 5a a5 9e ba 5b df 11 3e 9a 4a aa bc
       0.014059481 -0.0012103722 0.1424536 -0.020787526
000030 68 72 7c bc b0 8d 0b 3e 41 6d 8f bc 42 12 24 3d
       -0.015408136 0.13628268 -0.017508151 0.040056475
000040 fb 0a dd 3d b4 ff bd 3d 1f 3e 8d bd 40 57 f7 bd
       0.1079311 0.09277287 -0.06896614 -0.120771885
000050 5a 28 31 bd ff 70 f1 3d c4 a8 ba be 71 54 e4 3d
       -0.043251373 0.117891304 -0.36456883 0.111489184
000060 bd 2e 36 bb 21 20 0e be 98 03 10 be af 4e 1e bc
       -0.0027798854 -0.13879444 -0.14063871 -0.009662314
000070 57 68 9d 3c b6 7b 30 3d 36 2d ab bc 62 c9 b0 be
       0.019214792 0.04308673 -0.020895582 -0.34528643
000080 ee e6 8b 3d 66 c8 8f be 1e de e3 3d 03 31 ab 3d
       0.06831156 -0.2808258 0.1112635 0.083589576
000090 93 f6 02 be 66 2f 95 bd e7 01 58 3d 7f 94 88 3d
       -0.12789373 -0.07284431 0.05273619 0.066689484
0000a0 55 74 b8 3c 87 22 4b bd 2b b5 57 be 3b 47 36 3d
       0.022516409 -0.049593475 -0.21065204 0.044501524
0000b0 9e a3 26 3e 22 1f 7f bc b9 1f 06 3d 41 19 91 3d
       0.16273353 -0.0155713875 0.032745097 0.07084895
0000c0 8e 71 33 bd 5b fa 1f be 2a e5 a1 bc f6 9f 5c 3c
       -0.043809466 -0.15622847 -0.019762594 0.013465872
0000d0 a7 b2 6d be 00 8b ba 3c 66 f0 92 bd 6c 8e 36 bd
       -0.23212682 0.022771358 -0.071747586 -0.044569418
0000e0 f2 ce ba bb a6 09 82 bd 4e aa 56 be 08 2a 8d 3c
       -0.0057009393 -0.063494965 -0.20963404 0.017231956
0000f0 d7 d0 25 be f2 3b f0 3c e2 8b ce 3d f7 4f f4 3b
       -0.16192947 0.02932546 0.10085274 0.0074558216
000100 69 f8 3d be 9e 25 48 3d 43 1f d1 bd 39 55 e0 3c
       -0.18551792 0.048864 -0.10211041 0.027384387
000110 e8 8b 29 3d 4e c2 1c be 47 16 8c 3d db a1 29 bd
       0.04139319 -0.15308496 0.068401866 -0.041414123
000120 07 51 90 3d 15 8c 33 3d 95 43 24 be ba a3 7f 3b
       0.07046705 0.043834765 -0.16041405 0.00390075
000130 53 09 08 bd 4f 97 52 3d 50 db 1a 3d 62 f3 17 bc
       -0.033212017 0.05141383 0.03780681 -0.009274336
000140 4c 02 6d 3d 0b 75 26 3e bd 47 61 3e 48 1a b8 be
       0.05786352 0.16255586 0.22000022 -0.3595755
000150 5e ea ae 3c e1 e8 4c bd 31 0f 02 3e 1a 47 d9 3d
       0.02135199 -0.050026778 0.12701108 0.10609265
000160 f1 28 c5 bd a4 11 2d 3e e7 a7 89 be 10 d6 88 3e
       -0.096269496 0.1690126 -0.26885912 0.26725817
000170 39 b2 4b 3d fc 24 27 3d e7 12 f0 3d 57 36 4a 3e
       0.049730513 0.040806755 0.11722355 0.19747292
000180 52 0b c1 3d 9e 00 20 bd d1 aa 2a 3d b5 4b 11 3d
       0.09425987 -0.03906309 0.04166681 0.03547259
000190 69 c3 cd bc 11 34 e4 3d 19 df b5 3e b0 1b ec 3d
       -0.025117593 0.111427434 0.35521773 0.115287185
0001a0 46 21 1b 3e 8c bd af 3c f7 fd 0c be 34 17 22 be
       0.15149412 0.021452688 -0.13768755 -0.15829164
0001b0 b2 ba 84 3e b4 84 97 3b fc 8b 74 bd c5 b9 0e be
       0.25923687 0.0046239737 -0.059703812 -0.13938053
0001c0 60 70 18 bb 04 5a ee bc 9c ef 07 bd 05 a9 8c 3d
       -0.002326034 -0.029095657 -0.033187494 0.068681754
0001d0 ef 57 10 be dd bc b1 3d 1d 8f b8 3d 60 a7 d7 3c
       -0.14096044 0.08678601 0.09011672 0.026324928
0001e0 f6 85 86 3d b5 cd 29 be 8e 7f 1f 3e aa 69 28 3d
       0.0656852 -0.16582377 0.15576002 0.041116394
0001f0 34 34 02 3c 75 99 2f 3d 3f 1c fb 3d bf 6a b4 bc
       0.0079470165 0.042870957 0.12261247 -0.022023557
000200 9b 28 0a 3c 6e 94 14 3e 35 01 a3 3d 7e 53 41 3e
       0.008432533 0.14509746 0.079592146 0.18879506
000210 36 a8 38 3e 3c ba 25 3e 60 ae 8d 3e 92 87 39 3d
       0.18032917 0.16184324 0.276721 0.045295306
000220 5d 00 5b 3d 32 a1 87 bd 0a ec 4b 3e e1 d5 35 be
       0.053467143 -0.066225424 0.1991426 -0.1775737
000230 b6 89 26 bd c0 4f 99 be 7d 89 6d bc cc 44 0b bd
       -0.040658675 -0.29943657 -0.014498112 -0.034001157
000240 62 fa 9a bd d0 96 5d bf 9f ec 1e 3f 21 da 0a be
       -0.07567288 -0.86558247 0.62079805 -0.13559772
000250 5a 84 1d 3e cc 32 cf 3d d1 f1 54 3e 56 20 1e bd
       0.1538252 0.101171106 0.2079537 -0.038605057
000260 78 cb 4f 3c 6e d4 14 be 57 f0 c7 3d 25 34 a4 3d
       0.012682788 -0.1453416 0.09762638 0.08017758
000270 6e f9 8c bd eb 43 a4 3d 25 31 d4 be 8d d5 07 3b
       -0.068835124 0.08020767 -0.41443744 0.0020726651
000280 17 65 47 bd d9 ed 27 3e 25 78 76 be f1 c1 98 3d
       -0.04868039 0.16399325 -0.24069269 0.074588664
000290 1f 2a 11 bf 3e 1e 2f 3e 07 8a 37 3e 72 7b 9a bf
       -0.56704897 0.1710138 0.17923747 -1.2068923
0002a0 c2 3a d3 bc c2 07 b3 bd f1 58 6a be b6 6a 80 3c
       -0.025784854 -0.08741714 -0.22885491 0.015675884
0002b0 07 1b 30 3e ae 08 bf bd c8 c8 1d be c0 f5 45 3d
       0.1719781 -0.093278274 -0.15408623 0.04833007
0002c0 dc c5 7b be ab 9e d4 be 51 37 c7 3c 99 9d 66 bd
       -0.24587196 -0.41527304 0.02431837 -0.05630264
0002d0 be 06 3a bc 44 96 d6 bd 68 5d bc bc f6 55 69 bd
       -0.0113541465 -0.1047788 -0.022993758 -0.056966744
0002e0 43 23 f4 bc 70 42 b2 bc 8f 3c 05 3e f8 22 73 bb
       -0.02980197 -0.021760195 0.13011383 -0.00370997
0002f0 34 cd 6d bf ec 98 c3 3d a8 c6 c6 3d 3c a1 49 bf
       -0.9289124 0.09550652 0.097058594 -0.7876165
000300 56 f8 e1 bd 13 b3 4b 3d 01 df e9 3b 16 72 d0 3d
       -0.110336944 0.049731325 0.00713718 0.1017801
000310 75 f0 58 3d 1f 94 68 3e 81 7e 2d be 19 8b 12 be
       0.052963693 0.22712754 -0.16942789 -0.14310874
000320 75 ea 59 3e 2d d6 6a 3c d3 54 aa bd 5e ff 2d 3d
       0.21280845 0.01433329 -0.0831696 0.042479865
000330 aa 73 e1 be 79 26 eb be 97 43 d7 3d 99 76 3f 3e
       -0.44033557 -0.4592779 0.105109386 0.18697585
000340 45 c8 f3 3d 31 d1 cc bd 45 cd ab 3d ee 7b 22 3d
       0.11903433 -0.100008376 0.083887614 0.03966897
000350 4c ed b7 3e 9a 2c 05 3e e3 78 c7 3d e9 3e 9e 3d
       0.3592323 0.13005295 0.09739854 0.07726843
000360 a1 30 45 3d 2d b3 a6 3d c5 4a 7d 3e 82 12 35 3e
       0.04814208 0.08139644 0.24735554 0.17682841
000370 86 aa ca bc d2 1f 4d bc bb c7 e2 bd e0 25 8f 3c
       -0.024739515 -0.012519794 -0.11073252 0.017474115
000380 57 b0 6e 3e 22 73 99 bd b3 00 f1 bd 24 74 c4 3d
       0.23309456 -0.07492663 -0.117677115 0.095924646
000390 d0 19 07 be df 8a 44 3e a0 d3 28 3e 38 33 26 3e
       -0.1319344 0.191936 0.16486979 0.16230476
0003a0 ba b4 f2 3c 70 3c 26 bd 8e 4b fc 3d ff bf e0 bc
       0.029627193 -0.04058498 0.123190984 -0.0274353
0003b0 85 6e 9d be b6 78 02 bd 88 71 c1 3d 94 a8 e1 3d
       -0.30748382 -0.0318534 0.094454825 0.11018482
0003c0 48 cf b4 bc a2 2f fa bf 2c 16 19 3e b2 f7 33 be
       -0.022071496 -1.9545786 0.14949864 -0.17574957
0003d0 75 8c 73 bd fd e4 91 3e 2f 9e 4d 3c 85 18 10 3e
       -0.059460122 0.28495017 0.012549921 0.14071853
0003e0 5a f6 49 bc 3b 91 43 3e 67 83 86 3d 86 a7 25 bd
       -0.012326801 0.1909837 0.06568032 -0.040442966
0003f0 1d 34 3f bb 70 ac 5e bd fb bf 8d bd 9a 80 79 be
       -0.002917535 -0.054363668 -0.06921383 -0.24365464

net.2.bias f4 [128]
000000 f0 8f 89 3d 8a 4d 59 3d 37 83 c6 bc 63 f7 55 3d
       0.06716907 0.053052463 -0.02423249 0.05223788
000010 ab 0b 70 3d be a3 86 3d 27 c4 b4 3c 96 db 97 3b
       0.058604877 0.065742 0.022066189 0.004634331
000020 f5 79 2a 3d 1c e7 1e bd 27 37 70 3c dc 40 31 3c
       0.041620214 -0.03879462 0.014661587 0.010818686
000030 8d bf 85 bd c8 d3 e9 3d 68 7c 11 3d 91 a7 a0 ba
       -0.06530676 0.11417347 0.035519034 -0.001225697
000040 e4 bd be 3c 28 53 19 3d 14 3d 44 3d c8 75 eb bc
       0.023283906 0.03743282 0.04790981 -0.028742686
000050 ff b9 74 3c 07 12 8b bc 32 d4 00 3c ec 24 42 3b
       0.014936923 -0.01697637 0.007863091 0.0029624058
000060 ad 69 c0 bd 9d ec 80 3d 85 ee 8c bb e2 4f 7b 3d
       -0.09395156 0.062951304 -0.0043008947 0.06135548
000070 69 b0 ad bd c6 9e 59 bc ce 2a 84 3b 1f 2c 42 3c
       -0.08480913 -0.013282483 0.004033423 0.01185134
000080 b7 4e b4 3d 9a 70 0f 3d 69 c4 b2 bd a5 7c d9 3b
       0.08804076 0.035019495 -0.087288685 0.0066371732
000090 d9 6f 99 bd 7c 0f 69 3c 4d 84 19 3d 67 cd a1 bd
       -0.07492036 0.014224883 0.037479687 -0.079005055
0000a0 21 b3 7c 3c a4 6d 80 bd 8f f3 70 ba 60 68 90 bc
       0.015423567 -0.06270912 -0.00091915665 -0.017627895
0000b0 09 93 7b bd 01 b6 49 bc 6e c2 66 3d 8a 4c 04 bc
       -0.06141952 -0.0123114595 0.056337766 -0.008074889
0000c0 39 25 85 3b 95 cc b3 3d eb ea a0 bd 18 ab ca 3c
       0.004063275 0.08779255 -0.07857307 0.024739787
0000d0 9e b8 73 3d 4f ff 63 3d 5e 7f b1 bc 99 a0 80 3d
       0.059502237 0.055663403 -0.021667179 0.062806316
0000e0 3e c2 87 bb 66 98 89 bd de e5 3c 3c 38 19 ac 3d
       -0.0041430285 -0.06718521 0.011529414 0.084032476
0000f0 d3 e7 4c bc 29 94 06 3d 19 60 5a bc 70 2e 12 3d
       -0.012506443 0.03285614 -0.0133285755 0.035688818
000100 1c 0a 6f 3d f6 28 b2 bc 59 a0 1b bd ff 57 61 bd
       0.05835925 -0.021748047 -0.037994716 -0.05501556
000110 94 ef 1d bd 38 90 d5 3b 19 91 9b bd bf a9 a1 bd
       -0.038558558 0.0065174364 -0.075960346 -0.078937046
000120 88 c0 e2 3d c2 15 14 bd 2b 1b 55 bd 5f 99 ae bd
       0.11071879 -0.036153562 -0.052027863 -0.08525347
000130 24 1d 29 3c 9a 1b 58 bc 50 f2 0c bd 2c ea 9f 3d
       0.010321889 -0.0131901745 -0.034410775 0.078083366
000140 b8 4b b4 bd 30 9d 71 bd af c6 dd 3c 83 82 66 3d
       -0.08803505 -0.058987796 0.027072279 0.05627681
000150 cb bf 46 bd 13 2d 7a bc 28 0f 99 3d 45 89 6a 3d
       -0.04852275 -0.015269536 0.07473594 0.057259817
000160 ba 7a 4d 3d b1 03 20 3d ad 27 27 3d 81 81 49 bd
       0.05016587 0.03906602 0.040809322 -0.04919577
000170 1a 44 96 3d 95 13 19 3a 22 33 fa 3b 84 bc 28 bd
       0.07337208 0.0005839405 0.00763549 -0.041195408
000180 54 52 01 bc 9a ef 85 bc 89 97 9a 3d 73 00 96 3c
       -0.007893164 -0.016349602 0.07548434 0.018310761
000190 65 78 9d 3d 99 5a 50 bc 32 f9 34 3d 05 1c b7 bd
       0.07688979 -0.012716913 0.044182964 -0.08940891
0001a0 d8 be 06 bd d7 93 56 bd ed 1c 80 bc 23 1b 91 3d
       -0.032896847 -0.052387085 -0.015638793 0.07085254
0001b0 b3 c2 2a 3c 03 a4 f3 bd a9 95 04 bd c1 49 54 3c
       0.0104223965 -0.11896517 -0.03236929 0.012957037
0001c0 67 2e a7 3c e7 00 57 3c 3f c8 0c bd 0f b3 6b 3d
       0.020407869 0.013122774 -0.034370657 0.05754381
0001d0 63 b4 0a bd 51 12 8f bb 74 01 eb bc 3f c7 92 bd
       -0.033863436 -0.004366197 -0.028687216 -0.071669094
0001e0 85 7c 11 bd 1a e1 26 bd 66 dd a8 3d f0 4b 84 3d
       -0.03551914 -0.040742017 0.082453534 0.064597964
0001f0 b4 a5 04 3d 40 87 7c ba 07 62 82 bd 10 02 57 3c
       0.03238459 -0.0009633191 -0.063663535 0.01312305

net.4.weight f4 [3, 128]
000000 c8 c8 1c bc f5 eb aa 3e 0d ef ca 3e 41 6e 82 3d
       -0.009569354 0.33383146 0.39635506 0.063686855
000010 3c 4c 9d 3e 2a a9 aa be 53 da 4b be 68 0a b3 be
       0.30722225 -0.33332187 -0.19907503 -0.34968877
000020 98 6c c7 be 46 78 aa 3d 43 7e e7 3c e7 a3 1b 3e
       -0.38950038 0.083237216 0.028258448 0.15199243
000030 b6 7a aa 3b 2a f1 c5 3e c4 3d 27 3e 3e e7 de 3d
       0.0052026166 0.38660556 0.16332155 0.1088395
000040 a2 23 14 bf 9d 1e c3 be f0 6c c3 be 30 20 31 bf
       -0.5786687 -0.38109294 -0.3816905 -0.6918974
000050 15 dc 7a 3e 81 8a d3 3e 64 35 f8 3d 40 a9 5b bf
       0.24498017 0.41316608 0.121195585 -0.8580513
000060 33 41 47 3e 96 69 a7 be 57 10 5c bd a6 3f 99 3e
       0.19458465 -0.32697743 -0.05372652 0.29931372
000070 7f 13 d1 3d 48 99 a0 be ec 92 3a 3f d3 c9 5f 3d
       0.10208797 -0.31366944 0.72880435 0.054635834
000080 23 02 c8 3e 27 a3 c8 3e 9c 8c 51 bf af 50 b0 bc
       0.3906413 0.39186975 -0.8185518 -0.021522848
000090 c0 35 27 3f 3b 14 a4 bf 77 74 de be 11 d3 dc 3e
       0.6531639 -1.2818674 -0.4344823 0.4312978
0000a0 47 ad 22 3e 6e 16 55 be 17 38 77 bf a0 4a 24 bf
       0.15886413 -0.20809337 -0.9656996 -0.6417637
0000b0 fa 2b 82 3d 6e 25 2e 3e 8e 09 b6 3d 03 21 7c bf
       0.06356044 0.17006466 0.08888541 -0.9848787
0000c0 75 66 1c 3e 7c 1d 8b be 09 d9 af bd 24 d1 2d 3e
       0.1527346 -0.27170932 -0.08586318 0.16974312
0000d0 79 be 3a 3e 8e 64 0c bf 5b 1f 58 3e e1 c1 a9 be
       0.18236722 -0.54840934 0.21105711 -0.3315573
0000e0 ef 56 88 be 61 0f 1f 3e 16 3c c8 bd e6 aa 80 be
       -0.26628825 0.1553321 -0.097770855 -0.25130385
0000f0 97 57 33 3e 8e 8b ca bf 20 8f 98 be d2 e4 88 be
       0.17513882 -1.5823839 -0.29796696 -0.26737076
000100 ab b7 cd 3d 70 36 4a c0 24 ab 5e 3f 6b b8 d7 be
       0.100447975 -3.1595726 0.8697989 -0.42132887
000110 b2 93 2c be e9 dc 34 3d 40 34 58 bc 56 fd 96 3e
       -0.16853216 0.04415599 -0.013196051 0.29490155
000120 86 37 e7 3d 74 16 7a bf c5 a0 ec bf 84 15 a6 bc
       0.11289887 -0.9769051 -1.8486563 -0.020273931
000130 4f 2a 88 3d 45 19 38 be 18 e3 93 3e 66 1e bb be
       0.06648695 -0.1797839 0.28884196 -0.3654663
000140 18 81 04 bf 70 15 ca 3e 9a ea 54 bf 31 f4 19 3e
       -0.5175948 0.3946948 -0.83170474 0.15034558
000150 53 91 bb 3d 48 d5 16 bd 55 1b 68 be 68 7f fe 3d
       0.09158578 -0.036824495 -0.22666676 0.124266446
000160 a0 dc d3 be d5 89 d7 be 4e d2 da bf 59 41 a4 3e
       -0.4137926 -0.42097345 -1.709543 0.32081106
000170 35 a5 5e 3d 32 4b ad bd 7e 54 be bf 8a 0e 89 bf
       0.054356772 -0.08461608 -1.4869535 -1.0707562
000180 2c 6a 91 3d 87 f8 c6 3e 80 5c 07 bf a0 a9 28 3f
       0.07100329 0.38861486 -0.5287552 0.6588383
000190 fc f3 9f 3d 24 7b 92 be 72 9c a8 3d 84 ef 3f bc
       0.07810208 -0.28609574 0.082329646 -0.01171482
0001a0 71 1c b9 be b7 b1 1a 3e a4 77 33 3e dd 03 cc be
       -0.36154512 0.15106855 0.17526108 -0.39846697
0001b0 01 3e bb 3d 7d a0 ff be 37 7c fa 3e 6d 69 02 3e
       0.09142686 -0.4992713 0.48922893 0.12735529
0001c0 17 57 ed 3d 6e ca 11 be cb b5 ab 3e 59 80 6b be
       0.11588877 -0.14237377 0.33537135 -0.2299818
0001d0 aa c8 9c 3d db 4f a1 be aa 10 24 b9 2f 3b b4 3d
       0.07655461 -0.31506237 -0.00015646467 0.08800351
0001e0 68 8d 3f 3c ed 1a 04 3f 9a be 8f 3d 8b 91 ed 3d
       0.011691429 0.51603585 0.07018776 0.11600026
0001f0 45 d3 1b bf 1c 1e 9b 3e 8f b4 2b bf 0d bb da 3d
       -0.60869247 0.3029641 -0.67072386 0.10680208
000200 2f 64 bf 3c 14 15 e1 3e 4a 74 63 3e b7 bd a9 bd
       0.023363201 0.43961394 0.2221233 -0.08288138
000210 e7 79 62 3e 3e 45 a4 be 22 74 02 be f6 d9 53 be
       0.22116815 -0.32084078 -0.12739614 -0.20688614
000220 5b 1e 9f be 89 98 c0 be 2b 9f 6f bd 5d 0e 23 3e
       -0.31077847 -0.37616375 -0.058501404 0.15923448
000230 67 92 9b 3c 94 bd 54 3e 9e 16 9e 3c ea 45 b5 3d
       0.018990709 0.20775443 0.019297894 0.08851226
000240 34 37 22 bf f3 6e 89 be fd 11 39 bf 24 14 18 bf
       -0.63365483 -0.2684246 -0.7229307 -0.5940573
000250 13 88 16 3f 59 29 02 3e f3 9a 19 3e 5b 8d 89 be
       0.5880138 0.12711085 0.15000515 -0.26865658
000260 f3 4b 7f 3e 81 98 2a be ef 5c aa be ac ec 98 3e
       0.24931316 -0.16659738 -0.33274028 0.29868066
000270 9b 9d 00 3e 73 ff af be 16 1c 63 3f 3c ed b4 3d
       0.12560122 -0.3437458 0.8871473 0.08834311
000280 11 14 c5 3e ab 2a cd 3e c4 b0 55 bd 20 65 f3 3b
       0.38491872 0.40071616 -0.05217053 0.0074278265
000290 92 a1 90 3e 89 38 9b be 89 93 cc be 12 e5 1a 3e
       0.28248268 -0.3031657 -0.3995631 0.15126446
0002a0 7c 5d 31 3e 2b c2 c5 be b1 d9 1a bf 00 a7 da be
       0.17320818 -0.386247 -0.6048842 -0.42705536
0002b0 ea 58 0c 3d 99 01 83 3e b4 e9 91 3d 29 08 1b bf
       0.034264483 0.25587156 0.071246535 -0.60559326
0002c0 7a 04 28 3e 44 f2 63 be 56 cd 79 3d 1a a3 43 3e
       0.16407958 -0.22260386 0.06098684 0.19105187
0002d0 5b 39 3e 3e 6c 70 b5 be 25 40 11 be 8c ad f1 be
       0.18576567 -0.35437334 -0.14184625 -0.47202718
0002e0 2b fc ec 3c cd 4b 37 3e 01 be 9c be fb b8 03 3d
       0.028928837 0.1790001 -0.3061371 0.032158833
0002f0 89 74 1d 3e 6e 38 45 bf 05 eb d7 be e7 04 b8 be
       0.15376486 -0.7703923 -0.42171493 -0.3594124
000300 bd 6e d5 bd 4e d2 e6 bf 66 07 87 3f 03 79 ab be
       -0.10421512 -1.803293 1.0549133 -0.33490762
000310 7e 37 c9 be 00 8a be 3c e0 4f 06 bc ba 8a d9 3e
       -0.3930015 0.023259163 -0.008197755 0.42488652
000320 ff 80 a5 3d 32 5b 18 bf 24 c8 91 bf fe 3b cd 3b
       0.08081245 -0.59514153 -1.1389203 0.006263255
000330 5d bc 3a be 27 20 cc bd 87 ab 45 3e 7d 19 9e be
       -0.18235917 -0.0996707 0.19303714 -0.3087882
000340 5d 2b 8e be e8 47 f2 3e 30 95 35 bf 1c 62 09 3e
       -0.2776746 0.47320485 -0.7093077 0.13416332
000350 6e 89 33 3d c4 a9 54 3c f1 dd 70 be 40 c6 e7 3d
       0.043832235 0.012979928 -0.23522164 0.1131711
000360 a6 6e 8a be 31 8d 95 be 11 9e 5b bf 59 4b b5 3e
       -0.27037543 -0.29209283 -0.85788065 0.35409048
000370 da bc 26 3e c1 04 89 3d 26 89 a6 bf 26 91 25 bf
       0.16282979 0.0669036 -1.3010604 -0.64674604
000380 2c 0e 6d 3d 6f c8 10 be 1c 64 d4 be ab d0 e9 3e
       0.057874843 -0.1413896 -0.41482627 0.45667014
000390 04 65 af 3c 4d 90 4d be 39 8b e9 3d ae b1 69 bd
       0.021410473 -0.20074578 0.11403508 -0.057054214
0003a0 f3 c6 5d be 39 2a 2f bd 49 2d 08 3e ba f0 b5 be
       -0.21657924 -0.042764876 0.13298525 -0.35535222
0003b0 34 52 c2 bd 8f 99 0c bf ad 7e 19 3f 38 02 36 3e
       -0.09488335 -0.5492181 0.59958917 0.17774284
0003c0 34 34 96 bd 49 df 5c 3d f8 f5 ed 3e ac c8 e0 bd
       -0.07334176 0.05392388 0.46476722 -0.10975775
0003d0 d0 47 d7 3d 85 b9 5c be b5 f8 d6 3b 12 26 3f 3d
       0.10511744 -0.21555145 0.00656041 0.046667166
0003e0 43 ba 61 3d d9 b1 b1 3e d1 28 01 3e bd 8d 68 3d
       0.055109274 0.34706 0.12613226 0.056775797
0003f0 b6 3f d3 be bd 03 d7 3e 44 17 1a bf 60 91 6d 3e
       -0.41259545 0.4199504 -0.6019175 0.23199987

net.4.bias f4 [3]
000000 a7 75 47 3d 54 ac f1 3b 0d 36 48 3d
       0.048696186 0.0073752794 0.04887967
