train-pong/saved_models/dqn_episode_350.pth (torch, 74357 bytes, 6 tensors)

net.0.weight f4 [128, 6]
0.18408628 0.28156626 0.24790162 -0.37429047 0.037421238 -0.35176924 -0.37456846 -0.426686
0.3535901 -0.15621288 0.1860286 -0.25944668 -0.006938992 -0.51953924 -0.35047328 -0.26888567
-0.092735335 -0.00023013016 -0.22705092 0.066321574 0.22258522 -0.04764067 0.16994378 -0.19384317
-0.2235964 -0.3570087 0.011383763 0.21559992 -0.19496872 0.37373978 0.4375396 -0.34346744
0.28102258 0.16171703 -0.39743492 -0.15817128 -0.47827968 0.21862097 -0.24751437 -0.54000044
0.3730509 -0.26873833 -0.20159414 -0.2912962 -0.3140136 -0.039220035 -0.4029051 -0.31180844
0.08481789 -0.037933365 -0.3096692 0.02793818 -0.37837958 -0.12972996 0.35617667 -0.5434591
-0.25048304 0.26144218 -0.22345147 0.21025619 -0.30211174 -0.17920627 0.29319987 0.47530416
0.49505338 0.021303065 0.14402156 0.075689524 -0.034346916 0.027097726 0.036796793 -0.32322374
0.19541945 -0.300702 0.61573917 -0.07677044 -0.00026482303 -0.07419679 0.19448468 0.5060651
0.30613938 0.4726507 -0.34160736 -0.2952713 -0.49613398 0.23154725 0.2687621 0.13198654
0.068196364 -0.20928949 0.12212987 0.4834548 0.05362503 -0.025936259 0.12385782 -0.2587662
-0.23784855 -0.09460892 -0.2156027 -0.22688003 -0.10405746 0.2883437 0.32089865 0.09253371
0.28865173 -0.3517878 -0.11649955 0.036817618 -0.17764655 0.10058716 -0.5311421 -0.011864761
-0.2373863 0.32086325 0.13505405 0.54862744 0.20280361 -0.4034085 0.104194425 0.04945724
-0.017543197 0.19966179 0.22692734 0.3383208 0.03267175 -0.25691888 -0.40919843 0.15828937
-0.44092533 0.18312766 0.28187922 -0.19556071 -0.26112297 -0.15608129 -0.72443867 0.16936952
0.3522841 0.07199609 0.11063079 0.4613992 -0.100799195 0.30084532 0.05208871 -0.17785738
-0.22957551 0.11103126 -0.37916058 0.18129317 0.14238001 0.11769132 0.28776956 -0.487276
-0.19953465 -0.20502879 0.19042364 0.18974231 -0.18875565 0.18668704 0.068004854 -0.010730309
0.05899831 0.091456115 -0.14104646 0.19239631 0.35421613 0.10208998 0.03436686 -0.067625254
0.052196324 -0.09513697 -0.035271645 0.1715278 -0.20500663 0.040974677 0.21689737 -0.1378839
-0.24037653 0.38250715 -0.18471766 -0.33919424 -0.16718897 -0.39362335 -0.37741923 0.06818259
-0.07830933 0.044889033 0.23917992 0.47670734 0.069841295 -0.1929259 0.05323832 0.013933707
0.06557089 0.24059695 0.20599224 -0.10608076 -0.37998426 -0.14148651 -0.2039081 -0.35407794
-0.04043758 0.073155545 0.4355642 0.108789705 0.19854578 0.23483197 0.65844417 -0.39454773
-0.03656434 -0.140216 -0.4420155 -0.2628398 0.22362313 0.33820027 0.3612479 0.04391404
0.030023724 -0.2013294 -0.21042638 0.13468373 0.0039320886 -0.046811074 -0.28679195 0.159155
-0.45638117 -0.16810429 -0.15812115 -0.20765786 -0.089966446 -0.20693728 -0.12993851 -0.4340031
0.16683674 0.24340352 -0.034180135 -0.40934184 0.23924102 0.025918812 0.47457153 0.01924696
-0.24552193 -0.35621077 0.09028393 0.29385898 0.033808667 0.26463288 -0.07913056 -0.097874485
-0.2856637 -0.20041828 -0.09041078 -0.22117005 -0.19709739 -0.23125868 -0.5735659 0.21334091
00000000: 1d81 3c3e 7429 903e ecd9 7d3e 00a3 bfbe
00000010: 0347 193d 191b b4be 70c7 bfbe 9676 dabe
00000020: c309 b53e 45f6 1fbe 487e 3e3e 32d6 84be
00000030: 7c60 e3bb 8600 05bf 3c71 b3be 62ab 89be
00000040: 06ec bdbd 184f 71b9 0980 68be 9bd3 873d
00000050: 61ed 633e dd22 43bd be05 2e3e d37e 46be
00000060: 74f6 64be d8c9 b6be f682 3a3c 3ac6 5c3e
00000070: e1a5 47be d25a bf3e 3105 e03e f7da afbe
00000080: 31e2 8f3e 2699 253e 977c cbbe a7f7 21be
00000090: 13e1 f4be 2dde 5f3e 6874 7dbe 783d 0abf
000000a0: 8700 bf3e 1298 89be b26e 4ebe c724 95be
000000b0: 64c6 a0be 30a5 20bd 9449 cebe 5ba5 9fbe
000000c0: 00b5 ad3d 0460 1bbd f68c 9ebe 9cde e43c
000000d0: f8ba c1be eed7 04be ca5c b63e 2320 0bbf
000000e0: 503f 80be c0db 853e 76d0 64be 664d 573e
000000f0: 64ae 9abe d981 37be 4b1e 963e 115b f33e
00000100: a377 fd3e c483 ae3c 637a 133e 1c03 9b3d
00000110: 5aaf 0cbd 0dfc dd3c 3cb8 163d 957d a5be
00000120: 091c 483e 9df5 99be 15a1 1d3f d239 9dbd
00000130: f2d7 8ab9 7df4 97bd fe26 473e 7b8d 013f
00000140: 4dbe 9c3e 46ff f13e 29e7 aebe cd2d 97be
00000150: 4605 febe b91a 6d3e 309b 893e 7b27 073e
00000160: 89aa 8b3d fc4f 56be 3a1f fa3d 6387 f73e
00000170: eba5 5b3d 4778 d4bc 2ba9 fd3d 017d 84be
00000180: 928e 73be 52c2 c1bd f4c6 5cbe 3d53 68be
00000190: 141c d5bd c9a1 933e d44c a43e 5082 bd3d
000001a0: 29ca 933e 881d b4be 5197 eebd 12ce 163d
000001b0: fae8 35be a400 ce3d eef8 07bf 6a64 42bc
000001c0: 6515 73be 3048 a43e 9c4b 0a3e d972 0c3f
000001d0: c0ab 4f3e 8f8b cebe e363 d53d ad93 4a3d
000001e0: c0b6 8fbc 2474 4c3e a45f 683e 6238 ad3e
000001f0: d0d2 053d df8a 83be 7582 d1be 9c16 223e
00000200: f7c0 e1be d185 3b3e 7952 903e 1141 48be
00000210: e9b1 85be c6d3 1fbe d074 39bf 346f 2d3e
00000220: 955e b43e b072 933d 6592 e23d 843c ec3e
00000230: cf6f cebd 6608 9a3e f95a 553d 3f20 36be
00000240: d815 6bbe 5b64 e33d 5621 c2be eba4 393e
00000250: 11cc 113e 2608 f13d 8856 933e 3d7c f9be
00000260: d052 4cbe 11f3 51be 6afe 423e cf4b 423e
00000270: 2949 41be e32a 3f3e 2146 8b3d 2ece 2fbc
00000280: 36a8 713d 584d bb3d 7c6e 10be 8a03 453e
00000290: d15b b53e 8d14 d13d 44c4 0c3d 1c7f 8abd
000002a0: d0cb 553d 2cd7 c2bd 0079 10bd fca4 2f3e
000002b0: 42ed 51be 10d5 273d 581a 5e3e 7031 0dbe
000002c0: 4425 76be fad7 c33e a026 3dbe deaa adbe
000002d0: 9633 2bbe 0089 c9be 183d c1be 50a3 8b3d
000002e0: a460 a0bd 90dd 373d 95eb 743e fc12 f43e
000002f0: f408 8f3d 5e8e 45be 6d10 5a3d 344a 643c
00000300: 084a 863d 0c5f 763e a1ef 523e df40 d9bd
00000310: 4c8d c2be d7e1 10be 49cd 50be b449 b5be
00000320: e0a1 25bd 93d2 953d 4502 df3e 23cd de3d
00000330: 964f 4b3e cb77 703e cc8f 283f 2902 cabe
00000340: 7dc4 15bd c894 0fbe db4f e2be f092 86be
00000350: 76fd 643e 9628 ad3e 7cf5 b83e 35df 333d
00000360: 50f4 f53c 4b29 4ebe 037a 57be 88ea 093e
00000370: c0d8 803b f8bc 3fbd 65d6 92be 87f9 223e
00000380: cbaa e9be 8823 2cbe 83ea 21be 43a4 54be
00000390: 5440 b8bd 5ee7 53be 9a0e 05be a835 debe
000003a0: 40d7 2a3e c63e 793e 7800 0cbd 4195 d1be
000003b0: 99fb 743e b053 d43c 0afb f23e cdab 9d3c
000003c0: 1a6a 7bbe 4261 b6be c8e6 b83d af74 963e
000003d0: f57a 0a3d f67d 873e 340f a2bd 6b72 c8bd
000003e0: 8342 92be 733a 4dbe 4929 b9bd 677a 62be
000003f0: e6d3 49be 13cf 6cbe 37d5 12bf 0a76 5a3e

net.0.bias f4 [128]
-0.05122412 -0.10109294 0.34754613 -0.12750943 0.4293741 0.46839353 0.15421301 0.109018564
0.27721113 0.35858884 -0.17970842 0.01215779 0.052131433 -0.011820756 -0.19616602 -0.22455111
0.14623657 -0.12779962 -0.17897615 -0.4015816 -0.27382118 -0.038995057 -0.09305227 -0.2383369
-0.14720766 0.019880654 -0.31212103 -0.22186323 -0.16197893 -0.20956784 -0.24902178 -0.2302255
0.17594397 0.2104027 0.04010162 0.33064136 -0.30346006 0.24016766 -0.24215496 0.23143907
-0.38825658 0.32588437 0.3900498 -0.20517816 -0.39296618 -0.3475965 0.16924533 0.16656402
0.18013434 -0.026910406 0.110220395 0.27657416 0.28897986 -0.051559918 -0.31684372 -0.31468943
-0.28106135 -0.008251188 -0.23271959 0.11545816 -0.08873607 0.07492095 -0.066045105 -0.52970535
-0.104899436 -0.14501193 0.012721713 -0.45524916 -0.2722961 -0.005240947 0.18814296 -0.11230643
-0.16683239 0.10156172 0.25515828 -0.10491115 0.15984891 -0.1396963 -0.38280365 -0.3373697
0.07696631 0.18188371 -0.25504068 -0.13469501 -0.23624983 -0.38449517 0.22061324 -0.39960438
-0.36330575 -0.045250304 0.07968027 -0.03678909 -0.095833115 -0.23769522 0.22175004 0.0033450152
-0.3229687 0.077312835 -0.18408485 -0.16786866 -0.10897071 -0.063803054 -0.22135524 -0.1321814
0.31212863 -0.25270686 -0.25956517 0.35260174 -0.14949335 -0.30680007 -0.34948918 0.090632975
0.024159946 0.3192912 0.20055902 -0.2303192 -0.2554348 -0.36776382 0.037766345 -0.13747652
0.016569734 0.19907443 0.05362004 0.0499295 0.104335666 0.27515462 0.2314942 -0.03199026
00000000: 62d0 51bd d109 cfbd 91f1 b13e d591 02be
00000010: ecd6 db3e 47d1 ef3e 04ea 1d3e 2045 df3d
00000020: 9eee 8d3e f598 b73e 7c05 38be 7831 473c
00000030: c587 553d d8ab 41bc bfdf 48be baf0 65be
00000040: 0abf 153e e7dd 02be 8645 37be 1a9c cdbe
00000050: 4a32 8cbe 48b9 1fbd 3092 bebd 970e 74be
00000060: 9bbd 16be c1dc a23c 54ce 9fbe 1d30 63be
00000070: cedd 25be f498 56be 91ff 7ebe 3cc0 6bbe
00000080: a82a 343e ce73 573e 9941 243d d349 a93e
00000090: 1e5f 9bbe 83ee 753e 78f7 77be 5dfe 6c3e
000000a0: 91c9 c6be 51da a63e 9bb4 c73e 391a 52be
000000b0: dd32 c9be 2bf8 b1be a64e 2d3e c28f 2a3e
000000c0: 2375 383e 3673 dcbc 3bbb e13d 219b 8d3e
000000d0: 2bf5 933e 7e30 53bd 5739 a2be f91e a1be
000000e0: 46e7 8fbe fe2f 07bc 0b4e 6ebe 5475 ec3d
000000f0: 42bb b5bd 2870 993d a842 87bd c59a 07bf
00000100: 84d5 d6bd 027e 14be bb6e 503c 6b16 e9be
00000110: 656a 8bbe 40bc abbb 8ca8 403e ea00 e6bd
00000120: 1cd6 2abe 97ff cf3d 1ba4 823e a8db d6bd
00000130: 6faf 233e 8c0c 0fbe d7fe c3be b9bb acbe
00000140: 83a0 9d3d b93f 3a3e b194 82be 7ded 09be
00000150: 7aeb 71be 8ddc c4be 70e8 613e f298 ccbe
00000160: 3603 babe 6258 39bd 692f a33d 28b0 16bd
00000170: 2744 c4bd 6066 73be 7112 633e 0b38 5b3b
00000180: 275c a5be 3156 9e3d bd80 3cbe c3e5 2bbe
00000190: 092c dfbd 2dab 82bd f3aa 62be 905a 07be
000001a0: 53cf 9f3e cb62 81be bae5 84be 3788 b43e
000001b0: c914 19be e614 9dbe 3ff0 b2be c89d b93d
000001c0: 14eb c53c 237a a33e 585f 4d3e ccd8 6bbe
000001d0: 5ac8 82be 8a4b bcbe e2b0 1a3d a5c6 0cbe
000001e0: 40bd 873c 2bda 4b3e b0a0 5b3d e082 4c3d
000001f0: f0ad d53d 11e1 8c3e d10c 6d3e 3808 03bd

net.2.weight f4 [128, 128]
-0.26088688 -0.041202273 -0.15354946 -0.13601194 -0.1288751 0.03175391 -0.13400622 -0.057545513
0.026790023 0.013154861 -0.08393348 -0.03955756 -0.4831729 0.040437203 -0.045917787 -0.037845697
-0.014156923 -0.25285998 -0.033297673 -0.28702953 0.055555545 -0.07311929 0.038038846 0.029386908
-0.017091583 0.094378255 0.13687178 -0.050845604 -0.033986997 -0.08320343 0.042548202 0.010441439
-0.115116715 0.03390862 -0.060940415 -0.010877297 -0.06249831 -0.15967889 0.024927013 -0.009568737
0.015149251 -0.34446636 -0.47580296 -0.05278592 -0.05555178 -0.18359716 -0.11274772 -0.40044627
-0.22850336 0.023708623 -0.0665058 0.013022741 -0.22755486 0.0035922187 -0.058944136 -0.14439183
0.057692043 -0.059208136 0.0022924663 -0.1102584 -0.28022075 0.002988269 0.14481962 -0.009467329
-0.03834835 -0.12146186 -0.009025182 0.058211118 0.052677684 -0.026274776 0.014374613 -0.050841328
0.06636656 -0.3785114 -0.0761945 0.07051807 -0.6458582 0.078834616 0.029401116 0.06951975
-0.05941029 -0.0545339 0.027259357 -0.01902012 -0.03162808 -0.002324963 -0.08314447 -0.035054766
0.07376166 -0.006981991 0.025402153 0.0723887 0.0029630098 -0.32040742 0.0072826673 -0.14086294
0.07359249 0.0053961514 -0.15551183 -0.020450138 -0.9755805 -0.024834728 -0.14900783 0.029414095
-0.0011080022 -0.25568923 0.037860233 -0.04450487 -0.02186985 -0.035291072 0.040073223 -0.06300664
0.095253825 -0.2953536 0.007909311 -0.051889654 -0.21087304 -0.29727387 -0.1309013 -0.055917766
-0.031022724 -0.16093753 -0.1860121 -0.037586696 0.041697405 0.020789051 -0.023875605 -7.31796e-05
0.21423133 0.028556557 -0.25984126 0.0686142 -0.27624863 -0.37782875 0.007615075 0.04317347
-0.018614402 -0.06595469 -0.43545434 -0.11613006 -0.3200659 0.25134802 -0.083144166 0.24692452
-0.15519574 0.088663146 -0.12355187 0.23867208 0.018095054 -0.23697107 -0.1973064 0.033377603
-0.08102747 -0.07861114 0.046676893 -0.010316519 0.071385406 0.01953262 -0.031314 0.0937216
0.29036602 -0.22000553 0.08912158 -0.12240477 0.029122397 -0.12085505 -0.123657025 -0.25713432
0.019554049 -0.8402123 -0.012005502 -0.017582286 0.00019210577 0.043986816 0.059318434 -0.08612793
-0.19621825 -0.18406272 0.13881269 0.036909614 -0.5943227 -0.20812894 -0.036993902 -0.16876571
0.037360407 -0.19701366 0.2656015 0.08032561 0.12492683 0.020683495 -0.4816785 0.096205436
-0.12536424 0.01736508 0.1509575 0.07098021 -0.005041048 -0.08465896 -0.11427183 0.21502765
-0.05591833 -0.4648489 -0.2095789 0.08092857 -0.51771325 0.047178544 -0.056072365 -0.36785272
-0.06983867 -0.16222018 0.015940644 -0.049146872 -0.2182248 0.094191566 0.023202179 0.03907696
0.1888467 -0.08721773 -0.06634283 -0.046386622 -0.02528694 0.08736714 -0.03813197 -0.34256253
-0.055105906 0.20478143 -0.43470207 -0.08754187 -0.61235577 0.19345504 0.017186318 -0.012990817
-0.13728438 0.24068944 0.041470926 -0.0138033815 -0.28892305 -0.4590814 0.0014347658 -0.075500146
-0.15722604 -0.359014 -0.19557 0.11881268 -0.11596971 -0.21472128 -0.102046855 0.039996076
-0.043262485 0.0033871578 0.036301866 -0.11710675 0.31130168 -0.065531135 -0.028024744 0.014876887
00000000: f792 85be b7c3 28bd 123c 1dbe b746 0bbe
00000010: d6f7 03be 6310 023d ed38 09be d8b4 6bbd
00000020: c076 db3c 7c87 573c 51e5 abbd 1c07 22bd
00000030: 7062 f7be 7ba1 253d 4a14 3cbd 1704 1bbd
00000040: 70f2 67bc dd76 81be 2463 08bd 89f5 92be
00000050: 368e 633d 91bf 95bd 9fce 1b3d d0bc f03c
00000060: a603 8cbc 6349 c13d 1e28 0c3e 7b43 50bd
00000070: f335 0bbd 8f66 aabd 0647 2e3d 9212 2b3c
00000080: 50c2 ebbd c4e3 0a3d a89c 79bd b136 32bc
00000090: 3afe 7fbd dd82 23be bc33 cc3c 31c6 1cbc
000000a0: 9034 783c e55d b0be 729c f3be 0d36 58bd
000000b0: 438a 63bd e500 3cbe 47e8 e6bd 4b07 cdbe
000000c0: c9fc 69be 9638 c23c 3134 88bd 565d 553c
000000d0: 2404 69be 6e6b 6b3b 686f 71bd 74db 13be
000000e0: 7e4e 6c3d 3b84 72bd 343d 163b 28cf e1bd
000000f0: 1879 8fbe d6d6 433b 984b 143e db1c 1bbc
00000100: 2913 1dbd ffc0 f8bd 5bde 13bc c86e 6e3d
00000110: 8ec4 573d 333e d7bc 7f83 6b3c ff3e 50bd
00000120: 31eb 873d 3fcc c1be dd0b 9cbd c76b 903d
00000130: f756 25bf 0b74 a13d 9cda f03c 5f60 8e3d
00000140: 3458 73bd f05e 5fbd 044f df3c 15d0 9bbc
00000150: 728c 01bd 685e 18bb a647 aabd 9695 0fbd
00000160: 5a10 973d 30c9 e4bb 2d18 d03c 8740 943d
00000170: 0e2f 423b 710c a4be 71a3 ee3b 603e 10be
00000180: a9b7 963d 33d2 b03b 7e3e 1fbe 0c87 a7bc
00000190: a5bf 79bf 3372 cbbc 8295 18be d4f5 f03c
000001a0: 623a 91ba b3e9 82be 5513 1b3d bd4a 36bd
000001b0: 6628 b3bc 5f8d 10bd d223 243d a009 81bd
000001c0: 7014 c33d 9638 97be 0e96 013c 3f8a 54bd
000001d0: 1aef 57be 4834 98be fe0a 06be 070a 65bd
000001e0: 5e23 febc cfcc 24be f579 3ebe 82f4 19bd
000001f0: e6ca 2a3d cd4d aa3c c696 c3bc 0078 99b8
00000200: 755f 5b3e 71ef e93c ea09 85be 9a85 8c3d
00000210: 7670 8dbe c572 c1be e187 f93b aad6 303d
00000220: 3b7d 98bc 4113 87bd dff3 debe 99d5 edbd
00000230: addf a3be b0b0 803e 7d47 aabd c8d9 7c3e
00000240: a2eb 1ebe 0695 b53d c308 fdbd 7466 743e
00000250: 143c 943c 8ba8 72be b00a 4abe f4b6 083d
00000260: bbf1 a5bd e1fe a0bd 4530 3f3d 9e06 29bc
00000270: 8332 923d e002 a03c 1c43 00bd 1cf1 bf3d
00000280: dbaa 943e 2149 61be 6085 b63d 5aaf fabd
00000290: 1892 ee3c da82 f7bd e53f fdbd 1ca7 83be
000002a0: d02f a03c 2718 57bf bab2 44bc ba08 90bc
000002b0: 0070 4939 852b 343d e3f7 723d d763 b0bd
000002c0: 70ed 48be f07a 3cbe ea24 0e3e 892e 173d
000002d0: 8825 18bf c11f 55be eb86 17bd ebd0 2cbe
000002e0: 3a07 193d f3bd 49be ebfc 873e c181 a43d
000002f0: a3d9 ff3d 6f70 a93c 909e f6be 5b07 c53d
00000300: 7c5f 00be 3641 8e3c 9a94 1a3e 135e 913d
00000310: 602f a5bb ad61 adbd 5907 eabd 3530 5c3e
00000320: 9e0a 65bd ad00 eebe da9b 56be e1bd a53d
00000330: db88 04bf 4a3e 413d 23ac 65bd 3157 bcbe
00000340: 9407 8fbd 0c1d 26be f495 823c 3b4e 49bd
00000350: 5276 5fbe 82e7 c03d 7f12 be3c 2a0f 203d
00000360: 0861 413e 369f b2bd c0de 87bd e6ff 3dbd
00000370: 8f26 cfbc 8bed b23d 4530 1cbd 5b64 afbe
00000380: bbb6 61bd 39b2 513e 4591 debe 2749 b3bd
00000390: 59c3 1cbf 1419 463e 52ca 8c3c 70d7 54bc
000003a0: 4794 0cbe 4b77 763e 6bdd 293d 9427 62bc
000003b0: b9ed 93be b80c ebbe c00e bc3a d29f 9abd
000003c0: ddff 20be afd0 b7be 8143 48be 1054 f33d
000003d0: 8781 edbd e5df 5bbe f1fd d0bd edd2 233d
000003e0: 0134 31bd 14fb 5d3b 44b1 143d aad5 efbd
000003f0: ef62 9f3e 3035 86bd 2694 e5bc 30be 733c

net.2.bias f4 [128]
0.047950175 0.0048627895 -0.031295538 -0.09439677 -0.15755801 0.01495127 -0.0042711613 -0.034548614
-0.0047667203 -0.051800977 -0.07034176 0.13986214 0.008637697 0.15305465 -0.026770612 -0.061882827
0.0356299 -0.07243417 0.04419203 -0.019070085 -0.01736043 -0.013936796 -0.028780138 -0.066669315
0.110469915 -0.08375484 -0.059961155 -0.048962872 -0.059253547 0.021113409 -0.04418164 0.12314696
0.00978339 0.018063445 0.13176692 -0.0684462 -0.08307796 -0.07679307 -0.082132116 -0.026762895
-0.02900447 0.020318579 0.16475116 -0.028878856 -0.031152625 -0.062026933 -0.006627545 -0.09042181
0.04661526 0.036143985 -0.04703714 -0.052319262 -0.029515449 -0.14165996 -0.09819753 -0.039403558
0.011252921 -0.03589665 -0.08258745 0.0043385806 -0.006711453 0.009794679 -0.017842826 -0.096976385
-0.051590357 0.04884466 0.018223686 -0.045767784 -0.026616367 0.07125984 -0.0911793 -0.035979997
-0.021903044 0.0010781523 0.15866388 -0.07353388 0.008806624 0.0072830482 0.11059385 -0.06100596
-0.08845049 -0.0810041 -0.03545585 0.13363747 -0.008746549 -0.010187685 0.010188053 0.050871518
-0.115341745 -0.010159431 -0.0743403 0.042169046 0.0918963 -0.009978854 0.15025197 0.06343019
-0.08062595 -0.13322058 0.08378611 0.0010110228 -0.005501134 0.06179337 0.01701529 0.16539364
0.11666458 -0.08357627 0.055196263 -0.077387154 -0.04927698 -0.07712152 -0.11787873 0.027851654
-0.054804754 0.09704498 0.040645175 0.04559818 -0.049655534 0.1299354 -0.039742954 -0.052977446
0.041186783 0.04992833 -0.06522489 -0.08331672 -0.019062547 0.014444399 0.0090269325 -0.056849547
00000000: 6767 443d 0958 9f3b c02f 00bd 1853 c1bd
00000010: e356 21be 2cf6 743c 19f5 8bbb d982 0dbd
00000020: 2632 9cbb 432d 54bd 570f 90bd 0538 0f3e
00000030: 2185 0d3c 5cba 1c3e 0b4e dbbc d978 7dbd
00000040: a8f0 113d 5e58 94bd b402 353d de38 9cbc
00000050: 7637 8ebc 2957 64bc 53c4 ebbc ec89 88bd
00000060: 0d3e e23d a887 abbd d499 75bd 4b8d 48bd
00000070: d9b3 72bd 07f6 ac3c cff7 34bd 7934 fc3d
00000080: 834a 203c caf9 933c e8ed 063e 852d 8cbd
00000090: c724 aabd af45 9dbd e234 a8bd dc3d dbbc
000000a0: c89a edbc 2673 a63c 87b4 283e 5a93 ecbc
000000b0: ca33 ffbc f40f 7ebd e12b d9bb 122f b9bd
000000c0: a5ef 3e3d b70b 143d 04aa 40bd b94c 56bd
000000d0: 62ca f1bc 4f0f 11be c91b c9bd a065 21bd
000000e0: 2c5e 383c 5e08 13bd 9c23 a9bd a72a 8e3b
000000f0: c0eb dbbb dc79 203c 1e2b 92bc 8e9b c6bd
00000100: 6950 53bd 5711 483d d749 953c 0077 3bbd
00000110: 910a dabc aef0 913d 36bc babd c35f 13bd
00000120: 036e b3bc ca50 8d3a c978 223e ee98 96bd
00000130: a949 103c a3a6 ee3b 077f e23d 63e1 79bd
00000140: 8825 b5bd 7ae5 a5bd 273a 11bd 43d8 083e
00000150: af4d 0fbc 3fea 26bc cbeb 263c a75e 503d
00000160: 4b38 ecbd be73 26bc ba3f 98bd 73b9 2c3d
00000170: 2134 bc3d 597e 23bc a7db 193e b0e7 813d
00000180: 381f a5bd fa6a 08be 0d98 ab3d 4c84 843a
00000190: db42 b4bb 0b1b 7d3d a663 8b3c f35c 293e
000001a0: d7ed ee3d 092a abbd 7a15 623d 287d 9ebd
000001b0: a9d6 49bd e3f1 9dbd 676a f1bd 2729 e43c
000001c0: f37a 60bd 85bf c63d 8e7b 263d 28c5 3a3d
000001d0: 9a63 4bbd c90d 053e 82c9 22bd e1fe 58bd
000001e0: 79b3 283d a681 4c3d a194 85bd f5a1 aabd
000001f0: 0f29 9cbc 33a8 6c3c b3e5 133c 12db 68bd

net.4.weight f4 [3, 128]
-0.06417629 -0.41035524 0.060639672 -0.03193643 -0.109857135 0.02083308 -0.46953952 -0.079189904
0.022900287 0.010476168 0.0786486 0.12179751 -0.008506696 0.16699941 0.15311697 0.26799628
0.21455336 0.074636355 0.028888647 0.06183786 -0.05086523 0.047612574 -0.040081087 -0.008534827
0.14677557 -0.08391789 -0.06810771 0.012141652 0.07607111 0.22050916 -0.036879886 -0.29405868
0.18944894 -0.008610253 0.14417052 0.010231398 0.02300682 0.021776643 0.017645612 0.14400712
0.065215595 0.23098604 0.12151475 0.10587054 -0.06739597 0.073244184 -0.087290905 0.09461545
0.088045 0.06908308 0.03850892 -0.0016941408 -0.00242058 -0.022221964 -0.022891684 -0.006808143
0.077687696 0.047813583 0.034104858 0.03935834 0.101633415 0.25633544 0.31614482 0.15151285
-0.11744095 0.064728044 0.139868 -0.11400343 0.0917172 -0.16287388 -0.58554864 -0.5012811
-0.013752341 -0.048767466 -0.34091848 0.05628968 -0.019960567 -0.07336887 0.17016053 0.14218949
-0.023751503 -0.032714956 0.029997515 0.15043464 -0.012923628 -0.03771929 -0.4821506 0.26193357
-0.054045025 0.032527104 -0.08055384 0.14782707 0.14614874 -0.035050694 0.16849852 0.09131347
-0.36248347 -0.15147533 0.06010368 0.25188777 0.012745533 0.12909687 0.07314173 0.2196654
0.15339667 -0.08784308 0.044946205 0.06846491 0.028911069 -0.4130444 0.1356555 -0.44608963
0.09909743 0.18572105 0.27158755 -0.3192613 0.028799653 0.102034934 -0.4208383 0.05145793
-0.62802607 0.07044006 0.032257322 0.016502433 -0.12466423 -0.03994581 -0.39179134 -0.48199603
-0.03669025 -0.2161053 0.0036055662 -0.10109401 -0.08835396 0.059826396 -0.48339868 0.008176769
0.0016433591 -0.04094083 0.053322624 0.13211264 0.019029336 0.12818803 0.118803 0.13341083
0.2077308 0.02252153 -0.036839437 -0.03624733 -0.0834457 -0.07523076 -0.09305508 0.07454632
0.23697092 0.085150845 -0.07320223 0.026302282 0.15300944 0.15571886 0.07715256 -0.45523986
0.14459278 -0.009928393 0.12143826 -0.03661089 0.070264675 0.0065109525 -0.013056298 0.118495375
-0.04791595 0.20189515 0.0702371 0.1719996 -0.09622816 0.04478113 -0.08399411 0.0020635438
-0.043299355 0.058897275 0.04522735 -0.03030964 0.061936926 -0.15390536 -0.11124624 -0.043076992
-0.010215509 -0.06529312 0.03614521 0.031023331 0.13685131 0.13744332 0.2939151 0.13106331
-0.15304145 0.096386604 0.058462985 -0.0803019 0.09253725 -0.12720214 -0.675035 -0.50342
0.049262404 -0.031167086 -0.5365782 0.043753795 -0.0383708 -0.14027032 0.17991075 0.3051186
-0.087358944 0.04824972 0.04823142 0.14584993 0.072843745 0.032700807 -0.35501015 0.18862349
-0.10100222 0.06430175 -0.16007374 0.08799711 0.17021094 -0.0005299236 0.1423616 -0.030657593
-0.054253172 -0.16708352 0.12584874 0.23054667 0.0777376 0.21398647 0.050898466 0.31380647
0.28815374 -0.003375709 0.07413321 -0.052294753 -0.06216768 -0.412923 0.14966914 -0.085622825
0.09916693 0.12839815 0.25969768 -0.5462881 0.25888565 0.053850085 -0.4680738 0.061016366
-0.37686312 0.10720634 0.05156633 -0.0056045577 -0.12244682 -0.031197015 -0.49824387 -0.46456447
00000000: dc6e 83bd 151a d2be 4e61 783d c6cf 02bd
00000010: c7fc e0bd 23aa aa3c 7c67 f0be 512e a2bd
00000020: 6299 bb3c 3ca4 2b3c 8412 a13d f970 f93d
00000030: ab5f 0bbc e501 2b3e b2ca 1c3e cf36 893e
00000040: e0b3 5b3e f2da 983d e2a7 ec3c b249 7d3d
00000050: 0f58 50bd 6705 433d 112c 24bd a9d5 0bbc
00000060: 564c 163e 25dd abbd 0e7c 8bbd c8ed 463c
00000070: 2ccb 9b3d 27cd 613e 5d0f 17bd dc8e 96be
00000080: e7fe 413e 0512 0dbc 70a1 133e 98a1 273c
00000090: cc78 bc3c ee64 b23c 888d 903c 9a76 133e
000000a0: c18f 853d 9b87 6c3e badc f83d a7d2 d83d
000000b0: e606 8abd 0c01 963d 93c5 b2bd bfc5 c13d
000000c0: f050 b43d 6e7b 8d3d 88bb 1d3d ef0d deba
000000d0: 98a2 1ebb d60a b6bc 5787 bbbc d816 dfbb
000000e0: ba1a 9f3d 2dd8 433d 89b1 0b3d 3636 213d
000000f0: 2e25 d03d 663e 833e bcdd a13e 2f26 1b3e
00000100: e184 f0bd 2390 843d 8f39 0f3e a17a e9bd
00000110: 3ad6 bb3d 69c8 26be 84e6 15bf f553 00bf
00000120: 8051 61bc 65c0 47bd de8c aebe 0290 663d
00000130: 5884 a3bc 6b42 96bd 903e 2e3e 1f9a 113e
00000140: 8392 c2bc 1e00 06bd 59bd f53c 8a0b 1a3e
00000150: a0bd 53bc 8b7f 1abd 72dc f6be 281c 863e
00000160: 515e 5dbd 243b 053d 69f9 a4bd fb5f 173e
00000170: 04a8 153e 5191 0fbd e08a 2c3e 8e02 bb3d
00000180: 6f97 b9be 591c 1bbe 472f 763d 6ff7 803e
00000190: a4d2 503c f831 043e 55cb 953d f7ef 603e
000001a0: 0414 1d3e 13e7 b3bd 8319 383d 5537 8c3d
000001b0: e8d6 ec3c 8e7a d3be 47e9 0a3e dc65 e4be
000001c0: 98f3 ca3d a92d 3e3e 860d 8b3e 3876 a3be
000001d0: 40ed eb3c b1f7 d03d 1e78 d7be 8dc5 523d
000001e0: 51c6 20bf e142 903d 4120 043d 1c30 873c
000001f0: f64f ffbd 389e 23bd e098 c8be 2fc8 f6be
00000200: 8448 16bd b54a 5dbe 5d4b 6c3b 600a cfbd
00000210: ecf2 b4bd 860c 753d 0880 f7be dbf7 053c
00000220: fb65 d73a 92b1 27bd d368 5a3d 8948 073e
00000230: 69e3 9b3c b943 033e fd4e f33d d99c 083e
00000240: 62b7 543e 127f b83c f3e4 16bd 1578 14bd
00000250: 94e5 aabd 9612 9abd a993 bebd beab 983d
00000260: 81a8 723e 9163 ae3d 0deb 95bd e277 d73c
00000270: 82ae 1c3e c474 1f3e 2902 9e3d 3315 e9be
00000280: 2110 143e b3aa 22bc 9fb4 f83d 4df5 15bd
00000290: ede6 8f3d d459 d53b 15ea 55bc b4ad f23d
000002a0: 8443 44bd 9abd 4e3e 78d8 8f3d aa20 303e
000002b0: 4513 c5bd 6b6c 373d 1b05 acbd 853c 073b
000002c0: aa5a 31bd 453e 713d 5040 393d ec4b f8bc
000002d0: 93b1 7d3d 5e99 1dbe 12d5 e3bd 8071 30bd
000002e0: f35e 27bc 66b8 85bd 000d 143d a424 fe3c
000002f0: c022 0c3e f1bd 0c3e 0a7c 963e 7635 063e
00000300: e6b6 1cbe 5766 c53d e276 6f3d 5375 a4bd
00000310: 2b84 bd3d 4741 02be 18cf 2cbf 22e0 00bf
00000320: 60c7 493d 1e52 ffbc 305d 09bf 2e37 333d
00000330: b32a 1dbd 06a3 0fbe 863a 383e 8138 9c3e
00000340: 3fe9 b2bd 80a1 453d 4f8e 453d af59 153e
00000350: 1a2f 953d 48f1 053d e4c3 b5be 8426 413e
00000360: 40da cebd a3b0 833d 5fea 23be d437 b43d
00000370: c74b 2e3e 92ea 0aba 3dc7 113e a225 fbbc
00000380: 9338 5ebd f117 2bbe 7ede 003e 6d14 6c3e
00000390: e434 9f3d 451f 5b3e e97a 503d 3eab a03e
000003a0: e388 933e 003b 5dbb 27d3 973d 0633 56bd
000003b0: 8aa3 7ebd a56a d3be de42 193e 055b afbd
000003c0: 0818 cb3d ce7a 033e 18f7 843e 89d9 0bbf
000003d0: a98c 843e e891 5c3d 5ea7 efbe 4cec 793d
000003e0: 34f4 c0be ff8e db3d 3737 533d 70a6 b7bb
000003f0: 66c5 fabd e290 ffbc d219 ffbe 65db edbe

net.4.bias f4 [3]
0.023272837 -0.004462922 0.03441658
00000000: ada6 be3c b43d 92bb 66f8 0c3d
