train-pong/saved_models/dqn_episode_300.pth (torch, 74357 bytes, 6 tensors)

net.0.weight f4 [128, 6]
0.21932428 0.31058377 0.23132046 -0.36452967 0.06578081 -0.3200369 -0.37456846 -0.426686
0.3535901 -0.15621288 0.1860286 -0.25944668 0.10857724 -0.4875916 -0.39859223 -0.13031065
-0.13070782 0.03357643 -0.22705092 0.066321574 0.22258522 -0.04764067 0.16994378 -0.19384317
-0.2284053 -0.3518278 0.0024688127 0.21073012 -0.19624855 0.3680784 0.4221763 -0.34988
0.27292874 0.15900037 -0.40888667 -0.16079319 -0.41817898 0.24313849 -0.19480698 -0.5484587
0.28934854 -0.2533757 -0.20159414 -0.2912962 -0.3140136 -0.039220035 -0.4029051 -0.31180844
0.0943723 -0.03363114 -0.2918151 0.036720227 -0.3586851 -0.12805717 0.3559639 -0.53852975
-0.25017408 0.25725687 -0.21648067 0.20607325 -0.27435198 -0.15634364 0.33799407 0.46577492
0.4930863 0.03132085 0.14402156 0.075689524 -0.034346916 0.027097726 0.036796793 -0.32322374
0.15547906 -0.29926518 0.61055636 -0.1041755 -0.003915577 -0.08057887 0.19891198 0.49254233
0.3095292 0.46504125 -0.34882396 -0.29612654 -0.49613398 0.23154725 0.2687621 0.13198654
0.068196364 -0.20928949 0.12003582 0.47123712 0.030907858 -0.034711793 0.120175846 -0.26097202
-0.23226854 -0.08633186 -0.19772176 -0.22546028 -0.09627107 0.29089436 0.34398657 0.08788645
0.25186545 -0.3565736 -0.119223244 0.045510855 -0.1720378 0.113521405 -0.5083348 -0.002272566
-0.23877443 0.31935313 0.061806396 0.50644577 0.093071155 -0.48138198 0.08422816 0.021556972
-0.017543197 0.19966179 0.22692734 0.3383208 0.03267175 -0.25691888 -0.42008448 0.14357689
-0.41557884 0.184526 0.25792018 -0.20097761 -0.29073346 -0.16063663 -0.7048486 0.18391858
0.3393727 0.0706114 0.107725956 0.45336437 -0.12688269 0.2629774 0.04721996 -0.17915171
-0.2678162 0.100516066 -0.34960064 0.17799209 0.14099452 0.11050295 0.29874864 -0.4624512
-0.2372236 -0.19516687 0.21327427 0.20036022 -0.18875565 0.18668704 0.068004854 -0.010730309
0.05899831 0.091456115 -0.12333019 0.19572186 0.35689875 0.10174652 0.034286182 -0.065001294
0.052196324 -0.09513697 -0.035271645 0.1715278 -0.20500663 0.040974677 0.21689737 -0.1378839
-0.24037653 0.38250715 -0.18471766 -0.33919424 -0.16718897 -0.39362335 -0.37741923 0.06818259
-0.07830933 0.044889033 0.2514158 0.4683515 0.059672073 -0.20409736 0.053217184 0.006329578
0.063964315 0.23593484 0.20792603 -0.1074098 -0.3838664 -0.13770193 -0.19567107 -0.33845156
-0.055528067 0.08092228 0.44118184 0.11307646 0.19292858 0.24425568 0.6358738 -0.40107074
-0.033331677 -0.13352133 -0.43557608 -0.25277454 0.21813989 0.35082263 0.353398 0.034712132
0.030023724 -0.2013294 -0.21042638 0.13468373 0.0039320886 -0.046811074 -0.27650928 0.16266745
-0.44054976 -0.17994656 -0.19973561 -0.22654368 -0.11542666 -0.26844022 -0.054279234 -0.3795696
0.17302416 0.25314912 -0.04325744 -0.4080711 0.24546827 0.016914992 0.4661578 0.0078549255
-0.24552193 -0.35621077 0.09028393 0.29385898 0.033808667 0.26463288 -0.045472253 -0.12398026
-0.24769671 -0.2509821 -0.07016182 -0.21747062 -0.20247732 -0.22999375 -0.5647044 0.2052175
00000000: 8b96 603e d604 9f3e 45df 6c3e a2a3 babe
00000010: 17b8 863d e0db a3be 70c7 bfbe 9676 dabe
00000020: c309 b53e 45f6 1fbe 487e 3e3e 32d6 84be
00000030: be5d de3d 9ba5 f9be 4814 ccbe 2870 05be
00000040: 45d8 05be 7087 093d 0980 68be 9bd3 873d
00000050: 61ed 633e dd22 43bd be05 2e3e d37e 46be
00000060: 14e3 69be c622 b4be cecb 213b a3c9 573e
00000070: 61f5 48be c674 bc3e 7e27 d83e 7923 b3be
00000080: 51bd 8b3e fed0 223e 9859 d1be f8a6 24be
00000090: 8e1b d6be 4cf9 783e 7b7b 47be ca67 0cbf
000000a0: 7e25 943e 76ba 81be b26e 4ebe c724 95be
000000b0: 64c6 a0be 30a5 20bd 9449 cebe 5ba5 9fbe
000000c0: 4446 c13d cec0 09bd ca68 95be f367 163d
000000d0: 93a5 b7be 6b21 03be e640 b63e 16dd 09bf
000000e0: d116 80be 2cb7 833e 1cad 5dbe de04 533e
000000f0: dd77 8cbe 8c18 20be 8f0d ad3e 0d7a ee3e
00000100: cf75 fc3e 4b4a 003d 637a 133e 1c03 9b3d
00000110: 5aaf 0cbd 0dfc dd3c 3cb8 163d 957d a5be
00000120: e735 1f3e 4939 99be 6c4d 1c3f f759 d5bd
00000130: 3e4e 80bb 8906 a5bd 95af 4b3e 822e fc3e
00000140: 9c7a 9e3e e319 ee3e 0e99 b2be e69d 97be
00000150: 4605 febe b91a 6d3e 309b 893e 7b27 073e
00000160: 89aa 8b3d fc4f 56be 57d5 f53d fe45 f13e
00000170: 7a32 fd3c f42d 0ebd c11e f63d 209e 85be
00000180: ced7 6dbe c2ce b0bd 9377 4abe 0fdf 66be
00000190: c429 c5bd 1bf0 943e 021f b03e d0fd b33d
000001a0: 82f4 803e d190 b6be 512b f4bd 9769 3a3d
000001b0: ad2a 30be e97d e83d 3b22 02bf 55ef 14bb
000001c0: 4981 74be 4182 a33e b428 7d3d 6ea6 013f
000001d0: 179c be3d b377 f6be d07f ac3d 3f98 b03c
000001e0: c0b6 8fbc 2474 4c3e a45f 683e 6238 ad3e
000001f0: d0d2 053d df8a 83be 5015 d7be d205 133e
00000200: c0c6 d4be 62f4 3c3e 1d0e 843e 13cd 4dbe
00000210: 04db 94be ee7d 24be f570 34bf 2755 3c3e
00000220: 42c2 ad3e b69c 903d 6d9f dc3d 601f e83e
00000230: 89ed 01be f9a4 863e b769 413d 8c73 37be
00000240: 341f 89be 5edb cd3d dbfe b2be 8f43 363e
00000250: de60 103e 5f4f e23d 95f5 983e 67c6 ecbe
00000260: beea 72be d3d9 47be 9264 5a3e 3b2b 4d3e
00000270: 2949 41be e32a 3f3e 2146 8b3d 2ece 2fbc
00000280: 36a8 713d 584d bb3d 8a94 fcbd 506b 483e
00000290: 6fbb b63e 7b60 d03d ab6f 0c3d 661f 85bd
000002a0: d0cb 553d 2cd7 c2bd 0079 10bd fca4 2f3e
000002b0: 42ed 51be 10d5 273d 581a 5e3e 7031 0dbe
000002c0: 4425 76be fad7 c33e a026 3dbe deaa adbe
000002d0: 9633 2bbe 0089 c9be 183d c1be 50a3 8b3d
000002e0: a460 a0bd 90dd 373d 92b9 803e c5cb ef3e
000002f0: b46a 743d e6fe 50be 43fa 593d 5968 cf3b
00000300: b9ff 823d e798 713e 90ea 543e abf9 dbbd
00000310: 238a c4be bc01 0dbe ff5d 48be 8649 adbe
00000320: 6671 63bd 95ba a53d 96e2 e13e a294 e73d
00000330: 128f 453e 291e 7a3e a0c8 223f 2559 cdbe
00000340: cc86 08bd d1b9 08be d403 dfbe aa6b 81be
00000350: 1060 5f3e 069f b33e 95f0 b43e 4f2e 0e3d
00000360: 50f4 f53c 4b29 4ebe 037a 57be 88ea 093e
00000370: c0d8 803b f8bc 3fbd a092 8dbe 4c92 263e
00000380: bd8f e1be e943 38be 7e87 4cbe 11fb 67be
00000390: d064 ecbd ff70 89be e753 5ebd f256 c2be
000003a0: 3f2d 313e c39c 813e b72e 31bd b2ee d0be
000003b0: 095c 7b3e 4f91 8a3c 3cac ee3e f2b1 003c
000003c0: 1a6a 7bbe 4261 b6be c8e6 b83d af74 963e
000003d0: f57a 0a3d f67d 873e 1d41 3abd 5de9 fdbd
000003e0: 35a4 7dbe ba80 80be 00b1 8fbd 9eb0 5ebe
000003f0: 3756 4fbe 7b83 6bbe 7890 10bf 8924 523e

net.0.bias f4 [128]
-0.019494873 -0.10109294 0.38134506 -0.12750943 0.423713 0.46577024 0.1695665 0.109018564
0.27888167 0.35439998 -0.16969474 0.01215779 0.045749456 -0.012675877 -0.19616602 -0.22675279
0.14878573 -0.119109705 -0.18048353 -0.42947486 -0.27382118 -0.044412807 -0.0944376 -0.23963113
-0.15440027 0.030498499 -0.31212103 -0.2192429 -0.16197893 -0.20956784 -0.24902178 -0.23782979
0.17972797 0.21468359 0.04679694 0.3214341 -0.30346006 0.22128063 -0.2324052 0.22004214
-0.38825658 0.32956803 0.38203454 -0.20517816 -0.39296618 -0.35621142 0.16513377 0.1576449
0.18137684 -0.03994792 0.11448717 0.27351007 0.27618164 -0.04599069 -0.31684372 -0.30892286
-0.28106135 -0.0071615926 -0.22816338 0.10617245 -0.08873607 0.06938704 -0.0913218 -0.52878433
-0.09713059 -0.15382263 0.015943237 -0.4639684 -0.2722961 0.0005508514 0.18812752 -0.06296536
-0.16683239 0.11109652 0.25468838 -0.10491115 0.1460471 -0.1396963 -0.38280365 -0.32079425
0.07696631 0.17949903 -0.25504068 -0.15781729 -0.21067248 -0.38402516 0.21739517 -0.39960438
-0.35515702 -0.023984851 0.088477775 -0.03678909 -0.029200993 -0.23923254 0.22932068 0.011608245
-0.3229687 0.05602368 -0.20726538 -0.16786866 -0.11324845 -0.07900635 -0.20490685 -0.1321814
0.31650886 -0.26009992 -0.251785 0.36706948 -0.1347712 -0.30363765 -0.34948918 0.090632975
0.022917332 0.32105407 0.1914929 -0.22140242 -0.2861741 -0.37655497 0.06434133 -0.12359063
0.016569734 0.19976923 0.05362004 0.060702935 0.104335666 0.24868178 0.20897932 -0.03199026
00000000: b6b3 9fbc d109 cfbd a93f c33e d591 02be
00000010: e9f0 d83e 7079 ee3e d7a2 2d3e 2045 df3d
00000020: 94c9 8e3e ea73 b53e 75c4 2dbe 7831 473c
00000030: c863 3b3d 7bae 4fbc bfdf 48be e231 68be
00000040: 495b 183e caef f3bd add0 38be 21e4 dbbe
00000050: 4a32 8cbe 34ea 35bd 8068 c1bd dd61 75be
00000060: 1b1b 1ebe fdd7 f93c 54ce 9fbe 3681 60be
00000070: cedd 25be f498 56be 91ff 7ebe a789 73be
00000080: 9c0a 383e 04d6 5b3e 26ae 3f3d 0393 a43e
00000090: 1e5f 9bbe 6497 623e a1fb 6dbe ba52 613e
000000a0: 91c9 c6be 24bd a83e 089a c33e 391a 52be
000000b0: dd32 c9be 5861 b6be d418 293e aa6d 213e
000000c0: daba 393e 6ea0 23bd 4078 ea3d 8309 8c3e
000000d0: ae67 8d3e bc60 3cbd 5739 a2be 232b 9ebe
000000e0: 46e7 8fbe cbab eabb a9a3 69be f170 d93d
000000f0: 42bb b5bd cb1a 8e3d ed06 bbbd 695e 07bf
00000100: 67ec c6bd ae83 1dbe 649b 823c 448d edbe
00000110: 656a 8bbe 0367 103a 80a4 403e fcf3 80bd
00000120: 1cd6 2abe 9386 e33d 8466 823e a8db d6bd
00000130: 5f8d 153e 8c0c 0fbe d7fe c3be 253f a4be
00000140: 83a0 9d3d 98ce 373e b194 82be db9a 21be
00000150: 87ba 57be f29e c4be d79c 5e3e f298 ccbe
00000160: 24d7 b5be e17b c4bc d633 b53d 28b0 16bd
00000170: ec36 efbc 60f9 74be 0ad3 6a3e 8230 3e3c
00000180: 275c a5be 1679 653d 603d 54be c3e5 2bbe
00000190: ceee e7bd 15ce a1bd 1ad3 51be 905a 07be
000001a0: 730d a23e d12b 85be f7e9 80be 88f0 bb3e
000001b0: 7601 0abe 6576 9bbe 3ff0 b2be c89d b93d
000001c0: 21bd bb3c 3361 a43e b716 443e 51b7 62be
000001d0: 6985 92be d0cb c0be 63c5 833d 161d fdbd
000001e0: 40bd 873c 4e90 4c3e b0a0 5b3d a4a3 783d
000001f0: f0ad d53d 70a6 7e3e adfe 553e 3808 03bd

net.2.weight f4 [128, 128]
-0.26088688 -0.041202273 -0.15354946 -0.13601194 -0.1288751 0.03175391 -0.13400622 -0.057545513
0.026790023 0.013154861 -0.08393348 -0.03955756 -0.4831729 0.040437203 -0.045917787 -0.037845697
-0.014156923 -0.25285998 -0.033297673 -0.28702953 0.055555545 -0.07311929 0.038038846 0.029386908
-0.017091583 0.094378255 0.13687178 -0.050845604 -0.033986997 -0.08320343 0.042548202 0.010441439
-0.115116715 0.03390862 -0.060940415 -0.010877297 -0.06249831 -0.15967889 0.024927013 -0.009568737
0.015149251 -0.34446636 -0.47580296 -0.05278592 -0.05555178 -0.18359716 -0.11274772 -0.40044627
-0.22850336 0.023708623 -0.0665058 0.013022741 -0.22755486 0.0035922187 -0.058944136 -0.14439183
0.057692043 -0.059208136 0.0022924663 -0.1102584 -0.28022075 0.002988269 0.14481962 -0.009467329
-0.03834835 -0.12146186 -0.009025182 0.058211118 0.052677684 -0.026274776 0.014374613 -0.050841328
0.06636656 -0.3785114 -0.0761945 0.07051807 -0.6458582 0.078834616 0.029401116 0.06951975
-0.05941029 -0.0545339 0.027259357 -0.01902012 -0.03162808 -0.002324963 -0.08314447 -0.035054766
0.07376166 -0.006981991 0.025402153 0.0723887 0.0029630098 -0.32040742 0.0072826673 -0.14086294
0.07359249 0.0053961514 -0.15551183 -0.020450138 -0.9755805 -0.024834728 -0.14900783 0.029414095
-0.0011080022 -0.25568923 0.037860233 -0.04450487 -0.02186985 -0.035291072 0.040073223 -0.06300664
0.095253825 -0.2953536 0.007909311 -0.051889654 -0.21087304 -0.29727387 -0.1309013 -0.055917766
-0.031022724 -0.16093753 -0.1860121 -0.037586696 0.041697405 0.020789051 -0.023875605 -7.31796e-05
0.24751832 0.028556557 -0.30559355 0.0686142 -0.2877398 -0.3763547 0.016594563 0.04317347
-0.045681093 -0.015614767 -0.45562613 -0.11613006 -0.21780911 0.27509692 -0.083144166 0.2943629
-0.21179728 0.10845761 -0.056248687 0.24671228 0.018095054 -0.18235634 -0.13619828 0.07557974
-0.019039169 -0.019481048 0.046676893 -0.016107557 0.071385406 0.01953262 -0.031314 0.1315032
0.2420904 -0.20241347 0.052488625 -0.19449657 0.029122397 -0.09851228 -0.123657025 -0.24141374
0.019554049 -0.8405571 0.062327683 -0.017582286 0.00019210577 0.09311133 0.07403805 -0.08040614
-0.17194639 -0.15178615 0.16357408 0.019747438 -0.5507679 -0.17352663 -0.036993902 -0.17462763
0.037360407 -0.13623992 0.25969735 0.028181551 0.12492683 0.049243115 -0.46590784 0.096205436
-0.22203656 0.045666073 0.16901693 0.11138624 -0.005041048 -0.051253673 -0.17267029 0.16338317
-0.05591833 -0.38510543 -0.11561754 0.08092857 -0.4668613 0.047178544 -0.056072365 -0.36163753
-0.06983867 -0.11896517 0.015940644 -0.042905957 -0.18897434 0.12162595 -0.0061636725 0.03907696
0.22283503 -0.08716629 -0.035601623 -0.046386622 -0.0010996034 0.06758755 -0.08505286 -0.34056333
-0.055105906 0.16593364 -0.43470207 -0.08754187 -0.5843689 0.2149374 0.023417978 -0.012990817
-0.11884607 0.19064748 0.06726867 0.033662822 -0.24724296 -0.4590814 0.0014347658 -0.075500146
-0.107895665 -0.304818 -0.21870115 0.14888982 -0.07813955 -0.22871788 -0.047986478 0.06819412
-0.043262485 0.0028714794 0.036301866 -0.052537717 0.31130168 -0.050279535 -0.019388134 0.014876887
00000000: f792 85be b7c3 28bd 123c 1dbe b746 0bbe
00000010: d6f7 03be 6310 023d ed38 09be d8b4 6bbd
00000020: c076 db3c 7c87 573c 51e5 abbd 1c07 22bd
00000030: 7062 f7be 7ba1 253d 4a14 3cbd 1704 1bbd
00000040: 70f2 67bc dd76 81be 2463 08bd 89f5 92be
00000050: 368e 633d 91bf 95bd 9fce 1b3d d0bc f03c
00000060: a603 8cbc 6349 c13d 1e28 0c3e 7b43 50bd
00000070: f335 0bbd 8f66 aabd 0647 2e3d 9212 2b3c
00000080: 50c2 ebbd c4e3 0a3d a89c 79bd b136 32bc
00000090: 3afe 7fbd dd82 23be bc33 cc3c 31c6 1cbc
000000a0: 9034 783c e55d b0be 729c f3be 0d36 58bd
000000b0: 438a 63bd e500 3cbe 47e8 e6bd 4b07 cdbe
000000c0: c9fc 69be 9638 c23c 3134 88bd 565d 553c
000000d0: 2404 69be 6e6b 6b3b 686f 71bd 74db 13be
000000e0: 7e4e 6c3d 3b84 72bd 343d 163b 28cf e1bd
000000f0: 1879 8fbe d6d6 433b 984b 143e db1c 1bbc
00000100: 2913 1dbd ffc0 f8bd 5bde 13bc c86e 6e3d
00000110: 8ec4 573d 333e d7bc 7f83 6b3c ff3e 50bd
00000120: 31eb 873d 3fcc c1be dd0b 9cbd c76b 903d
00000130: f756 25bf 0b74 a13d 9cda f03c 5f60 8e3d
00000140: 3458 73bd f05e 5fbd 044f df3c 15d0 9bbc
00000150: 728c 01bd 685e 18bb a647 aabd 9695 0fbd
00000160: 5a10 973d 30c9 e4bb 2d18 d03c 8740 943d
00000170: 0e2f 423b 710c a4be 71a3 ee3b 603e 10be
00000180: a9b7 963d 33d2 b03b 7e3e 1fbe 0c87 a7bc
00000190: a5bf 79bf 3372 cbbc 8295 18be d4f5 f03c
000001a0: 623a 91ba b3e9 82be 5513 1b3d bd4a 36bd
000001b0: 6628 b3bc 5f8d 10bd d223 243d a009 81bd
000001c0: 7014 c33d 9638 97be 0e96 013c 3f8a 54bd
000001d0: 1aef 57be 4834 98be fe0a 06be 070a 65bd
000001e0: 5e23 febc cfcc 24be f579 3ebe 82f4 19bd
000001f0: e6ca 2a3d cd4d aa3c c696 c3bc 0078 99b8
00000200: 7175 7d3e 71ef e93c c276 9cbe 9a85 8c3d
00000210: a252 93be 90b1 c0be 52f1 873c aad6 303d
00000220: 191c 3bbd 14d5 7fbc d447 e9be 99d5 edbd
00000230: 5a09 5fbe 81d9 8c3e 7d47 aabd bcb6 963e
00000240: 63e1 58be 061f de3d 0665 66bd 25a2 7c3e
00000250: 143c 943c 9fbb 3abe 9077 0bbe 8dc9 9a3d
00000260: 08f8 9bbc b896 9fbc 4530 3f3d fff3 83bc
00000270: 8332 923d e002 a03c 1c43 00bd c6a8 063e
00000280: 8ce6 773e 7a45 4fbe 50fe 563d 1c2a 47be
00000290: 1892 ee3c cec0 c9bd e53f fdbd 2a35 77be
000002a0: d02f a03c c02e 57bf 504b 7f3d ba08 90bc
000002b0: 0070 4939 27b1 be3d 43a1 973d f9ab a4bd
000002c0: b712 30be d46d 1bbe f77f 273e 61c5 a13c
000002d0: 20ff 0cbf f7b0 31be eb86 17bd 96d1 32be
000002e0: 3a07 193d 7a82 0bbe 0df7 843e ffdc e63c
000002f0: a3d9 ff3d 26b3 493d 798b eebe 5b07 c53d
00000300: 8d5d 63be 590c 3b3d c612 2d3e 781e e43d
00000310: 602f a5bb 5fef 51bd 7bd0 30be eb4d 273e
00000320: 9e0a 65bd 8a2c c5be e4c8 ecbd e1bd a53d
00000330: 7208 efbe 4a3e 413d 23ac 65bd 8e28 b9be
00000340: 9407 8fbd 03a4 f3bd f495 823c 28be 2fbd
00000350: 7d82 41be 0717 f93d a2f8 c9bb 2a0f 203d
00000360: de2e 643e 3d84 b2bd 02d3 11bd e6ff 3dbd
00000370: 9120 90ba 576b 8a3d 3230 aebd 515e aebe
00000380: bbb6 61bd 82ea 293e 4591 debe 2749 b3bd
00000390: 3399 15bf 8d18 5c3e 0fd7 bf3c 70d7 54bc
000003a0: 9165 f3bd 1839 433e 28c4 893d 07e2 093d
000003b0: 422d 7dbe b80c ebbe c00e bc3a d29f 9abd
000003c0: 67f8 dcbd 1b11 9cbe 32f3 5fbe 9376 183e
000003d0: a107 a0bd 0535 6abe 788d 44bd 5ca9 8b3d
000003e0: 0134 31bd 6e2f 3c3b 44b1 143d ca31 57bd
000003f0: ef62 9f3e eaf1 4dbd ddd3 9ebc 30be 733c

net.2.bias f4 [128]
0.047950175 0.0328732 -0.029648222 -0.08528372 -0.14447382 0.037309125 -0.003336662 -0.034548614
-0.0047667203 -0.051800977 -0.07034176 0.12908669 0.008637697 0.13972548 -0.026770612 -0.061882827
0.024671696 -0.07243417 0.045974214 -0.019070085 -0.014191322 -0.012331762 -0.025648491 -0.066669315
0.10056989 -0.08375484 -0.059961155 -0.048962872 -0.048167437 0.021113409 -0.04418164 0.12410586
0.00978339 0.018063445 0.10708006 -0.0684462 -0.08307796 -0.07679307 -0.082132116 -0.01639211
-0.02900447 0.020318579 0.15975082 -0.028878856 0.005626832 -0.062026933 -0.006627545 -0.09042181
0.04661526 0.036143985 -0.04703714 -0.052319262 -0.029515449 -0.12847833 -0.09819753 -0.039403558
0.011252921 -0.03589665 -0.07665697 0.0043385806 -0.006711453 -0.0035703308 -0.017842826 -0.096976385
-0.051590357 0.06249245 0.018223686 -0.053667255 0.021123394 0.062835746 -0.12569287 -0.044888094
-0.01885127 0.0010781523 0.15369268 -0.07353388 -0.0022085211 0.0072830482 0.12461411 -0.06100596
-0.08845049 -0.0810041 -0.03545585 0.12222541 -0.008746549 -0.010187685 0.008820015 0.050871518
-0.115341745 -0.012727332 -0.05905872 0.042222194 0.09110705 0.011779389 0.14072812 0.079629526
-0.043800674 -0.13322058 0.078974955 0.0010110228 -0.0023257374 0.05507808 0.01701529 0.16112693
0.10530071 -0.08357627 0.05570945 -0.077387154 -0.05366735 -0.06598812 -0.11787873 0.014911868
-0.054804754 0.08750873 0.040645175 0.044019293 -0.049655534 0.12291496 -0.042243913 -0.052977446
0.050791867 0.04650972 -0.038829315 -0.08331672 0.019306742 0.014444399 0.007352855 -0.043215774
00000000: 6767 443d 0ca6 063d d4e0 f2bc 3ba9 aebd
00000010: f2f0 13be 74d1 183d e6ab 5abb d982 0dbd
00000020: 2632 9cbb 432d 54bd 570f 90bd 4d2f 043e
00000030: 2185 0d3c 3214 0f3e 0b4e dbbc d978 7dbd
00000040: 4c1c ca3c 5e58 94bd 754f 3c3d de38 9cbc
00000050: b882 68bc 290b 4abc c91c d2bc ec89 88bd
00000060: 96f7 cd3d a887 abbd d499 75bd 4b8d 48bd
00000070: 384b 45bd 07f6 ac3c cff7 34bd 372b fe3d
00000080: 834a 203c caf9 933c ca4c db3d 852d 8cbd
00000090: c724 aabd af45 9dbd e234 a8bd bf48 86bc
000000a0: c89a edbc 2673 a63c b895 233e 5a93 ecbc
000000b0: 4a61 b83b f40f 7ebd e12b d9bb 122f b9bd
000000c0: a5ef 3e3d b70b 143d 04aa 40bd b94c 56bd
000000d0: 62ca f1bc d38f 03be c91b c9bd a065 21bd
000000e0: 2c5e 383c 5e08 13bd 54fe 9cbd a72a 8e3b
000000f0: c0eb dbbb 36fc 69bb 1e2b 92bc 8e9b c6bd
00000100: 6950 53bd 15f8 7f3d d749 953c 32d2 5bbd
00000110: f80a ad3c 07b0 803d a2b5 00be 94dc 37bd
00000120: fb6d 9abc ca50 8d3a 9d61 1d3e ee98 96bd
00000130: d6bc 10bb a3a6 ee3b af35 ff3d 63e1 79bd
00000140: 8825 b5bd 7ae5 a5bd 273a 11bd 5151 fa3d
00000150: af4d 0fbc 3fea 26bc d381 103c a75e 503d
00000160: 4b38 ecbd 4d86 50bc 8ee7 71bd 2ef1 2c3d
00000170: 5596 ba3d 57fe 403c 081b 103e ce14 a33d
00000180: 5668 33bd fa6a 08be 9fbd a13d 4c84 843a
00000190: 666b 18bb 8e99 613d a663 8b3c 75fe 243e
000001a0: e6a7 d73d 092a abbd 982f 643d 287d 9ebd
000001b0: 4cd2 5bbd c824 87bd 676a f1bd e850 743c
000001c0: f37a 60bd c737 b33d 8e7b 263d 934d 343d
000001d0: 9a63 4bbd d7ba fb3d f407 2dbd e1fe 58bd
000001e0: 220b 503d fa80 3e3d 7d0b 1fbd f5a1 aabd
000001f0: 2c29 9e3c 33a8 6c3c 38f0 f03b 0603 31bd

net.4.weight f4 [3, 128]
-0.06417629 -0.35866845 0.052492857 -0.04229593 -0.08793944 0.046523105 -0.44626555 -0.079189904
0.022900287 0.010476168 0.0786486 0.15549313 -0.008506696 0.18083444 0.15311697 0.26799628
0.22772883 0.074636355 0.03674326 0.06183786 -0.05086523 0.052334655 -0.040081087 -0.008534827
0.1357795 -0.08391789 -0.06810771 0.012141652 0.07748089 0.22050916 -0.036879886 -0.28993025
0.18944894 -0.008610253 0.16978665 0.010231398 0.02300682 0.021776643 0.017645612 0.09939641
0.065215595 0.23098604 0.10222533 0.10587054 -0.120387904 0.073244184 -0.087290905 0.09461545
0.088045 0.06908308 0.03850892 -0.0016941408 -0.00242058 -0.034458905 -0.022891684 -0.006808143
0.077687696 0.047813583 0.041267134 0.03935834 0.101633415 0.24973683 0.31614482 0.15151285
-0.11744095 0.04476479 0.139868 -0.11835056 0.12595691 -0.07988431 -0.52269983 -0.49920186
-0.013752341 -0.048767466 -0.3287526 0.05628968 -0.026010182 -0.07336887 0.16197942 0.14218949
-0.023751503 -0.032714956 0.029997515 0.14952074 -0.012923628 -0.03771929 -0.47119978 0.26193357
-0.054045025 0.078382984 -0.101303145 0.14782707 0.15661927 -0.029768003 0.17469549 0.079475485
-0.34606576 -0.15147533 0.06976344 0.25188777 0.012745533 0.113102324 0.07314173 0.2080747
0.14774776 -0.08784308 0.055257086 0.06846491 0.034275625 -0.4130444 0.1356555 -0.46188837
0.09909743 0.20038182 0.27158755 -0.29275727 0.028799653 0.09189064 -0.43085554 0.05145793
-0.5582231 0.08277463 0.05596775 0.016502433 -0.18851642 -0.03994581 -0.36910588 -0.4911276
-0.03669025 -0.19136582 0.022276286 -0.08845944 -0.08671258 0.07368381 -0.4291794 0.008176769
0.0016433591 -0.04094083 0.053322624 0.16723329 0.019029336 0.1656046 0.118803 0.13341083
0.21177445 0.02252153 -0.04208302 -0.03624733 -0.0834457 -0.07571267 -0.09433105 0.07454632
0.22337604 0.085150845 -0.07320223 0.026302282 0.13299073 0.15571886 0.07715256 -0.41818365
0.14459278 -0.009928393 0.12215899 -0.03661089 0.070264675 0.0065109525 -0.013056298 0.0801068
-0.04791595 0.20189515 0.102178484 0.1719996 -0.17849743 0.04478113 -0.08399411 0.0020635438
-0.043299355 0.058897275 0.04522735 -0.03030964 0.061936926 -0.11748038 -0.11124624 -0.043076992
-0.010215509 -0.06529312 0.06819311 0.031023331 0.13685131 0.18829022 0.2939151 0.13106331
-0.15304145 0.062188823 0.058462985 -0.09656508 0.19399695 -0.06611202 -0.6545676 -0.45791703
0.049262404 -0.031167086 -0.51046276 0.043753795 -0.055039823 -0.14027032 0.1805684 0.3051186
-0.087358944 0.04824972 0.04823142 0.14177437 0.072843745 0.032700807 -0.30619505 0.18862349
-0.10100222 0.06397982 -0.15713887 0.08799711 0.17413753 -0.02587153 0.16466086 0.08927583
-0.036818326 -0.16708352 0.104848005 0.23054667 0.0777376 0.19845665 0.050898466 0.29230648
0.26634353 -0.003375709 0.095521905 -0.052294753 -0.039102014 -0.4160565 0.14966914 -0.0896263
0.09916693 0.1403135 0.25969768 -0.49911845 0.25888565 0.05694052 -0.42506737 0.061016366
-0.33254978 0.08548188 0.044867523 -0.0056045577 -0.13572557 -0.031197015 -0.4538748 -0.45217502
00000000: dc6e 83bd 64a3 b7be c002 573d 7f3e 2dbd
00000010: 9819 b4bd 038f 3e3d eb7c e4be 512e a2bd
00000020: 6299 bb3c 3ca4 2b3c 8412 a13d 9739 1f3e
00000030: ab5f 0bbc aa2c 393e b2ca 1c3e cf36 893e
00000040: bf31 693e f2da 983d 1a80 163d b249 7d3d
00000050: 0f58 50bd dd5c 563d 112c 24bd a9d5 0bbc
00000060: c809 0b3e 25dd abbd 0e7c 8bbd c8ed 463c
00000070: 4dae 9e3d 27cd 613e 5d0f 17bd bd71 94be
00000080: e7fe 413e 0512 0dbc 8ddc 2d3e 98a1 273c
00000090: cc78 bc3c ee64 b23c 888d 903c 5890 cb3d
000000a0: c18f 853d 9b87 6c3e 845b d13d a7d2 d83d
000000b0: ef8d f6bd 0c01 963d 93c5 b2bd bfc5 c13d
000000c0: f050 b43d 6e7b 8d3d 88bb 1d3d ef0d deba
000000d0: 98a2 1ebb c824 0dbd 5787 bbbc d816 dfbb
000000e0: ba1a 9f3d 2dd8 433d ba07 293d 3636 213d
000000f0: 2e25 d03d 03bb 7f3e bcdd a13e 2f26 1b3e
00000100: e184 f0bd 495b 373d 8f39 0f3e c761 f2bd
00000110: d9fa 003e 639a a3bd a8cf 05bf 6397 ffbe
00000120: 8051 61bc 65c0 47bd 4352 a8be 0290 663d
00000130: 4e13 d5bc 6b42 96bd efdd 253e 1f9a 113e
00000140: 8392 c2bc 1e00 06bd 59bd f53c f71b 193e
00000150: a0bd 53bc 8b7f 1abd 1941 f1be 281c 863e
00000160: 515e 5dbd 4287 a03d 0678 cfbd fb5f 173e
00000170: cd60 203e 07dc f3bc 60e3 323e 0bc4 a23d
00000180: 882f b1be 591c 1bbe 22e0 8e3d 6ff7 803e
00000190: a4d2 503c 31a2 e73d 55cb 953d 8911 553e
000001a0: 304b 173e 13e7 b3bd 4155 623d 5537 8c3d
000001b0: 9964 0c3d 8e7a d3be 47e9 0a3e a27c ecbe
000001c0: 98f3 ca3d e430 4d3e 860d 8b3e 48e4 95be
000001d0: 40ed eb3c 2931 bc3d 1999 dcbe 8dc5 523d
000001e0: b6e7 0ebf bf85 a93d 703e 653d 1c30 873c
000001f0: 730a 41be 389e 23bd 72fb bcbe 1475 fbbe
00000200: 8448 16bd 67f5 43be c27c b63c 392a b5bd
00000210: 5d96 b1bd 8ae7 963d 67bd dbbe dbf7 053c
00000220: fb65 d73a 92b1 27bd d368 5a3d 343f 2b3e
00000230: 69e3 9b3c 4194 293e fd4e f33d d99c 083e
00000240: 67db 583e 127f b83c 3f5f 2cbd 1578 14bd
00000250: 94e5 aabd 3f0f 9bbd a330 c1bd beab 983d
00000260: b0bc 643e 9163 ae3d 0deb 95bd e277 d73c
00000270: b92e 083e c474 1f3e 2902 9e3d 2b1c d6be
00000280: 2110 143e b3aa 22bc 7e2e fa3d 4df5 15bd
00000290: ede6 8f3d d459 d53b 15ea 55bc 090f a43d
000002a0: 8443 44bd 9abd 4e3e f442 d13d aa20 303e
000002b0: 08c8 36be 6b6c 373d 1b05 acbd 853c 073b
000002c0: aa5a 31bd 453e 713d 5040 393d ec4b f8bc
000002d0: 93b1 7d3d 8e99 f0bd 12d5 e3bd 8071 30bd
000002e0: f35e 27bc 66b8 85bd d4a8 8b3d a424 fe3c
000002f0: c022 0c3e 27cf 403e 0a7c 963e 7635 063e
00000300: e6b6 1cbe b5b9 7e3d e276 6f3d eac3 c5bd
00000310: 23a7 463e bd65 87bd be91 27bf 1a74 eabe
00000320: 60c7 493d 1e52 ffbc b0ad 02bf 2e37 333d
00000330: 7071 61bd 06a3 0fbe ece6 383e 8138 9c3e
00000340: 3fe9 b2bd 80a1 453d 4f8e 453d 4d2d 113e
00000350: 1a2f 953d 48f1 053d 99c5 9cbe 8426 413e
00000360: 40da cebd da07 833d 03e9 20be d437 b43d
00000370: 1c51 323e 88f0 d3bc db9c 283e 3fd6 b63d
00000380: d0ce 16bd f117 2bbe 8dba d63d 6d14 6c3e
00000390: e434 9f3d 3838 4b3e e97a 503d 32a9 953e
000003a0: 2e5e 883e 003b 5dbb fda0 c33d 0633 56bd
000003b0: 6f29 20bd 5c05 d5be de42 193e fe8d b7bd
000003c0: 0818 cb3d 58ae 0f3e 18f7 843e 748c ffbe
000003d0: a98c 843e 763a 693d 6ea2 d9be 4cec 793d
000003e0: f743 aabe 2011 af3d 02c7 373d 70a6 b7bb
000003f0: a5fb 0abe e290 ffbc 4762 e8be 7c83 e7be

net.4.bias f4 [3]
0.01870193 0.00040459252 0.028370729
00000000: ca34 993c 7d1f d439 bb69 e83c
