train-pong/saved_models/dqn_episode_900.pth (torch, 74357 bytes, 6 tensors)

net.0.weight f4 [128, 6]
00000000: 10b4 e23d 872e 9e3e 18e2 b13e 81d8 71be
00000010: 5b04 a03d d756 9abe 70c7 bfbe 9676 dabe
00000020: c309 b53e 45f6 1fbe 487e 3e3e 32d6 84be
00000030: cc86 9ebd 0f13 dbbe 4fba 23bf c20e 97be
00000040: 31ee ea3c fbc1 1e3c 0980 68be 9bd3 873d
00000050: 61ed 633e dd22 43bd be05 2e3e d37e 46be
00000060: e75d 26be 5881 c5be 8ce6 6d3e b7e1 823e
00000070: cf22 29be 0395 d23e f444 0c3f 243b c0be
00000080: a3d3 623e 47b5 013e fbd5 e2be 3c95 1abe
00000090: 4f82 47bf f4e8 cc3e 9472 21bf 69e9 e0be
000000a0: 5859 fb3e ea1d c4be b26e 4ebe c724 95be
000000b0: 64c6 a0be 30a5 20bd 9449 cebe 5ba5 9fbe
000000c0: 95a4 b03e 15da 69bd 7368 19bb 74c4 02bd
000000d0: 764e aabe 3e6c f1bd b1fc af3e 64ba 22bf
000000e0: de32 14bd f5d5 793e 46ed 8ebe bc17 483e
000000f0: 8545 f9be 69be 1cbe a672 c1be a5e8 2a3f
00000100: dcee c63e 5be4 ed3d 637a 133e 1c03 9b3d
00000110: 5aaf 0cbd 0dfc dd3c 3cb8 163d 957d a5be
00000120: 5bb7 513e b969 75be f884 3e3f c14f 30bd
00000130: 002a b4bd db10 79bd bf36 363e d8b6 143f
00000140: 74ce 1b3e f78a ed3e 9733 98be 5348 a3be
00000150: 4605 febe b91a 6d3e 309b 893e 7b27 073e
00000160: 89aa 8b3d fc4f 56be 1023 033d b4b1 103f
00000170: 2b26 e53d 0ad4 cd3d a771 713d 9bc3 65be
00000180: 953b 49be 91da e2bd 34ef edbe 97ff 29be
00000190: 598c b7bd 248d 773e f9c3 303e 5f46 163d
000001a0: d2d0 da3e 674f 3ebe 3d52 80bd d79a 483d
000001b0: fd65 c6bd 5daa 0d3d 75c7 f9be d587 843c
000001c0: 2643 3bbe a359 9a3e 852a e73d a833 e23e
000001d0: dd10 dc3e 9dda 7abe 650b a43c 9624 9d3d
000001e0: c0b6 8fbc 2474 4c3e a45f 683e 6238 ad3e
000001f0: d0d2 053d df8a 83be f7b9 9bbe c979 6d3e
00000200: 2b4d 1dbf 3147 5b3e 5ae0 753e 13c8 35be
00000210: ca55 8dbe 5ec7 91be bfed 3fbf aa1c ab3d
00000220: a6a7 9c3d 3e5c 7d3d 27dc 28bd d92b ec3e
00000230: f5f2 7abd 7780 053f efa3 6c3c 1ce8 d9bd
00000240: c573 21be 5640 a1bc db95 b3be abf5 ae3c
00000250: 2806 5aba 3085 ed3d f650 ba3e b2bd 19bf
00000260: 3397 053e 7eab 41be 2152 373e b938 313e
00000270: 2949 41be e32a 3f3e 2146 8b3d 2ece 2fbc
00000280: 36a8 713d 584d bb3d 1b91 48be 3741 3f3e
00000290: 7120 aa3e 9c9c c73d dae6 65bd 81e9 b4bd
000002a0: d0cb 553d 2cd7 c2bd 0079 10bd fca4 2f3e
000002b0: 42ed 51be 10d5 273d 581a 5e3e 7031 0dbe
000002c0: 4425 76be fad7 c33e a026 3dbe deaa adbe
000002d0: 9633 2bbe 0089 c9be 183d c1be 50a3 8b3d
000002e0: a460 a0bd 90dd 373d 89c3 8f3c 6456 eb3e
000002f0: 614b 433e d9aa a0bd 636b 16bd 6b2b 90bc
00000300: 44cb c0bd d068 483e 6632 23be a0ac 22bc
00000310: ecee a1be 11c3 10be 6953 89be 3722 e6be
00000320: 51cb aabd c39e fe3d 5bec eb3e 7be9 073e
00000330: f4b6 15bd fc55 5d3e 9ef1 153f 6c94 8bbe
00000340: cffe 3fbe f897 8dbe a198 13bf f903 adbe
00000350: 6afa 3fbc fe47 b33e 0358 053f 359c 0c3d
00000360: 50f4 f53c 4b29 4ebe 037a 57be 88ea 093e
00000370: c0d8 803b f8bc 3fbd f7a1 e4bd 1189 e7bb
00000380: 95ac 05bf 5b90 fdbd 3d70 aebd eef3 48be
00000390: c922 f13c d318 a3be bd55 7bbd 1ecf 13bf
000003a0: 02ad 52bd dcb9 a63e 9292 cdbd f0a9 06bf
000003b0: 6a72 c33d 557b f33c 16e3 083f 09b5 de3a
000003c0: 1a6a 7bbe 4261 b6be c8e6 b83d af74 963e
000003d0: f57a 0a3d f67d 873e 619a 0e3e bc8a 32be
000003e0: 45ee b53e 0e6f 81be dffb e13a 666e 87be
000003f0: 859a 10be de43 9fbe b78d 16bf 450e 7b3d
0.110695004 0.30894873 0.34742808 -0.23617746 0.07813331 -0.3014438 -0.37456846 -0.426686
0.3535901 -0.15621288 0.1860286 -0.25944668 -0.07740554 -0.42787978 -0.6395616 -0.29503447
0.028678032 0.009689803 -0.22705092 0.066321574 0.22258522 -0.04764067 0.16994378 -0.19384317
-0.16246758 -0.38575244 0.23232478 0.25562832 -0.16517185 0.41129312 0.54792714 -0.3754512
0.22151046 0.12666808 -0.4430388 -0.15095991 -0.7793321 0.4002148 -0.6306546 -0.43928078
0.490916 -0.38304073 -0.20159414 -0.2912962 -0.3140136 -0.039220035 -0.4029051 -0.31180844
0.34500566 -0.057092745 -0.0023408204 -0.031925634 -0.33262986 -0.11788224 0.34372476 -0.6356566
-0.036181323 0.24398024 -0.279154 0.19540304 -0.48685852 -0.1530701 -0.37782782 0.6676124
0.3885411 0.11615821 0.14402156 0.075689524 -0.034346916 0.027097726 0.036796793 -0.32322374
0.20480101 -0.23966111 0.74421644 -0.04304481 -0.08797073 -0.06080709 0.17794321 0.580915
0.15215474 0.46395084 -0.2972686 -0.31891116 -0.49613398 0.23154725 0.2687621 0.13198654
0.068196364 -0.20928949 0.03201586 0.56521153 0.111889206 0.10050209 0.058946278 -0.22437899
-0.19651635 -0.110768445 -0.4647156 -0.16601406 -0.08962316 0.24174935 0.17262258 0.036688205
0.42737442 -0.18584977 -0.06265686 0.04897579 -0.096874215 0.0345863 -0.48784986 0.016178051
-0.18287334 0.30146512 0.11287407 0.44180036 0.42981616 -0.24497457 0.020024965 0.07672994
-0.017543197 0.19966179 0.22692734 0.3383208 0.03267175 -0.25691888 -0.30415317 0.23190989
-0.61445874 0.21413876 0.24011365 -0.17752104 -0.27604514 -0.28472418 -0.74972147 0.083550766
0.07649164 0.061855547 -0.04122558 0.46127203 -0.061266858 0.52149147 0.014443382 -0.106399745
-0.15766819 -0.019683998 -0.35075268 0.021357378 -0.00083169574 0.11597669 0.36389893 -0.6005508
0.13045959 -0.18913075 0.17902423 0.17306794 -0.18875565 0.18668704 0.068004854 -0.010730309
0.05899831 0.091456115 -0.19586603 0.18677221 0.33227876 0.09746668 -0.05612836 -0.088336
0.052196324 -0.09513697 -0.035271645 0.1715278 -0.20500663 0.040974677 0.21689737 -0.1378839
-0.24037653 0.38250715 -0.18471766 -0.33919424 -0.16718897 -0.39362335 -0.37741923 0.06818259
-0.07830933 0.044889033 0.017549293 0.45964348 0.19071724 -0.078450866 -0.036723506 -0.017598828
-0.0941377 0.19571233 -0.15937194 -0.009928852 -0.31627595 -0.14136912 -0.2682145 -0.4494798
-0.08339561 0.12432625 0.46078762 0.1327266 -0.03655143 0.21614832 0.58571804 -0.27261674
-0.18749546 -0.27655005 -0.5765477 -0.33792093 -0.011717418 0.35015863 0.5208742 0.034328658
0.030023724 -0.2013294 -0.21042638 0.13468373 0.0039320886 -0.046811074 -0.11163705 -0.0070659
-0.52216464 -0.12381049 -0.085175015 -0.19624302 0.029435532 -0.31854877 -0.061361063 -0.5773791
-0.051434524 0.32563674 -0.10037722 -0.52603054 0.09543307 0.029721895 0.53471506 0.0016991209
-0.24552193 -0.35621077 0.09028393 0.29385898 0.033808667 0.26463288 0.13926078 -0.17435735
0.35533348 -0.2528004 0.0017241201 -0.26451415 -0.14121445 -0.31106466 -0.5880999 0.061292905

net.0.bias f4 [128]
00000000: b8b3 6bba d109 cfbd 4b03 b73e d591 02be
00000010: 3c11 ef3e 7f84 f33e 458e 233d 2045 df3d
00000020: 3afc 933e f3fc af3e 58c3 adbd 7831 473c
00000030: c630 863d a234 11bd bfdf 48be 02b6 42be
00000040: 0a0c cc3d f5ce ecbd 3722 4bbe 2fa6 bfbe
00000050: 4a32 8cbe 88a7 abbc 8658 d3bd 30e2 2abe
00000060: 827a 18be f34b 523b 54ce 9fbe 8d50 78be
00000070: cedd 25be f498 56be 91ff 7ebe de06 86be
00000080: 6e52 343e a1f9 6f3e d1ee c4bd f261 a43e
00000090: 1e5f 9bbe 5dd1 803e 06bc 23be 9107 5b3e
000000a0: 91c9 c6be d4ab 903e f7ae bd3e 391a 52be
000000b0: dd32 c9be 9915 98be bf3c 2e3e 9ad6 143e
000000c0: e8dc 5a3e 2922 90bb ec22 183e 1a93 8a3e
000000d0: 8ea7 a93e c7d4 7cbd 5739 a2be 0b2e a4be
000000e0: 46e7 8fbe 1d7a debc 2c9a 83be 6e36 ca3d
000000f0: 42bb b5bd 3c82 943d ce91 92bd 7c93 0dbf
00000100: 8a56 a9bd f7a6 6dbe 72a4 f0bc 42f8 f6be
00000110: 656a 8bbe 695b 273d cbc9 5f3e fde6 61be
00000120: 1cd6 2abe 4132 f13d 305b 713e a8db d6bd
00000130: d5ee 0c3e 8c0c 0fbe d7fe c3be 88c5 12bf
00000140: 83a0 9d3d d09a 3c3e b194 82be d4dd 13be
00000150: a31f 74be 023e d5be 62b7 203e f298 ccbe
00000160: fea3 b1be 1848 62bd 3af2 593d 28b0 16bd
00000170: c3ec 2ebe bfed 9bbe 8ff7 893e b58e 12bc
00000180: 275c a5be a548 293c b3ea 07be c3e5 2bbe
00000190: 769c c2bd 7525 d8bd 2bcd 55be 905a 07be
000001a0: 07aa d03e 0609 86be 1009 8dbe 3485 cc3e
000001b0: 9384 2fbe 4db4 9ebe 3ff0 b2be c89d b93d
000001c0: 5799 c83c 43f3 973e c21a 6c3e 4858 9bbe
000001d0: b044 8dbe 6f4a bbbe 8eeb 82bc 6ffc 37be
000001e0: 40bd 873c 8414 733e b0a0 5b3d 0068 3b3d
000001f0: f0ad d53d d92c 853e 0e5b a23e 3808 03bd
-0.0008991319 -0.10109294 0.357447 -0.12750943 0.46692836 0.47562024 0.0399306 0.109018564
0.2890337 0.34372672 -0.084845245 0.01215779 0.065522715 -0.035450585 -0.19616602 -0.19014743
0.09963234 -0.115629114 -0.1983727 -0.37431476 -0.27382118 -0.020953909 -0.10319619 -0.16687846
-0.14890483 0.0032088726 -0.31212103 -0.24249478 -0.16197893 -0.20956784 -0.24902178 -0.26177114
0.1760957 0.2343507 -0.09615863 0.32105976 -0.30346006 0.25159732 -0.15989694 0.21389605
-0.38825658 0.28256094 0.3704755 -0.20517816 -0.39296618 -0.29703978 0.1701536 0.14534989
0.21373332 -0.0043986035 0.14857072 0.27065355 0.33135647 -0.061726358 -0.31684372 -0.32066378
-0.28106135 -0.027157838 -0.2570356 0.09873663 -0.08873607 0.07251403 -0.07156716 -0.5530317
-0.08268459 -0.23208223 -0.029375289 -0.4823628 -0.2722961 0.04085866 0.21854322 -0.22060771
-0.16683239 0.11777163 0.23569942 -0.10491115 0.13762982 -0.1396963 -0.38280365 -0.5733266
0.07696631 0.18418431 -0.25504068 -0.1444009 -0.23840193 -0.4164887 0.15694955 -0.39960438
-0.3469543 -0.055244535 0.05320952 -0.03678909 -0.17082505 -0.30454823 0.26946685 -0.008945157
-0.3229687 0.010332261 -0.13273124 -0.16786866 -0.09502499 -0.10554019 -0.20879047 -0.1321814
0.4075472 -0.2617876 -0.27545977 0.39945376 -0.17140417 -0.30996934 -0.34948918 0.090632975
0.02448718 0.2967778 0.23057082 -0.3034079 -0.27591467 -0.36580226 -0.015981462 -0.1796739
0.016569734 0.23738295 0.05362004 0.04575348 0.104335666 0.2601078 0.31710094 -0.03199026

net.2.weight f4 [128, 128]
00000000: f792 85be b7c3 28bd 123c 1dbe b746 0bbe
00000010: d6f7 03be 6310 023d ed38 09be d8b4 6bbd
00000020: c076 db3c 7c87 573c 51e5 abbd 1c07 22bd
00000030: 7062 f7be 7ba1 253d 4a14 3cbd 1704 1bbd
00000040: 70f2 67bc dd76 81be 2463 08bd 89f5 92be
00000050: 368e 633d 91bf 95bd 9fce 1b3d d0bc f03c
00000060: a603 8cbc 6349 c13d 1e28 0c3e 7b43 50bd
00000070: f335 0bbd 8f66 aabd 0647 2e3d 9212 2b3c
00000080: 50c2 ebbd c4e3 0a3d a89c 79bd b136 32bc
00000090: 3afe 7fbd dd82 23be bc33 cc3c 31c6 1cbc
000000a0: 9034 783c e55d b0be 729c f3be 0d36 58bd
000000b0: 438a 63bd e500 3cbe 47e8 e6bd 4b07 cdbe
000000c0: c9fc 69be 9638 c23c 3134 88bd 565d 553c
000000d0: 2404 69be 6e6b 6b3b 686f 71bd 74db 13be
000000e0: 7e4e 6c3d 3b84 72bd 343d 163b 28cf e1bd
000000f0: 1879 8fbe d6d6 433b 984b 143e db1c 1bbc
00000100: 2913 1dbd ffc0 f8bd 5bde 13bc c86e 6e3d
00000110: 8ec4 573d 333e d7bc 7f83 6b3c ff3e 50bd
00000120: 31eb 873d 3fcc c1be dd0b 9cbd c76b 903d
00000130: f756 25bf 0b74 a13d 9cda f03c 5f60 8e3d
00000140: 3458 73bd f05e 5fbd 044f df3c 15d0 9bbc
00000150: 728c 01bd 685e 18bb a647 aabd 9695 0fbd
00000160: 5a10 973d 30c9 e4bb 2d18 d03c 8740 943d
00000170: 0e2f 423b 710c a4be 71a3 ee3b 603e 10be
00000180: a9b7 963d 33d2 b03b 7e3e 1fbe 0c87 a7bc
00000190: a5bf 79bf 3372 cbbc 8295 18be d4f5 f03c
000001a0: 623a 91ba b3e9 82be 5513 1b3d bd4a 36bd
000001b0: 6628 b3bc 5f8d 10bd d223 243d a009 81bd
000001c0: 7014 c33d 9638 97be 0e96 013c 3f8a 54bd
000001d0: 1aef 57be 4834 98be fe0a 06be 070a 65bd
000001e0: 5e23 febc cfcc 24be f579 3ebe 82f4 19bd
000001f0: e6ca 2a3d cd4d aa3c c696 c3bc 0078 99b8
00000200: 81c7 ff3d 71ef e93c ea09 85be 9a85 8c3d
00000210: bb59 a5be 9f29 f3be 607c 993b aad6 303d
00000220: 18d1 d1bc 87aa e5bd 1d91 bebe 99d5 edbd
00000230: 7a55 afbe 7bcc 203e 7d47 aabd 311a 133e
00000240: 0e5f ec3d 4594 5b3c 1732 1abe 96c2 193e
00000250: 143c 943c 9627 78be d180 27be f527 87bd
00000260: fed2 0fbe e946 2abc 4530 3f3d e12f 39bd
00000270: 8332 923d e002 a03c 1c43 00bd e3ef 4a3a
00000280: ee4e 5c3e 79b5 01be cb63 903d 9fdc e4bc
00000290: 1892 ee3c 363b e5bd e53f fdbd f737 43be
000002a0: d02f a03c 3173 57bf 04cc 81bc ba08 90bc
000002b0: 0070 4939 ac8c 1b3c 4a51 b4bb 2db5 75bd
000002c0: 6f06 27be 130a 2dbe 3745 3d3d 4111 28bd
000002d0: 33f6 13bf 79ed 44be eb86 17bd 3be1 1abe
000002e0: 3a07 193d 6001 49be f770 453e 6e6a 713e
000002f0: a3d9 ff3d cc88 a1bd c21e d2be bceb c43d
00000300: 7ef1 c8bd 7173 893c 0efe 193e ce41 7cbc
00000310: 602f a5bb 59dd 1cbe 9346 84bd 6240 7e3e
00000320: 9e0a 65bd 0015 fcbe 473a 80be e1bd a53d
00000330: 012d 09bf 4a3e 413d 23ac 65bd 8dcd bdbe
00000340: 9407 8fbd 2e5e 56be f495 823c aa81 6abd
00000350: 4e4e 87be bbec 893d 333b 20bb 2a0f 203d
00000360: 1bb5 c23d b533 12be 0339 71bd e6ff 3dbd
00000370: 4b48 e4bc e558 293d a965 163c 1e19 a6be
00000380: bbb6 61bd 844b b43e 4d7e e0be 2749 b3bd
00000390: c917 12bf 158c 133e f732 813c 70d7 54bc
000003a0: eadc 21be 3e7e 353e 5074 35bd 8c2a 78bd
000003b0: 6755 73be b80c ebbe c00e bc3a d29f 9abd
000003c0: d2fe 33be 9192 b1be 4565 0cbe b688 333e
000003d0: cfac edbd 9907 d4bd 1321 b4bd a9e2 423b
000003e0: 0134 31bd d187 95bd 44b1 143d be9a fbbd
000003f0: ef62 9f3e 4a46 c7bd 2fc8 d7bc 30be 733c
-0.26088688 -0.041202273 -0.15354946 -0.13601194 -0.1288751 0.03175391 -0.13400622 -0.057545513
0.026790023 0.013154861 -0.08393348 -0.03955756 -0.4831729 0.040437203 -0.045917787 -0.037845697
-0.014156923 -0.25285998 -0.033297673 -0.28702953 0.055555545 -0.07311929 0.038038846 0.029386908
-0.017091583 0.094378255 0.13687178 -0.050845604 -0.033986997 -0.08320343 0.042548202 0.010441439
-0.115116715 0.03390862 -0.060940415 -0.010877297 -0.06249831 -0.15967889 0.024927013 -0.009568737
0.015149251 -0.34446636 -0.47580296 -0.05278592 -0.05555178 -0.18359716 -0.11274772 -0.40044627
-0.22850336 0.023708623 -0.0665058 0.013022741 -0.22755486 0.0035922187 -0.058944136 -0.14439183
0.057692043 -0.059208136 0.0022924663 -0.1102584 -0.28022075 0.002988269 0.14481962 -0.009467329
-0.03834835 -0.12146186 -0.009025182 0.058211118 0.052677684 -0.026274776 0.014374613 -0.050841328
0.06636656 -0.3785114 -0.0761945 0.07051807 -0.6458582 0.078834616 0.029401116 0.06951975
-0.05941029 -0.0545339 0.027259357 -0.01902012 -0.03162808 -0.002324963 -0.08314447 -0.035054766
0.07376166 -0.006981991 0.025402153 0.0723887 0.0029630098 -0.32040742 0.0072826673 -0.14086294
0.07359249 0.0053961514 -0.15551183 -0.020450138 -0.9755805 -0.024834728 -0.14900783 0.029414095
-0.0011080022 -0.25568923 0.037860233 -0.04450487 -0.02186985 -0.035291072 0.040073223 -0.06300664
0.095253825 -0.2953536 0.007909311 -0.051889654 -0.21087304 -0.29727387 -0.1309013 -0.055917766
-0.031022724 -0.16093753 -0.1860121 -0.037586696 0.041697405 0.020789051 -0.023875605 -7.31796e-05
0.12489224 0.028556557 -0.25984126 0.0686142 -0.3229502 -0.47492692 0.004684016 0.04317347
-0.025612399 -0.11214166 -0.37220088 -0.11613006 -0.342449 0.15703003 -0.083144166 0.1436546
0.11541568 0.013402049 -0.1505817 0.15015635 0.018095054 -0.24233851 -0.16357733 -0.06599418
-0.14045331 -0.010392883 0.046676893 -0.045211677 0.071385406 0.01953262 -0.031314 0.00077414344
0.21514484 -0.12666883 0.07050284 -0.027937232 0.029122397 -0.11192934 -0.123657025 -0.19064318
0.019554049 -0.84160143 -0.015844353 -0.017582286 0.00019210577 0.009493988 -0.0055028545 -0.059987236
-0.16311048 -0.16898374 0.046208587 -0.04103208 -0.57797545 -0.19231214 -0.036993902 -0.15124981
0.037360407 -0.19629431 0.19281374 0.23575756 0.12492683 -0.0788742 -0.4103909 0.09615275
-0.09811686 0.01677868 0.1503832 -0.015396548 -0.005041048 -0.15318812 -0.064587735 0.24829248
-0.05591833 -0.49234772 -0.25044462 0.08092857 -0.53584296 0.047178544 -0.056072365 -0.37070885
-0.06983867 -0.20934364 0.015940644 -0.057252564 -0.2642693 0.06734606 -0.0024449348 0.03907696
0.095071994 -0.14277537 -0.05889226 -0.046386622 -0.027866503 0.041344542 0.009179511 -0.32441038
-0.055105906 0.35213864 -0.4384636 -0.08754187 -0.57067543 0.14408906 0.015771372 -0.012990817
-0.15806928 0.17723939 -0.044300377 -0.06058745 -0.23763047 -0.4590814 0.0014347658 -0.075500146
-0.17577675 -0.34682134 -0.13710506 0.1753262 -0.11605226 -0.10353012 -0.08795371 0.002973715
-0.043262485 -0.073012955 0.036301866 -0.12285374 0.31130168 -0.097302034 -0.026340572 0.014876887

net.2.bias f4 [128]
00000000: 6767 443d 4cce 8cbd 6059 25bc aaf5 bbbd
00000010: aa35 75be cfce ae3d 59ab 883a d982 0dbd
00000020: 22bc 1abc 432d 54bd 570f 90bd bdb2 163e
00000030: 2185 0d3c 26f7 de3d 0b4e dbbc d978 7dbd
00000040: f80d 233c 19f1 9fbd a6dd 2d3d de38 9cbc
00000050: 7637 8ebc cbff a7bc 53c4 ebbc bb73 bbbc
00000060: 0a3d 433e a887 abbd d499 75bd 4b8d 48bd
00000070: 6247 03be 351b 493c cff7 34bd 5177 113e
00000080: dc2d 663b d13f a4bc 78a4 263e 852d 8cbd
00000090: c724 aabd 3b42 bcbd e234 a8bd 86fb efbd
000000a0: c89a edbc ba36 8f3c 0a51 043e 7c88 16bd
000000b0: a295 01bd f40f 7ebd a4d8 37bc 1dca bebd
000000c0: 8d7d 203d 3522 dd3c 7067 54bd b94c 56bd
000000d0: 62ca f1bc 11b1 88be c91b c9bd 4716 33bd
000000e0: 2c5e 383c 593c 37bd 8363 efbd a72a 8e3b
000000f0: c0eb dbbb f29c 253d 8d94 9b3c 2021 d0bd
00000100: 28c2 7bbd 262a 4cbc d749 953c 1767 8fbc
00000110: ca0e bbbd b10a 64bc d47f 26be 9430 e8bd
00000120: 036e b3bc ca50 8d3a e059 4c3e ee98 96bd
00000130: 3651 053d 5c70 d43b d5dc 1cbc 63e1 79bd
00000140: 8825 b5bd e46e abbd 273a 11bd 5127 073e
00000150: 8bdc fcbb b03b 53bc 1010 9bbd 7d64 433d
00000160: 4b38 ecbd 05e8 1f3d fb3a abbd 73b9 2c3d
00000170: 2c68 bb3d db34 1cbd b46f 323e 8dcb 4d3d
00000180: 3267 fabd fa6a 08be cd64 153e 0675 96bb
00000190: df4e 85bc 0f1f 0c3e a663 8b3c c9d6 893e
000001a0: fd75 453e 092a abbd b5a4 ed3c 287d 9ebd
000001b0: b3a8 69bd b737 b6bd 676a f1bd c9b6 cc3d
000001c0: f117 83bd ea46 003e 2a7f 123d 5be9 553d
000001d0: 9a63 4bbd fe74 4b3e b292 0dbe e1fe 58bd
000001e0: ad6a ae3c 36e2 7fbd 0b23 82bd f5a1 aabd
000001f0: 9899 25bd a82c 553c a86c 9d3c 7236 97bd
0.047950175 -0.068752855 -0.010092109 -0.09177716 -0.23946252 0.08535539 0.0010427042 -0.034548614
-0.009444268 -0.051800977 -0.07034176 0.1471662 0.008637697 0.108869836 -0.026770612 -0.061882827
0.009952061 -0.078096576 0.04244771 -0.019070085 -0.01736043 -0.020507714 -0.028780138 -0.022882333
0.19066253 -0.08375484 -0.059961155 -0.048962872 -0.12820199 0.012274553 -0.04418164 0.14205672
0.003512255 -0.020049961 0.16273677 -0.0684462 -0.08307796 -0.0919232 -0.082132116 -0.11717896
-0.02900447 0.01748215 0.12921539 -0.036751255 -0.03163684 -0.062026933 -0.011221085 -0.09315894
0.039182235 0.02699385 -0.05185646 -0.052319262 -0.029515449 -0.2669759 -0.09819753 -0.043722417
0.011252921 -0.044735286 -0.11688902 0.0043385806 -0.006711453 0.040432878 0.018991733 -0.10162568
-0.06146446 -0.012461221 0.018223686 -0.017505212 -0.0913368 -0.013918565 -0.162597 -0.113373905
-0.021903044 0.0010781523 0.1995616 -0.07353388 0.032548152 0.006483121 -0.009574135 -0.06100596
-0.08845049 -0.0837076 -0.03545585 0.13198592 -0.0077167205 -0.012892649 -0.07571423 0.047703255
-0.115341745 0.03903963 -0.08360859 0.042169046 0.091507286 -0.038136344 0.17425424 0.05024295
-0.12226714 -0.13322058 0.14589234 -0.004591587 -0.01627296 0.13683723 0.01701529 0.2692168
0.1928329 -0.08357627 0.029009202 -0.077387154 -0.05704565 -0.088973455 -0.11787873 0.09995801
-0.06401051 0.12527052 0.035765804 0.0522245 -0.049655534 0.19868848 -0.13825491 -0.052977446
0.021291101 -0.06247159 -0.0635434 -0.08331672 -0.04042968 0.013011135 0.01921685 -0.073834315

net.4.weight f4 [3, 128]
00000000: dc6e 83bd 5963 f9be bcd7 f83b 9406 7ebd
00000010: ca25 99bd 9cdf ad3d 891e 78bf 512e a2bd
00000020: 1fae e03c 3ca4 2b3c 8412 a13d 2e9a 443d
00000030: ab5f 0bbc 2507 a73d b2ca 1c3e cf36 893e
00000040: 78f1 cd3d f2da 983d ded1 ca3c b249 7d3d
00000050: 0f58 50bd ec4d 0b3d 112c 24bd 0315 a13d
00000060: be63 f73d 25dd abbd 0e7c 8bbd c8ed 463c
00000070: 5fec 50bc 3e3b 2f3e 5d0f 17bd 9a3d c8be
00000080: e7fe 413e 576e b7bd 29e0 093e 98a1 273c
00000090: cc78 bc3c ca75 7aba 888d 903c 947d 5f3d
000000a0: c18f 853d dbae 693e 67fa e63d a39e e63d
000000b0: 3397 5bbd 0c01 963d 93c5 b2bd bfc5 c13d
000000c0: fe2e a63d e1b8 8c3d 88bb 1d3d ef0d deba
000000d0: 98a2 1ebb 2aff b1bd 5787 bbbc d718 e3bb
000000e0: ba1a 9f3d 803c 403d 6de6 3e3d 3636 213d
000000f0: 2e25 d03d b581 143d 91ab c43e 6739 203e
00000100: 87ce e3bd 0652 963d 8f39 0f3e c493 4abd
00000110: 886f 733d 4a69 d2bd b36d 18bf 736c 61bf
00000120: 8051 61bc 65c0 47bd abc4 e3be 0290 663d
00000130: 6f04 953d a247 b6bd 3fff 673d 1f9a 113e
00000140: 8392 c2bc 1e00 06bd 59bd f53c 62f3 0f3e
00000150: 1332 3d3d 8b7f 1abd d0b7 36bf 281c 863e
00000160: 515e 5dbd 6bb4 bb3d 1f48 c3bd fb5f 173e
00000170: 816e dd3d 464d 8abd ba2e 203e 26de 453d
00000180: 09ff b7be 591c 1bbe fed4 bc3d 4a13 833e
00000190: a4d2 503c 8e6f 333e 55cb 953d 819b 8c3e
000001a0: 0f0c 6a3e 13e7 b3bd 534f 033d 5537 8c3d
000001b0: 1f88 5d3c 9eda d1be 47e9 0a3e 33f4 cfbe
000001c0: e40c 883d 8739 463e 915b 8d3e d510 85be
000001d0: 40ed eb3c dd35 283e d7cf 0cbf 8dc5 523d
000001e0: 505b 56bf 2ada 4e3d f83f 833d 1c30 873c
000001f0: 53da ac3d 389e 23bd ccf6 1bbf 2fc8 f6be
00000200: 8448 16bd c86c 71be 8696 ecbd cb35 6abd
00000210: 578c d5bd d264 f83d 8e8e 0cbf dbf7 053c
00000220: 9b23 663c 92b1 27bd d368 5a3d 7851 cd3d
00000230: 69e3 9b3c 9cef 993d fd4e f33d d99c 083e
00000240: 9606 8e3d 287d b53c ca68 12bd 1578 14bd
00000250: 94e5 aabd 9eb8 96bd a993 bebd 88e9 e83d
00000260: b8c1 963e 9163 ae3d 0deb 95bd e277 d73c
00000270: b752 14bd 285a 2e3e 2902 9e3d 8f56 25bf
00000280: 2110 143e cebe 16be dee0 0f3e 4df5 15bd
00000290: ede6 8f3d 05f4 903c 15ea 55bc 1616 173d
000002a0: 8443 44bd aa70 333e 7638 7b3d 5586 013e
000002b0: f504 72bd 6b6c 373d 4c53 abbd b53a 23ba
000002c0: 179e 39bd 01a4 663d 5040 393d ec4b f8bc
000002d0: 93b1 7d3d 20a8 fcbd 12d5 e3bd 3bc6 27bd
000002e0: f35e 27bc 66b8 85bd b8dc 263c a424 fe3c
000002f0: c022 0c3e 6ec5 063d b30d 0e3f 61a2 1b3e
00000300: 3a26 1dbe c72d ad3d e276 6f3d 8a5d 4abd
00000310: bc30 ab3d f952 acbd 2711 2abf 7c77 24bf
00000320: 60c7 493d 1e52 ffbc 23d6 3ebf 2e37 333d
00000330: 7fca 08bc ff0b 0ebe 09e3 a43d 8138 9c3e
00000340: 3fe9 b2bd 80a1 453d 4f8e 453d 7f98 fd3d
00000350: 36f0 d33d ddfa 043d 8a9c c6bd 0080 3f3e
00000360: 40da cebd e3a9 aa3d b400 0fbe d437 b43d
00000370: cf01 f03d 7091 9c3c 2ce1 2b3e b35e 633d
00000380: ba29 bfbc f117 2bbe 23b9 393e 98e9 643e
00000390: 337b 8c3d 1ddd 8f3e e97a 503d 904e fc3e
000003a0: 60da b23e 003b 5dbb cc66 3d3d 0633 56bd
000003b0: 8767 69bd 1ce1 cebe de42 193e 2a12 babd
000003c0: 11cd ad3d 08da 013e 49e4 903e d136 b1be
000003d0: a98c 843e 1dce f93d 3445 dcbe 4cec 793d
000003e0: b09c 10bf d8f0 b63d da5e 253d 70a6 b7bb
000003f0: 4d8f 7b3a a330 f0bc 77da 08bf f39b e9be
-0.06417629 -0.4870861 0.007594077 -0.062017992 -0.07477911 0.08489916 -0.9692159 -0.079189904
0.027426777 0.010476168 0.0786486 0.0479986 -0.008506696 0.081556596 0.15311697 0.26799628
0.10055822 0.074636355 0.024758276 0.06183786 -0.05086523 0.03400986 -0.040081087 0.07865336
0.12079571 -0.08391789 -0.06810771 0.012141652 -0.012751668 0.17112443 -0.036879886 -0.39109498
0.18944894 -0.089565925 0.13464417 0.010231398 0.02300682 -0.0009554295 0.017645612 0.05456312
0.065215595 0.22820608 0.11278229 0.11260726 -0.05361099 0.073244184 -0.087290905 0.09461545
0.08114432 0.068712 0.03850892 -0.0016941408 -0.00242058 -0.08691247 -0.022891684 -0.0069304514
0.077687696 0.046932697 0.04660647 0.03935834 0.101633415 0.03625651 0.38412145 0.15646897
-0.11123376 0.073398635 0.139868 -0.049457327 0.059432536 -0.102739885 -0.5954239 -0.88056105
-0.013752341 -0.048767466 -0.44485983 0.05628968 0.07276236 -0.089003816 0.056639906 0.14218949
-0.023751503 -0.032714956 0.029997515 0.14057687 0.046190333 -0.03771929 -0.71374226 0.26193357
-0.054045025 0.09165271 -0.095352404 0.14782707 0.108120926 -0.0675302 0.15642825 0.04830756
-0.35936764 -0.15147533 0.092203125 0.25600654 0.012745533 0.17523023 0.07314173 0.2746239
0.22856162 -0.08784308 0.03205807 0.06846491 0.013521223 -0.40987104 0.1356555 -0.40615997
0.06643084 0.19357882 0.27608922 -0.25989404 0.028799653 0.16426797 -0.5500464 0.05145793
-0.8373308 0.050501026 0.064086854 0.016502433 0.084400795 -0.03994581 -0.6092346 -0.48199603
-0.03669025 -0.23576653 -0.115521476 -0.057180207 -0.10427158 0.12128605 -0.5490502 0.008176769
0.014046575 -0.04094083 0.053322624 0.100253046 0.019029336 0.07516405 0.118803 0.13341083
0.0693485 0.022154406 -0.035744466 -0.03624733 -0.0834457 -0.07359432 -0.09305508 0.113726676
0.2944467 0.085150845 -0.07320223 0.026302282 -0.036211696 0.1702658 0.07715256 -0.645852
0.14459278 -0.14721224 0.14050624 -0.03661089 0.070264675 0.017694483 -0.013056298 0.036886297
-0.04791595 0.17523447 0.061333142 0.126489 -0.05908676 0.04478113 -0.08365497 -0.00062267046
-0.04531678 0.05630875 0.04522735 -0.03030964 0.061936926 -0.12336755 -0.11124624 -0.04096053
-0.010215509 -0.06529312 0.010184459 0.031023331 0.13685131 0.032903127 0.55489653 0.15198661
-0.15346614 0.08455997 0.058462985 -0.049405612 0.08358905 -0.08414263 -0.6643242 -0.6424482
0.049262404 -0.031167086 -0.74545497 0.043753795 -0.00834906 -0.13871764 0.08051116 0.3051186
-0.087358944 0.04824972 0.04823142 0.12382602 0.10348551 0.032465804 -0.09697826 0.18701172
-0.10100222 0.083331846 -0.13965112 0.08799711 0.11719095 0.019112319 0.16785115 0.055510234
-0.023335326 -0.16708352 0.1813703 0.22354734 0.06859436 0.28098384 0.050898466 0.49278688
0.34932232 -0.003375709 0.046240613 -0.052294753 -0.056983497 -0.4040612 0.14966914 -0.09085496
0.08486379 0.12680829 0.28299168 -0.34612134 0.25888565 0.12197516 -0.43021548 0.061016366
-0.56489086 0.08932656 0.04037366 -0.0056045577 0.00095962436 -0.029320067 -0.5345835 -0.45626792

net.4.bias f4 [3]
00000000: c3da 5b3c 6a6d 95bd a95c df3c
0.013418856 -0.0729626 0.027265863
