train-pong/saved_models/dqn_episode_2.pth (torch, 74333 bytes, 6 tensors)

net.0.weight f4 [128, 6]
00000000: db6e cdbe ece3 c6be 6613 6abe b7dd d2be
00000010: 79d5 a03d 2940 753e 9eb3 74be bbdf 8abe
00000020: a53a c63e b757 193e 7de2 cf3e 857f 083e
00000030: e113 ed3e 3ad8 403e 58b1 f73d 9357 81be
00000040: 8b46 2fbc fca4 2ebe 52fa 903e f800 763e
00000050: 5a5b 873e 729c d23d 33dc 483d 975a 62ba
00000060: a576 a53a 83d1 9fbe 1460 ddbe fdc3 943b
00000070: 5e39 a1be 5869 c1bd 1ebc f33e df3a 9abe
00000080: 8c73 2dbd 845c bcbd 0b47 763b 1574 21bd
00000090: 9896 6f3e 7310 d13e 9bbe 953d 6888 48be
000000a0: 7a08 b5bc 5b15 413e 2991 bb3e 7dd3 8dbe
000000b0: 2235 d1bd 5cc1 bcbe c91d e33c 68d5 4a3d
000000c0: b587 babe b8a2 c83e b234 ad3d e3fa 023e
000000d0: 4112 b43e a7f2 c23e 039a 563e 7440 84be
000000e0: 2f6b 683e ed9a c33e 4801 45be 4ecf 9a3e
000000f0: b0bf 4fbe 5b5e b93e 6faf 89be b9bd d93c
00000100: 2ba3 603e 6521 b03e 7568 8fbe 475d 8e3e
00000110: 6112 c4be 7b49 4dbe 137f 393e c447 6ebe
00000120: a5da d6be 52b7 61be 3849 5cbe e986 f03d
00000130: f037 babd 9678 b43e 9d00 16be cd72 7d3c
00000140: 14da debd d726 433e d31a 11be ef73 8cbe
00000150: 7223 acbe 9cb3 b6bd 1aeb b63e 6698 d4be
00000160: 7615 c83e 110e 143e 3dea 5dbe b8b5 51bd
00000170: b438 83be 101b 66bd b2b4 8ebe 69e6 9cbe
00000180: eabf 6e3e f4b0 3cbe 3d6b 2fbb 80d7 f23d
00000190: 1578 b6be 0cba 633e 4e95 6abe b38a 173e
000001a0: 15e2 cb3e 1a02 9ebd e11c ae3b 1774 a23e
000001b0: a68b b83e c6c3 943c ff15 e93d ddaf d93d
000001c0: 1d1a 163e 9953 d4bd 348a acbe 4467 bdbd
000001d0: 20d4 553e 3040 fc3c e8a5 ccbe 8c02 afbe
000001e0: 4a01 c7be 813a a83c 72a4 09be edc8 b2bd
000001f0: 8120 c23e 6eb9 38bd 392a c7be 4ca4 98be
00000200: 3d27 3ebe 7e68 b93c b774 943e 4947 9f3e
00000210: 08a3 ffbd 9380 56be 269e 3f3e b62d ab3e
00000220: f8e2 933e 6fa0 8e3d 78e0 98bd 14e6 7b3e
00000230: c094 41bd 47dc c4be 3462 113e 2aac cabe
00000240: f9e2 673c 55cb f5bd a33a f5bd 3e49 babe
00000250: f58c b2be 4fba a4be 69cc c83e f372 a03d
00000260: 368a d93e 1b7e 32be 5956 293e 9d4a 373e
00000270: 8d37 af3e 223b b4be 62b7 c53e f69d 5cbe
00000280: e4c0 493e fa1b 093e 7f9e 34be 62f0 69be
00000290: 2233 8d3e 5504 8f3e 650a 8ebd 3098 173e
000002a0: 5001 753e 4ebe 83bd 1a4b 45be 6157 d03d
000002b0: eb8e 193e f815 9fbc 0cfb 883e 10f5 9dbe
000002c0: 2861 4ebd 104f 0abd 4018 29bd 2aa4 b9be
000002d0: 46be d53e 624f aebe ec61 5c3e 3e1b 34be
000002e0: 2186 85be 8ee3 b13c be99 bdbd 8bdc be3e
000002f0: abf0 a5be ce6f e7bd 3047 aabd 71f4 ac3d
00000300: 2842 423d eeec 3dbe 68c5 19be c008 31be
00000310: 6b96 91be 1545 f83d c1f3 83be 310a d03c
00000320: 8021 abbe a553 4c3e 660f 7b3e 615c 22be
00000330: c514 623e f629 523e 2078 21be 9842 953e
00000340: 2beb bc3e 74d9 a13e 5812 66bd b8e5 a7bd
00000350: 5b28 843e aa23 f9bd 9b94 83be c3f5 bb3c
00000360: f14c 9f3d fdb8 2abe 6c25 6cbe a4de 123e
00000370: bc58 9cbe 7419 b9bb 17ea d33e f6a8 5bbe
00000380: 814c b83e bd95 8abe 404e d53e d2c9 59be
00000390: 6d45 b9be 1b77 923e a495 c6be 8b71 123e
000003a0: 0843 38be fd91 c03c 582d 773d ea9d 543d
000003b0: 419f c2be 6ae3 2fbe aa83 a8be fb64 5b3e
000003c0: ce16 973e d06a 4c3e a42e 103e 2aac af3e
000003d0: 48cb a3bd 7a45 97be d25e e63d e872 053e
000003e0: f5f9 06bd 6a52 393d 1c93 9fbe 2525 6e3e
000003f0: a032 58bd df2e 65be c3b2 68be 00a0 b7bd
-0.4012364 -0.38845766 -0.22858962 -0.4118478 0.07853217 0.23950256 -0.23896644 -0.27123818
0.38716617 0.14974867 0.40602484 0.13329895 0.4630423 0.18832484 0.120943725 -0.25262126
-0.010697971 -0.17055124 0.2831598 0.24023807 0.26436883 0.10283746 0.049038123 -0.0008634715
0.001262386 -0.31214532 -0.43237364 0.004539965 -0.3148908 -0.09443921 0.4760446 -0.3012304
-0.042346522 -0.091973335 0.0037578966 -0.039417345 0.2339729 0.40832862 0.07311746 -0.19583285
-0.022098769 0.18855803 0.36634186 -0.27700415 -0.102152124 -0.36866271 0.027724164 0.049519926
-0.3643166 0.39186645 0.084573165 0.12791018 0.35170177 0.38075754 0.20957188 -0.25830424
0.22697137 0.38204136 -0.1923877 0.30236286 -0.20287967 0.362048 -0.26891658 0.026579725
0.21937244 0.34400478 -0.28009382 0.2780554 -0.38295272 -0.20047562 0.18114881 -0.23269564
-0.41963688 -0.22042587 -0.21512306 0.11744482 -0.090927005 0.3524825 -0.14648671 0.015469265
-0.10881439 0.19057785 -0.14170389 -0.274322 -0.33620793 -0.089209765 0.35726243 -0.4152252
0.39078873 0.14458491 -0.21671386 -0.05119869 -0.256292 -0.056178153 -0.27872235 -0.3064454
0.23315397 -0.18426877 -0.00267668 0.118575096 -0.3563849 0.2223894 -0.22908518 0.14799003
0.39820924 -0.077152446 0.005313501 0.31729195 0.36044043 0.018159758 0.113811485 0.106292464
0.14658399 -0.103675075 -0.3369919 -0.09248212 0.208817 0.030792326 -0.39970326 -0.3418163
-0.3886817 0.02053571 -0.13441637 -0.0872973 0.37915424 -0.045098715 -0.388994 -0.2981285
-0.18569656 0.022632834 0.28995296 0.31109074 -0.124822676 -0.20947485 0.18712673 0.33433312
0.288841 0.06964194 -0.07464689 0.24599487 -0.047261 -0.38449308 0.14197618 -0.39584476
0.014153236 -0.12001673 -0.11974075 -0.36384004 -0.34873167 -0.32173392 0.39218453 0.07834425
0.4248826 -0.17430918 0.16536845 0.17899556 0.3422207 -0.35201365 0.38616472 -0.21544632
0.19702488 0.13389578 -0.17638586 -0.22845605 0.27578074 0.27932993 -0.06935576 0.14804149
0.23926282 -0.06432782 -0.1926693 0.10172916 0.14995925 -0.019419655 0.26754034 -0.3085103
-0.050385624 -0.033766806 -0.041282892 -0.3625806 0.4174673 -0.3404494 0.21521729 -0.17588517
-0.26078895 0.021714952 -0.092578396 0.37277636 -0.32410178 -0.11300622 -0.08314359 0.08445061
0.047426373 -0.18547413 -0.15016711 -0.17288494 -0.28435072 0.12122551 -0.25771907 0.025395485
-0.33423996 0.19953783 0.24517593 -0.15855552 0.22078235 0.2052382 -0.1576848 0.2915237
0.3689817 0.31611216 -0.056169838 -0.08198112 0.2581204 -0.121650055 -0.25699314 0.022944337
0.07778347 -0.1667213 -0.2306115 0.14342743 -0.3053645 -0.005648786 0.41389534 -0.21451172
0.35995868 -0.27067366 0.41661263 -0.21268395 -0.3618578 0.28606495 -0.38786042 0.14301126
-0.1799432 0.023507113 0.060345978 0.05190841 -0.38012126 -0.17176595 -0.32912952 0.2142524
0.29509586 0.1996262 0.14080292 0.34311038 -0.07997757 -0.29545194 0.11248554 0.13032115
-0.03295322 0.04524461 -0.31166923 0.23256357 -0.052782655 -0.22381161 -0.22724442 -0.089660645

net.0.bias f4 [128]
00000000: 8712 a33e 627b a4bd c379 88bb b2f1 9c3e
00000010: ad38 b03d afd6 8a3c e330 a53e 6bf6 5d3e
00000020: d897 703d 3908 823d 24fa b0be 4ed5 b0bc
00000030: a387 8b3e 65b8 713e 1fff 9cbd 3e6a b3be
00000040: f0e1 3f3e 7b35 71bd 09d4 083e e432 82be
00000050: 696f 363d e4f6 71be 5e6d 293e 07e1 99be
00000060: e2ec c43e 5c50 273e 5199 be3e 7971 0e3e
00000070: 8d9d b93d aeb2 26be 7ffd 9c3e f7f2 60be
00000080: 426c d4bd 0136 c83d f947 c0be aaca 023e
00000090: 810d 21be d47d 73bd 7907 7f3d ce40 d83b
000000a0: 4af0 b6be 3378 723e 9895 02be a808 f33d
000000b0: 0b07 633e 11dd 5f3d 6981 453e 109d bfbe
000000c0: 3675 123d 1aa4 9ebe 3867 97be 5c99 663d
000000d0: c353 88bd fddf 76be e6b1 bc3e 78f8 90be
000000e0: 8e7e 3dbc 12de a13e 8c7f 663e 8e81 0abe
000000f0: 048d bd3d 1109 4fbd 2f6d 80be a035 283e
00000100: 3884 58bd 0cc1 983d 8b34 9e3e e007 14be
00000110: d1a6 bf3e 2d11 bd3d 26cd 933d 5623 c3bd
00000120: c560 05bd d4b6 fcbd 57ec a53e a6b9 73bd
00000130: 5e72 50be dbfc a23e 2dbd 5fbe 28e3 92be
00000140: 704b a6bd 4c28 873c 284b 77be 6fb7 eebd
00000150: e0cb eebc 35a7 61bc 48f4 2f3d 9f15 763d
00000160: 6f73 dcbc 647a 95bd 7961 20be 6bc5 263d
00000170: de71 11bd e9e6 95bd 8761 813e c0ef fc3d
00000180: da54 87be 6659 c0be d1b8 0ebe fc49 4fbe
00000190: 283b 913e 3f5d d13d ef3a 923e f4c4 00be
000001a0: 2743 a53e 32a5 cb3d 7ca3 853e d16b 3f3d
000001b0: a6d7 a23e e36a bc3e d46c 103e b475 1bbe
000001c0: a8eb dc3d fcc9 693e 4e65 9c3c 96bd cc3e
000001d0: deb8 a7bd 126d b43e 519d 873e 8ade eabd
000001e0: 5083 103e 2b8f a83e 31ba 983e d8eb 89bd
000001f0: 074e b0be a666 9fbd 4a3a 3d3e 4bfe c93e
0.31850073 -0.08031346 -0.0041649058 0.3065315 0.0860456 0.016948072 0.3226386 0.21676032
0.05873856 0.063492246 -0.34565842 -0.021586087 0.2725192 0.23605497 -0.07665848 -0.35041994
0.18738532 -0.058888894 0.13362135 -0.2542945 0.044539843 -0.23629338 0.16545627 -0.30054495
0.38461977 0.16339248 0.37226346 0.13910474 0.090632536 -0.16279098 0.30662152 -0.21967684
-0.10372211 0.097759254 -0.3755491 0.12772623 -0.15727808 -0.05944617 0.062262986 0.006599522
-0.357302 0.23678665 -0.12752378 0.118668854 0.22170655 0.054654185 0.19287647 -0.37424517
0.035756312 -0.30984575 -0.29570937 0.0562986 -0.06656601 -0.24108882 0.36854476 -0.28314567
-0.0115658175 0.3161474 0.22509593 -0.13525984 0.09255412 -0.050545756 -0.250833 0.16426706
-0.05286047 0.07458696 0.30899462 -0.14456129 0.37431958 0.09231792 0.07216863 -0.09528224
-0.03256299 -0.12339559 0.32406875 -0.05950322 -0.20356128 0.31833538 -0.21849509 -0.2868893
-0.08119857 0.016498707 -0.24149764 -0.11656081 -0.02914995 -0.013772775 0.042957574 0.060079213
-0.026910512 -0.07298735 -0.15662183 0.040715616 -0.035508983 -0.07319433 0.2526972 0.12350416
-0.26431924 -0.37568206 -0.1393769 -0.20243067 0.28365445 0.102228634 0.28560588 -0.12575132
0.32277796 0.09943618 0.2610129 0.04673368 0.31805152 0.36800298 0.14104015 -0.15181619
0.10787135 0.22830957 0.019091275 0.39988393 -0.081895575 0.35239464 0.2648721 -0.11468227
0.14112592 0.32921728 0.29829553 -0.06734437 -0.3443453 -0.077832505 0.18479267 0.39451823

net.2.weight f4 [128, 128]
00000000: 95d1 7c3d 041e d4bc 85e6 2bbc f53b 973d
00000010: 6d44 21bd f058 a63d 87de 283d 33ce a0bd
00000020: 971d 273d 925a eabd 2022 b63d 823c 9b3c
00000030: 4248 de3c 28b1 95bd b76b babd f4c3 2fbd
00000040: e486 42bc 77c2 9abb 1226 84bc dcec a3bc
00000050: fdbe 883c 8abc 86bd 4027 a93d 11e0 9a3d
00000060: 391e f23b 2668 f8bc 23e2 42bd c9af 84bd
00000070: 7d4a 85bd b2b2 92bd 01d8 273d 5ea8 53bd
00000080: 7626 ef3d 2840 743c 0b56 62bd 4b70 56bd
00000090: 9275 2cbd 30d9 7dbd 255d 803c 1a0f 02bc
000000a0: 6860 5dbc c847 343d b543 ab3d 4753 8a3d
000000b0: d64d 64bd ad4c 2d3d 1298 723b b348 1cbd
000000c0: 0f50 cc3d 4003 04bd a590 103e 1bbc 31bc
000000d0: f8e2 babd 4c61 c5bc 2aa6 6fbc b343 2f3d
000000e0: d789 673d 27cd 8cbd f807 8638 c0f8 02be
000000f0: fa39 913d adb9 9abd 7688 0cbe dd2d a63d
00000100: b267 173d ec7b 89bb 7280 9c3d 6ff2 35bd
00000110: 2b08 803d 70d2 c83b d4f1 81bd f4e2 2d3d
00000120: 0cc8 8fbd b699 abbd 9f4d 583d 9758 083d
00000130: e714 753d bb63 833d c897 47be b968 b73d
00000140: d1d8 9d3d 5273 1e3c f160 f0bd 2473 f4bc
00000150: a931 913d cffa da3d dd2a 50be a91d 1abd
00000160: 5e54 c13d 41a7 a43d 4c2c a6bd f81b 973c
00000170: e43f 593d 628b 05bd ac69 403d dca4 cfbc
00000180: d0e1 823c ce2b 48bd 5ab1 3f3d 96a6 dc3d
00000190: 1c4f 8ebc 0d38 9fbd 6830 983b 4da2 82bd
000001a0: 640f 0b3c c61c b83d d1c3 5abc a579 a1bd
000001b0: 5eb6 e13c 6f0e 863d c9d9 20be 1491 84bc
000001c0: 232d adbd 2da9 bebc 294c 083a ad7e 163d
000001d0: e3e4 f13b a130 8a3c 6beb abbc 8a20 dfbc
000001e0: 8aa6 b3bb 0cb6 8fbc 5e35 febd 0683 303d
000001f0: 51c8 a83c e19f bc3d ff6f ddbd 09ac b1bd
00000200: a56e b03b c39b 9abd 527d 6bbd e289 8d3d
00000210: 7a9b ecbc ebb7 b1bd 4614 643c c246 91bd
00000220: cf34 00bd a0c8 1dbd f0c0 f6bb 3ba0 55bd
00000230: dc30 6e3c 50b6 e0bb 941b 70bd dbd3 893d
00000240: a23f 45bd 843c 89bd a083 a9bd 0ca3 cabc
00000250: 49fd 453d 4958 34bd 195a 4b3d 74a4 0e3d
00000260: 823f 323d b500 a03d a1b3 5e3d 9936 5c3d
00000270: b6bd ea3c f19c abbd 1415 fa3c 5b36 8e3d
00000280: 21d6 31bd 7d2c b8bc 4134 2fbd 45ed ccbc
00000290: 2a3f 13bd d717 5ebd 6980 38bd 4075 263c
000002a0: 6e7b 373d 7ea6 a53d 1034 c43c e05a ec3b
000002b0: 5c46 74bc c0d4 4bbd fcb4 87bd bb64 17bd
000002c0: f1ab 87bc 5896 a23c 4cb3 61bd 5505 91bd
000002d0: 71bf 3bbd c036 84bb 5523 023d 58da e63c
000002e0: 968d 56bd 70fa dd3c e230 99bd 6438 c2bc
000002f0: 2824 b4bd 7f74 67bd 21ba b13d c0fd 9cbb
00000300: 9e4e aebd becd 173d f48d 3cbc 1ee3 1abd
00000310: d165 55bd bbef 803d e50f 74bd f691 813d
00000320: 2a75 3dbd 003a d93b 140d e33c 699b a83d
00000330: 68c8 6abd 1e0f e2bc 3492 b7bc ac3b 35bd
00000340: beda 1a3d 2c27 34bd ec32 4cbd 76ab 0f3d
00000350: 3e8f a33d a75d 963d 5f5e 9f3d c06e 1c3d
00000360: 42e5 3bbd dcff 613d 7204 613d fd57 1ebd
00000370: fb71 67bd 143a c53c a86a bdbc 6c2f 7cbd
00000380: 0dea 8d3d c67a 603d b069 38bd 8e04 e3bc
00000390: 8cfa 84bd 7ab8 533d bd31 783d 1ec3 383d
000003a0: 7f13 96bd a8b2 ce3c 2d06 89bd 1095 113d
000003b0: 5db4 0f3d fcea 9d3a 4e69 cc3c cb31 46bd
000003c0: 2a83 afbd 23a1 af3d fe66 62bd 75f5 1b3d
000003d0: 1159 5ebd a6c6 6ebd fa88 553d 43a9 a43d
000003e0: cc92 21bd 3ff9 acbd 0482 1dbd 96dd 563d
000003f0: dc8a 8f3c 5bfd 22bc b922 96bd 8018 f4bc
0.06172331 -0.025893219 -0.010491972 0.07384483 -0.039371897 0.08122432 0.041227844 -0.078518294
0.040799703 -0.11443056 0.088932276 0.01894975 0.027134065 -0.073091805 -0.09102576 -0.042911485
-0.011872981 -0.004722889 -0.016131435 -0.020010404 0.016692633 -0.0657893 0.082594395 0.075622685
0.0073888567 -0.0303231 -0.047578942 -0.06478841 -0.06508348 -0.0716299 0.04097748 -0.05167424
0.11677258 0.014907874 -0.05525784 -0.052353185 -0.04210431 -0.061974704 0.015669415 -0.007938171
-0.013511755 0.04401377 0.083625235 0.06754165 -0.055738293 0.04230945 0.003701691 -0.03815527
0.099762075 -0.032229662 0.14117678 -0.0108480705 -0.09125322 -0.024094246 -0.014627019 0.042789172
0.05652794 -0.06875067 6.391102e-05 -0.12790203 0.07091136 -0.07554946 -0.1372393 0.081142165
0.036964126 -0.004195681 0.076416865 -0.044420656 0.06251558 0.0061286017 -0.06344953 0.042452767
-0.07020578 -0.083789274 0.0528084 0.03328761 0.059834387 0.064155065 -0.19491494 0.08955521
0.0770737 0.009671049 -0.1173724 -0.02984006 0.0708955 0.10692369 -0.20328851 -0.037625942
0.0943992 0.08039714 -0.08113918 0.018445954 0.053039446 -0.03260363 0.046975777 -0.025347166
0.015976816 -0.0488699 0.046799995 0.10773961 -0.017371707 -0.07774363 0.0046444423 -0.06378613
0.008487556 0.08989863 -0.01335235 -0.0788453 0.02755278 0.06545722 -0.15708078 -0.01618246
-0.08455875 -0.023274029 0.0005199337 0.0367419 0.0073820218 0.016868891 -0.02098628 -0.027237196
-0.0054824995 -0.017542861 -0.12412523 0.043093704 0.02060333 0.09210182 -0.10812377 -0.08675391
0.0053842836 -0.075492404 -0.05749256 0.06911065 -0.02888273 -0.08677658 0.013920849 -0.07093574
-0.031300362 -0.03852141 -0.007530324 -0.05215476 0.014538016 -0.006857671 -0.05862005 0.06729861
-0.048156388 -0.067009956 -0.082770586 -0.02473595 0.048337255 -0.044029508 0.04964647 0.034824803
0.043517597 0.07812635 0.054370526 0.053763006 0.028654914 -0.083795436 0.030527629 0.06943961
-0.0434171 -0.022482151 -0.042774443 -0.025015483 -0.03594891 -0.054221954 -0.045044336 0.0101597905
0.044795446 0.080883965 0.023950607 0.0072129816 -0.014909353 -0.04976344 -0.06626317 -0.0369613
-0.01656148 0.01984708 -0.05510263 -0.07081095 -0.04583687 -0.004034847 0.031771977 0.028180286
-0.05238112 0.027096957 -0.07480027 -0.02370853 -0.08795959 -0.056507584 0.086780794 -0.0047909915
-0.08511089 0.037061445 -0.011508454 -0.037814252 -0.052099053 0.06295725 -0.05958547 0.06326668
-0.046254314 0.0066292286 0.027716197 0.08232767 -0.05732003 -0.027595099 -0.022408582 -0.04424636
0.037806265 -0.04398267 -0.04985325 0.035075627 0.07986306 0.073420815 0.07781672 0.038191557
-0.045872934 0.055175647 0.05493588 -0.03865813 -0.056505185 0.024075545 -0.023122147 -0.061568663
0.06929407 0.054804586 -0.045022666 -0.027712133 -0.064931005 0.051689602 0.06059431 0.045107953
-0.07327937 0.025231674 -0.06690631 0.035542548 0.035084117 0.001204818 0.024952557 -0.04838733
-0.085699394 0.08575656 -0.055274002 0.038075883 -0.05428416 -0.058294915 0.052132584 0.080400966
-0.039446637 -0.084459774 -0.03845407 0.052457415 0.017522268 -0.0099481 -0.073308416 -0.029796839

net.2.bias f4 [128]
00000000: 415a a53d a5d0 02bd 3ca7 eb3c a1e2 a33d
00000010: 8532 2d3d cf1d 4bbd 098b 06bd 2dab 5a3d
00000020: d6a4 333d ebf5 0b3d 7c5b 04bd d7e2 16bd
00000030: 719b 1e3d 9e0c 713d 33f2 8f3d ed1a 023b
00000040: cf3b 84bc 3d6f 303d 34da b739 44c4 34bd
00000050: fae8 f2bc dc11 8fbc aa97 1ebd 0b2d b9bd
00000060: 22f4 363d 3c94 58bd 1f8e afbd 4ac1 4d3d
00000070: 3e52 b2bd 4c74 7b3d 3278 eb3c ecec b9bc
00000080: 264d 6abd b491 94bc aeec e0bc 2b51 263c
00000090: 1445 94bc 3262 afbd 8058 98bb 1b4e 43bd
000000a0: c868 083d c2f3 373d 45a9 77ba 7a1c 943d
000000b0: 81e7 a5bd 037d 68bd 6a75 c7b9 2d23 3a3d
000000c0: 1676 87bd 9425 7cbd 39b0 8bbc 2dfd 9b3d
000000d0: 4074 ea3c 9619 133d caf7 6e3c ff86 1abd
000000e0: 54e2 923d 1f43 a93c 4406 45bd a0d8 2bbd
000000f0: 997b 1abc ee97 70bd 4281 8d3d 4a0f 483d
00000100: 9e90 253d e407 7fbd 927a 4abb 0881 0b39
00000110: 353f 72bd 89d8 7e3b 2db0 8c3d 927b 12bc
00000120: 9a13 673d 7f55 c4bc 272b b23d 94a2 9a3d
00000130: 9ea9 9bbd 013d 6abd 4e1e 143d 12cc 45bd
00000140: 553d 6b3d bc6d 4d3d efed bc3a 587a 153d
00000150: a589 a13d fd0b 093d f9b5 e53c c314 8ebd
00000160: 919b d2bb 3317 133d 6dd6 2dbd 0bc6 3d3d
00000170: 6838 663d 75fa d0bc 2216 48bd 9cc7 8dbc
00000180: 177d a43d a557 81bd 8e92 0abd 6f89 02bd
00000190: 59b5 e63a 5681 29bd 06ac b2bd 778c f9bb
000001a0: 99d3 773c b517 803d 5e4b 3d3d f071 25bd
000001b0: 1b10 9b3c c1da 50bd 9d5e 943c d66b 91bd
000001c0: ee42 033d 858d 85bc 4a26 523d 9019 53bc
000001d0: f9e2 14bc 8442 8fbd bbd4 043c 1fd8 83bd
000001e0: 66e1 b4bd 8685 343c 1d5b 5bbd e810 053c
000001f0: 62c4 6f3d 4a36 923c 24b7 8ebd 080e 84bd
0.08073855 -0.03193726 0.028766267 0.080022104 0.042284507 -0.049588975 -0.032847438 0.053385902
0.04385837 0.034170073 -0.03231381 -0.036837425 0.03872246 0.058849923 0.07028618 0.0019852475
-0.0161418 0.043074835 0.00035067054 -0.044132486 -0.029652108 -0.01746457 -0.038718857 -0.090417944
0.044666417 -0.052875742 -0.08572029 0.050233163 -0.08707093 0.061390206 0.028743837 -0.022695981
-0.05720248 -0.018135883 -0.027456608 0.010151188 -0.018099345 -0.08563651 -0.004649222 -0.04768191
0.033303052 0.0449102 -0.00094475254 0.07231994 -0.081007965 -0.056759845 -0.00038043718 0.045443702
-0.0661432 -0.061559275 -0.017051803 0.07616649 0.028619885 0.035913073 0.014585445 -0.0377264
0.07172075 0.020661889 -0.04810168 -0.041954637 -0.009428882 -0.05873864 0.069094196 0.048842706
0.04042112 -0.062263384 -0.0030895812 0.00013304141 -0.05914231 0.003888639 0.0686954 -0.008940594
0.056415178 -0.023966549 0.08699637 0.075505406 -0.07600711 -0.057187084 0.036161713 -0.04829032
0.057431538 0.05015348 0.0014414171 0.03649363 0.07887582 0.0334587 0.028040873 -0.06937554
-0.0064272364 0.035910796 -0.04244082 0.046331447 0.056206137 -0.025510052 -0.048849232 -0.017307095
0.080316715 -0.06315545 -0.03383117 -0.03186935 0.0017601653 -0.04138311 -0.08724217 -0.0076156217
0.015126132 0.06254522 0.046214454 -0.040391862 0.018928578 -0.05098987 0.018111521 -0.07100646
0.03204625 -0.016302833 0.051306047 -0.012884513 -0.009087318 -0.06995109 0.0081073595 -0.06437706
-0.08832054 0.011018163 -0.05355369 0.008121707 0.058536895 0.017848153 -0.06968525 -0.06447989

net.4.weight f4 [3, 128]
00000000: bd67 19bd 8cab 9fbd 1f45 63bd 5c13 833c
00000010: abb2 e03c 153b 0a3d b002 9ebd 4c48 a7bc
00000020: c01d 113c 36b2 8cbd 66b6 0d3d de35 59bd
00000030: 1e45 29bc c5dc 2fbd 84af 41bd e15c cc3c
00000040: 229e 8ebd 7700 4a3d dc68 acbc 5175 b33d
00000050: 2d56 953d 2518 1cbd 0fce 6abd 77ae 90bd
00000060: 9ae8 acbd c60c 2cbd 8a11 b93d f43b 28bd
00000070: d016 cf3b 5a3b 083e 3ccc b2bd 05f9 83bd
00000080: dd35 893d adcc c03c 3a40 163d 9c9d 9a3c
00000090: a638 583d e1bc 9cbd 4583 7ebd 8c5d 55bd
000000a0: 7069 24bd 5a93 753d 939e b43d 03b8 da3c
000000b0: 0699 6bbd 973e a1bd 36d7 aabd 6740 4d3b
000000c0: 753f a73d 40d0 193b c4fd e4bc 3e4d b5bb
000000d0: 03f4 863d 0b9c 933c 1b96 3abd 2440 80b9
000000e0: 5329 cb3a 6196 163d e71a d2bd de6c 4a3d
000000f0: 2b45 cdbc 8040 f93b e982 e13c 568b 56bd
00000100: 260a 0e3d 34fb b03d dfeb a23d 4e30 b2bd
00000110: 78dd 833c f0d4 143d 6022 b8bc 10f7 86bd
00000120: 4737 0abd c851 4fbc 0883 c73c b018 883d
00000130: d21b 003d ac1e bf3c c128 41bd 3799 87bd
00000140: d838 6a3d 0149 1cbd 4c97 a23c 1282 23bd
00000150: 47d2 82bd ee72 a03d 2132 4f3d 5314 34bd
00000160: e66a d5bc acef d03d fc67 80bd e0ca 21bd
00000170: b729 413d 0461 06ba 829c d5bd d19a a13d
00000180: 3e73 3ebd 4b10 8bbc d9bd b83c 97ad 1bbd
00000190: d402 dcbd 0c8f e6ba ff3c 903d 114b d93c
000001a0: 8c67 8f3d c03c fabb 8bd9 883d 442e 38bd
000001b0: 9caa b1bc faa4 e9bc 80bf d3bc f37b afbc
000001c0: 144b f03c 5212 743d ad05 8d3d 2038 c1bc
000001d0: 0a99 6cbd 7d12 2c3d 6c8c 433d 7bab 013c
000001e0: 2144 923d 185b 0abd ee9c 4d3d 9646 4fbd
000001f0: c4ae 9b3d f8a3 e73a d2a2 abbd 00c4 32bb
00000200: 432f a7bd 6fd4 cf3c 570c debd e3ca d5bb
00000210: 5f94 9f3a 45d3 58bc 7a96 2b3d 29ad a13d
00000220: 3878 8e3c 850b 6b3b 0019 7b3a 214d a83c
00000230: 3b8c 233d 284a 6cbd 722f 87bd a973 9ebd
00000240: ef41 053b 8859 db3d 68ae 6f3d 4474 a33d
00000250: 9ea0 90bd 6d14 693d f066 dd3b 81e2 73bd
00000260: af8c 82bd bf05 68bd 3d5f cfbb bc07 9d39
00000270: 73f4 ad3d a0d0 c3bb 7148 78bd 90f6 9f3c
00000280: 063a 2f3d de44 9bbd 2aa5 0b3d ba95 c2bc
00000290: b0f7 1ebc 5e3c 523d 0029 8eb9 c0f2 223c
000002a0: d62c 8bbd 447c c83d e60a 9f3d e2a0 61bd
000002b0: 0428 08bd b0bb e53c 0d8f 70bd 2881 863d
000002c0: 3499 ac3c 49fd 42bd 5e42 bebc d8da 1d3d
000002d0: fcd5 d3bc 94b2 4f3c ef9e 5ebd 8a1e 42bc
000002e0: 205c 89bd 191d c83c 3ab8 abbd 46d3 67bd
000002f0: 916c 66bc ff4d 0cbd 4f43 80bd 1777 2a3d
00000300: ff94 03bd 216c 99bd 234c 72bd 9cb3 3c3d
00000310: b8c3 5ebd 76b3 1cbd 3e85 2e3d e584 cdbd
00000320: 8120 553d 7fa7 b3bd 2e00 3dbd 3661 b8bc
00000330: 176b 973d d824 91bb 6075 7c3c 3ead 423d
00000340: 44c2 593d 9d82 b9bd bd30 1cbd e988 293d
00000350: 9837 5f3c 81fe 2bbd 6643 073d bf25 7d3b
00000360: 80a0 373c 826f 843d 9b7f 49bd 02fa 4cbd
00000370: 3450 d03d a052 ffbc c628 b0bd 0dc8 903c
00000380: 42ef f4bc 01e2 923d 0629 863d 1af6 8dbd
00000390: e68f 84bd 5ecd 15bc 9082 5dbc 3b18 dabc
000003a0: 445d f43c 7e89 203d 3c27 e63c 01f8 133d
000003b0: e410 65bd 49ac d73c 9dfd 09bd debb a9bd
000003c0: eaf0 543d a502 683d d263 573d 58aa 4dbc
000003d0: f368 793d f484 99bd c2e7 a5bd 3d9a acbd
000003e0: 1065 883b 5ee1 52bd e897 343d b6a5 aebd
000003f0: ad16 dd3c ae0f 9c3d f28f 91bd af8e adbd
-0.03745245 -0.07796392 -0.05548584 0.016000442 0.027428946 0.03374775 -0.07715356 -0.020420216
0.008857191 -0.068699285 0.034597777 -0.053029887 -0.01033142 -0.04293515 -0.047286525 0.024946632
-0.06963755 0.04931685 -0.021046095 0.08762611 0.07291827 -0.038108964 -0.05732542 -0.070645265
-0.08442803 -0.04200437 0.090365484 -0.0410728 0.006319858 0.13303891 -0.08730361 -0.06443981
0.06699727 0.023535097 0.036682345 0.018873982 0.0527884 -0.07653213 -0.062136907 -0.052091166
-0.040139616 0.05995498 0.08819308 0.026699072 -0.05751898 -0.07873266 -0.083418295 0.0031318904
0.081664 0.0023470074 -0.027953036 -0.0055328896 0.0658951 0.018018743 -0.045553308 -0.0002446185
0.0015499986 0.036764506 -0.102590375 0.04942023 -0.025057396 0.007606566 0.027528243 -0.052378975
0.034677647 0.08641663 0.07955145 -0.0870062 0.016096815 0.036335886 -0.022477329 -0.06590092
-0.033744123 -0.0126537755 0.024354473 0.06645334 0.03127653 0.023330055 -0.047158007 -0.0662102
0.057183117 -0.03815556 0.019847535 -0.039918967 -0.063877635 0.07834421 0.050584916 -0.043964695
-0.02605195 0.10201964 -0.062698334 -0.039500117 0.047158923 -0.0005126151 -0.10430242 0.07890857
-0.046496622 -0.016975543 0.022551464 -0.038007345 -0.10742727 -0.0017590239 0.07042884 0.026525052
0.07002172 -0.0076366365 0.06682118 -0.044965997 -0.021687798 -0.02852105 -0.02584815 -0.021421408
0.029332675 0.059587784 0.06885848 -0.023586333 -0.057763137 0.04200982 0.04774134 0.007914419
0.07141901 -0.03377828 0.050198488 -0.050604425 0.07601693 0.0017672768 -0.08380665 -0.002727747
-0.08163311 0.02536985 -0.108421974 -0.00652443 0.0012174955 -0.013233964 0.041891553 0.07894356
0.01739131 0.003586502 0.00095786154 0.02054459 0.039928656 -0.05768791 -0.06600846 -0.07736904
0.002033349 0.10710436 0.058515936 0.0798116 -0.07061885 0.056904245 0.006756656 -0.059542183
-0.063744895 -0.056646105 -0.006328492 0.00029951136 0.084938906 -0.005975798 -0.06061596 0.01952675
0.042779945 -0.07581495 0.03409306 -0.023753036 -0.009702608 0.051327102 -0.00027114898 0.009945571
-0.06795661 0.09789327 0.077657506 -0.05508507 -0.033241287 0.028043598 -0.058730174 0.06567603
0.021069147 -0.047604833 -0.023225006 0.038538784 -0.025858872 0.012676854 -0.05435079 -0.011848101
-0.067070246 0.024427937 -0.08384748 -0.05659797 -0.01406397 -0.03425407 -0.06262838 0.04161748
-0.032124516 -0.07491327 -0.05915464 0.046069726 -0.05438587 -0.038257085 0.04260754 -0.10035113
0.05203295 -0.08772182 -0.04614275 -0.022507291 0.07393473 -0.004429441 0.015408844 0.047528498
0.05316378 -0.09058116 -0.038132418 0.041390333 0.013624094 -0.04199076 0.03302326 0.0038627235
0.0112077 0.06466581 -0.04919396 -0.050043114 0.101715475 -0.031167328 -0.08601527 0.017673517
-0.029899243 0.07172013 0.06550793 -0.06931706 -0.06472759 -0.009143202 -0.013519898 -0.026622882
0.029829629 0.039193623 0.02809488 0.036125187 -0.05592431 0.02632727 -0.03368913 -0.08287786
0.051987566 0.056643147 0.05258543 -0.01255282 0.060891103 -0.07496062 -0.08100845 -0.08427856
0.004162438 -0.05148446 0.04409018 -0.085277006 0.026988352 0.07620178 -0.071075335 -0.0847448

net.4.bias f4 [3]
00000000: 37d4 95bc 5c13 8fbd 3922 593d
-0.018289668 -0.069861144 0.053011153
