train-pong/saved_models/dqn_episode_50.pth (torch, 75369 bytes, 6 tensors)

net.0.weight f4 [128, 8]
00000000: 3907 37bf 8bb9 f3bd 724c 02bf 58d2 973e
00000010: 21de ce3e 343b 5e3e 724d 52bf aecc 36be
00000020: 7e13 ed3e acf1 bb3e a195 e33e a185 233f
00000030: b9a1 4f3e 45b8 e63e 07a0 cb3e 1c80 333e
00000040: 6874 f13e 376f b13e 28dd 773f c116 743e
00000050: 7dda 113d ea7e 913e b6b2 f5be 2301 26bd
00000060: 31d8 bc3d d214 073f f757 45bf af6d 59be
00000070: 9cb9 debd d0b4 3cbe 46f3 3d3e 1ba0 633e
00000080: b2de 9bbd 0851 1a3f 4245 66be afef e53e
00000090: 9558 2fbf 7922 b23e b82d 70bf d481 8e3c
000000a0: ba61 d63d 3645 9abd daf9 2e3f d288 a73e
000000b0: 4f71 ebbd 323c 07be ad39 5abf 49fb 793d
000000c0: 9d20 04bf af0d 6e3e b4e6 afbe e6e9 2b3c
000000d0: d964 c6be 7793 0a3e e2bf 00bf 975b 31bd
000000e0: 0732 4dbe 467e 293f ead7 583d 0b91 c83e
000000f0: 4a13 5d3e b57c f43e 01f5 8abf d2de 923e
00000100: 71e5 063f a8bd 9d3e 02d6 af3e 40d7 243f
00000110: fef9 8dbe afbf 333e 21ac 373f 2a8a bf3e
00000120: a62a adbd b541 983d 6e75 c73e 6da0 1e3f
00000130: 86c7 983e c7db 3bbd 1f8c 043f ecbf bb3c
00000140: 293e 9e3e 7c5d 233f 5fee b3bd 519e b23c
00000150: 39b1 bfbc 7248 e23c 0c40 9d3f 48fc 173c
00000160: de09 9d3e 95fc 023f 1d2a a53d b2ef edbc
00000170: ae53 16bf 0530 48be e909 253e 0050 0dbe
00000180: 6ce7 eabf 833d a03e e2e4 cd3c e759 4e3e
00000190: 3b1f b4bf 1064 843e 9bfb 11c0 2cd0 813e
000001a0: 40f4 283f 390c 07be 17f1 ae3f 8aed 09be
000001b0: add5 b93e 3efb 51be 288e 7cb9 a5b1 873e
000001c0: dcbb eabd dc7f ffbd 50e8 aabd 9b16 b43e
000001d0: 3052 763d ac6d e7bd 9c82 ce3d 0336 b4be
000001e0: e75f 8abe b2a9 e2bd ca88 06be 2f74 2f3f
000001f0: 61b4 8c3e 2db5 873e d0e9 eabb b3db f13d
00000200: 35fa ecbe b3ca eb3e 1435 8bbe f455 59be
00000210: 1a9f f33e 05c1 9ebe 97a4 47be 6283 d3bc
00000220: 0bc6 a63e 808b c1bd 1067 e73d 58c9 7f3d
00000230: 367c 93be e03e 8bbe 4852 003e 1ef6 3e3e
00000240: 23b3 a3be e64a 013f 0a5a e03d 6d12 4a3f
00000250: 5a19 b03d e0eb 7fbc b736 dd3e 4828 89be
00000260: 3e8c ce3e 8fc3 fb3e 335a d83b 06e9 4cbd
00000270: 4704 d8be fc32 8bbe 694c b8bd 5194 f8bd
00000280: 4e80 473f 7855 4dbf 26cf 05bf 96a5 04be
00000290: 06b9 2fbf 4bf7 933d 3025 21be f683 433e
000002a0: da44 b63b 2fdb f53e a33b c3be c915 653f
000002b0: 27e8 933e 46ab c53e 90bc a53e 3c14 423d
000002c0: 8414 acbe 7044 cd3d 0bf7 01be dd01 66be
000002d0: cc6b d63d b20a 80be a0ff c2bc 1483 aebe
000002e0: 7ff7 67bb ef68 b23e 1d28 8f3d f637 273f
000002f0: 0989 7c3e 5c31 d9bd ef3a 8d3e 99f2 1dbd
00000300: 003b 8b3e d6e2 cc3e 9982 bfbe 7330 f0be
00000310: aaea 103e 97dd 773e d684 b53e 3d1c eabd
00000320: 711f febe 9129 af3d 910c 91be fce7 fa3e
00000330: 994c 813e c167 6cbe 6ae8 d4be 96fb 9c3e
00000340: 1ae0 463d 955f 433f 8cbd 08bf 0486 983e
00000350: df09 3dbf 0780 2e3f 8b6e a1bd 6b69 e53e
00000360: 2659 fbbd 4411 c9bd 08c8 72bd 2044 d73c
00000370: 9021 40be 705e 253d e86b 2cbd fef5 7a3e
00000380: fc13 ae3e e87c 3abe 34a6 943f 8951 9f3e
00000390: d320 e73e e9ee a23e 5541 31bf a994 723d
000003a0: 6c53 023f 5331 9b3e 30be 25be 05bb aa3c
000003b0: 5304 16bf 8d83 e43e 57ca c5be 49d0 7b3e
000003c0: b0b3 a03e 3710 403f ef63 7f3c d474 95bd
000003d0: 6cb3 893e e977 033f a7aa 323e 2228 8f3e
000003e0: 836f cc3e 8e6a 38be 811b b63e 92a2 0d3f
000003f0: 0ca7 893d fa2b 723e 916b de3e 6b35 cebd
-0.71495396 -0.11900624 -0.50897896 0.29652667 0.40403846 0.21702272 -0.8214942 -0.17851517
0.46303934 0.36707819 0.44450095 0.63875777 0.20276536 0.45062461 0.3977053 0.17529339
0.47159123 0.34655163 0.9682183 0.23836805 0.035608757 0.2841714 -0.47987908 -0.040528428
0.09220923 0.52766144 -0.7708735 -0.21233247 -0.10875246 -0.1842835 0.18549833 0.22229044
-0.07610835 0.60279894 -0.22487357 0.44909427 -0.6849454 0.34791926 -0.9381976 0.017395891
0.104678586 -0.07532732 0.68349993 0.32721573 -0.11496221 -0.13206556 -0.85244256 0.06103066
-0.51612264 0.23247407 -0.343557 0.010492777 -0.38748816 0.13532816 -0.5029279 -0.043300238
-0.20038615 0.662083 0.052940287 0.3917316 0.2158939 0.47751394 -1.0856019 0.28685623
0.5269385 0.3080876 0.34342963 0.64390945 -0.2772979 0.1755359 0.7174702 0.37410098
-0.084554 0.074344076 0.3895678 0.6196354 0.29839724 -0.045863893 0.5177631 0.022918664
0.309068 0.6381452 -0.087857 0.021804007 -0.023399936 0.027622435 1.228517 0.009276457
0.3067159 0.5116666 0.08064673 -0.02904496 -0.58721435 -0.19549568 0.16117062 -0.13800049
-1.8351874 0.3129693 0.025133554 0.20151483 -1.4072031 0.25857592 -2.2809818 0.25354135
0.65997696 -0.13188256 1.3667325 -0.1346952 0.36295834 -0.20505998 -0.0002408555 0.2650272
-0.114616126 -0.12475559 -0.08345091 0.35173497 0.060136974 -0.11300215 0.100835055 -0.35197458
-0.27026293 -0.11067523 -0.13138118 0.6853666 0.27481368 0.26505414 -0.007168986 0.118094824
-0.46284643 0.46053085 -0.27188933 -0.21224195 0.47582322 -0.31006637 -0.1949638 -0.025819484
0.3257297 -0.09450436 0.112989545 0.062447876 -0.28805703 -0.27196407 0.12531388 0.18648574
-0.31972608 0.5050491 0.109546736 0.78934366 0.085985854 -0.015620202 0.43205807 -0.26788545
0.4034137 0.49172637 0.0066025495 -0.050026916 -0.42190763 -0.27187335 -0.08998949 -0.12137664
0.7793015 -0.8020854 -0.5226921 -0.12953791 -0.686417 0.07224902 -0.15736842 0.19093308
0.005562407 0.48018786 -0.38131437 0.89486367 0.28888056 0.38607234 0.32370424 0.04738258
-0.33609402 0.10022819 -0.12691896 -0.22461648 0.10469779 -0.2500816 -0.023803532 -0.3408438
-0.0035395322 0.34845683 0.06990073 0.65319765 0.2466165 -0.10605118 0.27584025 -0.038561437
0.2719345 0.40016812 -0.37404326 -0.46911964 0.14152017 0.24205624 0.35452908 -0.11431167
-0.49633363 0.0855285 -0.283299 0.49005115 0.25253752 -0.23086454 -0.41583568 0.30660695
0.048553564 0.7631772 -0.53414226 0.29789746 -0.7384319 0.68164104 -0.078824125 0.4480699
-0.12272863 -0.09817746 -0.059272796 0.026277602 -0.18762803 0.040373266 -0.042095095 0.24507901
0.33999622 -0.1821171 1.1613221 0.31116894 0.4514223 0.318229 -0.69240314 0.059223805
0.5090854 0.3031107 -0.16185832 0.020841131 -0.5860035 0.44631615 -0.38630936 0.24591173
0.3138709 0.7502474 0.015587791 -0.07297674 0.268947 0.51354843 0.17447911 0.27960306
0.39928827 -0.18009397 0.3556786 0.5532619 0.06721315 0.23649588 0.43441442 -0.100687824

net.0.bias f4 [128]
00000000: 48ea 7c3d 61b1 413e 8d2b 133f 000b 853e
00000010: af0d 0f3f 4978 95be 420d a93e 288c 1b3f
00000020: cde0 93be ca2b 4c3e d85f 7e3c 1513 6abe
00000030: bf9c a2bd 4224 a03e 961d 2bbe 2969 b73d
00000040: 871f 04bf 5544 82be 7fb7 063e debd 18be
00000050: 50e2 a0be 7c08 4d3e 90d4 20be b449 2fbd
00000060: 1ae5 febc c54e 523e aa5f fa3e e046 2bbe
00000070: 5b5d 95be 6dd8 253d 517e 6b3e 5429 aa3e
00000080: a647 2b3e c6be 313e 3354 a2bd f916 67be
00000090: 9aa3 5f3e eb0b af3e 71d7 a6bd d55b b1be
000000a0: 26fb a93e af05 ad3e 7800 b4bd 9634 b03e
000000b0: 3dee f13e a506 423e c051 edbd 1373 cf3c
000000c0: f9ef 713e 609c 003f 361b 6cbe 0d4a 213f
000000d0: 5856 eb3e 053d 723e 485d 59be f787 f13d
000000e0: a4ec 73be 4344 aa3d efca 013f df25 bd3e
000000f0: 4e59 ca3e 3bc3 6a3e 6294 ff3e 6bdb b1bd
00000100: 6328 38be 2870 9bbe 9144 e53e 44ca b03d
00000110: 844e 893e eaf9 573c fa03 473e c485 13be
00000120: 8ae4 953e 3e99 763e 1f56 a6be 09fa b5be
00000130: 6e2b f8be 3f67 213e b9d6 87be 68f1 72be
00000140: 679b a63e 51e3 b53e 531c 013f ebc1 60bc
00000150: 377b 92bd 9215 3b3e a718 8b3e 7054 7dbe
00000160: eb15 c4bd a8ed 733e 71d5 4ebe f627 35be
00000170: 4efb 1c3e 24de abbe ea3d cbbd c446 8d3e
00000180: 611e 9fbe 1a78 74be a0ec 29bd 08d8 113d
00000190: 69e2 f43e d77b b03e 50f5 1cbc bfe2 57be
000001a0: 0d94 1b3e 554a ae3e 5260 223e ff80 533d
000001b0: 1a94 883e d714 b13e 218b 273e bcbc 2abe
000001c0: f642 013e 53d3 70bd 444c 12be 357e 233c
000001d0: 213e 973e a868 79be a192 903e 14ae fa3e
000001e0: 897e 913e 98d5 e63d f065 3bbe 2c76 133f
000001f0: 5f53 8e3e b272 b1bd a181 ff3e 0d55 e3bd
0.061746866 0.18915321 0.5748833 0.25984955 0.55880255 -0.29193333 0.33017927 0.60760736
-0.28882447 0.19938579 0.015525781 -0.22858842 -0.07940053 0.31277663 -0.16710505 0.089556046
-0.51610607 -0.25442758 0.13155936 -0.14916179 -0.31422663 0.20022768 -0.15706086 -0.0427949
-0.031115104 0.2053786 0.4890111 -0.16726255 -0.29172787 0.040489603 0.22997405 0.33234656
0.1672655 0.1735793 -0.07926216 -0.22567357 0.21839753 0.3418878 -0.08146561 -0.34640375
0.33199424 0.337934 -0.08789152 0.3441512 0.47252074 0.18947847 -0.11587858 0.025323426
0.23626699 0.5023861 -0.23057255 0.6300362 0.45964313 0.2365609 -0.2122699 0.11793511
-0.2382074 0.08313801 0.5070028 0.36942956 0.3952126 0.22926037 0.49917895 -0.08684429
-0.17984156 -0.30359006 0.44778875 0.08632329 0.26817715 0.013182143 0.1943511 -0.14406496
0.29275924 0.24081895 -0.3248758 -0.35542324 -0.48470634 0.15762042 -0.26531008 -0.23724902
0.32540438 0.3552499 0.50433844 -0.013718109 -0.071524076 0.18269947 0.27167246 -0.24739242
-0.09574493 0.23821127 -0.20198609 -0.17691025 0.1533024 -0.33567917 -0.099239185 0.27593052
-0.31077865 -0.2387394 -0.04148543 0.035606414 0.47828987 0.34469482 -0.009579971 -0.2108259
0.15193196 0.34041086 0.15857056 0.051636692 0.26675493 0.34586212 0.16361667 -0.16673559
0.126232 -0.058795284 -0.14286906 0.009978821 0.29539588 -0.2435633 0.2823687 0.48960936
0.2841685 0.112712085 -0.18300605 0.5760219 0.27797982 -0.086644545 0.49903587 -0.111002065

net.2.weight f4 [128, 128]
00000000: 7ed8 e53e 8c69 683e 6526 e13e d3a9 8fbe
00000010: a1f5 253e 9ffb ca3f c511 5ebe 2acb 5c3e
00000020: 1952 2b3e b1c6 b53d 4b83 0fbe bc56 b2be
00000030: 2df9 c93f 49c7 243e 30e8 84bd e558 88be
00000040: 6386 fa3f 2c9e 8ebd 24f3 8b3e f57a d63e
00000050: 837b 093e 5a8d acbd b07b a2bd 573b de3d
00000060: 4574 1d3e b63b a33d 7171 db3c 2592 89bd
00000070: b9df e9bd 68fb 853e ef52 603e 5b8f 463d
00000080: b898 093f fd08 b6bd 384a 3abf 6c2d 953c
00000090: ae39 793e 604c 05bf c8b3 5fbc 89b8 503f
000000a0: 958f a1be 5153 0f3e 0894 74bd 6e6a 253f
000000b0: 76b6 303d 229f e8ba 5f5c 44bd 8101 40be
000000c0: 6a50 0a3f d05d eabc c24e 5f3d 1de8 833e
000000d0: 1c2d f33d 4f38 373f f99e 13bc bf61 42bf
000000e0: e1eb 89bf 20e5 f13b 7c15 8cbf 203c 763e
000000f0: 5c4f 29bf 5a6d 713e 1fcc b1be 085e 94be
00000100: 427a 82bc e771 34bf abe3 2a3f dc48 24bf
00000110: 5cf3 b93e a294 60bd 8e77 92bc 93af b33d
00000120: e273 08be c03b c73f fe27 0ac0 c3c8 cfbe
00000130: 0e48 9bbe bb7b 0bbf 8d04 d73d 15db cebf
00000140: c7f5 523e 4261 e5bc 23ae 363e 7761 e33e
00000150: f93b 3e3d 7237 103f 7a2e f1be bee8 4e3f
00000160: 6fcb 8ebd 8f40 68bf 9a66 373f a82d bdbc
00000170: 846e ce3c 46c2 413d 4417 f23e 3ae0 f13e
00000180: 34f1 cabf fdf6 50bf 005d 9c3e 2040 54bc
00000190: 0cda 3e3d a787 053f c73f 1c3d 15b2 85be
000001a0: 3a28 163f 4c4e fe3d a383 5d3f a6ef 743e
000001b0: 8ae7 4a3f 21c3 703d 08e7 073e ba71 b1bd
000001c0: e358 4d3d 5cd1 2cbe 2265 a73e e784 943f
000001d0: d676 8fbc 7067 8abc 3483 733d e931 b93d
000001e0: 03ca e83e 9892 fdbe 983c 57be 81cd 0f3f
000001f0: 5732 6a3d 023a 573f 331f dc3e a23d 833c
00000200: 4ebd 883d 0e47 80bd 5bf5 65bd c66c a03d
00000210: 3a10 54bd 2258 243d 7582 65bd c910 323c
00000220: 62c5 8bbd 46ae e23c 2b5c 023d e1ad a83d
00000230: b65f a1bd 7a18 3abc d32c 1ebd a777 7bbd
00000240: a94b ff3c 65f2 a3bd 14d3 abbc ca07 09bd
00000250: d431 d2bc eceb c2bb 61db a83d 1b01 24bd
00000260: b521 a73d c996 9fbd 3e73 4ebd aeb0 e5bc
00000270: a960 823d 1a16 4fbd d29b 1cbd d3a1 afbd
00000280: 9cca 9b3d f67e 823d afd1 4dbd 4550 a73d
00000290: b2c8 22bd 2570 583d 33c6 1ebd 2465 06bd
000002a0: 698b c53c 7c45 80bd ea6a 3f3d e04a 45bc
000002b0: 4988 aabd 53ff 3fbd 0cc4 243c 7b1a 9cbd
000002c0: 2bc5 813d 7bc5 eabc ca67 663d feff 983c
000002d0: dfcf c2bc 784e 27bc 3c6a 00bd 2483 91bd
000002e0: 950b 9c3d ac43 25bc 6f99 c73c 1fb6 44bd
000002f0: 0e78 e23c c592 d83c 5347 40bd db93 1cbd
00000300: b4f0 a1bc 7484 283d e716 71bd 51cf e23b
00000310: ad87 063c 348a e83b c2b9 8abd 8a2d 55bd
00000320: 4507 783d c2b9 233d b990 41bd 9cc1 b13d
00000330: f0bc 143d 503c c93c 9511 17bd 2dd7 8ebb
00000340: 37e1 903d 981c 91bd f1f8 1e3d de7b 2abd
00000350: ba43 74bd 7dc5 803d 26f9 bfbc 439f 503b
00000360: 770a 6bbd 70f8 363d f370 11bd b27a 453d
00000370: 9b31 a23d 2023 6b3c b5ef 3abd 04b9 cebc
00000380: 0f15 f7bc 5ec2 15bd 1147 bc3d b08f 553c
00000390: 3a7c 8a3d a8e1 5d3d d0a7 ad3d 1050 8f3b
000003a0: f048 933b 380b da3c 4302 ab3d 5054 7cbd
000003b0: 79b9 8e3d b524 273d 9558 d43c e613 173d
000003c0: d20a 8e3c ec6c e53c 8bfb bcbd 7b69 0c3d
000003d0: ab0b 2abd 486a 543c d1b2 63bd 2e1e a7bc
000003e0: 308c 23bd 2fc7 6d3d b953 343d 9edc 9ebd
000003f0: 15d4 90bd 0bed 23bd ca81 edbc 6a34 9dbc
0.44891733 0.22696513 0.43974605 -0.28059253 0.16206981 1.5858039 -0.21686466 0.21561876
0.16730537 0.08875788 -0.14014928 -0.34831798 1.5779167 0.16091646 -0.06489599 -0.2663032
1.9572262 -0.06963763 0.2733394 0.41890684 0.13426022 -0.08425398 -0.07933748 0.10851162
0.15376385 0.07970373 0.026787492 -0.06717328 -0.11419625 0.2616837 0.21906637 0.04847656
0.53748655 -0.08888433 -0.727695 0.018210135 0.2433841 -0.52069664 -0.013653703 0.8153158
-0.31554857 0.13996626 -0.059711486 0.64615524 0.04314276 -0.0017747621 -0.047939654 -0.18750574
0.5402895 -0.028609186 0.05451847 0.25763026 0.11873838 0.71570295 -0.00901007 -0.759304
-1.077511 0.00738205 -1.0944057 0.24046373 -0.6613672 0.2357687 -0.34726045 -0.2897799
-0.015927438 -0.704863 0.66753644 -0.64173675 0.3631848 -0.054829247 -0.017879274 0.087737225
-0.13325456 1.5565109 -2.158691 -0.40582857 -0.3032841 -0.5448567 0.10498915 -1.6160609
0.20601569 -0.028000478 0.17839865 0.44410297 0.046443913 0.563346 -0.4710577 0.80823886
-0.06972396 -0.9072351 0.7164093 -0.02309306 0.025199182 0.047304414 0.47283375 0.47241384
-1.5854859 -0.81626874 0.30539703 -0.012954742 0.046594664 0.52160114 0.03814676 -0.26112428
0.5865513 0.12417278 0.86528987 0.23919544 0.7925955 0.05877984 0.13271725 -0.0866427
0.050133597 -0.1687674 0.32694346 1.1603059 -0.01751272 -0.016895026 0.059451297 0.09042723
0.45466623 -0.49525905 -0.21019208 0.5617295 0.057176914 0.8407289 0.42992553 0.0160206
0.06676732 -0.062635526 -0.056142192 0.07833247 -0.051773287 0.040123112 -0.056032617 0.01086826
-0.06824757 0.02767099 0.03182618 0.0823629 -0.078795835 -0.011358375 -0.038616966 -0.061393406
0.031164007 -0.080052175 -0.020974673 -0.033454694 -0.025658526 -0.0059485342 0.08244968 -0.040040117
0.08160726 -0.07792432 -0.050402872 -0.028038349 0.06366093 -0.050558187 -0.03823454 -0.085757874
0.07607004 0.06371872 -0.050248798 0.08169607 -0.03974218 0.052841324 -0.038763236 -0.0328113
0.024114328 -0.06263253 0.04673282 -0.012041777 -0.083267756 -0.046874356 0.010056507 -0.07622238
0.06336435 -0.02865862 0.056251325 0.018676754 -0.023780761 -0.0102115795 -0.031351313 -0.07105091
0.076193966 -0.010086935 0.024365155 -0.048025247 0.027645137 0.026437173 -0.04694302 -0.038226943
-0.019768097 0.041141942 -0.058859732 0.0069216867 0.008211059 0.007096553 -0.06773712 -0.052045383
0.060553808 0.039972074 -0.04725716 0.08679506 0.036312997 0.024564892 -0.036882002 -0.004359147
0.07074206 -0.07085532 0.038811628 -0.041622035 -0.0596349 0.06287668 -0.023434233 0.0031833209
-0.057383027 0.044670522 -0.035508107 0.048212714 0.07919618 0.014351636 -0.04563876 -0.025234707
-0.030161409 -0.036562316 0.09193242 0.013034746 0.067619756 0.05417028 0.08479273 0.004373558
0.004494779 0.026616678 0.08350041 -0.061603844 0.0696897 0.04080649 0.025921145 0.03688421
0.017339144 0.02800604 -0.092276655 0.03428028 -0.041515034 0.012964793 -0.055590454 -0.020400133
-0.039928615 0.058051284 0.044025157 -0.07756923 -0.070717014 -0.040020984 -0.028992552 -0.019190032

net.2.bias f4 [128]
00000000: 5a35 1e3e a72f fd3a 8307 0bbd 613b 7bbd
00000010: b090 403e cc1b a0bc 1233 5d3d 5380 bbbd
00000020: 06a1 b63d 0b3e 0b3e 50c9 633d c626 0b3e
00000030: 0ec8 333e 80ec 613d 8db6 183e c4ec 433d
00000040: 9fca 6ebd f8b6 60bc 747e 6dbd e0c2 2e3d
00000050: 8cf1 e23d 797c 053e a830 233d 7c06 913d
00000060: 2287 ecbc 75a0 5fbd 7de4 873d f93c 333e
00000070: c884 153e e511 933c d3e0 dc3d 280b b93d
00000080: 68d5 133e ddb0 413d 5817 803d 87b0 003e
00000090: f94a d13d 41b5 133e 60ed 6c3b 6898 063e
000000a0: 524b 303e 0a1e 6c3d 7070 c33d e016 d73c
000000b0: ea19 6b3d 5819 24bb b3be 433e 7d2c 96bd
000000c0: c8db 963d af61 2bbc a589 f33d 1b07 bb3d
000000d0: 1212 8fbd 3893 b2bc eb97 0e3e ad2a a13d
000000e0: f110 1f3e 5fa6 553e 1abb cb3d fea6 0a3d
000000f0: 5b87 fd3d 608b 05bd 3535 ff3d d0bd 373d
00000100: 6ae1 253e 4fb5 9e3d bef8 2e3d 06cd 393d
00000110: fd08 0abd d58a 0d3e 4071 c43d 5c69 b63c
00000120: 84fb 873d 46d1 3e3c 5ab9 943c dc65 1f3e
00000130: 822e 5d3c c889 913d 7ad3 193e 85d8 bd3d
00000140: 8f42 dc3d 4552 8abd bae8 1b3d d6fb ee3d
00000150: d85b 8d3d ab10 45bc 2c8a 3b3e 4b54 e83c
00000160: e6a7 2a3e 4cb1 a33d c5f8 fbbb bf93 7c3d
00000170: 9412 223e 8688 073e 1afc 213e 658e e93c
00000180: ac58 043e 12df 343e 3857 2a3e 84dd e13d
00000190: f03d 223e 676c 473d 75d0 173d a7a4 1c3d
000001a0: 5024 c5ba 442f 5e3e 4c60 d93d 2673 2b3e
000001b0: 593c 57bd b991 febc 5c2b 303e da63 143e
000001c0: 8613 1f3c 0d18 0a3d 03b4 933d 4d71 84bd
000001d0: 259b 043e f0c0 1bbd f6bc 50bc 2124 0b3e
000001e0: 2dd9 ddbd a91d c33c ab0d 0e3e 689c 703e
000001f0: 72e9 5cbc 6ec4 c33b 9bd0 a33d 87f3 4ebc
0.1545004 0.001931657 -0.03394271 -0.061335925 0.18805194 -0.019544505 0.054003783 -0.09155335
0.089174315 0.13597886 0.05561191 0.1358901 0.17556784 0.055157185 0.14913388 0.04783322
-0.058298703 -0.013715498 -0.057981923 0.042666316 0.11081228 0.13035764 0.039841324 0.07081315
-0.02887303 -0.054596383 0.066353776 0.17503728 0.14601433 0.017952869 0.10785069 0.09035331
0.14436877 0.04728781 0.062544525 0.1256734 0.10219378 0.14424612 0.0036152229 0.13144076
0.17216232 0.057645835 0.0954293 0.026256025 0.05739776 -0.002503952 0.19115715 -0.07332704
0.07366139 -0.010460301 0.11891488 0.09132215 -0.069858685 -0.021798715 0.1392514 0.07869468
0.15533806 0.20864247 0.09947796 0.033850662 0.12379333 -0.03260362 0.1246132 0.044858754
0.1619927 0.077494256 0.042717688 0.04536154 -0.03369998 0.13822491 0.09591913 0.022267036
0.0663977 0.011646574 0.018154789 0.155662 0.013499858 0.07106358 0.15022078 0.092698134
0.107548825 -0.06753973 0.038063742 0.11669128 0.069022834 -0.0120279 0.18314427 0.028360507
0.1666561 0.07992801 -0.0076895677 0.06166434 0.158274 0.13235673 0.15818825 0.028510282
0.1292445 0.1766322 0.16634834 0.11028579 0.1584394 0.048687365 0.037064034 0.038242962
-0.0015040729 0.21697718 0.1061407 0.16743144 -0.052547786 -0.031075345 0.1720404 0.14491215
0.009709245 0.033714343 0.07212069 -0.06466923 0.12949808 -0.038025796 -0.012740364 0.13588001
-0.108324386 0.023817854 0.13872401 0.23497164 -0.013483392 0.005974344 0.07998773 -0.012631304

net.4.weight f4 [3, 128]
00000000: 759f 37be 0ab8 a2bc 0c74 d73c 2985 aa3d
00000010: 3136 2dbf c99f a7bd 7c7b 933d 4abf bdba
00000020: 62c9 41bf 8308 d6be 8f69 65bd cb37 743e
00000030: 4f2b 3cbf acb3 a93e f533 d13e 1eb9 eb3d
00000040: 2d7e 84bd 0a93 523d e365 80bd 1ce4 46bf
00000050: b803 033e a353 83be 616b a03e 0308 813e
00000060: d286 aabe c98f 45bf 9157 19bf efeb 093e
00000070: fdf6 d73e a323 2140 2d25 433e abc5 07bf
00000080: dfb1 c53f 8716 953e fee1 f3be 3738 a43e
00000090: c972 ec3d 4d60 ee3d d864 a4bc 7f75 d63e
000000a0: 53f9 123e 8964 913e 2672 58bf 4a88 b8bc
000000b0: c875 843e 50a9 8b3d 70d5 34bf 4023 2fbc
000000c0: 47de 02bf f62d c6be f2f7 903e 870a 3940
000000d0: 5f4c c2bc 5ed0 99bd 5b60 823e 0fbb f33d
000000e0: e993 23bf e0d9 2c40 0d88 f53f 3507 5abf
000000f0: 85e1 9d3e 8ab2 86bd 6a74 45bf 6236 0e40
00000100: 0c57 ac3d 833a c93f 1ed8 903e 022b d43e
00000110: f75a 803d 63d5 9d3e b42a 883e add2 b33d
00000120: 71fc 4340 fc32 243e 06f7 5cbf c171 bd3e
00000130: 5b65 a23d 5b0b 4abf fc1e 32bf e9fa 00bf
00000140: b314 5fbf 8532 483c 2a89 293e 165a 24bf
00000150: 596a 803e e913 c1be 1e0b 283e 2ffe 4940
00000160: b022 b93e bbc7 353e 164e 893f 6c20 c9be
00000170: b68d ac3e b175 8a3e 5f8c 49bf e3da 9e3e
00000180: 2012 5e3e ceec ac3f c509 823e 923e 2540
00000190: 53c5 033e b968 a23e 4f59 d43e c677 cb3e
000001a0: a64c 4fbf 0bca 9c3f 8d5c 4d3e 29e9 273c
000001b0: a389 87bf f7ea 0040 32c5 823e 3d71 fd3d
000001c0: 33ff 89bc 2654 1bbf e3eb a73e aaeb 183f
000001d0: b4fb 443e a13e 18bf 3fc6 8f3e 1526 033f
000001e0: b6c2 16bd 954e a33e 777d 953e 21b5 c63e
000001f0: 3a98 1f3f b7f3 823e 4934 8f3d 61aa e0be
00000200: 5500 9f3f e209 babc c849 823c bbea 80bd
00000210: ca18 0cc0 e04b 543c 830a 6d3c 6dc0 9d3c
00000220: 8614 f0bf b0ed d0bf 18a3 0a3d 54a1 0c3f
00000230: a521 f6bf 8dd0 063f 26f8 233f fab8 313f
00000240: 0a50 aa3d f107 ac3d 8870 873c e329 dabf
00000250: d18b 283f a89b fabf 42ba 2a3f 08ae 203f
00000260: 8fcf 31c0 a086 15c0 ea61 a4bf 4293 273f
00000270: d06f e93e 1de4 5cbd f68a 233f 2479 03c0
00000280: 2061 4d3f 0f7a 143f fc1a 05c0 db27 073f
00000290: 3695 3a3f d1f6 263f ce77 703d 2ba5 3c3f
000002a0: 2648 1b3f 6361 193f 4507 0ac0 b9e2 d7bb
000002b0: 66e0 ff3e 9d4e 91bd 23bf 05c0 5eeb 613d
000002c0: 7ecd 6ebd 7ad6 40c0 9292 033f 045a 7b40
000002d0: a055 483b 6f75 033c bacd 153f 73ac 8c3f
000002e0: 7bf8 12bf db49 a340 44f5 6c40 ce2a 7fbf
000002f0: d041 db3e 6e87 123d 3b4f 1ec0 c72e 9540
00000300: c395 383f 2244 d83f fa3e 343f 4cc1 293f
00000310: 863b 323d 33fd 043f 253f 193f a565 8c3d
00000320: eb23 6940 f342 503f 2049 86bf 4fa4 1b3f
00000330: 2d89 583f b53b 1ac0 e17c ffbf 8622 3ec0
00000340: bc0d 39c0 9606 edbc 6fd0 323f 0d5c 00c0
00000350: 0a69 1e3f b961 82be 6631 1b3f f49b 7a40
00000360: f291 1e3f d8d5 1a3e 623f 163f 8edc 09c0
00000370: f3b3 f53e 7b8e 123f 9374 04c0 b400 063f
00000380: 22ed 153f 257e f53f 509f 123f 7e78 853f
00000390: b03b 383f 3fbf 033f ff04 003f db0b 293f
000003a0: 5b88 3d3e babc b43f ae81 0f3f eb4c 543f
000003b0: 1938 46c0 eff7 09bf e4ef 263f f4a8 243f
000003c0: 7823 75bd 410d 8b3e 68aa 213f 7209 5340
000003d0: 08bc 3f3f b2ba 36c0 7ba5 093e 60ef 853f
000003e0: 3e81 673e 13c9 043f c666 f93e b86a 34be
000003f0: 72af c13e 5561 1c3f e042 4ebc 3087 37c0
-0.17931922 -0.019863147 0.026300453 0.083261795 -0.67660815 -0.081847735 0.07201287 -0.0014476564
-0.7569791 -0.4180337 -0.05600887 0.23849408 -0.73503584 0.3314489 0.40859953 0.11509918
-0.064693786 0.05140976 -0.06269433 -0.7769182 0.12794387 -0.25649747 0.31331924 0.25201425
-0.33305985 -0.77172524 -0.5989924 0.13468908 0.42180625 2.5178 0.1905715 -0.5303599
1.5444907 0.2911875 -0.47633356 0.3207414 0.11545331 0.11639462 -0.020067617 0.41886517
0.14352922 0.28397015 -0.84549177 -0.022525925 0.2587111 0.06819403 -0.7063818 -0.010689557
-0.5112042 -0.3870694 0.28314167 2.8912675 -0.023718057 -0.07510446 0.25464138 0.11900913
-0.6389757 2.700798 1.9182144 -0.8516725 0.3083612 -0.065770224 -0.7713076 2.2220693
0.084150404 1.5720981 0.28289884 0.41439062 0.0626735 0.30826864 0.2659508 0.087804176
3.0622828 0.16035074 -0.8631443 0.3700085 0.07929488 -0.7892358 -0.6957853 -0.5038286
-0.8714096 0.012219076 0.1655623 -0.6419996 0.25081137 -0.37710503 0.16410491 3.1561391
0.36159277 0.17751972 1.0726955 -0.39282548 0.33701867 0.27042916 -0.78729814 0.31026372
0.21686602 1.3509767 0.2539808 2.581944 0.12868242 0.31720522 0.41474387 0.39739817
-0.8097633 1.2249159 0.20054837 0.010248461 -1.0588878 2.014341 0.25541073 0.12375114
-0.016845321 -0.60675275 0.32797155 0.59734595 0.19236642 -0.59470564 0.28080937 0.51229984
-0.036806785 0.3189589 0.29197285 0.38810065 0.62341654 0.25576565 0.069923945 -0.4387999
1.2421976 -0.02270979 0.015904322 -0.06294771 -2.189013 0.012957543 0.014467838 0.019256795
-1.8756263 -1.6322536 0.033846945 0.5493367 -1.9229017 0.52661973 0.6405052 0.69422877
0.083160475 0.08399952 0.016533151 -1.7044033 0.6583834 -1.9578753 0.66690457 0.6276555
-2.7782934 -2.3363419 -1.2842381 0.6545907 0.4559312 -0.053928483 0.6388391 -2.0542688
0.80226326 0.57998747 -2.079772 0.5279519 0.7288393 0.6522036 0.058708005 0.73689526
0.60656965 0.59914225 -2.1566937 -0.0065883067 0.4997589 -0.070950724 -2.089791 0.055156104
-0.05830144 -3.0130906 0.51395524 3.927369 0.0030568615 0.008023604 0.5851704 1.0990127
-0.574104 5.1027656 3.7024698 -0.9967469 0.42823648 0.035773687 -2.4735858 4.66196
0.7210352 1.6895792 0.70408595 0.6631057 0.043513797 0.5194885 0.59861976 0.06855325
3.6428173 0.81352156 -1.0491066 0.6079759 0.84584314 -2.4098942 -1.9959985 -2.9708571
-2.8914633 -0.028933804 0.69849294 -2.0056183 0.61879027 -0.2546518 0.6062225 3.9157686
0.61941445 0.15120637 0.58690464 -2.1540866 0.47988853 0.5724866 -2.0696151 0.5234482
0.5856496 1.9179121 0.5727434 1.0427396 0.71966076 0.51463693 0.50007623 0.66033715
0.18509047 1.4120095 0.5605725 0.8292987 -3.097174 -0.5389394 0.65209794 0.643203
-0.05984828 0.2715855 0.63150644 3.2974515 0.7489629 -2.855145 0.13442032 1.0463676
0.22607896 0.51869315 0.48711222 -0.17618835 0.37829167 0.61086017 -0.012589186 -2.8676262

net.4.bias f4 [3]
00000000: b350 d03d 4300 243e bf58 563d
0.10171642 0.16015725 0.05233073
