train-pong/saved_models/dqn_episode_600.pth (torch, 74357 bytes, 6 tensors)

net.0.weight f4 [128, 6]
000000 39 e4 12 3e fd 61 a2 3e ea db dc 3e 6d ed 7f be
       0.14344873 0.31715384 0.4313653 -0.24992914
000010 51 d5 a3 3d eb 8c 8c be 70 c7 bf be 96 76 da be
       0.07999671 -0.27451262 -0.37456846 -0.426686
000020 c3 09 b5 3e 45 f6 1f be 48 7e 3e 3e 32 d6 84 be
       0.3535901 -0.15621288 0.1860286 -0.25944668
000030 f5 95 6d bd c4 c2 ef be bd f5 27 bf bd e0 77 be
       -0.05800434 -0.46828282 -0.6560934 -0.24206825
000040 c6 c4 4e 3d 27 ee 68 3b 09 80 68 be 9b d3 87 3d
       0.050480627 0.003554234 -0.22705092 0.066321574
000050 61 ed 63 3e dd 22 43 bd be 05 2e 3e d3 7e 46 be
       0.22258522 -0.04764067 0.16994378 -0.19384317
000060 a0 4c 40 be 9f f8 b5 be 73 39 ef 3d 2c 29 7d 3e
       -0.1877923 -0.35541245 0.116808794 0.24722737
000070 7e 4e 28 be b6 c7 cd 3e 19 c4 02 3f 98 3c ba be
       -0.16436192 0.4019143 0.5108047 -0.36374354
000080 aa c7 4a 3e 24 e5 26 3e f2 eb d7 be 10 26 24 be
       0.19802728 0.16298348 -0.421722 -0.16030145
000090 52 6a de be ec ec ae 3e c4 a2 b9 be 38 fd 2a bf
       -0.4344049 0.34165132 -0.36256993 -0.6679263
0000a0 76 80 be 3e 98 b0 ad be b2 6e 4e be c7 24 95 be
       0.37207383 -0.33923793 -0.20159414 -0.2912962
0000b0 64 c6 a0 be 30 a5 20 bd 94 49 ce be 5b a5 9f be
       -0.3140136 -0.039220035 -0.4029051 -0.31180844
0000c0 d7 6f 43 3e 0a 4c 3b bd 41 20 76 be 26 8e 06 bd
       0.19085632 -0.045726813 -0.24035741 -0.032850407
0000d0 18 a0 bc be d3 d3 02 be b3 23 ae 3e 05 14 16 bf
       -0.36840892 -0.12776117 0.3401161 -0.586243
0000e0 12 a5 21 be 25 2a 74 3e ad ea 79 be 33 a5 49 3e
       -0.15785626 0.23844202 -0.24405928 0.19691925
0000f0 2b b9 fe be bd 68 0a be 01 6b a6 be 12 12 2a 3f
       -0.49750647 -0.13516517 -0.32503513 0.66433823
000100 f1 d8 cd 3e 0f 93 d1 3d 63 7a 13 3e 1c 03 9b 3d
       0.40204576 0.10233127 0.14402156 0.075689524
000110 5a af 0c bd 0d fc dd 3c 3c b8 16 3d 95 7d a5 be
       -0.034346916 0.027097726 0.036796793 -0.32322374
000120 3c e5 7c 3e bd ba 93 be d9 f8 23 3f 6f fd f6 bd
       0.24696821 -0.28853408 0.64051586 -0.12060057
000130 73 08 c5 3c 06 39 87 bd e0 bf 25 3e e8 20 08 3f
       0.02405188 -0.06602673 0.16186476 0.5317521
000140 ce eb 2e 3e 0e b8 ea 3e 8a 3d b8 be 61 1f a3 be
       0.1708214 0.45843548 -0.3598445 -0.31859878
000150 46 05 fe be b9 1a 6d 3e 30 9b 89 3e 7b 27 07 3e
       -0.49613398 0.23154725 0.2687621 0.13198654
000160 89 aa 8b 3d fc 4f 56 be 10 4f 7f 3d a7 be 06 3f
       0.068196364 -0.20928949 0.06233126 0.5263466
000170 60 7f c2 3d ed a5 2a 3d f4 f2 b6 3d b7 d0 6f be
       0.09496951 0.041662145 0.089330584 -0.23419462
000180 92 0a 7d be fa 72 f2 bd 97 3d c7 be 57 e6 68 be
       -0.24711064 -0.11838336 -0.38914177 -0.22744118
000190 41 10 22 be 7f b4 71 3e 32 13 80 3e af 32 a1 3d
       -0.15826513 0.2360401 0.25014645 0.07870995
0001a0 8a be bd 3e 17 28 81 be 0e 22 ed bd 49 23 4a 3c
       0.37059432 -0.252259 -0.11578761 0.012337514
0001b0 7e be 01 be 7e 63 98 3d 2d 2f 00 bf 30 68 d0 3c
       -0.12670323 0.07440852 -0.50071985 0.025440305
0001c0 60 a7 43 be 4b 06 a1 3e 2a 01 1e 3e 4c 1c fe 3e
       -0.19106817 0.31450114 0.15430132 0.49630964
0001d0 da ba 9f 3e 75 ee 7a be 5d 57 07 3d fd 95 cb 3d
       0.31197244 -0.24505027 0.0330423 0.09940717
0001e0 c0 b6 8f bc 24 74 4c 3e a4 5f 68 3e 62 38 ad 3e
       -0.017543197 0.19966179 0.22692734 0.3383208
0001f0 d0 d2 05 3d df 8a 83 be 36 9a b4 be 76 6b 41 3e
       0.03267175 -0.25691888 -0.35273904 0.1888865
000200 b1 0c 14 bf 52 f8 52 3e af 67 8c 3e 4a 64 36 be
       -0.57831866 0.20602539 0.27422854 -0.17811695
000210 68 2f 89 be 2c 38 4d be 62 38 43 bf b3 cc 0b 3e
       -0.2679398 -0.20040959 -0.7625791 0.13652305
000220 3a ac 67 3e 71 fc a1 3d 24 6b 44 bc 25 d7 ef 3e
       0.22624293 0.079094775 -0.011988435 0.4684383
000230 9a 7c 29 3a fb 80 e7 3e cd 4d ec 3b 9c 3d 0c be
       0.00064654055 0.45215592 0.007211423 -0.13695377
000240 f4 d5 50 be 3c c9 a7 3d b5 89 b7 be 7e 95 23 3e
       -0.20394117 0.08192679 -0.3584725 0.15974995
000250 6b 35 91 3d ae e0 f8 3d b6 5b a2 3e 6d 00 0f bf
       0.07090267 0.12152229 0.31710595 -0.55860025
000260 37 f0 f6 3d 05 88 51 be a1 48 36 3e b8 8f 31 3e
       0.12057536 -0.20462044 0.17801143 0.1733998
000270 29 49 41 be e3 2a 3f 3e 21 46 8b 3d 2e ce 2f bc
       -0.18875565 0.18668704 0.068004854 -0.010730309
000280 36 a8 71 3d 58 4d bb 3d 1b 91 48 be 37 41 3f 3e
       0.05899831 0.091456115 -0.19586603 0.18677221
000290 71 20 aa 3e 9c 9c c7 3d da e6 65 bd 81 e9 b4 bd
       0.33227876 0.09746668 -0.05612836 -0.088336
0002a0 d0 cb 55 3d 2c d7 c2 bd 00 79 10 bd fc a4 2f 3e
       0.052196324 -0.09513697 -0.035271645 0.1715278
0002b0 42 ed 51 be 10 d5 27 3d 58 1a 5e 3e 70 31 0d be
       -0.20500663 0.040974677 0.21689737 -0.1378839
0002c0 44 25 76 be fa d7 c3 3e a0 26 3d be de aa ad be
       -0.24037653 0.38250715 -0.18471766 -0.33919424
0002d0 96 33 2b be 00 89 c9 be 18 3d c1 be 50 a3 8b 3d
       -0.16718897 -0.39362335 -0.37741923 0.06818259
0002e0 a4 60 a0 bd 90 dd 37 3d 4e c2 e2 3d e9 33 ed 3e
       -0.07830933 0.044889033 0.11072217 0.46328667
0002f0 df f5 da 3d 50 23 27 be b2 6f c3 39 f3 41 70 3c
       0.106914274 -0.16322064 0.00037276518 0.014664161
000300 b3 4d 97 bd 64 6c 44 3e 2c bd 33 3d 40 26 f8 bc
       -0.07387867 0.19181973 0.04388158 -0.030291677
000310 c8 e3 a7 be 9f 07 00 be 07 0e 6f be 8f 00 c6 be
       -0.3279097 -0.12502907 -0.23345195 -0.386723
000320 b7 0f 31 bd be 97 c1 3d 2a cb e3 3e 63 5f f4 3d
       -0.043227877 0.09452771 0.4449094 0.11932256
000330 7f 65 13 3e 8d 97 45 3e 3e ab 2e 3f ea a5 b8 be
       0.14394186 0.19296093 0.68230045 -0.36064082
000340 18 77 b6 bd 0f f0 37 be 81 e7 05 bf 79 93 97 be
       -0.08909434 -0.17962669 -0.5230637 -0.296047
000350 e2 e7 5d bd b2 07 aa 3e 4a 93 d2 3e 34 be dd 3c
       -0.05417622 0.33208996 0.41127998 0.027068235
000360 50 f4 f5 3c 4b 29 4e be 03 7a 57 be 88 ea 09 3e
       0.030023724 -0.2013294 -0.21042638 0.13468373
000370 c0 d8 80 3b f8 bc 3f bd 61 38 2a be 59 13 1f 3d
       0.0039320886 -0.046811074 -0.1662307 0.03883681
000380 fe b5 fa be f7 ed 27 be 99 5f 0d be 3a 64 6a be
       -0.48966974 -0.1639937 -0.13805999 -0.22889796
000390 8a e0 c0 bd 56 b6 87 be 1d f8 6d be 30 b0 f9 be
       -0.094178274 -0.265063 -0.23239179 -0.48767233
0003a0 c2 8e bc 3d de 72 8d 3e 4b b7 04 bd 8b 9e e4 be
       0.092069164 0.276267 -0.032401364 -0.4465221
0003b0 3d 17 67 3e d3 09 1c 3d 1f bd fd 3e 79 4f c3 3c
       0.22567458 0.038095307 0.4955835 0.023841606
0003c0 1a 6a 7b be 42 61 b6 be c8 e6 b8 3d af 74 96 3e
       -0.24552193 -0.35621077 0.09028393 0.29385898
0003d0 f5 7a 0a 3d f6 7d 87 3e fd 59 d0 3c 8a 06 01 be
       0.033808667 0.26463288 0.025433535 -0.1260015
0003e0 a9 e7 13 be 01 ac ba be 45 13 df bd e9 ab 84 be
       -0.1444384 -0.36459354 -0.10892347 -0.25912407
0003f0 b5 6f 28 be 4f da 85 be 94 d8 15 bf 5e 9f 02 3e
       -0.16448863 -0.2614312 -0.58533597 0.12756106

net.0.bias f4 [128]
000000 1c 51 d5 3c d1 09 cf bd 7b df b3 3e d5 91 02 be
       0.026039653 -0.10109294 0.3513144 -0.12750943
000010 cf 43 ea 3e c0 ba ee 3e dd 73 ab 3d 20 45 df 3d
       0.4575486 0.46626854 0.083717085 0.109018564
000020 71 ee 8e 3e 7d c3 b0 3e 84 14 ca bd 78 31 47 3c
       0.2791629 0.34524146 -0.09867194 0.01215779
000030 5c 01 77 3d 01 f4 0f bd bf df 48 be 30 c3 4c be
       0.06030403 -0.03514481 -0.19616602 -0.19996333
000040 66 5e c0 3d 73 ef 1b be a9 c7 3d be 54 09 b4 be
       0.09393005 -0.15228061 -0.18533196 -0.35163367
000050 4a 32 8c be da 88 b0 bc 75 07 b0 bd cc 2b 4a be
       -0.27382118 -0.02154963 -0.08595172 -0.1974327
000060 ba cd 12 be 0f 00 68 3b 54 ce 9f be 8d 50 78 be
       -0.14336291 0.0035400426 -0.31212103 -0.24249478
000070 ce dd 25 be f4 98 56 be 91 ff 7e be d1 02 6b be
       -0.16197893 -0.20956784 -0.24902178 -0.22950293
000080 e7 0b 45 3e b2 3f 62 3e 63 cb 32 3a b1 a9 a0 3e
       0.19242822 0.2209461 0.0006820468 0.31379464
000090 1e 5f 9b be 08 2e 60 3e 5e 4d 56 be c2 b3 71 3e
       -0.30346006 0.2189256 -0.2092795 0.23603728
0000a0 91 c9 c6 be 10 6d 93 3e 2a 6c c3 3e 39 1a 52 be
       -0.38825658 0.28794146 0.3816846 -0.20517816
0000b0 dd 32 c9 be 1e f7 8c be 0f c4 27 3e a8 8b 00 3e
       -0.39296618 -0.27532285 0.16383384 0.12553275
0000c0 9f 30 2a 3e d5 82 05 bd d5 04 12 3e 0a 7f 7a 3e
       0.1662011 -0.032595474 0.14259656 0.24462524
0000d0 3f b2 9e 3e e6 69 8c bc 57 39 a2 be 00 58 a0 be
       0.30995366 -0.01714034 -0.31684372 -0.3131714
0000e0 46 e7 8f be 18 87 99 bc 36 0c 74 be 8b 6c e6 3d
       -0.28106135 -0.018741176 -0.23832783 0.11251172
0000f0 42 bb b5 bd 6e 5c 3f 3d a1 b5 a3 bd 7c 93 0d bf
       -0.08873607 0.046719007 -0.07993627 -0.5530317
000100 44 fd 87 bd 86 e5 3f be 1e 2b ac bc 33 7b e7 be
       -0.066401035 -0.187399 -0.021016654 -0.4521118
000110 65 6a 8b be 1a 6d 84 bc 69 81 52 3e 67 14 7c be
       -0.2722961 -0.016165305 0.20557179 -0.24617158
000120 1c d6 2a be 71 3c f4 3d 98 56 6e 3e a8 db d6 bd
       -0.16683239 0.11925591 0.2327522 -0.10491115
000130 64 6d e4 3d 8c 0c 0f be d7 fe c3 be 6a 38 c3 be
       0.11153677 -0.1396963 -0.38280365 -0.38128978
000140 83 a0 9d 3d f1 9b 34 3e b1 94 82 be 5e 9d f0 bd
       0.07696631 0.17637612 -0.25504068 -0.117487654
000150 34 23 75 be aa 41 c7 be ed 87 0f 3e f2 98 cc be
       -0.2393921 -0.38917285 0.14016695 -0.39960438
000160 0d 4c af be bc e8 2d bd bb a2 b0 3d 28 b0 16 bd
       -0.3423771 -0.04245828 0.086247884 -0.03678909
000170 fb 70 19 be e0 88 85 be b1 2a 78 3e 3c 85 c9 3c
       -0.14984505 -0.2608099 0.24235035 0.024599664
000180 27 5c a5 be ab 5d 02 3d 8f c6 29 be c3 e5 2b be
       -0.3229687 0.03182761 -0.1657965 -0.16786866
000190 5f 89 ea bd 54 62 f8 bd 04 19 76 be 90 5a 07 be
       -0.11451983 -0.121281296 -0.2403298 -0.1321814
0001a0 06 bc c0 3e 70 0b 6c be c5 51 ab be ce ec c5 3e
       0.3764345 -0.23051238 -0.33460823 0.3865723
0001b0 ec 71 2a be e6 14 9d be 3f f0 b2 be c8 9d b9 3d
       -0.1664502 -0.30680007 -0.34948918 0.090632975
0001c0 8b 95 7b 3c f2 59 9f 3e bf af 43 3e ff 5d 91 be
       0.015355478 0.3112331 0.1911001 -0.28392026
0001d0 0a 73 89 be a2 39 c6 be 57 fd 01 3a f2 54 f8 bd
       -0.2684558 -0.38715845 0.000495871 -0.12125577
0001e0 40 bd 87 3c 54 b5 5e 3e b0 a0 5b 3d 7f 22 0d 3c
       0.016569734 0.21748859 0.05362004 0.008614182
0001f0 f0 ad d5 3d 78 c1 78 3e c0 d2 46 3e 38 08 03 bd
       0.104335666 0.24292552 0.19416332 -0.03199026

net.2.weight f4 [128, 128]
000000 f7 92 85 be b7 c3 28 bd 12 3c 1d be b7 46 0b be
       -0.26088688 -0.041202273 -0.15354946 -0.13601194
000010 d6 f7 03 be 63 10 02 3d ed 38 09 be d8 b4 6b bd
       -0.1288751 0.03175391 -0.13400622 -0.057545513
000020 c0 76 db 3c 7c 87 57 3c 51 e5 ab bd 1c 07 22 bd
       0.026790023 0.013154861 -0.08393348 -0.03955756
000030 70 62 f7 be 7b a1 25 3d 4a 14 3c bd 17 04 1b bd
       -0.4831729 0.040437203 -0.045917787 -0.037845697
000040 70 f2 67 bc dd 76 81 be 24 63 08 bd 89 f5 92 be
       -0.014156923 -0.25285998 -0.033297673 -0.28702953
000050 36 8e 63 3d 91 bf 95 bd 9f ce 1b 3d d0 bc f0 3c
       0.055555545 -0.07311929 0.038038846 0.029386908
000060 a6 03 8c bc 63 49 c1 3d 1e 28 0c 3e 7b 43 50 bd
       -0.017091583 0.094378255 0.13687178 -0.050845604
000070 f3 35 0b bd 8f 66 aa bd 06 47 2e 3d 92 12 2b 3c
       -0.033986997 -0.08320343 0.042548202 0.010441439
000080 50 c2 eb bd c4 e3 0a 3d a8 9c 79 bd b1 36 32 bc
       -0.115116715 0.03390862 -0.060940415 -0.010877297
000090 3a fe 7f bd dd 82 23 be bc 33 cc 3c 31 c6 1c bc
       -0.06249831 -0.15967889 0.024927013 -0.009568737
0000a0 90 34 78 3c e5 5d b0 be 72 9c f3 be 0d 36 58 bd
       0.015149251 -0.34446636 -0.47580296 -0.05278592
0000b0 43 8a 63 bd e5 00 3c be 47 e8 e6 bd 4b 07 cd be
       -0.05555178 -0.18359716 -0.11274772 -0.40044627
0000c0 c9 fc 69 be 96 38 c2 3c 31 34 88 bd 56 5d 55 3c
       -0.22850336 0.023708623 -0.0665058 0.013022741
0000d0 24 04 69 be 6e 6b 6b 3b 68 6f 71 bd 74 db 13 be
       -0.22755486 0.0035922187 -0.058944136 -0.14439183
0000e0 7e 4e 6c 3d 3b 84 72 bd 34 3d 16 3b 28 cf e1 bd
       0.057692043 -0.059208136 0.0022924663 -0.1102584
0000f0 18 79 8f be d6 d6 43 3b 98 4b 14 3e db 1c 1b bc
       -0.28022075 0.002988269 0.14481962 -0.009467329
000100 29 13 1d bd ff c0 f8 bd 5b de 13 bc c8 6e 6e 3d
       -0.03834835 -0.12146186 -0.009025182 0.058211118
000110 8e c4 57 3d 33 3e d7 bc 7f 83 6b 3c ff 3e 50 bd
       0.052677684 -0.026274776 0.014374613 -0.050841328
000120 31 eb 87 3d 3f cc c1 be dd 0b 9c bd c7 6b 90 3d
       0.06636656 -0.3785114 -0.0761945 0.07051807
000130 f7 56 25 bf 0b 74 a1 3d 9c da f0 3c 5f 60 8e 3d
       -0.6458582 0.078834616 0.029401116 0.06951975
000140 34 58 73 bd f0 5e 5f bd 04 4f df 3c 15 d0 9b bc
       -0.05941029 -0.0545339 0.027259357 -0.01902012
000150 72 8c 01 bd 68 5e 18 bb a6 47 aa bd 96 95 0f bd
       -0.03162808 -0.002324963 -0.08314447 -0.035054766
000160 5a 10 97 3d 30 c9 e4 bb 2d 18 d0 3c 87 40 94 3d
       0.07376166 -0.006981991 0.025402153 0.0723887
000170 0e 2f 42 3b 71 0c a4 be 71 a3 ee 3b 60 3e 10 be
       0.0029630098 -0.32040742 0.0072826673 -0.14086294
000180 a9 b7 96 3d 33 d2 b0 3b 7e 3e 1f be 0c 87 a7 bc
       0.07359249 0.0053961514 -0.15551183 -0.020450138
000190 a5 bf 79 bf 33 72 cb bc 82 95 18 be d4 f5 f0 3c
       -0.9755805 -0.024834728 -0.14900783 0.029414095
0001a0 62 3a 91 ba b3 e9 82 be 55 13 1b 3d bd 4a 36 bd
       -0.0011080022 -0.25568923 0.037860233 -0.04450487
0001b0 66 28 b3 bc 5f 8d 10 bd d2 23 24 3d a0 09 81 bd
       -0.02186985 -0.035291072 0.040073223 -0.06300664
0001c0 70 14 c3 3d 96 38 97 be 0e 96 01 3c 3f 8a 54 bd
       0.095253825 -0.2953536 0.007909311 -0.051889654
0001d0 1a ef 57 be 48 34 98 be fe 0a 06 be 07 0a 65 bd
       -0.21087304 -0.29727387 -0.1309013 -0.055917766
0001e0 5e 23 fe bc cf cc 24 be f5 79 3e be 82 f4 19 bd
       -0.031022724 -0.16093753 -0.1860121 -0.037586696
0001f0 e6 ca 2a 3d cd 4d aa 3c c6 96 c3 bc 00 78 99 b8
       0.041697405 0.020789051 -0.023875605 -7.31796e-05
000200 e5 dc 08 3e 71 ef e9 3c ea 09 85 be 9a 85 8c 3d
       0.13365515 0.028556557 -0.25984126 0.0686142
000210 2b e6 a0 be 8d 99 ee be 60 7c 99 3b aa d6 30 3d
       -0.31425604 -0.46601525 0.004684016 0.04317347
000220 df 7c 90 bc 87 aa e5 bd 65 8e ba be 99 d5 ed bd
       -0.017637668 -0.11214166 -0.36436763 -0.11613006
000230 7a 55 af be c8 b6 29 3e 7d 47 aa bd dc 07 1c 3e
       -0.342449 0.16573632 -0.083144166 0.15237373
000240 ae 60 f9 3d 45 94 5b 3c 17 32 1a be e7 ae 22 3e
       0.12176643 0.013402049 -0.1505817 0.15887032
000250 14 3c 94 3c 96 27 78 be d1 80 27 be 2a 99 6a bd
       0.018095054 -0.24233851 -0.16357733 -0.057274975
000260 fe d2 0f be e9 46 2a bc 45 30 3f 3d e1 2f 39 bd
       -0.14045331 -0.010392883 0.046676893 -0.045211677
000270 83 32 92 3d e0 02 a0 3c 1c 43 00 bd ee 94 1b 3c
       0.071385406 0.01953262 -0.031314 0.009495957
000280 f3 39 65 3e 79 b5 01 be 97 57 a2 3d 09 10 9e bc
       0.22385387 -0.12666883 0.07926863 -0.019294756
000290 18 92 ee 3c 36 3b e5 bd e5 3f fd bd f7 37 43 be
       0.029122397 -0.11192934 -0.123657025 -0.19064318
0002a0 d0 2f a0 3c 31 73 57 bf 04 cc 81 bc ba 08 90 bc
       0.019554049 -0.84160143 -0.015844353 -0.017582286
0002b0 00 70 49 39 95 35 95 3c 4a 51 b4 bb 2d b5 75 bd
       0.00019210577 0.018214026 -0.0055028545 -0.059987236
0002c0 6f 06 27 be 13 0a 2d be 37 45 3d 3d d1 81 04 bd
       -0.16311048 -0.16898374 0.046208587 -0.032350365
0002d0 33 f6 13 bf 61 fa 3b be eb 86 17 bd 3b e1 1a be
       -0.57797545 -0.1835723 -0.036993902 -0.15124981
0002e0 3a 07 19 3d 60 01 49 be b5 5c 4e 3e b9 64 7a 3e
       0.037360407 -0.19629431 0.20152552 0.24452485
0002f0 a3 d9 ff 3d a8 a5 8f bd c2 1e d2 be bc eb c4 3d
       0.12492683 -0.07014018 -0.4103909 0.09615275
000300 06 26 b7 bd 71 73 89 3c de f0 22 3e 88 f4 cf bb
       -0.08942799 0.01677868 0.15912196 -0.006346289
000310 60 2f a5 bb 22 e8 13 be 98 f0 64 bd 62 40 7e 3e
       -0.005041048 -0.1444402 -0.05589351 0.24829248
000320 9e 0a 65 bd 00 15 fc be 47 3a 80 be e1 bd a5 3d
       -0.05591833 -0.49234772 -0.25044462 0.08092857
000330 01 2d 09 bf 4a 3e 41 3d 23 ac 65 bd 8d cd bd be
       -0.53584296 0.047178544 -0.056072365 -0.37070885
000340 94 07 8f bd 89 74 4d be f4 95 82 3c aa 81 6a bd
       -0.06983867 -0.20063986 0.015940644 -0.057252564
000350 4e 4e 87 be 7d ce 9b 3d 33 3b 20 bb 2a 0f 20 3d
       -0.2642693 0.07607744 -0.0024449348 0.03907696
000360 30 8f d4 3d 57 de 08 be 03 39 71 bd e6 ff 3d bd
       0.10378873 -0.13366066 -0.05889226 -0.046386622
000370 4b 48 e4 bc 1f 14 4d 3d a9 65 16 3c 68 89 a1 be
       -0.027866503 0.050068017 0.009179511 -0.31550145
000380 bb b6 61 bd 84 4b b4 3e 4d 7e e0 be 27 49 b3 bd
       -0.055105906 0.35213864 -0.4384636 -0.08754187
000390 c9 17 12 bf 15 8c 13 3e f7 32 81 3c 70 d7 54 bc
       -0.57067543 0.14408906 0.015771372 -0.012990817
0003a0 1c 01 19 be 94 6c 3e 3e f2 b5 12 bd 8c 2a 78 bd
       -0.1494183 0.18596107 -0.035818048 -0.06058745
0003b0 af 62 70 be b8 0c eb be c0 0e bc 3a d2 9f 9a bd
       -0.23475145 -0.4590814 0.0014347658 -0.075500146
0003c0 d2 fe 33 be 91 92 b1 be 67 66 03 be 46 79 3c 3e
       -0.17577675 -0.34682134 -0.12832032 0.18405637
0003d0 cf ac ed bd d4 21 c2 bd d2 58 a2 bd a9 e2 42 3b
       -0.11605226 -0.094791085 -0.079270974 0.002973715
0003e0 01 34 31 bd a3 c2 83 bd 44 b1 14 3d be 9a fb bd
       -0.043262485 -0.064336084 0.036301866 -0.12285374
0003f0 ef 62 9f 3e c9 8a b5 bd 2f c8 d7 bc 30 be 73 3c
       0.31130168 -0.08864362 -0.026340572 0.014876887

net.2.bias f4 [128]
000000 67 67 44 3d 0a f7 75 bd 8f 4c 6a bd 3e f7 f1 bd
       0.047950175 -0.060050048 -0.05720192 -0.11814736
000010 7e 1d 40 be 1e d0 8e 3d 51 5d 54 bc d9 82 0d bd
       -0.1876125 0.06973289 -0.0129617015 -0.034548614
000020 1b 92 2f bc 43 2d 54 bd 57 0f 90 bd 84 a5 34 3e
       -0.010715987 -0.051800977 -0.07034176 0.17641264
000030 21 85 0d 3c d7 dc f9 3d 0b 4e db bc d9 78 7d bd
       0.008637697 0.12200325 -0.026770612 -0.061882827
000040 47 cb ec 3b 31 d4 99 bd b4 02 35 3d de 38 9c bc
       0.007226381 -0.075111754 0.04419203 -0.019070085
000050 76 37 8e bc cc 36 8e bc 53 c4 eb bc 02 97 08 bd
       -0.01736043 -0.017360114 -0.028780138 -0.033347137
000060 23 5c 0b 3e a8 87 ab bd d4 99 75 bd 4b 8d 48 bd
       0.13609366 -0.08375484 -0.059961155 -0.048962872
000070 62 47 03 be 21 25 7d 3c cf f7 34 bd 34 21 0a 3e
       -0.12820199 0.015450747 -0.04418164 0.13489228
000080 dc 2d 66 3b 72 f6 e7 3c 1e ed 2b 3e 85 2d 8c bd
       0.003512255 0.028315756 0.16789672 -0.0684462
000090 c7 24 aa bd 0c 38 9f bd e2 34 a8 bd c2 18 57 bd
       -0.08307796 -0.07774362 -0.082132116 -0.052513845
0000a0 c8 9a ed bc ba 36 8f 3c 38 a6 08 3e 7c 88 16 bd
       -0.02900447 0.01748215 0.13344657 -0.036751255
0000b0 2b cf 00 bd f4 0f 7e bd e1 2b d9 bb 1d ca be bd
       -0.03144757 -0.062026933 -0.006627545 -0.09315894
0000c0 8d 7d 20 3d b5 0e f7 3c 04 aa 40 bd b9 4c 56 bd
       0.039182235 0.03015838 -0.04703714 -0.052319262
0000d0 62 ca f1 bc ab 6b 43 be c9 1b c9 bd a0 65 21 bd
       -0.029515449 -0.19084041 -0.09819753 -0.039403558
0000e0 2c 5e 38 3c 9b 46 2a bd 83 63 ef bd a7 2a 8e 3b
       0.011252921 -0.04157124 -0.11688902 0.0043385806
0000f0 c0 eb db bb 16 3b 4e 3d 9b 48 a1 bc df 29 ce bd
       -0.006711453 0.050349317 -0.019687941 -0.1006658
000100 f8 b7 50 bd 26 2a 4c bc d7 49 95 3c 2f 59 14 bd
       -0.050956696 -0.012461221 0.018223686 -0.036217865
000110 e6 10 b5 bd 71 67 8a 3c e9 ea 1c be 05 62 c2 bd
       -0.08841114 0.016895028 -0.15323986 -0.09491352
000120 03 6e b3 bc ca 50 8d 3a 09 c7 27 3e ee 98 96 bd
       -0.021903044 0.0010781523 0.1638452 -0.07353388
000130 1b 19 53 3d a3 a6 ee 3b d5 dc 1c bc 63 e1 79 bd
       0.051537614 0.0072830482 -0.009574135 -0.06100596
000140 88 25 b5 bd 7a e5 a5 bd 27 3a 11 bd 30 58 28 3e
       -0.08845049 -0.0810041 -0.03545585 0.16439891
000150 68 57 43 bc b0 3b 53 bc aa 93 42 ba a7 5e 50 3d
       -0.011922695 -0.012892649 -0.00074225164 0.050871518
000160 4b 38 ec bd e2 90 8c 3c fb 3a ab bd 73 b9 2c 3d
       -0.115341745 0.01715893 -0.08360859 0.042169046
000170 12 3e b3 3d e6 40 23 bd 1e 7f 2a 3e 8d cb 4d 3d
       0.08752073 -0.039856814 0.16650054 0.05024295
000180 06 65 ed bd fa 6a 08 be d2 f8 dc 3d 35 d3 55 bb
       -0.11591534 -0.13322058 0.10789646 -0.003262711
000190 df 4e 85 bc 0c 05 98 3d a6 63 8b 3c 2d 3b 3d 3e
       -0.01627296 0.074228376 0.01701529 0.18479605
0001a0 0a 0a 05 3e 09 2a ab bd 79 ff 58 3d 28 7d 9e bd
       0.12992111 -0.08357627 0.052978013 -0.077387154
0001b0 b3 a8 69 bd b7 37 b6 bd 67 6a f1 bd 64 7d 81 3d
       -0.05704565 -0.088973455 -0.11787873 0.063227445
0001c0 b6 32 79 bd fa 9b e2 3d 5c 5b 2f 3d a2 c8 7c 3d
       -0.060839377 0.110649064 0.042811736 0.061714776
0001d0 9a 63 4b bd 7c b0 3c 3e 6c 8c 27 bd e1 fe 58 bd
       -0.049655534 0.18426698 -0.0409054 -0.052977446
0001e0 1c d3 06 3d 3f 70 73 bd e8 42 08 bc f5 a1 aa bd
       0.032916173 -0.059433218 -0.008316733 -0.08331672
0001f0 c3 7d 26 3c a8 2c 55 3c f0 31 f7 3c 08 b5 90 bd
       0.01016182 0.013011135 0.03017518 -0.07065779

net.4.weight f4 [3, 128]
000000 dc 6e 83 bd 59 63 f9 be 18 fd ac 3c c4 9d 2e bd
       -0.06417629 -0.4870861 0.021116778 -0.042630926
000010 91 b9 f9 bd 00 67 c7 3c 6e 48 2d bf 51 2e a2 bd
       -0.12193597 0.024341106 -0.67688644 -0.079189904
000020 62 99 bb 3c 3c a4 2b 3c 84 12 a1 3d 03 9c 1c 3e
       0.022900287 0.010476168 0.0786486 0.15293889
000030 ab 5f 0b bc d0 08 b0 3d b2 ca 1c 3e cf 36 89 3e
       -0.008506696 0.08595431 0.15311697 0.26799628
000040 d3 6f f6 3d f2 da 98 3d e2 a7 ec 3c b2 49 7d 3d
       0.120330475 0.074636355 0.028888647 0.06183786
000050 0f 58 50 bd ec 4d 0b 3d 11 2c 24 bd fd 79 a8 3d
       -0.05086523 0.03400986 -0.040081087 0.082263924
000060 c4 e3 08 3e 25 dd ab bd 0e 7c 8b bd c8 ed 46 3c
       0.13368136 -0.08391789 -0.06810771 0.012141652
000070 5f ec 50 bc 3e 3b 2f 3e 5d 0f 17 bd 56 0a 9d be
       -0.012751668 0.17112443 -0.036879886 -0.30671948
000080 e7 fe 41 3e 5b 57 78 bd ba 51 bc 3d 98 a1 27 3c
       0.18944894 -0.060630184 0.091952756 0.010231398
000090 cc 78 bc 3c ee 64 b2 3c 88 8d 90 3c 16 32 9c 3d
       0.02300682 0.021776643 0.017645612 0.07626741
0000a0 c1 8f 85 3d db ae 69 3e 50 f7 fb 3d a3 9e e6 3d
       0.065215595 0.22820608 0.123030305 0.11260726
0000b0 ca 3a 66 bd 0c 01 96 3d 93 c5 b2 bd bf c5 c1 3d
       -0.05620841 0.073244184 -0.087290905 0.09461545
0000c0 fe 2e a6 3d e1 b8 8c 3d 88 bb 1d 3d ef 0d de ba
       0.08114432 0.068712 0.03850892 -0.0016941408
0000d0 98 a2 1e bb b0 12 35 bd 57 87 bb bc d8 16 df bb
       -0.00242058 -0.044207275 -0.022891684 -0.006808143
0000e0 ba 1a 9f 3d 80 3c 40 3d 6d e6 3e 3d 36 36 21 3d
       0.077687696 0.046932697 0.04660647 0.03935834
0000f0 2e 25 d0 3d 63 16 d1 3d 97 c5 ab 3e 67 39 20 3e
       0.101633415 0.10209348 0.33549187 0.15646897
000100 87 ce e3 bd 06 52 96 3d 8f 39 0f 3e 78 f6 82 bd
       -0.11123376 0.073398635 0.139868 -0.063946664
000110 48 f4 74 3d 76 52 d8 bd b3 6d 18 bf c6 80 1f bf
       0.059803277 -0.10562603 -0.5954239 -0.6230587
000120 80 51 61 bc 65 c0 47 bd 32 3d be be 02 90 66 3d
       -0.013752341 -0.048767466 -0.37156063 0.05628968
000130 80 d3 ac 3d 6b 42 96 bd 3f ff 67 3d 1f 9a 11 3e
       0.08438778 -0.07336887 0.056639906 0.14218949
000140 83 92 c2 bc 1e 00 06 bd 59 bd f5 3c 3d c4 f1 3d
       -0.023751503 -0.032714956 0.029997515 0.118050076
000150 a0 bd 53 bc 8b 7f 1a bd 4d 08 2d bf 28 1c 86 3e
       -0.012923628 -0.03771929 -0.6759079 0.26193357
000160 51 5e 5d bd 22 e7 01 3e 1f 48 c3 bd fb 5f 17 3e
       -0.054045025 0.12685826 -0.095352404 0.14782707
000170 cb 5d d4 3d 0b 01 87 bd 46 8a a2 3d 26 de 45 3d
       0.10369452 -0.06591996 0.0793653 0.04830756
000180 09 ff b7 be 59 1c 1b be b9 28 b5 3d ec 01 83 3e
       -0.35936764 -0.15147533 0.08845658 0.25587404
000190 a4 d2 50 3c ec 43 11 3e 55 cb 95 3d 44 af 74 3e
       0.012745533 0.14186066 0.07314173 0.23894984
0001a0 40 78 42 3e 13 e7 b3 bd 88 ca b7 3d 55 37 8c 3d
       0.18991184 -0.08784308 0.08974177 0.06846491
0001b0 1f 88 5d 3c 9e da d1 be 47 e9 0a 3e 2f 44 09 bf
       0.013521223 -0.40987104 0.1356555 -0.53619665
0001c0 e4 0c 88 3d 1b 3d 4d 3e d4 28 8b 3e 0a 17 6a be
       0.06643084 0.20042841 0.27179587 -0.22860351
0001d0 40 ed eb 3c 7d d3 03 3e 36 4a 12 bf 8d c5 52 3d
       0.028799653 0.12873645 -0.57144487 0.05145793
0001e0 b3 1e 40 bf 10 a0 53 3d 74 75 57 3d 1c 30 87 3c
       -0.75046843 0.05166632 0.052602246 0.016502433
0001f0 cb e5 88 bd 38 9e 23 bd 58 c1 e3 be 2f c8 f6 be
       -0.066844545 -0.03994581 -0.44483447 -0.48199603
000200 84 48 16 bd cd 06 78 be 98 22 35 bd ca 7c 64 bc
       -0.03669025 -0.24221344 -0.044222444 -0.013945768
000210 d9 58 36 be 59 09 b6 3d 36 0e 08 bf db f7 05 3c
       -0.1780733 0.08888502 -0.53146684 0.008176769
000220 e4 0b 8c 3a 92 b1 27 bd d3 68 5a 3d 97 df 17 3e
       0.0010684696 -0.04094083 0.053322624 0.14831387
000230 69 e3 9b 3c 46 73 a3 3d fd 4e f3 3d d9 9c 08 3e
       0.019029336 0.07980971 0.118803 0.13341083
000240 6a fe d5 3d cd fc b7 3c f3 e4 16 bd 15 78 14 bd
       0.10448916 0.022459412 -0.036839437 -0.03624733
000250 94 e5 aa bd 2c 89 9b bd a9 93 be bd f5 5e 4a 3d
       -0.0834457 -0.07594523 -0.09305508 0.049406964
000260 1a 6a 89 3e 91 63 ae 3d 0d eb 95 bd e2 77 d7 3c
       0.26838762 0.085150845 -0.07320223 0.026302282
000270 b7 52 14 bd 55 91 31 3e 29 02 9e 3d ed 88 01 bf
       -0.036211696 0.17340596 0.07715256 -0.5059956
000280 21 10 14 3e 94 bb c8 bc 08 ea 8f 3d 4d f5 15 bd
       0.14459278 -0.024503507 0.0702706 -0.03661089
000290 ed e6 8f 3d cb 52 1a 3c 15 ea 55 bc 65 d6 55 3d
       0.070264675 0.009419153 -0.013056298 0.052206416
0002a0 84 43 44 bd aa 70 33 3e 65 2c 2c 3d 55 86 01 3e
       -0.04791595 0.17523447 0.042034525 0.126489
0002b0 f7 48 71 bd 6b 6c 37 3d 1b 05 ac bd b5 3a 23 ba
       -0.058907475 0.04478113 -0.08399411 -0.00062267046
0002c0 17 9e 39 bd 45 3e 71 3d 50 40 39 3d ec 4b f8 bc
       -0.04531678 0.058897275 0.04522735 -0.03030964
0002d0 93 b1 7d 3d 0d a9 de bd 12 d5 e3 bd 80 71 30 bd
       0.061936926 -0.10872088 -0.11124624 -0.043076992
0002e0 f3 5e 27 bc 66 b8 85 bd b8 dc 26 3c a4 24 fe 3c
       -0.010215509 -0.06529312 0.010184459 0.031023331
0002f0 c0 22 0c 3e 7e 01 d7 3c 33 e1 9b 3e 61 a2 1b 3e
       0.13685131 0.026245829 0.3044525 0.15198661
000300 36 0f 23 be c7 2d ad 3d e2 76 6f 3d af 53 b3 bd
       -0.15923771 0.08455997 0.058462985 -0.08756196
000310 bc 30 ab 3d 15 7f a3 bd 49 b1 2b bf cc 75 02 bf
       0.08358905 -0.07983223 -0.6706739 -0.50960994
000320 60 c7 49 3d 1e 52 ff bc 24 5e 1a bf 2e 37 33 3d
       0.049262404 -0.031167086 -0.602999 0.043753795
000330 ae 3c c7 3c 06 a3 0f be 09 e3 a4 3d 81 38 9c 3e
       0.024320927 -0.14027032 0.08051116 0.3051186
000340 3f e9 b2 bd 80 a1 45 3d 4f 8e 45 3d 7b d7 f8 3d
       -0.087358944 0.04824972 0.04823142 0.12150475
000350 1a 2f 95 3d dd fa 04 3d f3 ec 8e be 84 26 41 3e
       0.072843745 0.032465804 -0.27915153 0.18862349
000360 40 da ce bd d6 0a 05 3e b4 00 0f be d4 37 b4 3d
       -0.10100222 0.12992415 -0.13965112 0.08799711
000370 8d 08 c8 3d f6 0d a4 bb 41 25 db 3d b3 5e 63 3d
       0.09767256 -0.005006547 0.10700465 0.055510234
000380 f2 2e f3 bc f1 17 2b be 65 08 1b 3e cf ad 6c 3e
       -0.029685471 -0.16708352 0.15139921 0.23113178
000390 33 7b 8c 3d 23 d8 81 3e e9 7a 50 3d 56 0a c2 3e
       0.06859436 0.25360212 0.050898466 0.3789851
0003a0 57 f2 a5 3e 00 3b 5d bb f8 aa f6 3d 06 33 56 bd
       0.32411453 -0.003375709 0.120443285 -0.052294753
0003b0 87 67 69 bd 1c e1 ce be de 42 19 3e 59 6b 5a be
       -0.056983497 -0.4040612 0.14966914 -0.21330012
0003c0 75 c2 b3 3d a0 93 16 3e 94 a6 91 3e bc 01 c5 be
       0.08777324 0.14704752 0.28447402 -0.38477886
0003d0 a9 8c 84 3e 9f d2 be 3d 22 6e f6 be 4c ec 79 3d
       0.25888565 0.093175165 -0.481309 0.061016366
0003e0 27 48 e6 be d8 f0 b6 3d cb f9 8a 3d 70 a6 b7 bb
       -0.44976923 0.08932656 0.067859255 -0.0056045577
0003f0 03 31 f8 bd a3 30 f0 bc d8 7d 01 bf 69 39 eb be
       -0.12118723 -0.029320067 -0.5058265 -0.45942238

net.4.bias f4 [3]
000000 25 7b d7 3c 60 d5 9a bc ba 3b 1b 3d
       0.026303837 -0.018900573 0.037898757
