train-pong/saved_models/dqn_episode_650.pth (torch, 74357 bytes, 6 tensors)

net.0.weight f4 [128, 6]
0.13024583 0.32859936 0.39739585 -0.24029832 0.08426963 -0.26848397 -0.37456846 -0.426686
0.3535901 -0.15621288 0.1860286 -0.25944668 -0.058340274 -0.5112892 -0.6017528 -0.3011786
-0.0070153596 -0.032528035 -0.22705092 0.066321574 0.22258522 -0.04764067 0.16994378 -0.19384317
-0.17410769 -0.3562171 0.1386683 0.25482634 -0.15728971 0.4093862 0.514046 -0.3682044
0.18033314 0.16605951 -0.43178722 -0.15543468 -0.48275152 0.37089938 -0.38180497 -0.64699167
0.37816507 -0.33253038 -0.20159414 -0.2912962 -0.3140136 -0.039220035 -0.4029051 -0.31180844
0.22602329 -0.04515685 -0.2343296 -0.028991494 -0.36028275 -0.11567886 0.34102365 -0.59582955
-0.1435971 0.23932168 -0.2510495 0.19699432 -0.49304855 -0.13460676 -0.3203138 0.66989267
0.40030897 0.10966431 0.14402156 0.075689524 -0.034346916 0.027097726 0.036796793 -0.32322374
0.2682643 -0.27479467 0.65235955 -0.111213 0.02177759 -0.05935711 0.15660237 0.54320115
0.16358356 0.46137807 -0.3512369 -0.31619182 -0.49613398 0.23154725 0.2687621 0.13198654
0.068196364 -0.20928949 0.04804454 0.52918446 0.094160035 0.045055073 0.081292346 -0.23791933
-0.23749126 -0.11237031 -0.40443185 -0.1970552 -0.13614927 0.23724301 0.25609562 0.102886744
0.37984678 -0.23373371 -0.098951675 0.027701018 -0.15509382 0.031216394 -0.4784522 0.008962364
-0.21583359 0.29204294 0.13360399 0.48086154 0.29762065 -0.26000005 0.008410667 0.08886297
-0.017543197 0.19966179 0.22692734 0.3383208 0.03267175 -0.25691888 -0.33405957 0.19101813
-0.5801909 0.20431681 0.276563 -0.1822484 -0.26454717 -0.21060537 -0.77258366 0.1470789
0.20751007 0.08843584 -0.021640508 0.47138518 -0.03024314 0.4520663 -0.007329058 -0.137104
-0.19168463 0.064641796 -0.3531448 0.15090671 0.052138973 0.1171464 0.31966752 -0.5745728
0.06664253 -0.2125886 0.17380916 0.1650508 -0.18875565 0.18668704 0.068004854 -0.010730309
0.05899831 0.091456115 -0.19586603 0.18677221 0.33227876 0.09746668 -0.05612836 -0.088336
0.052196324 -0.09513697 -0.035271645 0.1715278 -0.20500663 0.040974677 0.21689737 -0.1378839
-0.24037653 0.38250715 -0.18471766 -0.33919424 -0.16718897 -0.39362335 -0.37741923 0.06818259
-0.07830933 0.044889033 0.08494024 0.46257183 0.089855954 -0.16592853 -0.018413797 0.008954563
-0.10884811 0.18320069 0.06811038 -0.037493285 -0.3259707 -0.12807028 -0.21895371 -0.38521028
-0.05937662 0.11248954 0.45757696 0.1362862 0.12088816 0.18431781 0.68252903 -0.34196818
-0.092052124 -0.18073404 -0.52919644 -0.3014476 -0.048824698 0.33764827 0.42453346 0.031142669
0.030023724 -0.2013294 -0.21042638 0.13468373 0.0039320886 -0.046811074 -0.2222253 0.008773329
-0.48860005 -0.14526941 -0.096056744 -0.22989318 -0.06399126 -0.29545936 -0.21924399 -0.5014433
0.073423676 0.29140937 -0.016047375 -0.4497853 0.19213907 0.049966417 0.5162878 0.033047553
-0.24552193 -0.35621077 0.09028393 0.29385898 0.033808667 0.26463288 0.05033274 -0.17562063
-0.08430651 -0.3751534 -0.103381105 -0.25433925 -0.1610023 -0.27740023 -0.5837911 0.11913941
00000000: 2a5f 053e 2d3e a83e 7877 cb3e c310 76be
00000010: 8e95 ac3d bb76 89be 70c7 bfbe 9676 dabe
00000020: c309 b53e 45f6 1fbe 487e 3e3e 32d6 84be
00000030: 36f6 6ebd d9e3 02bf 790c 1abf 1534 9abe
00000040: 1ae1 e5bb 1e3c 05bd 0980 68be 9bd3 873d
00000050: 61ed 633e dd22 43bd be05 2e3e d37e 46be
00000060: 4949 32be 1662 b6be 10ff 0d3e 9978 823e
00000070: 8e10 21be 119b d13e 8598 033f 4a85 bcbe
00000080: 40a9 383e 810b 2a3e 3713 ddbe 452a 1fbe
00000090: 352b f7be 86e6 bd3e f17b c3be 3fa1 25bf
000000a0: da9e c13e 6c41 aabe b26e 4ebe c724 95be
000000b0: 64c6 a0be 30a5 20bd 9449 cebe 5ba5 9fbe
000000c0: a672 673e 64f6 38bd 19f4 6fbe 927f edbc
000000d0: fb76 b8be 0ae9 ecbd a79a ae3e 4988 18bf
000000e0: 1e0b 13be be10 753e 8f89 80be e1b8 493e
000000f0: dc70 fcbe 5bd6 09be 2c00 a4be 167e 2b3f
00000100: 4cf5 cc3e af97 e03d 637a 133e 1c03 9b3d
00000110: 5aaf 0cbd 0dfc dd3c 3cb8 163d 957d a5be
00000120: f059 893e e3b1 8cbe 0901 273f a4c3 e3bd
00000130: eb66 b23c 7120 73bd 5f5c 203e 3b0f 0b3f
00000140: 7382 273e bf39 ec3e 53d5 b3be e5e3 a1be
00000150: 4605 febe b91a 6d3e 309b 893e 7b27 073e
00000160: 89aa 8b3d fc4f 56be 5aca 443d a278 073f
00000170: fad6 c03d ab8b 383d 9a7c a63d 20a1 73be
00000180: e930 73be 6822 e6bd b111 cfbe d7c8 49be
00000190: b76a 0bbe d5ef 723e f71e 833e 49b6 d23d
000001a0: 477b c23e e457 6fbe 2da7 cabd 3fed e23c
000001b0: ead0 1ebe 86b9 ff3c b0f7 f4be e1d6 123c
000001c0: 7b03 5dbe a786 953e 7ccf 083e 7c33 f63e
000001d0: bc61 983e ba1e 85be e5cc 093c cafd b53d
000001e0: c0b6 8fbc 2474 4c3e a45f 683e 6238 ad3e
000001f0: d0d2 053d df8a 83be db09 abbe 429a 433e
00000200: 6487 14bf 6d38 513e aa99 8d3e 539f 3abe
00000210: ba72 87be efa8 57be 0bc8 45bf da9b 163e
00000220: 857d 543e da1d b53d 6f47 b1bc 6659 f13e
00000230: 76c0 f7bc 3c75 e73e 9828 f0bb fe64 0cbe
00000240: fa48 44be eb62 843d 65cf b4be 4a87 1a3e
00000250: ad8f 553d 74ea ef3d 76ab a33e 3417 13bf
00000260: e17b 883d d3b0 59be 07fb 313e 1403 293e
00000270: 2949 41be e32a 3f3e 2146 8b3d 2ece 2fbc
00000280: 36a8 713d 584d bb3d 1b91 48be 3741 3f3e
00000290: 7120 aa3e 9c9c c73d dae6 65bd 81e9 b4bd
000002a0: d0cb 553d 2cd7 c2bd 0079 10bd fca4 2f3e
000002b0: 42ed 51be 10d5 273d 581a 5e3e 7031 0dbe
000002c0: 4425 76be fad7 c33e a026 3dbe deaa adbe
000002d0: 9633 2bbe 0089 c9be 183d c1be 50a3 8b3d
000002e0: a460 a0bd 90dd 373d 26f5 ad3d 37d6 ec3e
000002f0: 6606 b83d 2be9 29be 88d8 96bc 29b6 123c
00000300: c2eb debd f698 3b3e 747d 8b3d 8f92 19bd
00000310: a2e5 a6be db24 03be 6735 60be 483a c5be
00000320: e634 73bd ea60 e63d 8747 ea3e 9c8e 0b3e
00000330: 3694 f73d cfbd 3c3e 39ba 2e3f 7416 afbe
00000340: d385 bcbd 5812 39be 6b79 07bf 5757 9abe
00000350: 68fc 47bd 3ce0 ac3e 735c d93e e91e ff3c
00000360: 50f4 f53c 4b29 4ebe 037a 57be 88ea 093e
00000370: c0d8 803b f8bc 3fbd 078f 63be 02be 0f3c
00000380: c929 fabe 81c1 14be 66b9 c4bd 1e69 6bbe
00000390: da0d 83bd 7346 97be 7f81 60be 975e 00bf
000003a0: 275f 963d 9c33 953e c975 83bc 424a e6be
000003b0: 1bc0 443e 96a9 4c3d 702b 043f df5c 073d
000003c0: 1a6a 7bbe 4261 b6be c8e6 b83d af74 963e
000003d0: f57a 0a3d f67d 873e b429 4e3d e5d5 33be
000003e0: e4a8 acbd 1b14 c0be 79b9 d3bd c138 82be
000003f0: c9dd 24be 6707 8ebe 5573 15bf 5dff f33d

net.0.bias f4 [128]
0.032071933 -0.10109294 0.3152304 -0.12750943 0.46502054 0.471143 0.090434216 0.109018564
0.291244 0.34531823 -0.09133893 0.01215779 0.06697434 -0.03273844 -0.19616602 -0.20368801
0.095132835 -0.13691318 -0.20780037 -0.36217812 -0.27382118 -0.0256818 -0.07661099 -0.19758302
-0.14773977 -0.004809416 -0.31212103 -0.24249478 -0.16197893 -0.20956784 -0.24902178 -0.23521788
0.1893883 0.23791039 -0.0004220074 0.3178663 -0.30346006 0.21793453 -0.19413616 0.2452419
-0.38825658 0.29272825 0.38026848 -0.20517816 -0.39296618 -0.27942938 0.16430844 0.123360924
0.17023617 -0.07489891 0.14154555 0.25008932 0.31023014 -0.03702506 -0.31684372 -0.31883916
-0.28106135 -0.011932498 -0.24094209 -0.0104530575 -0.08873607 0.0581548 -0.08362415 -0.5530317
-0.08527287 -0.17555685 -0.024970647 -0.45741257 -0.2722961 -0.020940674 0.20693809 -0.27204046
-0.16683239 0.10918645 0.24415365 -0.10491115 0.10493789 -0.1396963 -0.38280365 -0.40823486
0.07696631 0.17842884 -0.25504068 -0.12845679 -0.22689971 -0.39181846 0.13868089 -0.39960438
-0.33932477 -0.041934717 0.09690666 -0.03678909 -0.14659975 -0.24094059 0.24533191 -0.0054850015
-0.3229687 0.024999224 -0.17306292 -0.16786866 -0.10836122 -0.099751346 -0.20093548 -0.1321814
0.385489 -0.2441749 -0.33662555 0.3994916 -0.14172132 -0.30680007 -0.34948918 0.090632975
0.013101517 0.3073481 0.21755524 -0.2893503 -0.29195085 -0.38526386 -0.012312244 -0.12186969
0.016569734 0.22718807 0.05362004 0.07427453 0.104335666 0.2698551 0.22695343 -0.03199026
00000000: dc5d 033d d109 cfbd e165 a13e d591 02be
00000010: 2c17 ee3e a839 f13e 9335 b93d 2045 df3d
00000020: ef1d 953e 8dcd b03e e80f bbbd 7831 473c
00000030: d829 893d be18 06bd bfdf 48be 9793 50be
00000040: 01d5 c23d f832 0cbe 9fc9 54be 696f b9be
00000050: 4a32 8cbe a362 d2bc 39e6 9cbd 3453 4abe
00000060: 1849 17be 4e98 9dbb 54ce 9fbe 8d50 78be
00000070: cedd 25be f498 56be 91ff 7ebe f5dc 70be
00000080: 02ef 413e c89e 733e e040 ddb9 5fbf a23e
00000090: 1e5f 9bbe 3b2a 5f3e a1cb 46be b120 7b3e
000000a0: 91c9 c6be 7ae0 953e 8db2 c23e 391a 52be
000000b0: dd32 c9be 5e11 8fbe 7940 283e a7a4 fc3d
000000c0: 6452 2e3e 9a64 99bd 51f1 103e b50b 803e
000000d0: 7cd6 9e3e 97a7 17bd 5739 a2be e33e a3be
000000e0: 46e7 8fbe 8680 43bc 86b9 76be 4d43 2bbc
000000f0: 42bb b5bd ba33 6e3d 2343 abbd 7c93 0dbf
00000100: 8ba3 aebd 2dc5 33be 3e8f ccbc fb31 eabe
00000110: 656a 8bbe c78b abbc 94e7 533e e348 8bbe
00000120: 1cd6 2abe 259d df3d 6a03 7a3e a8db d6bd
00000130: ade9 d63d 8c0c 0fbe d7fe c3be 2904 d1be
00000140: 83a0 9d3d 0db6 363e b194 82be 2d8a 03be
00000150: 6658 68be 6e9c c8be 5d02 0e3e f298 ccbe
00000160: fabb adbe bdc3 2bbd 0077 c63d 28b0 16bd
00000170: 3f1e 16be 21b9 76be 4a38 7b3e 87bb b3bb
00000180: 275c a5be 2ccb cc3c 6837 31be c3e5 2bbe
00000190: 7dec ddbd 6f4a ccbd 08c2 4dbe 905a 07be
000001a0: d05e c53e fc08 7abe 2f5a acbe 2a8a cc3e
000001b0: 651f 11be e614 9dbe 3ff0 b2be c89d b93d
000001c0: bfa7 563c bb5c 9d3e cdc6 5e3e b925 94be
000001d0: 957a 95be 4e41 c5be 4bb9 49bc d196 f9bd
000001e0: 40bd 873c fda3 683e b0a0 5b3d 3f1d 983d
000001f0: f0ad d53d 732a 8a3e 7b66 683e 3808 03bd

net.2.weight f4 [128, 128]
-0.26088688 -0.041202273 -0.15354946 -0.13601194 -0.1288751 0.03175391 -0.13400622 -0.057545513
0.026790023 0.013154861 -0.08393348 -0.03955756 -0.4831729 0.040437203 -0.045917787 -0.037845697
-0.014156923 -0.25285998 -0.033297673 -0.28702953 0.055555545 -0.07311929 0.038038846 0.029386908
-0.017091583 0.094378255 0.13687178 -0.050845604 -0.033986997 -0.08320343 0.042548202 0.010441439
-0.115116715 0.03390862 -0.060940415 -0.010877297 -0.06249831 -0.15967889 0.024927013 -0.009568737
0.015149251 -0.34446636 -0.47580296 -0.05278592 -0.05555178 -0.18359716 -0.11274772 -0.40044627
-0.22850336 0.023708623 -0.0665058 0.013022741 -0.22755486 0.0035922187 -0.058944136 -0.14439183
0.057692043 -0.059208136 0.0022924663 -0.1102584 -0.28022075 0.002988269 0.14481962 -0.009467329
-0.03834835 -0.12146186 -0.009025182 0.058211118 0.052677684 -0.026274776 0.014374613 -0.050841328
0.06636656 -0.3785114 -0.0761945 0.07051807 -0.6458582 0.078834616 0.029401116 0.06951975
-0.05941029 -0.0545339 0.027259357 -0.01902012 -0.03162808 -0.002324963 -0.08314447 -0.035054766
0.07376166 -0.006981991 0.025402153 0.0723887 0.0029630098 -0.32040742 0.0072826673 -0.14086294
0.07359249 0.0053961514 -0.15551183 -0.020450138 -0.9755805 -0.024834728 -0.14900783 0.029414095
-0.0011080022 -0.25568923 0.037860233 -0.04450487 -0.02186985 -0.035291072 0.040073223 -0.06300664
0.095253825 -0.2953536 0.007909311 -0.051889654 -0.21087304 -0.29727387 -0.1309013 -0.055917766
-0.031022724 -0.16093753 -0.1860121 -0.037586696 0.041697405 0.020789051 -0.023875605 -7.31796e-05
0.12489224 0.028556557 -0.25984126 0.0686142 -0.3229502 -0.47492692 0.004684016 0.04317347
-0.025612399 -0.11214166 -0.37220088 -0.11613006 -0.342449 0.15703003 -0.083144166 0.1436546
0.11541568 0.013402049 -0.1505817 0.15015635 0.018095054 -0.24233851 -0.16357733 -0.06599418
-0.14045331 -0.010392883 0.046676893 -0.045211677 0.071385406 0.01953262 -0.031314 0.00077414344
0.21514484 -0.12666883 0.07050284 -0.027937232 0.029122397 -0.11192934 -0.123657025 -0.19064318
0.019554049 -0.84160143 -0.015844353 -0.017582286 0.00019210577 0.009493988 -0.0055028545 -0.059987236
-0.16311048 -0.16898374 0.046208587 -0.04103208 -0.57797545 -0.19231214 -0.036993902 -0.15124981
0.037360407 -0.19629431 0.19281374 0.23575756 0.12492683 -0.0788742 -0.4103909 0.09615275
-0.09811686 0.01677868 0.1503832 -0.015396548 -0.005041048 -0.15318812 -0.064587735 0.24829248
-0.05591833 -0.49234772 -0.25044462 0.08092857 -0.53584296 0.047178544 -0.056072365 -0.37070885
-0.06983867 -0.20934364 0.015940644 -0.057252564 -0.2642693 0.06734606 -0.0024449348 0.03907696
0.095071994 -0.14277537 -0.05889226 -0.046386622 -0.027866503 0.041344542 0.009179511 -0.32441038
-0.055105906 0.35213864 -0.4384636 -0.08754187 -0.57067543 0.14408906 0.015771372 -0.012990817
-0.15806928 0.17723939 -0.044300377 -0.06058745 -0.23763047 -0.4590814 0.0014347658 -0.075500146
-0.17577675 -0.34682134 -0.13710506 0.1753262 -0.11605226 -0.10353012 -0.08795371 0.002973715
-0.043262485 -0.073012955 0.036301866 -0.12285374 0.31130168 -0.097302034 -0.026340572 0.014876887
00000000: f792 85be b7c3 28bd 123c 1dbe b746 0bbe
00000010: d6f7 03be 6310 023d ed38 09be d8b4 6bbd
00000020: c076 db3c 7c87 573c 51e5 abbd 1c07 22bd
00000030: 7062 f7be 7ba1 253d 4a14 3cbd 1704 1bbd
00000040: 70f2 67bc dd76 81be 2463 08bd 89f5 92be
00000050: 368e 633d 91bf 95bd 9fce 1b3d d0bc f03c
00000060: a603 8cbc 6349 c13d 1e28 0c3e 7b43 50bd
00000070: f335 0bbd 8f66 aabd 0647 2e3d 9212 2b3c
00000080: 50c2 ebbd c4e3 0a3d a89c 79bd b136 32bc
00000090: 3afe 7fbd dd82 23be bc33 cc3c 31c6 1cbc
000000a0: 9034 783c e55d b0be 729c f3be 0d36 58bd
000000b0: 438a 63bd e500 3cbe 47e8 e6bd 4b07 cdbe
000000c0: c9fc 69be 9638 c23c 3134 88bd 565d 553c
000000d0: 2404 69be 6e6b 6b3b 686f 71bd 74db 13be
000000e0: 7e4e 6c3d 3b84 72bd 343d 163b 28cf e1bd
000000f0: 1879 8fbe d6d6 433b 984b 143e db1c 1bbc
00000100: 2913 1dbd ffc0 f8bd 5bde 13bc c86e 6e3d
00000110: 8ec4 573d 333e d7bc 7f83 6b3c ff3e 50bd
00000120: 31eb 873d 3fcc c1be dd0b 9cbd c76b 903d
00000130: f756 25bf 0b74 a13d 9cda f03c 5f60 8e3d
00000140: 3458 73bd f05e 5fbd 044f df3c 15d0 9bbc
00000150: 728c 01bd 685e 18bb a647 aabd 9695 0fbd
00000160: 5a10 973d 30c9 e4bb 2d18 d03c 8740 943d
00000170: 0e2f 423b 710c a4be 71a3 ee3b 603e 10be
00000180: a9b7 963d 33d2 b03b 7e3e 1fbe 0c87 a7bc
00000190: a5bf 79bf 3372 cbbc 8295 18be d4f5 f03c
000001a0: 623a 91ba b3e9 82be 5513 1b3d bd4a 36bd
000001b0: 6628 b3bc 5f8d 10bd d223 243d a009 81bd
000001c0: 7014 c33d 9638 97be 0e96 013c 3f8a 54bd
000001d0: 1aef 57be 4834 98be fe0a 06be 070a 65bd
000001e0: 5e23 febc cfcc 24be f579 3ebe 82f4 19bd
000001f0: e6ca 2a3d cd4d aa3c c696 c3bc 0078 99b8
00000200: 81c7 ff3d 71ef e93c ea09 85be 9a85 8c3d
00000210: bb59 a5be 9f29 f3be 607c 993b aad6 303d
00000220: 18d1 d1bc 87aa e5bd 1d91 bebe 99d5 edbd
00000230: 7a55 afbe 7bcc 203e 7d47 aabd 311a 133e
00000240: 0e5f ec3d 4594 5b3c 1732 1abe 96c2 193e
00000250: 143c 943c 9627 78be d180 27be f527 87bd
00000260: fed2 0fbe e946 2abc 4530 3f3d e12f 39bd
00000270: 8332 923d e002 a03c 1c43 00bd e3ef 4a3a
00000280: ee4e 5c3e 79b5 01be cb63 903d 9fdc e4bc
00000290: 1892 ee3c 363b e5bd e53f fdbd f737 43be
000002a0: d02f a03c 3173 57bf 04cc 81bc ba08 90bc
000002b0: 0070 4939 ac8c 1b3c 4a51 b4bb 2db5 75bd
000002c0: 6f06 27be 130a 2dbe 3745 3d3d 4111 28bd
000002d0: 33f6 13bf 79ed 44be eb86 17bd 3be1 1abe
000002e0: 3a07 193d 6001 49be f770 453e 6e6a 713e
000002f0: a3d9 ff3d cc88 a1bd c21e d2be bceb c43d
00000300: 7ef1 c8bd 7173 893c 0efe 193e ce41 7cbc
00000310: 602f a5bb 59dd 1cbe 9346 84bd 6240 7e3e
00000320: 9e0a 65bd 0015 fcbe 473a 80be e1bd a53d
00000330: 012d 09bf 4a3e 413d 23ac 65bd 8dcd bdbe
00000340: 9407 8fbd 2e5e 56be f495 823c aa81 6abd
00000350: 4e4e 87be bbec 893d 333b 20bb 2a0f 203d
00000360: 1bb5 c23d b533 12be 0339 71bd e6ff 3dbd
00000370: 4b48 e4bc e558 293d a965 163c 1e19 a6be
00000380: bbb6 61bd 844b b43e 4d7e e0be 2749 b3bd
00000390: c917 12bf 158c 133e f732 813c 70d7 54bc
000003a0: eadc 21be 3e7e 353e 5074 35bd 8c2a 78bd
000003b0: 6755 73be b80c ebbe c00e bc3a d29f 9abd
000003c0: d2fe 33be 9192 b1be 4565 0cbe b688 333e
000003d0: cfac edbd 9907 d4bd 1321 b4bd a9e2 423b
000003e0: 0134 31bd d187 95bd 44b1 143d be9a fbbd
000003f0: ef62 9f3e 4a46 c7bd 2fc8 d7bc 30be 733c

net.2.bias f4 [128]
0.047950175 -0.068752855 -0.050542425 -0.13062969 -0.20532915 0.05491095 -0.021618925 -0.034548614
-0.009818553 -0.051800977 -0.07034176 0.18521085 0.008637697 0.12200325 -0.026770612 -0.061882827
0.00418011 -0.075111754 0.042355638 -0.019070085 -0.01736043 -0.020507714 -0.028780138 -0.03733025
0.14166728 -0.08375484 -0.059961155 -0.048962872 -0.12820199 0.012274553 -0.04418164 0.12886553
0.003512255 0.007401812 0.17041115 -0.0684462 -0.08307796 -0.085041165 -0.082132116 -0.051233754
-0.02900447 0.01748215 0.13344657 -0.036751255 -0.03144757 -0.062026933 -0.006627545 -0.09315894
0.039182235 0.02699385 -0.04703714 -0.052319262 -0.029515449 -0.20782335 -0.09819753 -0.039403558
0.011252921 -0.04157124 -0.11688902 0.0043385806 -0.006711453 0.054657828 -0.01278398 -0.10162568
-0.05617183 -0.012461221 0.018223686 -0.03888643 -0.0913368 0.030683374 -0.15641636 -0.11229761
-0.021903044 0.0010781523 0.18902105 -0.07353388 0.054799378 0.006483121 -0.009574135 -0.06100596
-0.08845049 -0.0810041 -0.03545585 0.1607827 -0.0077167205 -0.012892649 -0.010741226 0.047703255
-0.115341745 0.024443217 -0.08360859 0.042169046 0.09211487 -0.03762856 0.17020628 0.05024295
-0.11591534 -0.13322058 0.11341036 -0.0021466976 -0.01627296 0.08006518 0.01701529 0.1965572
0.1377502 -0.08357627 0.061514247 -0.077387154 -0.05704565 -0.088973455 -0.11787873 0.06343535
-0.06401051 0.12133107 0.031682998 0.054661606 -0.049655534 0.18904397 -0.048335835 -0.052977446
0.023369584 -0.06247159 0.0044103484 -0.08331672 0.025909208 0.013011135 0.026788564 -0.07065779
00000000: 6767 443d 4cce 8cbd 9305 4fbd cac3 05be
00000010: ce41 52be 4eea 603d 2c1a b1bc d982 0dbd
00000020: ffdd 20bc 432d 54bd 570f 90bd eaa7 3d3e
00000030: 2185 0d3c d7dc f93d 0b4e dbbc d978 7dbd
00000040: 4ef9 883b 31d4 99bd 1b7d 2d3d de38 9cbc
00000050: 7637 8ebc cbff a7bc 53c4 ebbc 9be7 18bd
00000060: 3a11 113e a887 abbd d499 75bd 4b8d 48bd
00000070: 6247 03be 351b 493c cff7 34bd 53f5 033e
00000080: dc2d 663b e68a f23b 4380 2e3e 852d 8cbd
00000090: c724 aabd 102a aebd e234 a8bd 7cda 51bd
000000a0: c89a edbc ba36 8f3c 38a6 083e 7c88 16bd
000000b0: 2bcf 00bd f40f 7ebd e12b d9bb 1dca bebd
000000c0: 8d7d 203d 3522 dd3c 04aa 40bd b94c 56bd
000000d0: 62ca f1bc a5cf 54be c91b c9bd a065 21bd
000000e0: 2c5e 383c 9b46 2abd 8363 efbd a72a 8e3b
000000f0: c0eb dbbb e3e0 5f3d e673 51bc 2021 d0bd
00000100: 6f14 66bd 262a 4cbc d749 953c 6147 1fbd
00000110: ca0e bbbd b35b fb3c 9c2b 20be 4afc e5bd
00000120: 036e b3bc ca50 8d3a bc8e 413e ee98 96bd
00000130: 5075 603d 5c70 d43b d5dc 1cbc 63e1 79bd
00000140: 8825 b5bd 7ae5 a5bd 273a 11bd 38a4 243e
00000150: 8bdc fcbb b03b 53bc f8fb 2fbc 7d64 433d
00000160: 4b38 ecbd 243d c83c fb3a abbd 73b9 2c3d
00000170: b9a6 bc3d 6820 1abd 8e4a 2e3e 8dcb 4d3d
00000180: 0665 edbd fa6a 08be b143 e83d 9caf 0cbb
00000190: df4e 85bc 37f9 a33d a663 8b3c 4a46 493e
000001a0: 630e 0d3e 092a abbd 5df6 7b3d 287d 9ebd
000001b0: b3a8 69bd b737 b6bd 676a f1bd 65ea 813d
000001c0: f117 83bd 6d7c f83d 08c6 013d d9e4 5f3d
000001d0: 9a63 4bbd be94 413e ccfb 45bd e1fe 58bd
000001e0: 9271 bf3c 36e2 7fbd af84 903b f5a1 aabd
000001f0: 8c3f d43c a82c 553c b173 db3c 08b5 90bd

net.4.weight f4 [3, 128]
-0.06417629 -0.4870861 0.014854086 -0.014665374 -0.12892772 0.045044363 -0.7184178 -0.079189904
0.0205783 0.010476168 0.0786486 0.15160306 -0.008506696 0.08595431 0.15311697 0.26799628
0.118039995 0.074636355 0.028888647 0.06183786 -0.05086523 0.03400986 -0.040081087 0.05770058
0.13530624 -0.08391789 -0.06810771 0.012141652 -0.012751668 0.17112443 -0.036879886 -0.3208129
0.18944894 -0.067305446 0.099685095 0.010231398 0.02300682 0.008501287 0.017645612 0.06600308
0.065215595 0.22820608 0.123030305 0.11260726 -0.05620841 0.073244184 -0.087290905 0.09461545
0.08114432 0.068712 0.03850892 -0.0016941408 -0.00242058 -0.04738479 -0.022891684 -0.006808143
0.077687696 0.046932697 0.04660647 0.03935834 0.101633415 0.08795128 0.33549187 0.15646897
-0.11123376 0.073398635 0.139868 -0.05512023 0.059432536 -0.103318885 -0.5954239 -0.60180444
-0.013752341 -0.048767466 -0.3793263 0.05628968 0.072531246 -0.089003816 0.056639906 0.14218949
-0.023751503 -0.032714956 0.029997515 0.11956397 0.046190333 -0.03771929 -0.68136764 0.26193357
-0.054045025 0.121831894 -0.095352404 0.14782707 0.087663695 -0.060280547 0.058884628 0.04830756
-0.35936764 -0.15147533 0.09002643 0.21786761 0.012745533 0.15325484 0.07314173 0.24433829
0.20181438 -0.08784308 0.083090246 0.06846491 0.013521223 -0.40987104 0.1356555 -0.6021851
0.06643084 0.19884485 0.2323661 -0.21850553 0.028799653 0.13056067 -0.59415686 0.05145793
-0.7947006 0.050501026 0.06048711 0.016502433 -0.03640892 -0.03994581 -0.3922779 -0.48199603
-0.03669025 -0.23576653 -0.05460255 -0.019587448 -0.19341391 0.098366395 -0.5484951 0.008176769
0.0065599056 -0.04094083 0.053322624 0.14559458 0.019029336 0.07980971 0.118803 0.13341083
0.11810203 0.022459412 -0.036839437 -0.03624733 -0.0834457 -0.07359432 -0.09305508 0.03600383
0.2757307 0.085150845 -0.07320223 0.026302282 -0.036211696 0.1702658 0.07715256 -0.528025
0.14459278 -0.028732324 0.08977641 -0.03661089 0.070264675 0.017694483 -0.013056298 0.061923042
-0.04791595 0.17523447 0.042034525 0.126489 -0.058907475 0.04478113 -0.08399411 -0.00062267046
-0.04531678 0.05630875 0.04522735 -0.03030964 0.061936926 -0.09564305 -0.11124624 -0.043076992
-0.010215509 -0.06529312 0.010184459 0.031023331 0.13685131 0.010022965 0.31882495 0.15198661
-0.15362537 0.08455997 0.058462985 -0.06916561 0.08358905 -0.055926617 -0.66749907 -0.48805788
0.049262404 -0.031167086 -0.63858837 0.043753795 0.03707306 -0.13871764 0.08051116 0.3051186
-0.087358944 0.04824972 0.04823142 0.12313713 0.10348551 0.032465804 -0.20297383 0.18701172
-0.10100222 0.13312611 -0.13965112 0.08799711 0.08939658 0.0070521934 0.10669539 0.055510234
-0.029685471 -0.16708352 0.17089608 0.23722334 0.06859436 0.2636667 0.050898466 0.41018894
0.3311485 -0.003375709 0.13618527 -0.052294753 -0.056983497 -0.4040612 0.14966914 -0.19035976
0.08486379 0.14012793 0.28858307 -0.3645456 0.25888565 0.084979065 -0.4575422 0.061016366
-0.475191 0.08932656 0.05987861 -0.0056045577 -0.06450604 -0.029320067 -0.49736032 -0.45942238
00000000: dc6e 83bd 5963 f9be 8d5e 733c 0947 70bc
00000010: a105 04be 7080 383d 3bea 37bf 512e a2bd
00000020: d393 a83c 3ca4 2b3c 8412 a13d d53d 1b3e
00000030: ab5f 0bbc d008 b03d b2ca 1c3e cf36 893e
00000040: f4be f13d f2da 983d e2a7 ec3c b249 7d3d
00000050: 0f58 50bd ec4d 0b3d 112c 24bd 7257 6c3d
00000060: b88d 0a3e 25dd abbd 0e7c 8bbd c8ed 463c
00000070: 5fec 50bc 3e3b 2f3e 5d0f 17bd 9741 a4be
00000080: e7fe 413e 70d7 89bd b327 cc3d 98a1 273c
00000090: cc78 bc3c fb48 0b3c 888d 903c 9f2c 873d
000000a0: c18f 853d dbae 693e 50f7 fb3d a39e e63d
000000b0: ca3a 66bd 0c01 963d 93c5 b2bd bfc5 c13d
000000c0: fe2e a63d e1b8 8c3d 88bb 1d3d ef0d deba
000000d0: 98a2 1ebb 8e16 42bd 5787 bbbc d816 dfbb
000000e0: ba1a 9f3d 803c 403d 6de6 3e3d 3636 213d
000000f0: 2e25 d03d cd1f b43d 97c5 ab3e 6739 203e
00000100: 87ce e3bd 0652 963d 8f39 0f3e c0c5 61bd
00000110: 886f 733d da98 d3bd b36d 18bf db0f 1abf
00000120: 8051 61bc 65c0 47bd 0f37 c2be 0290 663d
00000130: 438b 943d a247 b6bd 3fff 673d 1f9a 113e
00000140: 8392 c2bc 1e00 06bd 59bd f53c f4dd f43d
00000150: 1332 3d3d 8b7f 1abd 1c6e 2ebf 281c 863e
00000160: 515e 5dbd 0083 f93d 1f48 c3bd fb5f 173e
00000170: 0689 b33d bce8 76bd 0231 713d 26de 453d
00000180: 09ff b7be 591c 1bbe c75f b83d b018 5f3e
00000190: a4d2 503c d6ee 1c3e 55cb 953d d133 7a3e
000001a0: 6ea8 4e3e 13e7 b3bd 382b aa3d 5537 8c3d
000001b0: 1f88 5d3c 9eda d1be 47e9 0a3e cd28 1abf
000001c0: e40c 883d fc9d 4b3e 61f1 6d3e eabf 5fbe
000001d0: 40ed eb3c b2b1 053e aa1a 18bf 8dc5 523d
000001e0: 8071 4bbf 2ada 4e3d 55c1 773d 1c30 873c
000001f0: 8521 15bd 389e 23bd a6d8 c8be 2fc8 f6be
00000200: 8448 16bd c86c 71be eca6 5fbd db75 a0bc
00000210: 4c0e 46be 5274 c93d 2d6a 0cbf dbf7 053c
00000220: 7af4 d63b 92b1 27bd d368 5a3d bf16 153e
00000230: 69e3 9b3c 4673 a33d fd4e f33d d99c 083e
00000240: 7adf f13d cdfc b73c f3e4 16bd 1578 14bd
00000250: 94e5 aabd 9eb8 96bd a993 bebd c178 133d
00000260: 932c 8d3e 9163 ae3d 0deb 95bd e277 d73c
00000270: b752 14bd 285a 2e3e 2902 9e3d a52c 07bf
00000280: 2110 143e 0d60 ebbc b2dc b73d 4df5 15bd
00000290: ede6 8f3d 05f4 903c 15ea 55bc 04a3 7d3d
000002a0: 8443 44bd aa70 333e 652c 2c3d 5586 013e
000002b0: f748 71bd 6b6c 373d 1b05 acbd b53a 23ba
000002c0: 179e 39bd 01a4 663d 5040 393d ec4b f8bc
000002d0: 93b1 7d3d 81e0 c3bd 12d5 e3bd 8071 30bd
000002e0: f35e 27bc 66b8 85bd b8dc 263c a424 fe3c
000002f0: c022 0c3e 5d37 243c 063d a33e 61a2 1b3e
00000300: f84f 1dbe c72d ad3d e276 6f3d b3a6 8dbd
00000310: bc30 ab3d 4f13 65bd 38e1 2abf b9e2 f9be
00000320: 60c7 493d 1e52 ffbc 877a 23bf 2e37 333d
00000330: ecd9 173d ff0b 0ebe 09e3 a43d 8138 9c3e
00000340: 3fe9 b2bd 80a1 453d 4f8e 453d 522f fc3d
00000350: 36f0 d33d ddfa 043d 5fd8 4fbe 0080 3f3e
00000360: 40da cebd 3652 083e b400 0fbe d437 b43d
00000370: 8e15 b73d 1616 e73b 1d83 da3d b35e 633d
00000380: f22e f3bc f117 2bbe 62ff 2e3e adea 723e
00000390: 337b 8c3d 52ff 863e e97a 503d 4904 d23e
000003a0: 4c8c a93e 003b 5dbb 2774 0b3e 0633 56bd
000003b0: 8767 69bd 1ce1 cebe de42 193e abed 42be
000003c0: 11cd ad3d b27d 0f3e 29c1 933e b9a5 babe
000003d0: a98c 843e 8109 ae3d f942 eabe 4cec 793d
000003e0: 3c4c f3be d8f0 b63d 4643 753d 70a6 b7bb
000003f0: be1b 84bd a330 f0bc 03a6 febe 6939 ebbe

net.4.bias f4 [3]
0.021889772 -0.020887675 0.03394573
00000000: 2e52 b33c a11c abbc ae0a 0b3d
