train-pong/saved_models/dqn_episode_20.pth (torch, 75369 bytes, 6 tensors)

net.0.weight f4 [128, 8]
0	0xbe8e2103	-0.2775956
1	0xbd7b0828	-0.061287075
2	0x3ea31247	0.31849882
3	0xbd9d0c48	-0.07668358
4	0xbe082fab	-0.13299434
5	0xbdf16b7e	-0.11788081
6	0xbe3f6d10	-0.18693948
7	0xbe8d3d11	-0.27585652
8	0x3e5c57aa	0.21517816
9	0x3db31ee1	0.08746124
10	0xbf0f8bcd	-0.56072694
11	0xbe3aead2	-0.1825364
12	0x3f35fc7b	0.7108838
13	0xbc4fac6e	-0.012675388
14	0x3f4fe87f	0.81214136
15	0x3dfb2e97	0.12264746
16	0x3d8ef7cd	0.06980858
17	0x3f1993e5	0.59991294
18	0xbe7bf9e5	-0.24607046
19	0x3eff1c18	0.4982612
20	0x3eba04ea	0.36331874
21	0x3f2bff92	0.67186844
22	0xbee6b529	-0.4506009
23	0x3db405a7	0.087901406
24	0x3ed546ff	0.41655728
25	0x3efba9c3	0.49152955
26	0x3e8cb16e	0.27479118
27	0xbde11945	-0.10991148
28	0xbec9da6f	-0.39424464
29	0x3caf367c	0.021388285
30	0x3e7a48d7	0.24441849
31	0xbe92527d	-0.2857856
32	0xbea2ed74	-0.31821787
33	0xbf2f41e1	-0.684599
34	0xbd458953	-0.048226666
35	0x3e07cd56	0.13261923
36	0x3ed53875	0.41644636
37	0x3ee1104b	0.43957743
38	0xbdbd7bf5	-0.092521586
39	0x3e7c572d	0.2464263
40	0xbedd40d8	-0.43213534
41	0x3ed2e21e	0.4118814
42	0xbd316876	-0.043312512
43	0x3e9462be	0.28981584
44	0x3eccb06b	0.39978346
45	0x3edf6acf	0.43636176
46	0xbe9fb9b7	-0.31196377
47	0x3e6e750f	0.23286842
48	0xbeca89f5	-0.39558378
49	0x3ec3448a	0.3813823
50	0xbec6c38f	-0.38821074
51	0xbece5aa0	-0.40303516
52	0xbf21d3d0	-0.63213825
53	0xbe8f0faf	-0.27941653
54	0x3e4da894	0.20083839
55	0xbe5c4a31	-0.21512677
56	0xbf270178	-0.65236616
57	0xbedfba49	-0.43696812
58	0x3c137744	0.009000603
59	0xbd6345cc	-0.055486485
60	0x3f1039ee	0.56338394
61	0xbd08461f	-0.033269998
62	0x3e02dd43	0.12779717
63	0x3e3b8c30	0.18315196
64	0x3f17fc61	0.59369475
65	0xbea4a1fa	-0.32154828
66	0x3f3557c5	0.7083705
67	0x3e97a9a3	0.2962161
68	0x3de98bf5	0.11403648
69	0xbd1f2870	-0.038856924
70	0x3ed8466b	0.42241225
71	0xbe1bac09	-0.15202345
72	0x3dcc393b	0.09971853
73	0x3cd41d06	0.025892746
74	0x3e2127e3	0.15737872
75	0x3dadd37c	0.08487603
76	0x3e74398e	0.2385008
77	0x3f211815	0.6292737
78	0x3b058815	0.00203753
79	0x3cef245e	0.029192146
80	0x3e48dc94	0.19615394
81	0x3de333fc	0.110938996
82	0xbe8ef954	-0.27924597
83	0x3f530ada	0.82438433
84	0x3d432bc0	0.047649145
85	0x3ed0be67	0.40770265
86	0xbedf883d	-0.4365863
87	0x3efac8ed	0.4898142
88	0xbf35adc0	-0.70968246
89	0x3d8afaf1	0.067861445
90	0xbf3851e8	-0.7199998
91	0xbd040632	-0.03223247
92	0x3eba0a95	0.36336198
93	0x3ebbef55	0.36706033
94	0x3e3d0d5d	0.18462129
95	0x3e746e95	0.23870309
96	0x3d6bcacd	0.057566453
97	0x3f519654	0.8187001
98	0x3e025339	0.1272706
99	0x3fc7940e	1.5592058
100	0xbe145438	-0.14485252
101	0x3f0d556d	0.55208474
102	0x3c094bc3	0.008379879
103	0x3e9d6f07	0.3074877
104	0x3f2416c6	0.6409725
105	0x3e9a8e20	0.30186558
106	0xbdce0e9f	-0.100613825
107	0x3f37ca7e	0.71793354
108	0x3f01c97a	0.50698054
109	0xbdbb808d	-0.091553785
110	0x3ec3a83d	0.38214293
111	0x3e4cf86c	0.2001664
112	0xbcd8d6b2	-0.026469562
113	0x3e9d8dac	0.3077215
114	0xbed1ce57	-0.40977737
115	0x3e15b2d3	0.14618997
116	0xbe4d5a48	-0.20053971
117	0x3f011665	0.50424796
118	0x3e0fc922	0.1404157
119	0x3e3a45b3	0.1819065
120	0x3e03dd13	0.12877302
121	0xbd435310	-0.047686636
122	0x3f179688	0.5921407
123	0x3d4573b7	0.048206057
124	0xbec6c5ac	-0.38822687
125	0x3ea2ebb1	0.31820443
126	0xbf394115	-0.7236493
127	0x3eb95ae6	0.36202163
128	0xbe340f2a	-0.1758391
129	0xbea01124	-0.31263077
130	0xbe4e7058	-0.20160043
131	0xbdd227a4	-0.10261467
132	0xbe896b28	-0.26839566
133	0xbdf181c6	-0.117923304
134	0xbc44e1e0	-0.012016743
135	0xbe8d58b0	-0.27606726
136	0xbdd451fd	-0.103672005
137	0x3ece73c1	0.40322688
138	0xbf1fa631	-0.6236296
139	0x3ec398d5	0.3820254
140	0xbef2f299	-0.47450712
141	0xbe0fd02d	-0.14044257
142	0x3eea569d	0.45769206
143	0x3d85d8c1	0.06535483
144	0x3f230c21	0.6369038
145	0x3d71e540	0.05905652
146	0x3e917e41	0.28416637
147	0x3e47683a	0.19473353
148	0xbede2ea6	-0.43394965
149	0x3d898f0e	0.06716739
150	0xbd2673a7	-0.04063764
151	0x3c3cd80e	0.011526121
152	0xbdbff584	-0.09373
153	0xbe5addd9	-0.2137369
154	0x3e817973	0.2528797
155	0xbd0aa110	-0.033845007
156	0x3ea38585	0.31937805
157	0xbe34e21a	-0.17664376
158	0x3e22de56	0.15905127
159	0xbea6f7a6	-0.32610816
160	0xbe931da5	-0.28733554
161	0xbd900927	-0.07032996
162	0xbf7c6439	-0.9859043
163	0x3ecdba8d	0.4018139
164	0x3ed4a547	0.41532347
165	0xbe307f11	-0.17235972
166	0x3f1c48f4	0.6104882
167	0xbe99b462	-0.30020434
168	0x3df0ec53	0.11763825
169	0x3e7b8624	0.2456289
170	0x3f10c609	0.5655218
171	0x3f1ca57e	0.6119002
172	0xbe7df1a6	-0.24799213
173	0x3cd850a6	0.026405644
174	0xbe43ab29	-0.19108261
175	0xbb17ac5c	-0.0023143506
176	0x3f0e88e1	0.5567761
177	0xbe54de8e	-0.20788023
178	0x3f4759bf	0.77871317
179	0x3efbf095	0.49206987
180	0xbed4c6e5	-0.41557994
181	0x3d0ac523	0.03387941
182	0x3f1226b7	0.57090324
183	0x3eeff2b7	0.46864864
184	0xbebc412e	-0.36768478
185	0x3e1736b9	0.14766969
186	0xbf00604c	-0.5014694
187	0x3f116e37	0.568088
188	0xbe5f4e33	-0.21807174
189	0x3ee78986	0.4522211
190	0xbbcf384b	-0.0063238493
191	0x3f0ed27e	0.55789936
192	0xbf1159b1	-0.56777483
193	0x3ea90a83	0.33015832
194	0xbe85a74f	-0.2610421
195	0x3f1d0e1e	0.61349666
196	0x3ece97b5	0.40350118
197	0x3ea158a0	0.31512928
198	0xbe8ecda9	-0.2789128
199	0x3effa963	0.4993392
200	0x3e7a468b	0.24440973
201	0xbecafb49	-0.3964484
202	0xbeb70ad1	-0.3575044
203	0xbdaa56b7	-0.08317321
204	0x3f05c639	0.5225559
205	0xbe8484ab	-0.25882468
206	0x3f2c63c1	0.6733971
207	0x3eb1da62	0.34736925
208	0x3b1a2838	0.0023522507
209	0x3f096a2f	0.5367765
210	0x3f372075	0.715339
211	0x3edf57da	0.43621713
212	0xbf2f18b9	-0.683971
213	0x3ee1ee7b	0.4412726
214	0xbf092ea5	-0.535868
215	0x3ee5c67c	0.44877994
216	0x3ee351cb	0.4439834
217	0x3e0aad4f	0.13542674
218	0x3d2cadc3	0.0421579
219	0xbe3cddd3	-0.18443994
220	0x3ee11a66	0.43965453
221	0xbe13afa8	-0.14422476
222	0x3b83a3a9	0.0040173125
223	0xbea73685	-0.32658783
224	0x3e851f01	0.26000217
225	0xbcc8e521	-0.02452332
226	0xbf61974b	-0.8812148
227	0xbe0e6607	-0.13906108
228	0x3ef9bfe4	0.48779213
229	0x3eb34e53	0.35020694
230	0x3edc34f2	0.43009144
231	0x3e3768ba	0.17911044
232	0x3efb930f	0.49135634
233	0x3e558ef1	0.20855309
234	0x3f0be100	0.546402
235	0x3f3c36b1	0.7352095
236	0xbdb04eab	-0.08608755
237	0x3dfcfce6	0.12352924
238	0x3ebb7a99	0.36616972
239	0x3e737307	0.23774348
240	0xbea3d28b	-0.3199657
241	0xbfe5869e	-1.7931707
242	0x3e4f6a58	0.2025541
243	0xbecc1062	-0.3985625
244	0x3e2a5c70	0.16636825
245	0xbe95e619	-0.29277113
246	0xbf6b534f	-0.91923994
247	0xbe3cde4e	-0.18444178
248	0x3f666e10	0.9001169
249	0x3f03be5e	0.5146235
250	0xbe9d7184	-0.30750668
251	0x3ebf8026	0.37402457
252	0x3f0da32f	0.55327123
253	0x3e9f4b3f	0.31112096
254	0x3ef3049c	0.47464454
255	0x3e60f038	0.21966636

net.0.bias f4 [128]
0	0xbe4c06f0	-0.19924521
1	0x3ddf0075	0.10888759
2	0x3f0a3562	0.53987706
3	0xbebc3d7f	-0.36765668
4	0x3e2ac069	0.16674961
5	0x3f0f2e25	0.55929786
6	0x3de22b83	0.110434555
7	0x3efcd357	0.4937999
8	0xbe8824e9	-0.2659066
9	0x3f1ea530	0.61970806
10	0x3e8b6bb7	0.27230617
11	0x3da705f5	0.08155433
12	0xbd8488ee	-0.0647143
13	0xbdba7e2b	-0.09106096
14	0x3eb90d4d	0.3614296
15	0x3e50a2b0	0.2037456
16	0xbe820c22	-0.25399882
17	0xbe92b952	-0.28657013
18	0xbe330140	-0.17480946
19	0xbeaf885d	-0.34283724
20	0x3ddb5991	0.10710443
21	0x3ef6192b	0.48066077
22	0xbd7eab69	-0.06217519
23	0x3eafb457	0.34317276
24	0x3ea2d260	0.31801128
25	0x3d7d0487	0.061771896
26	0x3e832ae1	0.25618652
27	0xbe71762b	-0.23580234
28	0x3d35f097	0.044418897
29	0x3db0b995	0.08629147
30	0x3df3c729	0.11903221
31	0x3eb201e8	0.3476708
32	0xbe59ba6c	-0.2126252
33	0x3dd86a46	0.10567145
34	0xbd9ee5f7	-0.07758706
35	0xbe90fbc8	-0.28317094
36	0xbdd5ef9b	-0.10446092
37	0x3db6a358	0.08917874
38	0x3ea95a19	0.33076552
39	0x3f1b6828	0.60705805
40	0xbe1a4928	-0.1506697
41	0xbe6fa01c	-0.2340092
42	0x3f3bc576	0.73348176
43	0x3e48ea60	0.19620657
44	0xbe9ac18d	-0.30225793
45	0x3f0bad9f	0.545618
46	0x3e644617	0.22292362
47	0x3f0d4f69	0.55199295
48	0x3e32bc5b	0.17454664
49	0x3f3318b9	0.699596
50	0x3ef390ab	0.4757131
51	0x3e667f3d	0.22509475
52	0xbe93e5c8	-0.28886247
53	0xbe8f99f5	-0.28047147
54	0xbecd2bb6	-0.4007241
55	0x3f02eb6d	0.5114048
56	0xbe9304c4	-0.28714573
57	0x3e27d7f7	0.16390978
58	0x3ec93c4e	0.3930382
59	0x3f1eb939	0.6200138
60	0x3f34b1d2	0.7058383
61	0x3eacbb57	0.3373668
62	0x3ef00e1d	0.46885768
63	0x3ea5b853	0.3236719
64	0xbdc31770	-0.09525955
65	0x3ecd7614	0.4012915
66	0x3e80d789	0.2516444
67	0x3ec54d08	0.38535333
68	0x3e00808c	0.12549037
69	0xbd96bf89	-0.07360751
70	0x3f2785d1	0.6543856
71	0xbd689fb3	-0.056792926
72	0xbea8b531	-0.32950738
73	0xba748f55	-0.00093292195
74	0x3d08feea	0.03344623
75	0x3f06cd97	0.52657455
76	0xbe14b98f	-0.1452391
77	0x3f2340cf	0.63770765
78	0xbe67baef	-0.22629903
79	0x3f1789fb	0.59194916
80	0x3ef05cd3	0.4694582
81	0x3f03dd01	0.515091
82	0xbed4a510	-0.41532183
83	0x3e8f6b11	0.28011373
84	0x3da4150e	0.08011828
85	0x3b95d565	0.0045725578
86	0xbe4c3c37	-0.19944845
87	0x3e633dbd	0.2219152
88	0xbe1841c8	-0.14868844
89	0x3e3fa8ab	0.18716685
90	0x3d8917a9	0.06693966
91	0xbe4d0c1d	-0.20024152
92	0xbe25a9ba	-0.16178027
93	0x3ddb6bfc	0.10713956
94	0xbea9673e	-0.3308658
95	0x3f68f0ea	0.90992606
96	0x3e622978	0.22086132
97	0x3ea70605	0.3262178
98	0x3e01ff00	0.12694931
99	0x3db476d0	0.08811724
100	0x3e2d3062	0.16912988
101	0xbeb326c0	-0.349905
102	0x3eabdb48	0.33565736
103	0x3db0b48a	0.08628185
104	0x3ec704fd	0.38870993
105	0x3f1154a1	0.5676976
106	0xbea4dc98	-0.3219955
107	0x3e530735	0.20608218
108	0xbbca13f4	-0.0061669294
109	0xbe5bf192	-0.2147887
110	0x3f1bb340	0.6082039
111	0xbe87a26b	-0.26491103
112	0xbe29c3dc	-0.1657862
113	0x3f21cc67	0.6320252
114	0x3e2a6a09	0.16642012
115	0xbe3cb0f0	-0.18426871
116	0xbe074666	-0.13210449
117	0xbe12a1fb	-0.14319603
118	0xbe86249f	-0.26199815
119	0x3db7ffea	0.089843586
120	0x3e84f597	0.2596862
121	0x3ee15d7f	0.44016644
122	0xbe12cbdb	-0.14335577
123	0x3ea42efe	0.32067102
124	0x3f695bdc	0.9115579
125	0x3e5d33ac	0.21601743
126	0xbe89353b	-0.26798424
127	0xbd3c5916	-0.045983396

net.2.weight f4 [128, 128]
0	0x3d64f85a	0.05590091
1	0x3e68b4f2	0.22725275
2	0x3e058b86	0.13041505
3	0x3f999e3b	1.2001413
4	0x3f87a5d2	1.0597479
5	0xbda8660f	-0.08222591
6	0x3f5626a7	0.8365273
7	0x3f1ab457	0.60431427
8	0xbf2bbda6	-0.67086256
9	0x3b9d6f0d	0.004804498
10	0x3da85609	0.08219535
11	0xbea6f826	-0.32611197
12	0x3d9ac3c6	0.07556872
13	0x3e1bea7c	0.15226167
14	0x3e14d5d1	0.1453469
15	0xbdc52747	-0.09626632
16	0xbd43b7b2	-0.047782607
17	0x3fa97bf1	1.3240949
18	0x3f8af3ed	1.085569
19	0xbd1e0907	-0.038582828
20	0x3f0a10bc	0.53931785
21	0xbcd3e5cf	-0.025866417
22	0x3fd94b2d	1.6976067
23	0x3c12512a	0.008930484
24	0xbda59714	-0.080854565
25	0xbf6bcfc4	-0.921139
26	0x3dae36a6	0.08506517
27	0x3ee44a98	0.4458816
28	0x3eb00b63	0.34383687
29	0x3e06bfbf	0.13159083
30	0xbf07c01c	-0.5302751
31	0x3dd379c7	0.103259616
32	0x3cebf920	0.028805315
33	0xbdb7707c	-0.089570016
34	0x3e09431b	0.13404505
35	0x3da2f035	0.07955972
36	0xbf8bf671	-1.0934583
37	0xbcee8477	-0.029115899
38	0xbf1c3745	-0.61021835
39	0xbbad3dab	-0.0052868924
40	0xbdf642ab	-0.12024435
41	0xbb5dfb80	-0.003387183
42	0x3e01efbf	0.12689112
43	0xbe79ac0b	-0.24382035
44	0xbf164719	-0.58702236
45	0xbcf32980	-0.029682875
46	0x3e056982	0.1302853
47	0x3dd76076	0.10516445
48	0x3de81ae9	0.11333258
49	0x3e022b4d	0.1271183
50	0x3dd0725c	0.10178062
51	0xbbad0956	-0.005280654
52	0xbf3cb2d6	-0.7371038
53	0x3cc34e60	0.023841083
54	0x402ff71e	2.7494578
55	0xbe72370c	-0.23653811
56	0x3c29ec40	0.010371268
57	0xbeb6087c	-0.35553348
58	0xbe858a5b	-0.2608212
59	0xbd2da5d0	-0.04239446
60	0x3d533791	0.051566664
61	0x3d69be8e	0.057066493
62	0x3e2fdffc	0.17175287
63	0xbe9d94fd	-0.30777732
64	0x3d3cc702	0.046088226
65	0x3d5fd29b	0.05464421
66	0xbdec49b9	-0.11537499
67	0xbd2ad15e	-0.041703574
68	0x3f6ab36d	0.9168003
69	0xbecefed9	-0.40428808
70	0xbcc4105c	-0.023933582
71	0xbe04dba2	-0.12974408
72	0xbdb3c341	-0.08777476
73	0x3f03f928	0.5155206
74	0x3f476a10	0.77896214
75	0x3db2ff99	0.08740158
76	0x3fca02f3	1.578215
77	0x3c7b82ad	0.01535098
78	0xbd1031c5	-0.035203714
79	0xbd2468e7	-0.040139105
80	0x3d928e6a	0.071560696
81	0xbdf2484b	-0.11830195
82	0x3f2d5615	0.67709476
83	0x3d8dc321	0.069219835
84	0xbf2f2a75	-0.6842416
85	0xbeade0c6	-0.3396055
86	0xbd49829f	-0.049196836
87	0x3f25ea10	0.64810276
88	0x3d1e2a56	0.038614593
89	0x3eea79b3	0.45795974
90	0xbe8a5d9a	-0.27024537
91	0x3ea7d880	0.32782364
92	0xbf147d4c	-0.5800369
93	0x3f013ee6	0.504866
94	0x3fe1a1a5	1.7627455
95	0x3e428908	0.18997586
96	0x3e07003f	0.13183688
97	0xbf1fbc75	-0.6239694
98	0x3d64f971	0.05590195
99	0x3ee78b18	0.45223308
100	0x3e00a448	0.12562668
101	0x3d41e24e	0.04733496
102	0x3d9d3588	0.07676226
103	0x3f00749a	0.5017792
104	0x3df77ba2	0.12084128
105	0x3d1f0dee	0.038831644
106	0xba8d28c0	-0.0010769591
107	0x3f49f09e	0.7888278
108	0x3f2bbbb1	0.6708327
109	0xbf5894a8	-0.8460183
110	0x3dda3c0e	0.10655986
111	0x3fe51a94	1.7898736
112	0x3f6b406f	0.9189519
113	0xb997e6bc	-0.00028972875
114	0x3dab2387	0.08356386
115	0xbc90ae64	-0.01766128
116	0x3e1d45c7	0.15358649
117	0x3dec9544	0.11551908
118	0x3e80e60f	0.2517552
119	0x3d84af55	0.064787544
120	0xbd568000	-0.052368164
121	0x3cb18d56	0.02167384
122	0xbe74e72a	-0.23916307
123	0x3e47e03a	0.1951913
124	0x3df42cc3	0.119226
125	0x3d6b9814	0.05751808
126	0xbd8e8551	-0.06959022
127	0x3e99b301	0.30019382
128	0x3d5249d6	0.051339947
129	0x3e41fb54	0.1894353
130	0x3d23404f	0.03985625
131	0x3fa0dce4	1.256741
132	0x3f795317	0.9739241
133	0xbd90a13f	-0.07062005
134	0x3f728e96	0.9474882
135	0x3ee06950	0.43830347
136	0xbf4b78fc	-0.7948148
137	0xbca0d9fd	-0.019635195
138	0x3d8858bf	0.06657552
139	0xbe613c53	-0.21995668
140	0xbc0e2856	-0.008676609
141	0x3dca2a34	0.09871331
142	0x3d786849	0.06064633
143	0xbe48e9c3	-0.19620423
144	0xbc8e4a78	-0.017369494
145	0x3fc54ddf	1.5414389
146	0x3fa49424	1.2857709
147	0xbd8e933d	-0.06961677
148	0x3ebd05db	0.3691853
149	0x3d98d5fb	0.074626885
150	0x3f9f1c6c	1.2430549
151	0xbd309946	-0.043114923
152	0xbd876d26	-0.06612615
153	0xbf38e39f	-0.7222232
154	0x3db2e3cd	0.08734856
155	0x3eeb911b	0.46009144
156	0x3e8ff9b6	0.28120202
157	0x3e2b6fbb	0.1674184
158	0xbf06accd	-0.52607423
159	0x3e161a6c	0.14658517
160	0xbda4706d	-0.08029256
161	0xbdc05d90	-0.09392846
162	0x3e21854a	0.15773502
163	0x3d83bbdb	0.06432315
164	0xbf837bea	-1.027219
165	0x3d01e320	0.031710744
166	0xbf127f22	-0.5722524
167	0x3d8dca9e	0.06923412
168	0xbe3c6213	-0.18396787
169	0xb993b200	-0.00028170645
170	0x3db3cc3f	0.08779191
171	0xbdc19a1f	-0.094532244
172	0xbf1febd5	-0.62469226
173	0x3dfe26fc	0.124097794
174	0x3d8bd53e	0.06827782
175	0x3db1d499	0.08683128
176	0x3d8d3dfd	0.06896589
177	0x3cacf768	0.021114066
178	0xbca8d8f4	-0.020611264
179	0xbd58d783	-0.052939903
180	0xbf3db969	-0.7411104
181	0x3c999de4	0.018752046
182	0x4033546a	2.8020272
183	0xbe363e08	-0.177971
184	0xbd2bdff9	-0.041961644
185	0xbe8383b0	-0.25686407
186	0xbdc8bd8a	-0.09801777
187	0x3da3f296	0.08005254
188	0x3d04d098	0.032425493
189	0x3db64c62	0.089012876
190	0x3eb031b1	0.34412912
191	0xbe420f65	-0.18951185
192	0xbd521794	-0.051292017
193	0xbd80ab63	-0.062826894
194	0xbdf458b4	-0.11930981
195	0x3d257d5d	0.04040276
196	0x3f86dc9f	1.0536078
197	0xbece2f7b	-0.402706
198	0x3b7e9721	0.0038847404
199	0xbe614862	-0.22000268
200	0xbd51723d	-0.051134337
201	0x3ec3d22d	0.3824629
202	0x3f57980c	0.8421638
203	0x3dd0d977	0.10197728
204	0x3fd87d00	1.6913147
205	0x3decbb99	0.11559219
206	0x3d8d40d9	0.06897134
207	0xbc738198	-0.0148624405
208	0x3daf437b	0.08557793
209	0xbdfc4d28	-0.12319404
210	0x3eee1089	0.4649699
211	0xbb02a6d4	-0.0019935863
212	0xbf4911a0	-0.7854252
213	0xbe3dfaec	-0.1855275
214	0x3ce8c114	0.02841238
215	0x3f271d58	0.6527915
216	0x3d63ad8a	0.05558542
217	0x3f154dd8	0.58321905
218	0xbe21edd2	-0.15813377
219	0x3eae0349	0.3398688
220	0xbeef8ea2	-0.46788508
221	0x3ed4cf7b	0.41564545
222	0x3ff3262d	1.8996025
223	0x3e205483	0.15657239
224	0x3dd3f1b5	0.10348836
225	0xbf05f458	-0.52325964
226	0x3da518e2	0.08061387
227	0x3f067717	0.52525467
228	0x3e0a35f2	0.13497141
229	0x3d7e3812	0.06206519
230	0xbd5aca18	-0.053415388
231	0x3ec1509a	0.37756807
232	0x3d91693b	0.07100149
233	0x3db10b5f	0.08644747
234	0x3d64ea22	0.05588735
235	0x3f6804c1	0.90632254
236	0x3f35567e	0.708351
237	0xbf67d597	-0.9056029
238	0x3dfa6ecf	0.12228166
239	0x3ff02e47	1.8764123
240	0x3f66d918	0.9017501
241	0x3e00fe16	0.12596926
242	0x3debccb4	0.115136534
243	0xbc2d0b20	-0.010561734
244	0x3d112f5b	0.035445552
245	0x3dca81d5	0.09888045
246	0x3e94d3fc	0.2906798
247	0x3c5435d3	0.012952286
248	0x3d416a8a	0.047220744
249	0x3d1b78ef	0.037957128
250	0xbedc2a2d	-0.43000928
251	0x3eb26d76	0.34849137
252	0x3c98af34	0.01863823
253	0x3deba781	0.11506558
254	0xbce5a6de	-0.02803367
255	0x3ecf2156	0.4045512

net.2.bias f4 [128]
0	0x3d03bda6	0.032163285
1	0x3cf5be6d	0.029998029
2	0xbd8948be	-0.067033276
3	0xb9ac6a00	-0.00032885373
4	0xbab8a474	-0.0014087097
5	0x3ca80f6e	0.02051517
6	0x3e3e60d8	0.1859163
7	0xbd9ff3c2	-0.07810165
8	0x3e8faf1f	0.28063294
9	0xbcef88b2	-0.029239986
10	0x3ea6113e	0.3243503
11	0xbd7ece11	-0.06220824
12	0x3cc11f13	0.023574388
13	0x3d09d37b	0.03364895
14	0x3dbf3f2f	0.09338223
15	0xbbab85f2	-0.0052344734
16	0x3e49bc7e	0.1970081
17	0x3e4b2cf2	0.19841364
18	0x3dfd2bf1	0.12361897
19	0x3d0ab064	0.033859625
20	0xbd1b6b3f	-0.037944075
21	0x3d9784d5	0.073983826
22	0xbd6a888e	-0.057259135
23	0x3e4e3942	0.2013903
24	0x3e618dc3	0.22026734
25	0x3e5e7d9b	0.21727602
26	0x3cad39eb	0.021145782
27	0xbd960b91	-0.07326425
28	0x3e5c40b1	0.21509053
29	0x3eb70796	0.35747975
30	0x3ea9aa6d	0.33137837
31	0x3c49c6e2	0.012315484
32	0x3e46fdc7	0.19432746
33	0xbc53212c	-0.012886327
34	0x3e932f0d	0.28746834
35	0x3e908286	0.2822458
36	0x3c80f12a	0.015739996
37	0x3e08cd3b	0.13359539
38	0xbcef8aa6	-0.029240917
39	0x3e8c9433	0.27456817
40	0x3e03e680	0.12880898
41	0x3e9e0a6f	0.30867335
42	0x3e423cc4	0.18968493
43	0x3e8bcbac	0.27303827
44	0xbdb6707a	-0.08908172
45	0x3de78ff0	0.11306751
46	0x3e3c2748	0.1837436
47	0xbd9a0a26	-0.07521467
48	0x3e70baa8	0.23508704
49	0x3eaed56e	0.3414721
50	0x3d864395	0.06555859
51	0xbd851ba1	-0.064994104
52	0xbc251ae8	-0.010077216
53	0x3d1c714e	0.038193993
54	0xbcb89b4c	-0.022534989
55	0x3d4d6242	0.050142534
56	0xbd1f54da	-0.03889928
57	0xbd8d2979	-0.06892676
58	0x3d9f5794	0.07780376
59	0x3c9c21a6	0.019059014
60	0x3c8063f6	0.015672665
61	0xbd8585ad	-0.06519637
62	0x3dbbbca1	0.091668375
63	0x3ea4cfca	0.3218978
64	0x3e7ed5fc	0.24886316
65	0xbc8d5d6d	-0.017256463
66	0xbd04b4e7	-0.032399084
67	0x3b9c0b00	0.0047620535
68	0x3e6ab4a1	0.22920467
69	0xbcd5f7dd	-0.026119167
70	0x3e093d79	0.13402356
71	0x3caad6ec	0.020854436
72	0x3e803d39	0.2504671
73	0xbd6e37e4	-0.05815877
74	0xbddfe66f	-0.109326236
75	0xbb8e726f	-0.0043471376
76	0xbdf20cc8	-0.11818844
77	0x3e8a6d71	0.27036622
78	0xbd4e0241	-0.05029512
79	0xbd8a96b2	-0.06767024
80	0xbb93e6dc	-0.0045136046
81	0x3e32bbfa	0.1745452
82	0x3dfd5320	0.123693705
83	0x3e9b0055	0.3027369
84	0x3ccc7bc4	0.02496136
85	0x3b12196f	0.0022292992
86	0x3cd9aa0e	0.026570346
87	0x3d79236a	0.06082479
88	0x3eb44574	0.3520924
89	0x3d48aae6	0.048991106
90	0x3eb4c03c	0.35302913
91	0xbd5d4d63	-0.05402888
92	0x3ead5f51	0.33861783
93	0x3d7ae3bc	0.06125234
94	0xbd2302ad	-0.039797474
95	0x3e4c3c49	0.19944872
96	0x3e97e8e0	0.29669857
97	0x3ea4e541	0.32206157
98	0x3c8a7cc7	0.016905202
99	0x3e85ec06	0.26156634
100	0x3e87d377	0.26528522
101	0xbca9ea50	-0.020741612
102	0x3e0ec4f2	0.13942316
103	0x3e1ae71c	0.15127224
104	0xbdffaf13	-0.12484565
105	0x3d8ad69e	0.06779216
106	0x3e4419c1	0.1915045
107	0x3d3cf17e	0.046128742
108	0x3bc54f57	0.006021421
109	0x3eb11636	0.34587258
110	0x3e878c23	0.26474103
111	0x3df5ef47	0.12008529
112	0xbda2fabb	-0.07957979
113	0x3e475fca	0.19470134
114	0xbdd13ccd	-0.10216675
115	0x3e9d6e60	0.30748272
116	0x3ea163a6	0.31521338
117	0xbd795b95	-0.060878355
118	0x3d3cbb76	0.046077214
119	0x3e8576de	0.2606725
120	0x3e92daeb	0.28682646
121	0x3e8737a1	0.2640963
122	0x3ea4bd11	0.32175496
123	0xbd894062	-0.06701733
124	0x3e94484b	0.28961405
125	0xbb8f1a90	-0.00436718
126	0xbd925caf	-0.07146584
127	0xbca5f0ea	-0.020256478

net.4.weight f4 [3, 128]
0	0xbebe5333	-0.3717285
1	0xbef03378	-0.46914268
2	0xbf3a3bd9	-0.7274757
3	0x3d64f776	0.05590006
4	0xbe8baa8b	-0.2727855
5	0xbd761d77	-0.060086694
6	0x3e7f890e	0.24954626
7	0x3c17bb2f	0.009260937
8	0x3e851101	0.25989535
9	0xbf2b726b	-0.6697146
10	0x3e013753	0.12618761
11	0xbc9cf0e9	-0.019157844
12	0xbf41c598	-0.7569213
13	0xbe810deb	-0.2520593
14	0x3eab4a31	0.3345504
15	0xbf17b95c	-0.5926721
16	0x3f903878	1.1267233
17	0x3d9cd52a	0.07657845
18	0x3f3a9dd9	0.72897106
19	0x3d6829da	0.056680538
20	0xbea83748	-0.32854676
21	0xbd897075	-0.067109026
22	0x3d2dee5a	0.042463638
23	0x3e6e5be9	0.23277248
24	0x3de0b837	0.10972636
25	0x3d7bc8be	0.06147074
26	0xbf05b2f7	-0.52226204
27	0xbf31b4e4	-0.6941664
28	0x3db569a4	0.0885804
29	0x3e1ec4dd	0.15504785
30	0x3e8c9dbf	0.274641
31	0xbe0134ff	-0.12617873
32	0x3d5e8b0f	0.054331835
33	0x3ec4a128	0.38404202
34	0x3e93ac7c	0.28842533
35	0x3e871f5b	0.2639111
36	0xbe9fbbe8	-0.3119805
37	0xbd8a95a4	-0.06766823
38	0xbd8bfef1	-0.068357356
39	0x3e6046a8	0.21901953
40	0xbef93a25	-0.48677173
41	0x3e82bd8a	0.25535232
42	0x3e298271	0.16553666
43	0x3e6ed85f	0.23324727
44	0x3dd383d5	0.10327879
45	0x3db45da9	0.08806927
46	0x3ded072f	0.11573636
47	0xbe94dc20	-0.29074192
48	0x3ded8a74	0.115986735
49	0x3de02692	0.10944857
50	0x3e8f1a25	0.27949634
51	0x3d18e2aa	0.03732554
52	0x3cefaf5c	0.029258423
53	0xbc93d428	-0.0180455
54	0xbb0a6ca0	-0.0021121874
55	0x3d5d3956	0.054009758
56	0x3cd286b5	0.025698999
57	0x3cad35ac	0.021143757
58	0xbeb47382	-0.35244375
59	0xbf360596	-0.71102273
60	0xbe91ab48	-0.2845099
61	0xbf493be5	-0.78607017
62	0xbecd7780	-0.40130234
63	0x3e79653a	0.24355021
64	0x3e5d1401	0.21589662
65	0xbf1fad71	-0.62374026
66	0xbf16c04d	-0.5888718
67	0xbd027d0d	-0.03185754
68	0x3d7bb6e3	0.06145371
69	0x3e63325c	0.2218718
70	0xbd0195a4	-0.03163685
71	0xbd7cf4af	-0.061756786
72	0x3e84285f	0.2581205
73	0xbef5a2e7	-0.47975847
74	0x3e8d432d	0.27590314
75	0xbedbd75a	-0.42937738
76	0x3f11c424	0.5693991
77	0x3e3269d7	0.17423187
78	0xbda87109	-0.08224685
79	0xbf12299a	-0.5709473
80	0x3cb5b37b	0.02218031
81	0x3f8ae764	1.0851865
82	0x3f16fcc8	0.58979464
83	0x3e0a1203	0.13483433
84	0x3cdeda13	0.027203595
85	0xbe80f83a	-0.25189382
86	0xbf17efb5	-0.5935014
87	0xbe75fce7	-0.24022256
88	0x3dbe3204	0.092868835
89	0xbefc6a4e	-0.49299854
90	0x3e172398	0.14759672
91	0x3e9eb249	0.30995396
92	0x3e5d4631	0.21608807
93	0xbeeb9835	-0.46014562
94	0xbec7dcc1	-0.3903561
95	0x3dedc218	0.11609286
96	0x3e64e04e	0.2235119
97	0x3e58b408	0.21162426
98	0xbe9722f6	-0.2951886
99	0x3e58e17f	0.2117977
100	0x3e0ca685	0.13735397
101	0x3d529bfa	0.051418282
102	0x3ed5409e	0.41650862
103	0x3e638495	0.22218545
104	0xbf666378	-0.8999553
105	0xbe84e1fd	-0.25953665
106	0x3e4166ce	0.18886873
107	0x3d47e432	0.04880161
108	0xbed506b9	-0.4160669
109	0x3e346668	0.1761719
110	0x3e514452	0.20436218
111	0x3ef70cce	0.48251957
112	0x3d715f7d	0.058928955
113	0x3f833a3f	1.025215
114	0xbf85023e	-1.0391309
115	0x3e5cf573	0.21578006
116	0x3f84f330	1.0386715
117	0xbf609da3	-0.87740535
118	0xbede0059	-0.4335964
119	0x3e765a61	0.24057914
120	0x3e8c43b1	0.27395394
121	0x3e518707	0.20461665
122	0x3dd98cfe	0.10622595
123	0xbd0587cf	-0.03260022
124	0x3ddc4943	0.10756161
125	0x3d22f7c6	0.039787076
126	0x3b0baf75	0.0021314297
127	0xbf17bdea	-0.5927416
128	0xbfb197b0	-1.3874416
129	0xbfa173f3	-1.261351
130	0xc0213579	-2.5188887
131	0xbd07f3c9	-0.033191476
132	0xbfbc40ff	-1.4707335
133	0x3d55b49d	0.0521742
134	0x3f03593e	0.5130805
135	0xbd18fc81	-0.03735018
136	0x3edc9e27	0.4308941
137	0xbf9945a9	-1.1974384
138	0x3f07ba65	0.5301879
139	0xbd4711cc	-0.048600957
140	0xbf3d31f6	-0.7390436
141	0xbf3ae191	-0.7300044
142	0x3ea7db73	0.32784614
143	0xbfb4698b	-1.4094709
144	0x3fba15cf	1.4537905
145	0x3f0b8ec9	0.5451475
146	0x3fab7156	1.3393962
147	0xbd29e4c4	-0.041477934
148	0xbfb30233	-1.3985046
149	0xbd99efae	-0.075164184
150	0x3db493a5	0.088172235
151	0x3efdb66f	0.49553248
152	0x3f125ad3	0.57169837
153	0x3f169567	0.5882172
154	0xbfae1099	-1.3598815
155	0xbfc3e386	-1.530381
156	0x3f14261e	0.5787066
157	0x3efbd26d	0.4918398
158	0x3ee924dc	0.45535934
159	0xbfee41d9	-1.8613845
160	0x3f152f9f	0.5827579
161	0xbd886c0d	-0.06661234
162	0x3ed854c6	0.42252177
163	0x3ef9eac4	0.48811924
164	0xbfac288b	-1.3449873
165	0x3e8d65a2	0.27616602
166	0xbdbcf459	-0.09226293
167	0x3f068a40	0.525547
168	0xbfbf7f2b	-1.4960684
169	0x3f01432d	0.5049313
170	0x3eeaee8a	0.45885116
171	0x3f0de020	0.5542011
172	0xbdbb37ff	-0.0914154
173	0x3f25a8b4	0.64710546
174	0x3f14670e	0.5796975
175	0xbfc38b14	-1.5276818
176	0x3f049018	0.5178237
177	0x3f0d6af4	0.5524132
178	0xbec1bd48	-0.37839723
179	0x3cd4a4dc	0.025957517
180	0xbd84da16	-0.06486909
181	0x3d662e29	0.056196366
182	0x3d128028	0.03576675
183	0x3ccb6adc	0.024831228
184	0xbf98209f	-1.1884955
185	0xbd9213e0	-0.07132697
186	0xbfc38465	-1.5274779
187	0xbfd4ed4d	-1.6634918
188	0xbeeb1671	-0.4591556
189	0xc015288f	-2.3306005
190	0xbfac7558	-1.347331
191	0x3f087373	0.5330116
192	0x3f012bdc	0.5045755
193	0xbf6cf6ce	-0.92564094
194	0xbfa66837	-1.3000554
195	0x3d7a0f2a	0.061049618
196	0x3f16a751	0.58849055
197	0x3f2bb09c	0.6706636
198	0xbfab5b36	-1.338721
199	0xbcd0a7b0	-0.025470585
200	0x3f0cbd36	0.5497621
201	0xbfb39949	-1.4031154
202	0xbbfdbb1c	-0.0077432524
203	0xbf9fb1a6	-1.2476089
204	0x3e9ef9e1	0.31050017
205	0x3ef811bd	0.48451033
206	0x3d332c45	0.04374339
207	0xbfe9a9b6	-1.8254917
208	0xbd3db66f	-0.04631656
209	0x3fbc0212	1.4688132
210	0x3eadab36	0.33919686
211	0x3efbdd71	0.49192384
212	0x3caa671e	0.020801123
213	0xbfae00cf	-1.3593997
214	0x3e3278f9	0.1742896
215	0xbfbc5092	-1.4712088
216	0x3f082fc3	0.5319788
217	0xbfa50df2	-1.2894881
218	0x3ef68578	0.48148704
219	0xbf8bc6dc	-1.0920062
220	0x3eecf6ac	0.46281946
221	0xbf9fe752	-1.2492468
222	0xbfa3017c	-1.2734828
223	0x3f097dad	0.5370739
224	0x3f011ad5	0.5043157
225	0x3f04dd88	0.5190053
226	0xbfbf44bd	-1.4942852
227	0x3f033752	0.5125629
228	0x3f05fd54	0.52339673
229	0xbd7e8644	-0.062139764
230	0x3f072bbb	0.528011
231	0x3efdb4b6	0.49551934
232	0xc021c836	-2.527845
233	0xbdeeea95	-0.11665837
234	0x3f11ab45	0.5690196
235	0xbd4a0e63	-0.049330126
236	0xbfaa6a97	-1.3313779
237	0x3f026de3	0.50948924
238	0x3efce429	0.49392822
239	0x3f174045	0.5908244
240	0x3ced3e10	0.028960258
241	0x3fbf08c6	1.4924552
242	0xc01430d9	-2.3154814
243	0x3ef2abd9	0.47396734
244	0x3fc3376c	1.5251288
245	0xbff0f037	-1.8823308
246	0xbfa3c21f	-1.2793616
247	0x3eee5afe	0.46553797
248	0x3eea7c4e	0.45797962
249	0x3ee92471	0.45535615
250	0x3f041836	0.5159944
251	0xbf325840	-0.6966591
252	0x3f0b5637	0.5442843
253	0x3d1fbdca	0.038999356
254	0x3dabd4e1	0.08390213
255	0xbfe6c7f2	-1.8029768

net.4.bias f4 [3]
0	0x3d1ef857	0.038811054
1	0x3e9f23cc	0.31081998
2	0x3e14b2db	0.14521353
