train-pong/saved_models/dqn_episode_550.pth (torch, 74357 bytes, 6 tensors)

net.0.weight f4 [128, 6]
00000000: 7669 0e3e bfc2 9f3e 9184 db3e d74a 91be
00000010: c7a2 923d a402 93be 70c7 bfbe 9676 dabe
00000020: c309 b53e 45f6 1fbe 487e 3e3e 32d6 84be
00000030: 05f1 9bbd 94fb fcbe cd90 0ebf 16fb 85be
00000040: b916 313d 74f4 ba3b 0980 68be 9bd3 873d
00000050: 61ed 633e dd22 43bd be05 2e3e d37e 46be
00000060: f53a 43be 0e75 b4be 7b66 c33d bff9 783e
00000070: c05c 28be 89f6 ca3e 1581 fc3e 79ef b1be
00000080: 73ee 693e a476 283e 714f e0be a2c8 25be
00000090: 5706 ddbe aad3 ae3e 9663 b4be 9f78 23bf
000000a0: 226c ca3e eed8 afbe b26e 4ebe c724 95be
000000b0: 64c6 a0be 30a5 20bd 9449 cebe 5ba5 9fbe
000000c0: bcf3 3b3e b6db 15bd 794e 83be e0d6 f0bc
000000d0: cba0 b7be fc92 00be 2831 af3e 585c 13bf
000000e0: 1ff0 30be 2b0c 713e fd60 7ebe 7948 493e
000000f0: 7f07 f8be a5a3 f5bd 6e97 9dbe b73a 2c3f
00000100: 801a d73e 6fd1 e33d 637a 133e 1c03 9b3d
00000110: 5aaf 0cbd 0dfc dd3c 3cb8 163d 957d a5be
00000120: eebc 6f3e bc41 99be 06cf 233f 49d4 e1bd
00000130: a233 173d f747 7bbd b65d 243e e8ef 053f
00000140: 5d69 333e cc89 e93e 01b6 bbbe 9dde a3be
00000150: 4605 febe b91a 6d3e 309b 893e 7b27 073e
00000160: 89aa 8b3d fc4f 56be 8885 873d 85a5 043f
00000170: 3886 a43d 1c5b eb3c 1310 bc3d c160 75be
00000180: 265d 4fbe 01b4 b3bd c98c ccbe 5ae1 52be
00000190: 5c4c 02be 2db8 873e c895 8c3e cade a33d
000001a0: 4f35 b53e 9310 8dbe 89ad debd 6c01 623c
000001b0: accd 02be 76ce ad3d 701f 04bf 29b2 9d3c
000001c0: c3fb 50be 2099 a13e 808d 0c3e 3806 053f
000001d0: 32b1 a93e 3687 77be 86b0 833c 9998 d83d
000001e0: c0b6 8fbc 2474 4c3e a45f 683e 6238 ad3e
000001f0: d0d2 053d df8a 83be 48d3 bdbe 7954 393e
00000200: 2261 10bf e472 523e 9e55 903e 6998 35be
00000210: 9160 88be dbd9 45be 77dc 43bf 3e44 0c3e
00000220: e2c8 6e3e 6191 a63d 89cd 00bb b08a ef3e
00000230: 07ba 113c 3f1e e83e 1fee af3c d0b5 0abe
00000240: 122d 63be db07 c83d 25b6 b8be e1ac 4a3e
00000250: f5f2 973d 2059 fa3d 0ce8 a23e 6fb1 0bbf
00000260: d132 e73d afee 4abe b967 3c3e 2633 363e
00000270: 2949 41be e32a 3f3e 2146 8b3d 2ece 2fbc
00000280: 36a8 713d 584d bb3d 0d84 49be 75eb 4d3e
00000290: 9284 b13e c92c e53d 369d 59bd 3c3d 97bd
000002a0: d0cb 553d 2cd7 c2bd 0079 10bd fca4 2f3e
000002b0: 42ed 51be 10d5 273d 581a 5e3e 7031 0dbe
000002c0: 4425 76be fad7 c33e a026 3dbe deaa adbe
000002d0: 9633 2bbe 0089 c9be 183d c1be 50a3 8b3d
000002e0: a460 a0bd 90dd 373d 4079 093e 1ab6 f03e
000002f0: 0270 e83d bb1d 21be a5d8 843c 30fe c73c
00000300: d2c5 09be 8d52 2e3e e250 3a3d 6896 a1bd
00000310: fbd1 c0be ec88 16be 55ee 6bbe caae cabe
00000320: 6342 fbbb 4028 943d ec11 df3e 46e1 c93d
00000330: 36e1 303e 9dbf 4d3e 0eb7 323f 8735 b5be
00000340: c754 a6bd 1de9 2bbe e2f5 f7be fd7b 96be
00000350: 79e4 cbbc 4774 aa3e c2d3 d13e 3dea f63c
00000360: 50f4 f53c 4b29 4ebe 037a 57be 88ea 093e
00000370: c0d8 803b f8bc 3fbd 30b7 1ebe 5ad7 343d
00000380: 6a67 02bf 5429 08be f4e2 d9bd d52e 56be
00000390: 5217 d2bd 4852 73be a949 5cbe 8c68 f3be
000003a0: 6a78 df3d f3b3 893e 32ea ebbc aa6d d7be
000003b0: 7f87 513e b484 613d b70f 023f 603d 223d
000003c0: 1a6a 7bbe 4261 b6be c8e6 b83d af74 963e
000003d0: f57a 0a3d f67d 873e 059c 073d f5eb e7bd
000003e0: ef78 14be f1d1 aebe 946c d6bd 5d53 86be
000003f0: 9c93 24be 52ec 80be 544e 15bf 7ae0 213e
0.13907418 0.31203267 0.42874578 -0.2837741 0.071599536 -0.28712952 -0.37456846 -0.426686
0.3535901 -0.15621288 0.1860286 -0.25944668 -0.0761433 -0.4941069 -0.556897 -0.26168126
0.04323456 0.0057054106 -0.22705092 0.066321574 0.22258522 -0.04764067 0.16994378 -0.19384317
-0.19065459 -0.35245556 0.09541031 0.2431402 -0.16441631 0.39641216 0.49317232 -0.34753016
0.22844867 0.16451508 -0.4381061 -0.16189817 -0.431689 0.34145862 -0.35232228 -0.6385593
0.39535624 -0.34345192 -0.20159414 -0.2912962 -0.3140136 -0.039220035 -0.4029051 -0.31180844
0.18354696 -0.036586486 -0.25645807 -0.029399335 -0.35864863 -0.1255607 0.3421719 -0.5756278
-0.17279099 0.23539798 -0.24841686 0.19656552 -0.4844322 -0.11994103 -0.30779594 0.6727709
0.42012405 0.11123931 0.14402156 0.075689524 -0.034346916 0.027097726 0.036796793 -0.32322374
0.23411915 -0.29932964 0.6398777 -0.11026818 0.036914475 -0.061347928 0.16051373 0.5231919
0.17520662 0.45612943 -0.36662295 -0.32005778 -0.49613398 0.23154725 0.2687621 0.13198654
0.068196364 -0.20928949 0.06617266 0.5181506 0.08033413 0.028729968 0.091827534 -0.2396269
-0.20250377 -0.087745674 -0.3995116 -0.20593777 -0.12724441 0.26507702 0.27458024 0.08001478
0.35392234 -0.27551708 -0.10872943 0.013794284 -0.1277377 0.08486645 -0.5161047 0.019249992
-0.2040854 0.31562138 0.13725853 0.51962614 0.33143002 -0.24172673 0.016075384 0.10575981
-0.017543197 0.19966179 0.22692734 0.3383208 0.03267175 -0.25691888 -0.37075257 0.1809863
-0.5639821 0.2055164 0.2819032 -0.17733921 -0.26636174 -0.19321387 -0.7650828 0.13697907
0.23318818 0.081331976 -0.0019653758 0.46785498 0.00889445 0.45335576 0.02147585 -0.13545918
-0.22185162 0.09767123 -0.36076465 0.1979251 0.07419387 0.122240305 0.31817663 -0.5456762
0.11288989 -0.19817613 0.18398942 0.17792949 -0.18875565 0.18668704 0.068004854 -0.010730309
0.05899831 0.091456115 -0.1967928 0.20109351 0.34671456 0.11190183 -0.053128444 -0.073847264
0.052196324 -0.09513697 -0.035271645 0.1715278 -0.20500663 0.040974677 0.21689737 -0.1378839
-0.24037653 0.38250715 -0.18471766 -0.33919424 -0.16718897 -0.39362335 -0.37741923 0.06818259
-0.07830933 0.044889033 0.1342516 0.47013932 0.11349489 -0.15733998 0.016216585 0.024413198
-0.13454369 0.17023678 0.045487292 -0.07890016 -0.37660202 -0.14700669 -0.23040135 -0.39586478
-0.007667826 0.072342396 0.4356836 0.098574206 0.17273411 0.20092626 0.6981057 -0.353924
-0.08121639 -0.16788144 -0.4842978 -0.2939147 -0.024889218 0.33291838 0.4098187 0.03014099
0.030023724 -0.2013294 -0.21042638 0.13468373 0.0039320886 -0.046811074 -0.15499568 0.044150688
-0.5093905 -0.13297015 -0.10638991 -0.20916303 -0.10258354 -0.23761857 -0.21512474 -0.475407
0.10911639 0.26895103 -0.028798196 -0.42075855 0.20461844 0.055058196 0.5080523 0.039609313
-0.24552193 -0.35621077 0.09028393 0.29385898 0.033808667 0.26463288 0.033107776 -0.11324302
-0.14499258 -0.34144548 -0.104699284 -0.26235476 -0.16071934 -0.25180298 -0.58322644 0.15808287

net.0.bias f4 [128]
00000000: 4f04 5c3c d109 cfbd 04fa b43e d591 02be
00000010: 9c72 e73e 89e8 ed3e 29cf a23d 2045 df3d
00000020: 300e 903e 8d95 b03e 0ed6 b7bd 7831 473c
00000030: fd14 853d 65f2 15bd bfdf 48be 3d53 52be
00000040: 38da fb3d fc70 1abe 3ba3 3cbe 37c9 b0be
00000050: 4a32 8cbe 522e aabc 7372 abbd 0fa4 48be
00000060: b411 12be f929 043c 54ce 9fbe 7a79 69be
00000070: cedd 25be f498 56be 91ff 7ebe 8407 61be
00000080: c689 2e3e e1ff 4c3e f49e 4b3c e03c a23e
00000090: 1e5f 9bbe ea63 743e b1cc 5dbe 4cec 803e
000000a0: 91c9 c6be edc5 913e d53a c13e 391a 52be
000000b0: dd32 c9be 5c58 8abe a756 263e d9e0 0a3e
000000c0: f911 363e 9d30 18bd cfa2 0f3e 7c68 8c3e
000000d0: bcbd 983e d647 45bc 5739 a2be 7a7d 9fbe
000000e0: 46e7 8fbe 1a66 01bd 7317 70be b131 013e
000000f0: 42bb b5bd 1fc6 373d 1234 afbd 7c93 0dbf
00000100: 5b4b 8ebd ab93 11be 1693 abbc 4642 f1be
00000110: 656a 8bbe 460e 41bc 5c14 4a3e c476 6cbe
00000120: 1cd6 2abe 576b f43d e9db 813e a8db d6bd
00000130: 084f e23d 8c0c 0fbe d7fe c3be b827 c1be
00000140: 83a0 9d3d 4b05 2b3e b194 82be 8324 00be
00000150: 888e 70be cb47 c8be 9e91 213e f298 ccbe
00000160: 922c adbe e057 3fbd 268e b73d 28b0 16bd
00000170: dd1a 05be b888 73be f6d1 743e ce9f 8e3c
00000180: 275c a5be b4a8 0f3d e447 34be c3e5 2bbe
00000190: a930 f5bd 9ee5 cbbd e14d 87be 905a 07be
000001a0: 698b bc3e 103f 66be a5a1 90be 303c c73e
000001b0: 0217 14be e614 9dbe 3ff0 b2be c89d b93d
000001c0: 2f07 433c 64b5 9e3e 8bc3 473e e282 8dbe
000001d0: 3610 8ebe 8edb c0be 4123 673c e547 24be
000001e0: 40bd 873c e241 5e3e b0a0 5b3d 2887 10bc
000001f0: f0ad d53d 801c 8a3e b448 4b3e 3808 03bd
0.013428762 -0.10109294 0.35346997 -0.12750943 0.45204628 0.46466473 0.07949669 0.109018564
0.28135824 0.34489098 -0.089763746 0.01215779 0.06498144 -0.03660812 -0.19616602 -0.20539565
0.12297481 -0.15082163 -0.18421642 -0.34528515 -0.27382118 -0.02077404 -0.08371439 -0.19593833
-0.14264566 0.008066648 -0.31212103 -0.22800246 -0.16197893 -0.20956784 -0.24902178 -0.21975523
0.17044744 0.20019485 0.012428034 0.3168707 -0.30346006 0.23866239 -0.21660115 0.2518028
-0.38825658 0.28471318 0.37740198 -0.20517816 -0.39296618 -0.27020538 0.16243993 0.13562335
0.17780294 -0.037155736 0.1402695 0.27423465 0.29832256 -0.012041053 -0.31684372 -0.3115042
-0.28106135 -0.031591512 -0.23446445 0.12616612 -0.08873607 0.044866677 -0.085548535 -0.5530317
-0.06947967 -0.14216487 -0.02094416 -0.47120875 -0.2722961 -0.011783188 0.19734329 -0.2309218
-0.16683239 0.11934536 0.2536309 -0.10491115 0.1105023 -0.1396963 -0.38280365 -0.37725616
0.07696631 0.16701238 -0.25504068 -0.12513928 -0.23491871 -0.39117274 0.15778205 -0.39960438
-0.33823067 -0.046714664 0.089626595 -0.03678909 -0.12998529 -0.23782623 0.23908219 0.017410185
-0.3229687 0.035072997 -0.17605549 -0.16786866 -0.11972172 -0.099559054 -0.26426604 -0.1321814
0.36825112 -0.22484994 -0.28248325 0.38913107 -0.14461902 -0.30680007 -0.34948918 0.090632975
0.011903568 0.30997765 0.19508187 -0.27638918 -0.27746743 -0.37667507 0.014107526 -0.1604305
0.016569734 0.2170482 0.05362004 -0.008821286 0.104335666 0.2697487 0.19851953 -0.03199026

net.2.weight f4 [128, 128]
00000000: f792 85be b7c3 28bd 123c 1dbe b746 0bbe
00000010: d6f7 03be 6310 023d ed38 09be d8b4 6bbd
00000020: c076 db3c 7c87 573c 51e5 abbd 1c07 22bd
00000030: 7062 f7be 7ba1 253d 4a14 3cbd 1704 1bbd
00000040: 70f2 67bc dd76 81be 2463 08bd 89f5 92be
00000050: 368e 633d 91bf 95bd 9fce 1b3d d0bc f03c
00000060: a603 8cbc 6349 c13d 1e28 0c3e 7b43 50bd
00000070: f335 0bbd 8f66 aabd 0647 2e3d 9212 2b3c
00000080: 50c2 ebbd c4e3 0a3d a89c 79bd b136 32bc
00000090: 3afe 7fbd dd82 23be bc33 cc3c 31c6 1cbc
000000a0: 9034 783c e55d b0be 729c f3be 0d36 58bd
000000b0: 438a 63bd e500 3cbe 47e8 e6bd 4b07 cdbe
000000c0: c9fc 69be 9638 c23c 3134 88bd 565d 553c
000000d0: 2404 69be 6e6b 6b3b 686f 71bd 74db 13be
000000e0: 7e4e 6c3d 3b84 72bd 343d 163b 28cf e1bd
000000f0: 1879 8fbe d6d6 433b 984b 143e db1c 1bbc
00000100: 2913 1dbd ffc0 f8bd 5bde 13bc c86e 6e3d
00000110: 8ec4 573d 333e d7bc 7f83 6b3c ff3e 50bd
00000120: 31eb 873d 3fcc c1be dd0b 9cbd c76b 903d
00000130: f756 25bf 0b74 a13d 9cda f03c 5f60 8e3d
00000140: 3458 73bd f05e 5fbd 044f df3c 15d0 9bbc
00000150: 728c 01bd 685e 18bb a647 aabd 9695 0fbd
00000160: 5a10 973d 30c9 e4bb 2d18 d03c 8740 943d
00000170: 0e2f 423b 710c a4be 71a3 ee3b 603e 10be
00000180: a9b7 963d 33d2 b03b 7e3e 1fbe 0c87 a7bc
00000190: a5bf 79bf 3372 cbbc 8295 18be d4f5 f03c
000001a0: 623a 91ba b3e9 82be 5513 1b3d bd4a 36bd
000001b0: 6628 b3bc 5f8d 10bd d223 243d a009 81bd
000001c0: 7014 c33d 9638 97be 0e96 013c 3f8a 54bd
000001d0: 1aef 57be 4834 98be fe0a 06be 070a 65bd
000001e0: 5e23 febc cfcc 24be f579 3ebe 82f4 19bd
000001f0: e6ca 2a3d cd4d aa3c c696 c3bc 0078 99b8
00000200: 7027 203e 71ef e93c ea09 85be 9a85 8c3d
00000210: 124d 96be 082e e1be 607c 993b aad6 303d
00000220: 4049 1a3a a8e0 f3bd 5084 cbbe 99d5 edbd
00000230: 6a24 aebe 0d06 403e 7d47 aabd dcf5 333e
00000240: 97e7 a53d 0b13 c23c 6277 16be 951f 3a3e
00000250: 143c 943c 9627 78be d180 27be ebfb 0fbd
00000260: 6783 0dbe e946 2abc 4530 3f3d 8f76 32bd
00000270: 8332 923d e002 a03c 1c43 00bd a245 053d
00000280: 4f3e 723e 6c0b febd 70aa d13d e086 24bc
00000290: 1892 ee3c 363b e5bd e53f fdbd 368b 35be
000002a0: d02f a03c 3173 57bf 04cc 81bc ba08 90bc
000002b0: 0070 4939 e42c 243d 335c d13c f08d 76bd
000002c0: 6f06 27be 130a 2dbe 949a 983d 981c 2fbc
000002d0: 33f6 13bf 7e87 26be eb86 17bd 3be1 1abe
000002e0: 3a07 193d 6001 49be a60b 633e 85f0 853e
000002f0: a3d9 ff3d 7863 48bd c21e d2be bceb c43d
00000300: c386 89bd 701e 8c3c 1fd7 2c3e 5ce0 bd3b
00000310: 602f a5bb 3810 f8bd 43da 0fbd 9eff 823e
00000320: 9e0a 65bd 0015 fcbe 473a 80be e1bd a53d
00000330: 012d 09bf 4a3e 413d 23ac 65bd 8dcd bdbe
00000340: 9407 8fbd d7a6 44be f495 823c aa81 6abd
00000350: 4e4e 87be bf7a cc3d 333b 20bb 2a0f 203d
00000360: cd95 003e f893 dbbd 3a7e 64bd e6ff 3dbd
00000370: 4b48 e4bc a2ae 933d b089 233d e406 95be
00000380: bbb6 61bd 844b b43e 4d7e e0be 2749 b3bd
00000390: c917 12bf 602b 233e 0372 823c 70d7 54bc
000003a0: f4c4 fdbd 338d 543e 6cbb 9cbc b2bf 51bd
000003b0: d55e 90be b80c ebbe c00e bc3a d29f 9abd
000003c0: d2fe 33be 9192 b1be 58cf d3bd ae9a 423e
000003d0: cfac edbd cf04 c4bd 8f6e 7cbd b808 7b3c
000003e0: 0134 31bd 716d 20bd 44b1 143d be9a fbbd
000003f0: ef62 9f3e f214 84bd 2fc8 d7bc 30be 733c
-0.26088688 -0.041202273 -0.15354946 -0.13601194 -0.1288751 0.03175391 -0.13400622 -0.057545513
0.026790023 0.013154861 -0.08393348 -0.03955756 -0.4831729 0.040437203 -0.045917787 -0.037845697
-0.014156923 -0.25285998 -0.033297673 -0.28702953 0.055555545 -0.07311929 0.038038846 0.029386908
-0.017091583 0.094378255 0.13687178 -0.050845604 -0.033986997 -0.08320343 0.042548202 0.010441439
-0.115116715 0.03390862 -0.060940415 -0.010877297 -0.06249831 -0.15967889 0.024927013 -0.009568737
0.015149251 -0.34446636 -0.47580296 -0.05278592 -0.05555178 -0.18359716 -0.11274772 -0.40044627
-0.22850336 0.023708623 -0.0665058 0.013022741 -0.22755486 0.0035922187 -0.058944136 -0.14439183
0.057692043 -0.059208136 0.0022924663 -0.1102584 -0.28022075 0.002988269 0.14481962 -0.009467329
-0.03834835 -0.12146186 -0.009025182 0.058211118 0.052677684 -0.026274776 0.014374613 -0.050841328
0.06636656 -0.3785114 -0.0761945 0.07051807 -0.6458582 0.078834616 0.029401116 0.06951975
-0.05941029 -0.0545339 0.027259357 -0.01902012 -0.03162808 -0.002324963 -0.08314447 -0.035054766
0.07376166 -0.006981991 0.025402153 0.0723887 0.0029630098 -0.32040742 0.0072826673 -0.14086294
0.07359249 0.0053961514 -0.15551183 -0.020450138 -0.9755805 -0.024834728 -0.14900783 0.029414095
-0.0011080022 -0.25568923 0.037860233 -0.04450487 -0.02186985 -0.035291072 0.040073223 -0.06300664
0.095253825 -0.2953536 0.007909311 -0.051889654 -0.21087304 -0.29727387 -0.1309013 -0.055917766
-0.031022724 -0.16093753 -0.1860121 -0.037586696 0.041697405 0.020789051 -0.023875605 -7.31796e-05
0.15640044 0.028556557 -0.25984126 0.0686142 -0.29355675 -0.43980432 0.004684016 0.04317347
0.0005885549 -0.11908084 -0.39749384 -0.11613006 -0.34012157 0.18752308 -0.083144166 0.17574257
0.08100813 0.023690721 -0.14693978 0.1817611 0.018095054 -0.24233851 -0.16357733 -0.035152357
-0.13819657 -0.010392883 0.046676893 -0.043570098 0.071385406 0.01953262 -0.031314 0.03253711
0.23656581 -0.12404522 0.102375865 -0.010041922 0.029122397 -0.11192934 -0.123657025 -0.17728886
0.019554049 -0.84160143 -0.015844353 -0.017582286 0.00019210577 0.040081874 0.02555666 -0.060193956
-0.16311048 -0.16898374 0.074513584 -0.01068797 -0.57797545 -0.16262624 -0.036993902 -0.15124981
0.037360407 -0.19629431 0.22172412 0.26160064 0.12492683 -0.048922986 -0.4103909 0.09615275
-0.06715157 0.017104357 0.16878937 0.005794568 -0.005041048 -0.121124685 -0.03512026 0.25585645
-0.05591833 -0.49234772 -0.25044462 0.08092857 -0.53584296 0.047178544 -0.056072365 -0.37070885
-0.06983867 -0.1920427 0.015940644 -0.057252564 -0.2642693 0.099843495 -0.0024449348 0.03907696
0.12557144 -0.10721582 -0.05578444 -0.046386622 -0.027866503 0.07211043 0.03992623 -0.2910682
-0.055105906 0.35213864 -0.4384636 -0.08754187 -0.57067543 0.15934515 0.015923506 -0.012990817
-0.123910815 0.20756988 -0.019132338 -0.051208206 -0.2819735 -0.4590814 0.0014347658 -0.075500146
-0.17577675 -0.34682134 -0.10342282 0.19004318 -0.11605226 -0.0957123 -0.061628874 0.015321903
-0.043262485 -0.03916687 0.036301866 -0.12285374 0.31130168 -0.064493075 -0.026340572 0.014876887

net.2.bias f4 [128]
00000000: 6767 443d a776 1cbd 4ff9 6dbd d618 d9bd
00000010: 3cf4 36be 5564 873d 01e1 c9bb d982 0dbd
00000020: 1b92 2fbc 432d 54bd 570f 90bd e9d2 2e3e
00000030: 2185 0d3c d7dc f93d 0b4e dbbc d978 7dbd
00000040: dee3 9f3c 31d4 99bd b402 353d de38 9cbc
00000050: 7637 8ebc 6fdf 74bc 53c4 ebbc 5da4 13bd
00000060: e510 ff3d a887 abbd d499 75bd 4b8d 48bd
00000070: 7be5 fcbd d0f3 923c cff7 34bd a1c5 f23d
00000080: 834a 203c 4192 253d 8f50 293e 852d 8cbd
00000090: c724 aabd af45 9dbd e234 a8bd ea17 68bd
000000a0: c89a edbc ba36 8f3c 38a6 083e e023 0abd
000000b0: 2bcf 00bd f40f 7ebd e12b d9bb 122f b9bd
000000c0: 8d7d 203d b70b 143d 04aa 40bd b94c 56bd
000000d0: 62ca f1bc f458 3fbe c91b c9bd a065 21bd
000000e0: 2c5e 383c a9c7 1dbd d469 e9bd a72a 8e3b
000000f0: c0eb dbbb 79cc 273d 9e45 87bc df29 cebd
00000100: f8b7 50bd 262a 4cbc d749 953c 70da 38bd
00000110: e610 b5bd e014 c63c e9ea 1cbe 7069 78bd
00000120: 036e b3bc ca50 8d3a 9e14 233e ee98 96bd
00000130: e72c 843d a3a6 ee3b d5dc 1cbc 63e1 79bd
00000140: 8825 b5bd 7ae5 a5bd 273a 11bd 349c 263e
00000150: af4d 0fbc b03b 53bc d004 15bb a75e 503d
00000160: 4b38 ecbd d84a 013c fb3a abbd 73b9 2c3d
00000170: fb0c b63d b8ea 0ebd ff62 2b3e 8dcb 4d3d
00000180: 7e62 e0bd fa6a 08be 336d d13d 5fc9 bebb
00000190: 8099 56bc f3d0 803d a663 8b3c 37bc 273e
000001a0: 5957 f43d 092a abbd e7f7 5d3d 287d 9ebd
000001b0: b3a8 69bd b737 b6bd 676a f1bd acd0 893d
000001c0: f37a 60bd 5505 d93d 2b9e 0c3d 9a9a 8d3d
000001d0: 9a63 4bbd d817 373e 93c3 27bd e1fe 58bd
000001e0: 26a1 0d3d 6e97 11bd 0089 81bd f5a1 aabd
000001f0: a133 d0bc 33a8 6c3c c53d 093d 08b5 90bd
0.047950175 -0.038199093 -0.058099087 -0.1060044 -0.17866606 0.06610934 -0.0061608558 -0.034548614
-0.010715987 -0.051800977 -0.07034176 0.17072643 0.008637697 0.12200325 -0.026770612 -0.061882827
0.019517835 -0.075111754 0.04419203 -0.019070085 -0.01736043 -0.014945849 -0.028780138 -0.03604542
0.12454394 -0.08375484 -0.059961155 -0.048962872 -0.123484574 0.017938524 -0.04418164 0.11854101
0.00978339 0.04042268 0.16534637 -0.0684462 -0.08307796 -0.07679307 -0.082132116 -0.05666343
-0.02900447 0.01748215 0.13344657 -0.03372562 -0.03144757 -0.062026933 -0.006627545 -0.09042181
0.039182235 0.036143985 -0.04703714 -0.052319262 -0.029515449 -0.18686277 -0.09819753 -0.039403558
0.011252921 -0.03852049 -0.11397138 0.0043385806 -0.006711453 0.040966485 -0.016512688 -0.1006658
-0.050956696 -0.012461221 0.018223686 -0.045130193 -0.08841114 0.024179876 -0.15323986 -0.060647428
-0.021903044 0.0010781523 0.15925834 -0.07353388 0.06453877 0.0072830482 -0.009574135 -0.06100596
-0.08845049 -0.0810041 -0.03545585 0.16270524 -0.008746549 -0.012892649 -0.0022738464 0.050871518
-0.115341745 0.007891379 -0.08360859 0.042169046 0.088891946 -0.034891814 0.16736983 0.05024295
-0.10956286 -0.13322058 0.10225906 -0.005822345 -0.013098121 0.06289854 0.01701529 0.16380392
0.11930723 -0.08357627 0.054191496 -0.077387154 -0.05704565 -0.088973455 -0.11787873 0.06729254
-0.054804754 0.1059672 0.03433053 0.069142535 -0.049655534 0.1788019 -0.040958 -0.052977446
0.03457751 -0.035544805 -0.06324959 -0.08331672 -0.025415244 0.014444399 0.033506174 -0.07065779

net.4.weight f4 [3, 128]
00000000: dc6e 83bd 5d63 f7be 474d 843c 7ed5 e9bc
00000010: 3205 e8bd 27dd 7a3c 954f 27bf 512e a2bd
00000020: 6299 bb3c 3ca4 2b3c 8412 a13d a258 2d3e
00000030: ab5f 0bbc d008 b03d b2ca 1c3e cf36 893e
00000040: 2e6f 0a3e f2da 983d e2a7 ec3c b249 7d3d
00000050: 0f58 50bd 3ec8 363d 112c 24bd 1f3a 563d
00000060: 7ee7 073e 25dd abbd 0e7c 8bbd c8ed 463c
00000070: 5fec 50bc 27cd 613e 5d0f 17bd 497c 96be
00000080: e7fe 413e 0746 77bd f8c7 c13d 98a1 273c
00000090: cc78 bc3c ee64 b23c 888d 903c 2e5e 9c3d
000000a0: c18f 853d dbae 693e 50f7 fb3d a39e e63d
000000b0: ca3a 66bd 0c01 963d 93c5 b2bd bfc5 c13d
000000c0: fe2e a63d 6e7b 8d3d 88bb 1d3d ef0d deba
000000d0: 98a2 1ebb d80e bcbc 5787 bbbc d816 dfbb
000000e0: ba1a 9f3d 4c38 423d 6de6 3e3d 3636 213d
000000f0: 2e25 d03d 47bd b33d 97c5 ab3e 6739 203e
00000100: 87ce e3bd 0652 963d 8f39 0f3e 09e0 aebd
00000110: 48f4 743d 0523 eabd b36d 18bf afd7 31bf
00000120: 8051 61bc 65c0 47bd 691c b8be 0290 663d
00000130: 06ea c33d 6b42 96bd 3fff 673d 1f9a 113e
00000140: 8392 c2bc 1e00 06bd 59bd f53c 300b ef3d
00000150: a0bd 53bc 8b7f 1abd d576 27bf 281c 863e
00000160: 515e 5dbd c345 033e 1f48 c3bd fb5f 173e
00000170: 0be1 c73d 4c94 51bd 7b14 b73d 26de 453d
00000180: 6b97 b9be 591c 1bbe d216 ac3d ec01 833e
00000190: a4d2 503c 68fe 063e 55cb 953d daca 6c3e
000001a0: 869d 3c3e 13e7 b3bd 5bd3 b23d 5537 8c3d
000001b0: 1f88 5d3c 9eda d1be 47e9 0a3e cc97 10bf
000001c0: 98f3 ca3d 8c00 5c3e a39f 8a3e ae04 7bbe
000001d0: 40ed eb3c 8f18 033e 9dbe 13bf 8dc5 523d
000001e0: ad7c 42bf 25fc c63d 0582 313d 1c30 873c
000001f0: f64f ffbd 389e 23bd e033 e7be 2fc8 f6be
00000200: 8448 16bd 9ba2 88be c5d8 27bd cef9 35bd
00000210: 0c42 21be 4bd9 9c3d c0eb 07bf dbf7 053c
00000220: e40b 8c3a 92b1 27bd d368 5a3d f430 1b3e
00000230: 69e3 9b3c 4673 a33d fd4e f33d d99c 083e
00000240: b9ac 043e cdfc b73c f3e4 16bd 1578 14bd
00000250: 94e5 aabd 90b7 97bd a993 bebd fb27 d93c
00000260: cb12 883e 9163 ae3d 0deb 95bd e277 d73c
00000270: b752 14bd c474 1f3e 2902 9e3d 5af5 fcbe
00000280: 2110 143e bfe0 2bbd 0814 c13d 4df5 15bd
00000290: ede6 8f3d d459 d53b 15ea 55bc ab3a 983d
000002a0: 8443 44bd aa70 333e 652c 2c3d 5586 013e
000002b0: f748 71bd 6b6c 373d 1b05 acbd 853c 073b
000002c0: 179e 39bd 453e 713d 5040 393d ec4b f8bc
000002d0: 93b1 7d3d dc8d a7bd 12d5 e3bd 8071 30bd
000002e0: f35e 27bc 66b8 85bd b8dc 263c a424 fe3c
000002f0: c022 0c3e 4784 363d 8f7d 9d3e 61a2 1b3e
00000300: 360f 23be c72d ad3d e276 6f3d fae5 bbbd
00000310: bc30 ab3d f269 ccbd 49b1 2bbf e1e9 01bf
00000320: 60c7 493d 1e52 ffbc 96ec 15bf 2e37 333d
00000330: 745c 3e3d 06a3 0fbe 09e3 a43d 8138 9c3e
00000340: 3fe9 b2bd 80a1 453d 4f8e 453d c3f2 043e
00000350: 1a2f 953d ddfa 043d 114f 9fbe 8426 413e
00000360: 40da cebd fd88 f23d b400 0fbe d437 b43d
00000370: eb66 ed3d ba74 35bc 6d1d f63d b35e 633d
00000380: a629 04bd f117 2bbe ad37 0f3e eff6 6a3e
00000390: 0af6 923d fffb 7b3e e97a 503d 4dc5 ba3e
000003a0: 04fe a33e 003b 5dbb 3e27 f13d 0633 56bd
000003b0: 8767 69bd 1ce1 cebe de42 193e c1eb 5ebe
000003c0: 0818 cb3d 104e 183e 9a04 913e 589d d7be
000003d0: a98c 843e 3b22 d63d 6a9f fdbe 4cec 793d
000003e0: ead8 ebbe 487b cf3d 7297 463d 70a6 b7bb
000003f0: a1c8 edbd e290 ffbc f086 03bf 6939 ebbe
-0.06417629 -0.48317996 0.01615013 -0.028544184 -0.11329116 0.015311516 -0.6535581 -0.079189904
0.022900287 0.010476168 0.0786486 0.16928342 -0.008506696 0.08595431 0.15311697 0.26799628
0.13518974 0.074636355 0.028888647 0.06183786 -0.05086523 0.04462456 -0.040081087 0.052301522
0.13271901 -0.08391789 -0.06810771 0.012141652 -0.012751668 0.22050916 -0.036879886 -0.29391697
0.18944894 -0.060369518 0.09461969 0.010231398 0.02300682 0.021776643 0.017645612 0.07635151
0.065215595 0.22820608 0.123030305 0.11260726 -0.05620841 0.073244184 -0.087290905 0.09461545
0.08114432 0.06908308 0.03850892 -0.0016941408 -0.00242058 -0.022956297 -0.022891684 -0.006808143
0.077687696 0.04741697 0.04660647 0.03935834 0.101633415 0.08776336 0.33549187 0.15646897
-0.11123376 0.073398635 0.139868 -0.08538825 0.059803277 -0.11432461 -0.5954239 -0.6946973
-0.013752341 -0.048767466 -0.35959175 0.05628968 0.09566121 -0.07336887 0.056639906 0.14218949
-0.023751503 -0.032714956 0.029997515 0.11672056 -0.012923628 -0.03771929 -0.654157 0.26193357
-0.054045025 0.1281958 -0.095352404 0.14782707 0.097597204 -0.051166818 0.08939453 0.04830756
-0.36248335 -0.15147533 0.0840279 0.25587404 0.012745533 0.13182986 0.07314173 0.23124257
0.18419465 -0.08784308 0.08731719 0.06846491 0.013521223 -0.40987104 0.1356555 -0.56481624
0.09909743 0.21484584 0.27074918 -0.24513504 0.028799653 0.12802337 -0.5771273 0.05145793
-0.7597149 0.097160615 0.043336887 0.016502433 -0.12466423 -0.03994581 -0.45156765 -0.48199603
-0.03669025 -0.26686558 -0.040978212 -0.044427685 -0.15747851 0.07658633 -0.530941 0.008176769
0.0010684696 -0.04094083 0.053322624 0.15155393 0.019029336 0.07980971 0.118803 0.13341083
0.12956513 0.022459412 -0.036839437 -0.03624733 -0.0834457 -0.07408059 -0.09305508 0.026508322
0.26576838 0.085150845 -0.07320223 0.026302282 -0.036211696 0.15571886 0.07715256 -0.49405938
0.14459278 -0.04196238 0.09427649 -0.03661089 0.070264675 0.0065109525 -0.013056298 0.07433065
-0.04791595 0.17523447 0.042034525 0.126489 -0.058907475 0.04478113 -0.08399411 0.0020635438
-0.04531678 0.058897275 0.04522735 -0.03030964 0.061936926 -0.081813544 -0.11124624 -0.043076992
-0.010215509 -0.06529312 0.010184459 0.031023331 0.13685131 0.044559743 0.30759856 0.15198661
-0.15923771 0.08455997 0.058462985 -0.09174724 0.08358905 -0.09981145 -0.6706739 -0.50747496
0.049262404 -0.031167086 -0.58564126 0.043753795 0.04647489 -0.14027032 0.08051116 0.3051186
-0.087358944 0.04824972 0.04823142 0.12983231 0.072843745 0.032465804 -0.3111501 0.18862349
-0.10100222 0.11842535 -0.13965112 0.08799711 0.11591896 -0.011075193 0.12017331 0.055510234
-0.03226628 -0.16708352 0.13986082 0.2294576 0.071758345 0.24607848 0.050898466 0.36478654
0.32029736 -0.003375709 0.11775063 -0.052294753 -0.056983497 -0.4040612 0.14966914 -0.2176962
0.09916693 0.14873528 0.28323823 -0.4211223 0.25888565 0.10455748 -0.49535686 0.061016366
-0.4606393 0.10130936 0.048484273 -0.0056045577 -0.116105326 -0.031197015 -0.51377773 -0.45942238

net.4.bias f4 [3]
00000000: c52e be3c df38 6ebc f188 0c3d
0.02321566 -0.014539926 0.034310285
