train-pong/saved_models/dqn_episode_850.pth (torch, 74357 bytes, 6 tensors)

net.0.weight f4 [128, 6]
000000 ee 09 ec 3d d7 67 a0 3e ff 47 a3 3e a8 47 7d be
       0.115253314 0.31329224 0.31890866 -0.24734366
000010 d4 04 5d 3d ce 90 9d be 70 c7 bf be 96 76 da be
       0.053959683 -0.3077454 -0.37456846 -0.426686
000020 c3 09 b5 3e 45 f6 1f be 48 7e 3e 3e 32 d6 84 be
       0.3535901 -0.15621288 0.1860286 -0.25944668
000030 a8 71 a2 bd 8e 77 d7 be 2c 09 23 bf 90 cc 98 be
       -0.079318345 -0.420834 -0.6368587 -0.2984357
000040 4c 42 a9 3c 82 70 23 3c 09 80 68 be 9b d3 87 3d
       0.020661496 0.009975554 -0.22705092 0.066321574
000050 61 ed 63 3e dd 22 43 bd be 05 2e 3e d3 7e 46 be
       0.22258522 -0.04764067 0.16994378 -0.19384317
000060 d9 7d 29 be 57 a5 c2 be fe 73 5c 3e 63 55 82 3e
       -0.16551913 -0.3801677 0.21528623 0.2545577
000070 87 a3 27 be 4a 86 d1 3e 6a dd 07 3f 4d 1b be be
       -0.16370974 0.40922767 0.53072226 -0.37130204
000080 f5 45 77 3e 87 69 0e 3e 49 ff e3 be 93 dd 12 be
       0.2414778 0.13907443 -0.44530705 -0.14342336
000090 8d e2 2e bf c8 7e b9 3e 72 d2 19 bf c3 17 f4 be
       -0.6831444 0.3622954 -0.6008674 -0.4767438
0000a0 47 8f e5 3e 7b e2 c5 be b2 6e 4e be c7 24 95 be
       0.44835874 -0.38649353 -0.20159414 -0.2912962
0000b0 64 c6 a0 be 30 a5 20 bd 94 49 ce be 5b a5 9f be
       -0.3140136 -0.039220035 -0.4029051 -0.31180844
0000c0 19 96 b1 3e 1b ca 41 bd 1a 52 e4 bc 83 56 05 bd
       0.34684828 -0.047311883 -0.02787118 -0.032553207
0000d0 ee 70 a0 be 33 c1 e3 bd 06 3f af 3e c5 00 21 bf
       -0.3133616 -0.11120834 0.3422777 -0.628918
0000e0 5d 8e 76 bd a2 39 7a 3e 8f 9f 89 be ff c9 44 3e
       -0.060194362 0.24436048 -0.26879546 0.1921768
0000f0 74 eb f8 be 09 88 1b be 25 da b5 be 39 71 2c 3f
       -0.48617136 -0.15188612 -0.35517994 0.67360264
000100 64 04 cc 3e 70 73 f2 3d 63 7a 13 3e 1c 03 9b 3d
       0.398471 0.11838424 0.14402156 0.075689524
000110 5a af 0c bd 0d fc dd 3c 3c b8 16 3d 95 7d a5 be
       -0.034346916 0.027097726 0.036796793 -0.32322374
000120 91 f3 72 3e fd 59 39 be 89 fb 48 3f da cc 67 bc
       0.23725726 -0.18100734 0.7850881 -0.0141479615
000130 67 41 aa bc f0 1e 37 bc e4 ce 3c 3e 28 ff 13 3f
       -0.02078314 -0.01117681 0.18438298 0.5781121
000140 58 f5 1f 3e cb 01 f1 3e ec 0d 9f be b1 c9 9e be
       0.15620935 0.4707168 -0.3106531 -0.31013253
000150 46 05 fe be b9 1a 6d 3e 30 9b 89 3e 7b 27 07 3e
       -0.49613398 0.23154725 0.2687621 0.13198654
000160 89 aa 8b 3d fc 4f 56 be d6 37 1d 3d aa 65 10 3f
       0.068196364 -0.20928949 0.038383327 0.5640513
000170 4a fc f2 3d 31 e8 b6 3d 88 12 82 3d d6 65 5b be
       0.118645266 0.08931006 0.06351191 -0.21425566
000180 bb 5b 4a be a3 d3 ea bd 80 62 eb be 69 77 34 be
       -0.19761555 -0.11466148 -0.45973587 -0.17623676
000190 95 0e bd bd 14 30 72 3e 6f ac 53 3e e2 e7 6a 3d
       -0.09231297 0.23651153 0.20671247 0.057350047
0001a0 5e f2 cf 3e 5f ed 44 be 20 cb b6 bd d6 5c 08 3d
       0.406146 -0.19231175 -0.08925462 0.03329166
0001b0 c2 3f d5 bd e3 db dd 3c fd f0 f6 be 7a 35 f7 3b
       -0.104125515 0.02708239 -0.48230734 0.0075442167
0001c0 9c af 40 be 97 83 97 3e d3 a3 fe 3d de 4f e7 3e
       -0.1881699 0.29592583 0.12433591 0.4517812
0001d0 7f 0f ce 3e a8 7a 6d be 49 82 41 3c d3 2a b0 3d
       0.40246198 -0.23191321 0.011810848 0.08601918
0001e0 c0 b6 8f bc 24 74 4c 3e a4 5f 68 3e 62 38 ad 3e
       -0.017543197 0.19966179 0.22692734 0.3383208
0001f0 d0 d2 05 3d df 8a 83 be ca 86 a4 be 9b 3f 5c 3e
       0.03267175 -0.25691888 -0.32134086 0.21508639
000200 f9 11 19 bf bd 20 4e 3e 20 6d 75 3e ee 52 3f be
       -0.5979305 0.20129676 0.23967409 -0.18683979
000210 01 82 85 be 8b 7f 68 be 62 60 51 bf 51 43 50 3e
       -0.26075748 -0.22704904 -0.81787694 0.20338179
000220 61 1b 45 3e f1 75 05 3e 72 e6 e5 bc d6 f8 ef 3e
       0.19248725 0.13033272 -0.028063986 0.46869534
000230 a6 8d 09 bd 2b 7d fd 3e ac d1 92 3c 44 37 dd bd
       -0.033582352 0.49509558 0.017922245 -0.10801557
000240 5a 56 a1 bd 45 5e 0e bd 60 5c b3 be 52 89 a8 3d
       -0.078777984 -0.03475787 -0.35031414 0.08229317
000250 20 2f a3 3d af 91 ec 3d 69 43 bb 3e 3f 71 15 bf
       0.07967973 0.115512244 0.36574867 -0.58375925
000260 d8 bc 11 3e 3d ea 3c be 11 11 40 3e 0d d9 37 3e
       0.14232194 -0.1844873 0.1875651 0.17953892
000270 29 49 41 be e3 2a 3f 3e 21 46 8b 3d 2e ce 2f bc
       -0.18875565 0.18668704 0.068004854 -0.010730309
000280 36 a8 71 3d 58 4d bb 3d 1b 91 48 be 37 41 3f 3e
       0.05899831 0.091456115 -0.19586603 0.18677221
000290 71 20 aa 3e 9c 9c c7 3d da e6 65 bd 81 e9 b4 bd
       0.33227876 0.09746668 -0.05612836 -0.088336
0002a0 d0 cb 55 3d 2c d7 c2 bd 00 79 10 bd fc a4 2f 3e
       0.052196324 -0.09513697 -0.035271645 0.1715278
0002b0 42 ed 51 be 10 d5 27 3d 58 1a 5e 3e 70 31 0d be
       -0.20500663 0.040974677 0.21689737 -0.1378839
0002c0 44 25 76 be fa d7 c3 3e a0 26 3d be de aa ad be
       -0.24037653 0.38250715 -0.18471766 -0.33919424
0002d0 96 33 2b be 00 89 c9 be 18 3d c1 be 50 a3 8b 3d
       -0.16718897 -0.39362335 -0.37741923 0.06818259
0002e0 a4 60 a0 bd 90 dd 37 3d 21 87 31 3d c8 11 ed 3e
       -0.07830933 0.044889033 0.04334176 0.4630263
0002f0 ed 09 3d 3e 7f ab a4 bd ad 09 0a bd 4e d2 a2 3a
       0.18460818 -0.08040523 -0.033700634 0.0012422295
000300 8b 42 01 be de aa 3a 3e 7c 20 28 be 41 b8 26 bd
       -0.1262304 0.18229243 -0.16418642 -0.040703062
000310 ad 39 84 be d0 8f 2a be 49 a0 90 be de 10 e5 be
       -0.25825253 -0.16656423 -0.28247288 -0.4473943
000320 50 98 c3 bd 10 bf df 3d 2d 43 e0 3e 76 4c f4 3d
       -0.09550536 0.10925114 0.4380125 0.11928646
000330 54 99 03 be f2 f7 17 3e 0c a1 12 3f ce be 81 be
       -0.12851459 0.14840677 0.5727699 -0.25340885
000340 fc a4 19 be 4c 01 95 be 1a c2 13 bf bc 3e aa be
       -0.15004343 -0.29102552 -0.5771805 -0.33250988
000350 91 7a aa bc 87 57 ae 3e 35 d0 fa 3e 48 79 db 3c
       -0.020810397 0.34051153 0.48986974 0.02679123
000360 50 f4 f5 3c 4b 29 4e be 03 7a 57 be 88 ea 09 3e
       0.030023724 -0.2013294 -0.21042638 0.13468373
000370 c0 d8 80 3b f8 bc 3f bd bf 1d fa bd 0e 3e 95 bc
       0.0039320886 -0.046811074 -0.12212705 -0.018218067
000380 96 9b 02 bf 2e c1 17 be 07 c6 5e bd e1 3b 55 be
       -0.51018655 -0.14819786 -0.054388072 -0.20823623
000390 7c 6d 04 3d 77 a4 a7 be ba d7 f3 bd 73 6c 0e bf
       0.032330975 -0.32742664 -0.11906381 -0.5563423
0003a0 c5 99 28 bd 39 93 9f 3e 63 03 98 bd d7 74 00 bf
       -0.04116227 0.3116701 -0.07422521 -0.50178283
0003b0 20 33 ea 3d 01 14 31 3d 99 23 09 3f e3 15 98 3c
       0.114355326 0.043231968 0.5356994 0.018565124
0003c0 1a 6a 7b be 42 61 b6 be c8 e6 b8 3d af 74 96 3e
       -0.24552193 -0.35621077 0.09028393 0.29385898
0003d0 f5 7a 0a 3d f6 7d 87 3e cb d9 02 3e 5d 7f 2f be
       0.033808667 0.26463288 0.12778394 -0.17138429
0003e0 9a 89 a1 3e 92 4d 91 be 79 07 27 bd 79 2b 79 be
       0.31550294 -0.28379494 -0.04077861 -0.2433299
0003f0 eb 5f 0f be ff 68 9b be 1b c7 19 bf b4 0c c6 3d
       -0.14001434 -0.30353543 -0.60069436 0.09670392

net.0.bias f4 [128]
000000 70 f9 eb bb d1 09 cf bd c0 28 b7 3e d5 91 02 be
       -0.007201366 -0.10109294 0.35773277 -0.12750943
000010 75 02 ee 3e ca 5f f7 3e e7 6b 15 3d 20 45 df 3d
       0.4648625 0.4831527 0.036479857 0.109018564
000020 13 68 97 3e 59 56 ae 3e 36 34 a9 bd 78 31 47 3c
       0.2957159 0.34050253 -0.082619116 0.01215779
000030 a1 d5 eb 3d 8a 82 da bc bf df 48 be 4b 58 38 be
       0.11515356 -0.026673574 -0.19616602 -0.18002431
000040 9a 51 c1 3d 07 77 06 be d7 cd 50 be 56 e4 ba be
       0.094393924 -0.13131343 -0.20391022 -0.36502331
000050 4a 32 8c be a3 ff f7 bc 9c 33 0e bd b9 89 2c be
       -0.27382118 -0.030273264 -0.034717187 -0.16849412
000060 d3 f4 18 be d9 98 1e 3c 54 ce 9f be 8d 50 78 be
       -0.14937143 0.009679996 -0.31212103 -0.24249478
000070 ce dd 25 be f4 98 56 be 91 ff 7e be 33 c3 78 be
       -0.16197893 -0.20956784 -0.24902178 -0.24293213
000080 00 85 1a 3e 38 36 62 3e 41 c1 e2 bd 3a 86 a0 3e
       0.15089798 0.22090995 -0.110720165 0.31352407
000090 1e 5f 9b be 65 5a 75 3e b2 0c 32 be 98 4c 6c 3e
       -0.30346006 0.23960264 -0.17387655 0.23076093
0000a0 91 c9 c6 be 84 84 9b 3e b3 c9 c4 3e 39 1a 52 be
       -0.38825658 0.3037454 0.38435134 -0.20517816
0000b0 dd 32 c9 be d0 7a 9a be 54 f8 2f 3e fe c5 1c 3e
       -0.39296618 -0.30171824 0.17184573 0.15309903
0000c0 94 b6 57 3e 20 79 28 3b c1 c8 1a 3e ed e2 80 3e
       0.21065742 0.0025706962 0.15115644 0.2517313
0000d0 1d 86 a8 3e 4b e3 97 bd 57 39 a2 be ae 01 9f be
       0.3291482 -0.074163996 -0.31684372 -0.3105597
0000e0 46 e7 8f be fd 2c a3 bc a2 5d 80 be a7 4c 85 3d
       -0.28106135 -0.019918913 -0.25071436 0.06508761
0000f0 42 bb b5 bd 59 5d a4 3d 1c 48 90 bd 7c 93 0d bf
       -0.08873607 0.08025617 -0.07045004 -0.5530317
000100 55 f0 b5 bd 35 14 4b be b9 4a 6c bc 16 d7 fc be
       -0.0888373 -0.19831927 -0.014422112 -0.49382848
000110 65 6a 8b be a7 27 25 3d fa 8e 5c 3e c6 f8 57 be
       -0.2722961 0.04032102 0.21538916 -0.21090993
000120 1c d6 2a be 04 94 01 3e ae 69 5a 3e a8 db d6 bd
       -0.16683239 0.1265412 0.21329376 -0.10491115
000130 f7 5a 00 3e 8c 0c 0f be d7 fe c3 be 5f c7 05 bf
       0.125347 -0.1396963 -0.38280365 -0.5225734
000140 83 a0 9d 3d cb a3 39 3e b1 94 82 be 9f 9e ea bd
       0.07696631 0.18128888 -0.25504068 -0.11456036
000150 53 9d 6e be 6d e6 c7 be b5 7e 3d 3e f2 98 cc be
       -0.23302202 -0.39042988 0.18505366 -0.39960438
000160 df 0f aa be 18 48 62 bd 20 66 25 3d 28 b0 16 bd
       -0.33215234 -0.055244535 0.040380597 -0.03678909
000170 07 11 0e be 7d 60 87 be ad 43 8b 3e b2 ea 6b bc
       -0.13873683 -0.26440802 0.2720007 -0.014399217
000180 27 5c a5 be 60 a0 ae 3c a6 c0 17 be c3 e5 2b be
       -0.3229687 0.021316707 -0.14819583 -0.16786866
000190 c1 00 c5 bd 84 90 de bd 38 4c 5a be 90 5a 07 be
       -0.096192844 -0.10867408 -0.21318138 -0.1321814
0001a0 2e be cd 3e 1c ec 80 be 2c b9 86 be ff 26 c7 3e
       0.40184158 -0.25180137 -0.2631315 0.3889694
0001b0 6f 42 29 be 4d b4 9e be 3f f0 b2 be c8 9d b9 3d
       -0.16529249 -0.30996934 -0.34948918 0.090632975
0001c0 aa 76 8e 3c ac af 97 3e df 33 61 3e 09 cb 93 be
       0.017390568 0.29626215 0.21992444 -0.2886584
0001d0 1b 52 8d be 3d ab bc be 55 ce 24 bc bd a5 1d be
       -0.27601704 -0.36849394 -0.010058959 -0.15395255
0001e0 40 bd 87 3c 72 aa 6f 3e b0 a0 5b 3d 69 c8 a7 3d
       0.016569734 0.23404863 0.05362004 0.08192522
0001f0 f0 ad d5 3d ee 25 90 3e 4c 80 9c 3e 38 08 03 bd
       0.104335666 0.28153938 0.30566633 -0.03199026

net.2.weight f4 [128, 128]
000000 f7 92 85 be b7 c3 28 bd 12 3c 1d be b7 46 0b be
       -0.26088688 -0.041202273 -0.15354946 -0.13601194
000010 d6 f7 03 be 63 10 02 3d ed 38 09 be d8 b4 6b bd
       -0.1288751 0.03175391 -0.13400622 -0.057545513
000020 c0 76 db 3c 7c 87 57 3c 51 e5 ab bd 1c 07 22 bd
       0.026790023 0.013154861 -0.08393348 -0.03955756
000030 70 62 f7 be 7b a1 25 3d 4a 14 3c bd 17 04 1b bd
       -0.4831729 0.040437203 -0.045917787 -0.037845697
000040 70 f2 67 bc dd 76 81 be 24 63 08 bd 89 f5 92 be
       -0.014156923 -0.25285998 -0.033297673 -0.28702953
000050 36 8e 63 3d 91 bf 95 bd 9f ce 1b 3d d0 bc f0 3c
       0.055555545 -0.07311929 0.038038846 0.029386908
000060 a6 03 8c bc 63 49 c1 3d 1e 28 0c 3e 7b 43 50 bd
       -0.017091583 0.094378255 0.13687178 -0.050845604
000070 f3 35 0b bd 8f 66 aa bd 06 47 2e 3d 92 12 2b 3c
       -0.033986997 -0.08320343 0.042548202 0.010441439
000080 50 c2 eb bd c4 e3 0a 3d a8 9c 79 bd b1 36 32 bc
       -0.115116715 0.03390862 -0.060940415 -0.010877297
000090 3a fe 7f bd dd 82 23 be bc 33 cc 3c 31 c6 1c bc
       -0.06249831 -0.15967889 0.024927013 -0.009568737
0000a0 90 34 78 3c e5 5d b0 be 72 9c f3 be 0d 36 58 bd
       0.015149251 -0.34446636 -0.47580296 -0.05278592
0000b0 43 8a 63 bd e5 00 3c be 47 e8 e6 bd 4b 07 cd be
       -0.05555178 -0.18359716 -0.11274772 -0.40044627
0000c0 c9 fc 69 be 96 38 c2 3c 31 34 88 bd 56 5d 55 3c
       -0.22850336 0.023708623 -0.0665058 0.013022741
0000d0 24 04 69 be 6e 6b 6b 3b 68 6f 71 bd 74 db 13 be
       -0.22755486 0.0035922187 -0.058944136 -0.14439183
0000e0 7e 4e 6c 3d 3b 84 72 bd 34 3d 16 3b 28 cf e1 bd
       0.057692043 -0.059208136 0.0022924663 -0.1102584
0000f0 18 79 8f be d6 d6 43 3b 98 4b 14 3e db 1c 1b bc
       -0.28022075 0.002988269 0.14481962 -0.009467329
000100 29 13 1d bd ff c0 f8 bd 5b de 13 bc c8 6e 6e 3d
       -0.03834835 -0.12146186 -0.009025182 0.058211118
000110 8e c4 57 3d 33 3e d7 bc 7f 83 6b 3c ff 3e 50 bd
       0.052677684 -0.026274776 0.014374613 -0.050841328
000120 31 eb 87 3d 3f cc c1 be dd 0b 9c bd c7 6b 90 3d
       0.06636656 -0.3785114 -0.0761945 0.07051807
000130 f7 56 25 bf 0b 74 a1 3d 9c da f0 3c 5f 60 8e 3d
       -0.6458582 0.078834616 0.029401116 0.06951975
000140 34 58 73 bd f0 5e 5f bd 04 4f df 3c 15 d0 9b bc
       -0.05941029 -0.0545339 0.027259357 -0.01902012
000150 72 8c 01 bd 68 5e 18 bb a6 47 aa bd 96 95 0f bd
       -0.03162808 -0.002324963 -0.08314447 -0.035054766
000160 5a 10 97 3d 30 c9 e4 bb 2d 18 d0 3c 87 40 94 3d
       0.07376166 -0.006981991 0.025402153 0.0723887
000170 0e 2f 42 3b 71 0c a4 be 71 a3 ee 3b 60 3e 10 be
       0.0029630098 -0.32040742 0.0072826673 -0.14086294
000180 a9 b7 96 3d 33 d2 b0 3b 7e 3e 1f be 0c 87 a7 bc
       0.07359249 0.0053961514 -0.15551183 -0.020450138
000190 a5 bf 79 bf 33 72 cb bc 82 95 18 be d4 f5 f0 3c
       -0.9755805 -0.024834728 -0.14900783 0.029414095
0001a0 62 3a 91 ba b3 e9 82 be 55 13 1b 3d bd 4a 36 bd
       -0.0011080022 -0.25568923 0.037860233 -0.04450487
0001b0 66 28 b3 bc 5f 8d 10 bd d2 23 24 3d a0 09 81 bd
       -0.02186985 -0.035291072 0.040073223 -0.06300664
0001c0 70 14 c3 3d 96 38 97 be 0e 96 01 3c 3f 8a 54 bd
       0.095253825 -0.2953536 0.007909311 -0.051889654
0001d0 1a ef 57 be 48 34 98 be fe 0a 06 be 07 0a 65 bd
       -0.21087304 -0.29727387 -0.1309013 -0.055917766
0001e0 5e 23 fe bc cf cc 24 be f5 79 3e be 82 f4 19 bd
       -0.031022724 -0.16093753 -0.1860121 -0.037586696
0001f0 e6 ca 2a 3d cd 4d aa 3c c6 96 c3 bc 00 78 99 b8
       0.041697405 0.020789051 -0.023875605 -7.31796e-05
000200 81 c7 ff 3d 71 ef e9 3c ea 09 85 be 9a 85 8c 3d
       0.12489224 0.028556557 -0.25984126 0.0686142
000210 bb 59 a5 be 9f 29 f3 be 60 7c 99 3b aa d6 30 3d
       -0.3229502 -0.47492692 0.004684016 0.04317347
000220 18 d1 d1 bc 87 aa e5 bd 1d 91 be be 99 d5 ed bd
       -0.025612399 -0.11214166 -0.37220088 -0.11613006
000230 7a 55 af be 7b cc 20 3e 7d 47 aa bd 31 1a 13 3e
       -0.342449 0.15703003 -0.083144166 0.1436546
000240 0e 5f ec 3d 45 94 5b 3c 17 32 1a be 96 c2 19 3e
       0.11541568 0.013402049 -0.1505817 0.15015635
000250 14 3c 94 3c 96 27 78 be d1 80 27 be f5 27 87 bd
       0.018095054 -0.24233851 -0.16357733 -0.06599418
000260 fe d2 0f be e9 46 2a bc 45 30 3f 3d e1 2f 39 bd
       -0.14045331 -0.010392883 0.046676893 -0.045211677
000270 83 32 92 3d e0 02 a0 3c 1c 43 00 bd e3 ef 4a 3a
       0.071385406 0.01953262 -0.031314 0.00077414344
000280 ee 4e 5c 3e 79 b5 01 be cb 63 90 3d 9f dc e4 bc
       0.21514484 -0.12666883 0.07050284 -0.027937232
000290 18 92 ee 3c 36 3b e5 bd e5 3f fd bd f7 37 43 be
       0.029122397 -0.11192934 -0.123657025 -0.19064318
0002a0 d0 2f a0 3c 31 73 57 bf 04 cc 81 bc ba 08 90 bc
       0.019554049 -0.84160143 -0.015844353 -0.017582286
0002b0 00 70 49 39 ac 8c 1b 3c 4a 51 b4 bb 2d b5 75 bd
       0.00019210577 0.009493988 -0.0055028545 -0.059987236
0002c0 6f 06 27 be 13 0a 2d be 37 45 3d 3d 41 11 28 bd
       -0.16311048 -0.16898374 0.046208587 -0.04103208
0002d0 33 f6 13 bf 79 ed 44 be eb 86 17 bd 3b e1 1a be
       -0.57797545 -0.19231214 -0.036993902 -0.15124981
0002e0 3a 07 19 3d 60 01 49 be f7 70 45 3e 6e 6a 71 3e
       0.037360407 -0.19629431 0.19281374 0.23575756
0002f0 a3 d9 ff 3d cc 88 a1 bd c2 1e d2 be bc eb c4 3d
       0.12492683 -0.0788742 -0.4103909 0.09615275
000300 7e f1 c8 bd 71 73 89 3c 0e fe 19 3e ce 41 7c bc
       -0.09811686 0.01677868 0.1503832 -0.015396548
000310 60 2f a5 bb 59 dd 1c be 93 46 84 bd 62 40 7e 3e
       -0.005041048 -0.15318812 -0.064587735 0.24829248
000320 9e 0a 65 bd 00 15 fc be 47 3a 80 be e1 bd a5 3d
       -0.05591833 -0.49234772 -0.25044462 0.08092857
000330 01 2d 09 bf 4a 3e 41 3d 23 ac 65 bd 8d cd bd be
       -0.53584296 0.047178544 -0.056072365 -0.37070885
000340 94 07 8f bd 2e 5e 56 be f4 95 82 3c aa 81 6a bd
       -0.06983867 -0.20934364 0.015940644 -0.057252564
000350 4e 4e 87 be bb ec 89 3d 33 3b 20 bb 2a 0f 20 3d
       -0.2642693 0.06734606 -0.0024449348 0.03907696
000360 1b b5 c2 3d b5 33 12 be 03 39 71 bd e6 ff 3d bd
       0.095071994 -0.14277537 -0.05889226 -0.046386622
000370 4b 48 e4 bc e5 58 29 3d a9 65 16 3c 1e 19 a6 be
       -0.027866503 0.041344542 0.009179511 -0.32441038
000380 bb b6 61 bd 84 4b b4 3e 4d 7e e0 be 27 49 b3 bd
       -0.055105906 0.35213864 -0.4384636 -0.08754187
000390 c9 17 12 bf 15 8c 13 3e f7 32 81 3c 70 d7 54 bc
       -0.57067543 0.14408906 0.015771372 -0.012990817
0003a0 ea dc 21 be 3e 7e 35 3e 50 74 35 bd 8c 2a 78 bd
       -0.15806928 0.17723939 -0.044300377 -0.06058745
0003b0 67 55 73 be b8 0c eb be c0 0e bc 3a d2 9f 9a bd
       -0.23763047 -0.4590814 0.0014347658 -0.075500146
0003c0 d2 fe 33 be 91 92 b1 be 45 65 0c be b6 88 33 3e
       -0.17577675 -0.34682134 -0.13710506 0.1753262
0003d0 cf ac ed bd 99 07 d4 bd 13 21 b4 bd a9 e2 42 3b
       -0.11605226 -0.10353012 -0.08795371 0.002973715
0003e0 01 34 31 bd d1 87 95 bd 44 b1 14 3d be 9a fb bd
       -0.043262485 -0.073012955 0.036301866 -0.12285374
0003f0 ef 62 9f 3e 4a 46 c7 bd 2f c8 d7 bc 30 be 73 3c
       0.31130168 -0.097302034 -0.026340572 0.014876887

net.2.bias f4 [128]
000000 67 67 44 3d 4c ce 8c bd 32 10 97 bc 38 25 a6 bd
       0.047950175 -0.068752855 -0.01844034 -0.08112568
000010 f7 95 75 be 8e e0 9d 3d 9f ef ca 3a d9 82 0d bd
       -0.23982988 0.07708846 0.001548279 -0.034548614
000020 22 bc 1a bc 43 2d 54 bd 57 0f 90 bd 32 b0 1f 3e
       -0.009444268 -0.051800977 -0.07034176 0.15594557
000030 21 85 0d 3c 26 f7 de 3d 0b 4e db bc d9 78 7d bd
       0.008637697 0.108869836 -0.026770612 -0.061882827
000040 16 fd 52 3c 19 f1 9f bd a6 dd 2d 3d de 38 9c bc
       0.012877723 -0.078096576 0.04244771 -0.019070085
000050 76 37 8e bc cb ff a7 bc 53 c4 eb bc bb 73 bb bc
       -0.01736043 -0.020507714 -0.028780138 -0.022882333
000060 b6 04 3b 3e a8 87 ab bd d4 99 75 bd 4b 8d 48 bd
       0.18263516 -0.08375484 -0.059961155 -0.048962872
000070 62 47 03 be 35 1b 49 3c cf f7 34 bd 6e 9d 1f 3e
       -0.12820199 0.012274553 -0.04418164 0.15587398
000080 dc 2d 66 3b d1 3f a4 bc 78 0f 1c 3e 85 2d 8c bd
       0.003512255 -0.020049961 0.15240276 -0.0684462
000090 c7 24 aa bd ab 40 ba bd e2 34 a8 bd cf e7 c7 bd
       -0.08307796 -0.09094366 -0.082132116 -0.09761011
0000a0 c8 9a ed bc ba 36 8f 3c 9a 56 12 3e 7c 88 16 bd
       -0.02900447 0.01748215 0.14290848 -0.036751255
0000b0 a2 95 01 bd f4 0f 7e bd a4 d8 37 bc 1d ca be bd
       -0.03163684 -0.062026933 -0.011221085 -0.09315894
0000c0 8d 7d 20 3d 35 22 dd 3c 70 67 54 bd b9 4c 56 bd
       0.039182235 0.02699385 -0.05185646 -0.052319262
0000d0 62 ca f1 bc 6b 56 8c be c9 1b c9 bd 47 16 33 bd
       -0.029515449 -0.27409682 -0.09819753 -0.043722417
0000e0 2c 5e 38 3c 59 3c 37 bd 83 63 ef bd a7 2a 8e 3b
       0.011252921 -0.044735286 -0.11688902 0.0043385806
0000f0 c0 eb db bb c3 3c 74 3d fa 0f 00 3d 20 21 d0 bd
       -0.006711453 0.05962826 0.031265236 -0.10162568
000100 7d bf 6e bd 26 2a 4c bc d7 49 95 3c b8 f5 26 bd
       -0.058288086 -0.012461221 0.018223686 -0.04076168
000110 ca 0e bb bd 4a 23 95 3a d4 7f 26 be 1b 00 c8 bd
       -0.0913368 0.0011378315 -0.162597 -0.09765645
000120 03 6e b3 bc ca 50 8d 3a ce dc 4a 3e ee 98 96 bd
       -0.021903044 0.0010781523 0.19810793 -0.07353388
000130 4d 27 b6 3c 5c 70 d4 3b d5 dc 1c bc 63 e1 79 bd
       0.022235537 0.006483121 -0.009574135 -0.06100596
000140 88 25 b5 bd e4 6e ab bd 27 3a 11 bd e2 97 08 3e
       -0.08845049 -0.0837076 -0.03545585 0.13339189
000150 8b dc fc bb b0 3b 53 bc 78 56 99 bd 7d 64 43 3d
       -0.0077167205 -0.012892649 -0.07487196 0.047703255
000160 4b 38 ec bd cb cf 17 3d fb 3a ab bd 73 b9 2c 3d
       -0.115341745 0.0370634 -0.08360859 0.042169046
000170 94 03 b7 3d 4f e6 01 bd 01 ec 1e 3e 8d cb 4d 3d
       0.08936229 -0.03171378 0.15519716 0.05024295
000180 32 67 fa bd fa 6a 08 be 19 1b 0b 3e 06 75 96 bb
       -0.12226714 -0.13322058 0.13584556 -0.004591587
000190 df 4e 85 bc 84 fa f6 3d a6 63 8b 3c 83 78 81 3e
       -0.01627296 0.12059501 0.01701529 0.25287256
0001a0 21 44 34 3e 09 2a ab bd 65 b0 01 3c 28 7d 9e bd
       0.17604114 -0.08357627 0.007915591 -0.077387154
0001b0 b3 a8 69 bd b7 37 b6 bd 67 6a f1 bd b7 87 bf 3d
       -0.05704565 -0.088973455 -0.11787873 0.093520574
0001c0 f1 17 83 bd ec 5a fd 3d 2a 7f 12 3d 6c 21 3d 3d
       -0.06401051 0.123708576 0.035765804 0.04617445
0001d0 9a 63 4b bd d0 ec 2f 3e b2 92 0d be e1 fe 58 bd
       -0.049655534 0.1718018 -0.13825491 -0.052977446
0001e0 39 df 7d 3c 36 e2 7f bd b6 15 70 bd f5 a1 aa bd
       0.015495115 -0.06247159 -0.058614455 -0.08331672
0001f0 9f 44 b1 3b a8 2c 55 3c 91 fa db 3c 72 36 97 bd
       0.0054097916 0.013011135 0.026852878 -0.073834315

net.4.weight f4 [3, 128]
000000 dc 6e 83 bd 59 63 f9 be 89 06 16 39 c6 f2 55 bd
       -0.06417629 -0.4870861 0.0001430755 -0.05223348
000010 9b 45 9d bd 1f 13 38 3d 4f 2e 66 bf 51 2e a2 bd
       -0.07679292 0.04494011 -0.8991441 -0.079189904
000020 1f ae e0 3c 3c a4 2b 3c 84 12 a1 3d 60 e1 65 3d
       0.027426777 0.010476168 0.0786486 0.056123137
000030 ab 5f 0b bc 25 07 a7 3d b2 ca 1c 3e cf 36 89 3e
       -0.008506696 0.081556596 0.15311697 0.26799628
000040 4b 72 d2 3d f2 da 98 3d de d1 ca 3c b2 49 7d 3d
       0.10275706 0.074636355 0.024758276 0.06183786
000050 0f 58 50 bd ec 4d 0b 3d 11 2c 24 bd 03 15 a1 3d
       -0.05086523 0.03400986 -0.040081087 0.07865336
000060 5a 05 06 3e 25 dd ab bd 0e 7c 8b bd c8 ed 46 3c
       0.13087979 -0.08391789 -0.06810771 0.012141652
000070 5f ec 50 bc 3e 3b 2f 3e 5d 0f 17 bd 14 18 c4 be
       -0.012751668 0.17112443 -0.036879886 -0.3829962
000080 e7 fe 41 3e 57 6e b7 bd 30 6b f9 3d 98 a1 27 3c
       0.18944894 -0.089565925 0.121786475 0.010231398
000090 cc 78 bc 3c 00 c5 4e 3b 88 8d 90 3c 63 7a a4 3d
       0.02300682 0.0031550527 0.017645612 0.08031156
0000a0 c1 8f 85 3d db ae 69 3e 08 eb 07 3e a3 9e e6 3d
       0.065215595 0.22820608 0.13273251 0.11260726
0000b0 33 97 5b bd 0c 01 96 3d 93 c5 b2 bd bf c5 c1 3d
       -0.05361099 0.073244184 -0.087290905 0.09461545
0000c0 fe 2e a6 3d e1 b8 8c 3d 88 bb 1d 3d ef 0d de ba
       0.08114432 0.068712 0.03850892 -0.0016941408
0000d0 98 a2 1e bb 19 96 d2 bd 57 87 bb bc d7 18 e3 bb
       -0.00242058 -0.10282535 -0.022891684 -0.0069304514
0000e0 ba 1a 9f 3d 80 3c 40 3d 6d e6 3e 3d 36 36 21 3d
       0.077687696 0.046932697 0.04660647 0.03935834
0000f0 2e 25 d0 3d b5 bd b8 3d bb 1d b3 3e 67 39 20 3e
       0.101633415 0.09020559 0.3498362 0.15646897
000100 87 ce e3 bd 06 52 96 3d 8f 39 0f 3e 91 cf 79 bd
       -0.11123376 0.073398635 0.139868 -0.060988966
000110 88 6f 73 3d 3c 26 dc bd b3 6d 18 bf 8c 91 50 bf
       0.059432536 -0.1074948 -0.5954239 -0.81472087
000120 80 51 61 bc 65 c0 47 bd 7f df da be 02 90 66 3d
       -0.013752341 -0.048767466 -0.4274864 0.05628968
000130 ed ca 46 3d a2 47 b6 bd 3f ff 67 3d 1f 9a 11 3e
       0.04853337 -0.089003816 0.056639906 0.14218949
000140 83 92 c2 bc 1e 00 06 bd 59 bd f5 3c b3 56 02 3e
       -0.023751503 -0.032714956 0.029997515 0.12728386
000150 13 32 3d 3d 8b 7f 1a bd 96 69 37 bf 28 1c 86 3e
       0.046190333 -0.03771929 -0.71645486 0.26193357
000160 51 5e 5d bd 28 26 cb 3d 1f 48 c3 bd fb 5f 17 3e
       -0.054045025 0.09919387 -0.095352404 0.14782707
000170 6d 82 f8 3d e9 8f 14 bd b5 87 30 3e 26 de 45 3d
       0.12134252 -0.036270056 0.17239268 0.04830756
000180 09 ff b7 be 59 1c 1b be e8 4b c5 3d 4a 13 83 3e
       -0.35936764 -0.15147533 0.096336186 0.25600654
000190 a4 d2 50 3c 43 d9 37 3e 55 cb 95 3d 4d 47 90 3e
       0.012745533 0.17953973 0.07314173 0.28179398
0001a0 81 59 6b 3e 13 e7 b3 bd 5b 84 10 3d 55 37 8c 3d
       0.22983362 -0.08784308 0.035282474 0.06846491
0001b0 1f 88 5d 3c 9e da d1 be 47 e9 0a 3e dc c9 ff be
       0.013521223 -0.40987104 0.1356555 -0.49958694
0001c0 e4 0c 88 3d 04 43 02 3e 91 5b 8d 3e 06 e0 97 be
       0.06643084 0.12720877 0.27608922 -0.29663104
0001d0 40 ed eb 3c 9b ef 0e 3e d7 cf 0c bf 8d c5 52 3d
       0.028799653 0.1395859 -0.5500464 0.05145793
0001e0 b9 6d 54 bf 2a da 4e 3d f8 3f 83 3d 1c 30 87 3c
       -0.82979923 0.050501026 0.064086854 0.016502433
0001f0 4f 0d b5 3d 38 9e 23 bd a7 61 15 bf 2f c8 f6 be
       0.08840429 -0.03994581 -0.5835213 -0.48199603
000200 84 48 16 bd c8 6c 71 be 8c f3 c6 bd 95 16 27 bd
       -0.03669025 -0.23576653 -0.09714422 -0.04079302
000210 1c 98 e0 bd 2d fa a4 3d e0 1f 0a bf db f7 05 3c
       -0.109665126 0.0805553 -0.5395489 0.008176769
000220 9b 23 66 3c 92 b1 27 bd d3 68 5a 3d d2 8a ae 3d
       0.014046575 -0.04094083 0.053322624 0.085225716
000230 69 e3 9b 3c 9c ef 99 3d fd 4e f3 3d d9 9c 08 3e
       0.019029336 0.07516405 0.118803 0.13341083
000240 27 17 bb 3d 28 7d b5 3c ca 68 12 bd 15 78 14 bd
       0.09135275 0.022154406 -0.035744466 -0.03624733
000250 94 e5 aa bd 9e b8 96 bd a9 93 be bd 88 e9 e8 3d
       -0.0834457 -0.07359432 -0.09305508 0.113726676
000260 d6 17 98 3e 91 63 ae 3d 0d eb 95 bd e2 77 d7 3c
       0.29705685 0.085150845 -0.07320223 0.026302282
000270 b7 52 14 bd 28 5a 2e 3e 29 02 9e 3d 00 c5 1e bf
       -0.036211696 0.1702658 0.07715256 -0.6201935
000280 21 10 14 3e ce be 16 be 2e 37 0c 3e 4d f5 15 bd
       0.14459278 -0.14721224 0.13692924 -0.03661089
000290 ed e6 8f 3d 05 f4 90 3c 15 ea 55 bc 95 79 57 3d
       0.070264675 0.017694483 -0.013056298 0.052606184
0002a0 84 43 44 bd aa 70 33 3e 60 04 0e 3d 55 86 01 3e
       -0.04791595 0.17523447 0.03467214 0.126489
0002b0 f5 04 72 bd 6b 6c 37 3d 4c 53 ab bd b5 3a 23 ba
       -0.05908676 0.04478113 -0.08365497 -0.00062267046
0002c0 17 9e 39 bd 01 a4 66 3d 50 40 39 3d ec 4b f8 bc
       -0.04531678 0.05630875 0.04522735 -0.03030964
0002d0 93 b1 7d 3d 90 30 1a be 12 d5 e3 bd 3b c6 27 bd
       0.061936926 -0.15057588 -0.11124624 -0.04096053
0002e0 f3 5e 27 bc 66 b8 85 bd b8 dc 26 3c a4 24 fe 3c
       -0.010215509 -0.06529312 0.010184459 0.031023331
0002f0 c0 22 0c 3e f5 ee 11 3d d9 b9 fa 3e 61 a2 1b 3e
       0.13685131 0.035628278 0.48969916 0.15198661
000300 78 19 20 be c7 2d ad 3d e2 76 6f 3d 12 43 c8 bc
       -0.15634716 0.08455997 0.058462985 -0.024446044
000310 bc 30 ab 3d 4b ce c2 bd 27 11 2a bf 4c 92 f8 be
       0.08358905 -0.095120035 -0.6643242 -0.48549116
000320 60 c7 49 3d 1e 52 ff bc cc 99 3a bf 2e 37 33 3d
       0.049262404 -0.031167086 -0.72890925 0.043753795
000330 88 28 62 3b ff 0b 0e be 09 e3 a4 3d 81 38 9c 3e
       0.0034509022 -0.13871764 0.08051116 0.3051186
000340 3f e9 b2 bd 80 a1 45 3d 4f 8e 45 3d 1f 7f fe 3d
       -0.087358944 0.04824972 0.04823142 0.1242659
000350 36 f0 d3 3d dd fa 04 3d a9 34 c2 bd 00 80 3f 3e
       0.10348551 0.032465804 -0.094827004 0.18701172
000360 40 da ce bd 7c 29 c7 3d b4 00 0f be d4 37 b4 3d
       -0.10100222 0.097247094 -0.13965112 0.08799711
000370 77 eb 06 3e 9e 47 b6 3c 37 10 33 3e b3 5e 63 3d
       0.1317576 0.022250947 0.17486654 0.055510234
000380 ba 29 bf bc f1 17 2b be 74 f1 3c 3e 98 e9 64 3e
       -0.023335326 -0.16708352 0.18451482 0.22354734
000390 33 7b 8c 3d aa 0c 91 3e e9 7a 50 3d 4b 36 f4 3e
       0.06859436 0.28329974 0.050898466 0.47697672
0003a0 54 16 b5 3e 00 3b 5d bb df 80 19 3d 06 33 56 bd
       0.35368598 -0.003375709 0.037476417 -0.052294753
0003b0 87 67 69 bd 1c e1 ce be de 42 19 3e 8e 47 d8 bd
       -0.056983497 -0.4040612 0.14966914 -0.10560523
0003c0 11 cd ad 3d f7 89 b0 3d 49 e4 90 3e 01 31 9b be
       0.08486379 0.08620065 0.28299168 -0.30310825
0003d0 a9 8c 84 3e 44 48 08 3e 34 45 dc be 4c ec 79 3d
       0.25888565 0.13308817 -0.43021548 0.061016366
0003e0 d7 b4 0a bf d8 f0 b6 3d 8e de 2c 3d 70 a6 b7 bb
       -0.5418219 0.08932656 0.042204432 -0.0056045577
0003f0 45 06 25 3c a3 30 f0 bc b6 a3 04 bf f3 9b e9 be
       0.010072296 -0.029320067 -0.51812303 -0.45626792

net.4.bias f4 [3]
000000 8d 3f 11 3c b9 19 62 bd 4a 16 cb 3c
       0.008865249 -0.055200312 0.024790902
