train-pong/saved_models/dqn_episode_800.pth (torch, 74357 bytes, 6 tensors)

net.0.weight f4 [128, 6]
000000 ad cb f8 3d 7d 9c a6 3e 64 62 bb 3e a5 e9 72 be
       0.12148223 0.32541266 0.36598504 -0.23721941
000010 4d 77 21 3d e3 5c 95 be 70 c7 bf be 96 76 da be
       0.039420415 -0.2917243 -0.37456846 -0.426686
000020 c3 09 b5 3e 45 f6 1f be 48 7e 3e 3e 32 d6 84 be
       0.3535901 -0.15621288 0.1860286 -0.25944668
000030 4a 8a aa bd fc 13 d9 be 5b b2 27 bf 16 63 87 be
       -0.08327158 -0.4239806 -0.65506524 -0.26442784
000040 90 20 f6 ba a7 49 f4 3b 09 80 68 be 9b d3 87 3d
       -0.0018778015 0.007455069 -0.22705092 0.066321574
000050 61 ed 63 3e dd 22 43 bd be 05 2e 3e d3 7e 46 be
       0.22258522 -0.04764067 0.16994378 -0.19384317
000060 63 42 34 be a0 de c3 be fe 4a 35 3e bd f8 81 3e
       -0.1760345 -0.38255787 0.17704388 0.25385085
000070 f9 de 22 be 0d c7 d0 3e 25 d6 03 3f f6 51 bc be
       -0.1590537 0.40776864 0.51498634 -0.3678128
000080 3e 5d 58 3e d5 96 2b 3e 3d 55 f2 be ae 7b 17 be
       0.21129319 0.16756757 -0.47330657 -0.14793274
000090 da 63 32 bf cb aa c1 3e 2d 12 19 bf ab b4 ef be
       -0.6968361 0.37825617 -0.5979336 -0.46817526
0000a0 c0 01 d8 3e 68 6d c1 be b2 6e 4e be c7 24 95 be
       0.42188835 -0.37778783 -0.20159414 -0.2912962
0000b0 64 c6 a0 be 30 a5 20 bd 94 49 ce be 5b a5 9f be
       -0.3140136 -0.039220035 -0.4029051 -0.31180844
0000c0 a0 2d af 3e 86 e1 3b bd 30 c8 aa bd 42 73 99 bc
       0.34214497 -0.045869373 -0.08338964 -0.018731717
0000d0 e3 b2 a0 be 08 bd d3 bd 00 b3 ab 3e 52 50 1f bf
       -0.3138648 -0.10338789 0.33535004 -0.62231934
0000e0 88 d6 c0 bd ac f4 7a 3e a8 76 85 be 02 f4 47 3e
       -0.094159186 0.24507397 -0.2606709 0.19526675
0000f0 84 78 fc be da 9c 1e be 3e 61 ab be 50 f8 29 3f
       -0.49310696 -0.15489522 -0.33472627 0.6639452
000100 cc 5b cc 3e 7c f1 e2 3d 63 7a 13 3e 1c 03 9b 3d
       0.39913785 0.11081216 0.14402156 0.075689524
000110 5a af 0c bd 0d fc dd 3c 3c b8 16 3d 95 7d a5 be
       -0.034346916 0.027097726 0.036796793 -0.32322374
000120 63 88 58 3e 3e f7 54 be 6a b2 3f 3f 36 b1 3d bd
       0.21145777 -0.2079744 0.74881613 -0.04631158
000130 91 93 a6 bb 8f ae 04 bd 83 7d 46 3e 2f 1b 14 3f
       -0.0050835093 -0.032393035 0.19383816 0.5785398
000140 7b 09 17 3e 35 51 ed 3e e7 6f af be f0 ce a4 be
       0.1474971 0.4635102 -0.34265062 -0.3218913
000150 46 05 fe be b9 1a 6d 3e 30 9b 89 3e 7b 27 07 3e
       -0.49613398 0.23154725 0.2687621 0.13198654
000160 89 aa 8b 3d fc 4f 56 be 08 c1 4b 3d bf a4 10 3f
       0.068196364 -0.20928949 0.049744636 0.5650138
000170 08 d8 dc 3d 1a 76 91 3d f1 53 54 3d 23 b8 69 be
       0.10783392 0.07102604 0.051837865 -0.22824149
000180 bd db 4d be 98 d3 e9 bd fd 48 e6 be 1c e0 37 be
       -0.20103355 -0.114173114 -0.4497756 -0.17956585
000190 e0 f1 d8 bd 8c cc 75 3e 46 4d 76 3e 56 62 80 3d
       -0.10593009 0.2400381 0.24052915 0.06268756
0001a0 74 9c c5 3e 86 df 62 be e9 13 c7 bd 79 b4 9c 3c
       0.38595927 -0.2215558 -0.097205944 0.019129025
0001b0 df 53 c4 bd 4d d9 d9 3c c2 3f f9 be 98 12 10 3c
       -0.0958631 0.026592875 -0.48681456 0.008793496
0001c0 9f 0b 42 be 7a d0 99 3e 8f 44 08 3e 26 44 ea 3e
       -0.18949746 0.30041867 0.13307403 0.45755118
0001d0 fc e4 d0 3e fd 10 7a be 22 4e 37 3b 65 29 c1 3d
       0.407997 -0.24420543 0.0027970155 0.094317235
0001e0 c0 b6 8f bc 24 74 4c 3e a4 5f 68 3e 62 38 ad 3e
       -0.017543197 0.19966179 0.22692734 0.3383208
0001f0 d0 d2 05 3d df 8a 83 be 52 99 a5 be ba 7e 5a 3e
       0.03267175 -0.25691888 -0.32343537 0.21337405
000200 ca d7 18 bf 3a a8 58 3e fa 40 7e 3e 97 fc 39 be
       -0.5970427 0.21157923 0.24829474 -0.18162762
000210 6f ac 8d be 59 8e 5f be a3 5d 4f bf 68 dd 43 3e
       -0.2767062 -0.21831645 -0.81002253 0.19127429
000220 35 79 3c 3e b4 72 fb 3d 1d 6a 7a bc 85 fc f7 3e
       0.18405612 0.12277737 -0.015284088 0.48434845
000230 0f 91 12 3b f8 26 f1 3e cd 52 f0 bb 7d 78 fa bd
       0.0022364294 0.47100043 -0.0073340894 -0.122300126
000240 4f 84 e9 bd c3 7a e5 bc 90 62 b4 be e1 b9 b6 3d
       -0.11402189 -0.028012639 -0.35231447 0.08922172
000250 5d 24 9e 3d fe a6 f0 3d 17 18 b6 3e 04 a8 11 bf
       0.077217795 0.11750601 0.35565254 -0.56896996
000260 c4 49 50 3e 18 3e 3e be 51 d6 25 3e 8d 0e 3f 3e
       0.2034064 -0.18578374 0.16195036 0.18657894
000270 29 49 41 be e3 2a 3f 3e 21 46 8b 3d 2e ce 2f bc
       -0.18875565 0.18668704 0.068004854 -0.010730309
000280 36 a8 71 3d 58 4d bb 3d 1b 91 48 be 37 41 3f 3e
       0.05899831 0.091456115 -0.19586603 0.18677221
000290 71 20 aa 3e 9c 9c c7 3d da e6 65 bd 81 e9 b4 bd
       0.33227876 0.09746668 -0.05612836 -0.088336
0002a0 d0 cb 55 3d 2c d7 c2 bd 00 79 10 bd fc a4 2f 3e
       0.052196324 -0.09513697 -0.035271645 0.1715278
0002b0 42 ed 51 be 10 d5 27 3d 58 1a 5e 3e 70 31 0d be
       -0.20500663 0.040974677 0.21689737 -0.1378839
0002c0 44 25 76 be fa d7 c3 3e a0 26 3d be de aa ad be
       -0.24037653 0.38250715 -0.18471766 -0.33919424
0002d0 96 33 2b be 00 89 c9 be 18 3d c1 be 50 a3 8b 3d
       -0.16718897 -0.39362335 -0.37741923 0.06818259
0002e0 a4 60 a0 bd 90 dd 37 3d 47 52 8a 3d 7c 4a f7 3e
       -0.07830933 0.044889033 0.067539744 0.48299015
0002f0 40 4e 03 3e 17 73 ec bd bc ec 80 bd 1c 7b 27 bc
       0.12822819 -0.11545389 -0.062951535 -0.010222223
000300 63 6b fa bd 2d 17 42 3e 25 f0 cd bd 50 3f f8 bc
       -0.12227514 0.18954153 -0.100555696 -0.030303627
000310 46 13 85 be 2f db 1d be f0 65 84 be 36 93 d4 be
       -0.25991267 -0.15415643 -0.25859022 -0.41518563
000320 1b ef 27 bd 3c 22 02 3e 5a 46 e4 3e 8b f7 11 3e
       -0.040999513 0.12708372 0.44584924 0.14254586
000330 f7 f0 e3 bd 6c 8a 12 3e 7a a1 1d 3f d5 c0 97 be
       -0.11129945 0.14310616 0.6157452 -0.29639307
000340 4b d2 27 be 48 c9 7d be 55 fd 12 bf 33 e6 a2 be
       -0.16388814 -0.24783814 -0.57417804 -0.31816253
000350 ea 2b a7 3c 33 49 b1 3e 19 f0 f2 3e 11 f5 18 3d
       0.020406682 0.3462616 0.47448805 0.03734309
000360 50 f4 f5 3c 4b 29 4e be 03 7a 57 be 88 ea 09 3e
       0.030023724 -0.2013294 -0.21042638 0.13468373
000370 c0 d8 80 3b f8 bc 3f bd e0 db d9 bd 40 1f 7d bc
       0.0039320886 -0.046811074 -0.10637641 -0.015449345
000380 a4 77 04 bf 17 f3 15 be 05 69 40 bd 2c cb 4d be
       -0.5174506 -0.14643513 -0.046975154 -0.20097035
000390 cc 21 6a 3c 38 41 a6 be 85 03 da bd 5a 98 0b bf
       0.014290284 -0.32471633 -0.106452025 -0.54529345
0003a0 d3 18 72 bb d0 68 9c 3e 3c 17 8c bd 7f dc f8 be
       -0.0036941066 0.30548716 -0.06840369 -0.48605725
0003b0 03 65 35 3e 02 e4 5a 3d ac 08 05 3f c7 bb fe 3c
       0.17714314 0.0534401 0.5196636 0.031095399
0003c0 1a 6a 7b be 42 61 b6 be c8 e6 b8 3d af 74 96 3e
       -0.24552193 -0.35621077 0.09028393 0.29385898
0003d0 f5 7a 0a 3d f6 7d 87 3e 5b bc 2b 3e 39 ee 33 be
       0.033808667 0.26463288 0.1677107 -0.17571343
0003e0 6d a4 85 3e 6c fd 9b be eb c6 9b bd c3 7a 6f be
       0.2610201 -0.30466783 -0.076063 -0.23386674
0003f0 53 41 1f be ae 23 98 be d7 4e 1a bf dc 6c db 3d
       -0.15552263 -0.2971472 -0.6027655 0.10714123

net.0.bias f4 [128]
000000 f2 89 10 3c d1 09 cf bd e0 dd b5 3e d5 91 02 be
       0.008821951 -0.10109294 0.3552084 -0.12750943
000010 48 43 ed 3e 05 11 f5 3e 40 14 39 3d 20 45 df 3d
       0.46340394 0.47864547 0.045185328 0.109018564
000020 38 69 9b 3e 55 eb af 3e 08 b6 b8 bd 78 31 47 3c
       0.30353713 0.34359232 -0.09019095 0.01215779
000030 b9 62 c0 3d f4 71 1d bd bf df 48 be 9e aa 46 be
       0.0939383 -0.038438752 -0.19616602 -0.19401023
000040 5d 8c c8 3d 60 f8 14 be 1e 35 4c be 8e a5 b6 be
       0.09792397 -0.14547873 -0.19942138 -0.35673183
000050 4a 32 8c be ae 4a cd bc b6 24 2d bd 1f 2a 3b be
       -0.27382118 -0.025060024 -0.04227134 -0.18277787
000060 1c eb 16 be 9f ff 88 3c 54 ce 9f be 8d 50 78 be
       -0.14738125 0.016723452 -0.31212103 -0.24249478
000070 ce dd 25 be f4 98 56 be 91 ff 7e be bd 3f 82 be
       -0.16197893 -0.20956784 -0.24902178 -0.25439253
000080 be 38 27 3e b4 07 7a 3e 42 4d 8a bd b6 ec a5 3e
       0.16330239 0.24417001 -0.06753017 0.3240716
000090 1e 5f 9b be 1a cb 7c 3e 67 63 38 be 97 21 79 3e
       -0.30346006 0.24686852 -0.18006669 0.2432922
0000a0 91 c9 c6 be c2 5c a0 3e ab c6 c5 3e 39 1a 52 be
       -0.38825658 0.3132077 0.38628134 -0.20517816
0000b0 dd 32 c9 be d4 d0 97 be e9 59 30 3e d2 76 ea 3d
       -0.39296618 -0.2965151 0.17221798 0.114484444
0000c0 fd df 72 3e af 67 33 3c b2 e7 17 3e 27 21 8a 3e
       0.23718257 0.010950013 0.14834478 0.26978418
0000d0 61 cd a7 3e 9d c4 80 bd 57 39 a2 be db 23 a0 be
       0.3277388 -0.06287501 -0.31684372 -0.31277356
0000e0 46 e7 8f be 54 88 8e bc bd 09 81 be 59 d8 3c 3d
       -0.28106135 -0.01739899 -0.25202742 0.046104763
0000f0 42 bb b5 bd 28 77 70 3d 3e a9 c0 bd 7c 93 0d bf
       -0.08873607 0.058707386 -0.094072804 -0.5530317
000100 57 ff cc bd 40 eb 33 be 8f 9a 1a bd b9 c3 f5 be
       -0.1000964 -0.1757021 -0.037745055 -0.48000887
000110 65 6a 8b be 07 3b af 3c 0b 3c 59 3e 82 fb 5d be
       -0.2722961 0.021390451 0.21214311 -0.21677974
000120 1c d6 2a be 07 ca f6 3d a9 ab 6f 3e a8 db d6 bd
       -0.16683239 0.120502524 0.23405327 -0.10491115
000130 82 c6 f6 3d 8c 0c 0f be d7 fe c3 be 98 79 f1 be
       0.12049581 -0.1396963 -0.38280365 -0.4716308
000140 83 a0 9d 3d 7e 49 39 3e b1 94 82 be 3b 1e f6 bd
       0.07696631 0.18094441 -0.25504068 -0.12017485
000150 84 b7 63 be 0f eb c4 be 75 94 23 3e f2 98 cc be
       -0.22237974 -0.38460585 0.159746 -0.39960438
000160 8c 40 ad be 18 48 62 bd 8b 74 9f 3d 28 b0 16 bd
       -0.33838308 -0.055244535 0.07785901 -0.03678909
000170 f2 de b9 bd 5d 3e 87 be c1 28 82 3e a8 a7 8e bc
       -0.090757266 -0.26414767 0.25421718 -0.01741393
000180 27 5c a5 be 18 fa b1 3c e3 70 16 be c3 e5 2b be
       -0.3229687 0.0217257 -0.146915 -0.16786866
000190 a2 57 ce bd 75 cd f8 bd 2d d1 52 be 90 5a 07 be
       -0.100753084 -0.12148563 -0.20587607 -0.1321814
0001a0 aa f1 c8 3e eb 93 8a be a9 a6 88 be ca 36 d2 3e
       0.39246875 -0.27065977 -0.26689652 0.41057426
0001b0 23 95 24 be 4d b4 9e be 3f f0 b2 be c8 9d b9 3d
       -0.16072516 -0.30996934 -0.34948918 0.090632975
0001c0 c7 07 fc 3c b7 a0 9b 3e 7e 48 6b 3e 03 59 95 be
       0.030765427 0.30396053 0.22976872 -0.29169473
0001d0 47 26 8c be e3 32 c1 be 95 78 e5 bb 35 d2 1d be
       -0.27372953 -0.37734136 -0.0070029 -0.15412219
0001e0 40 bd 87 3c 48 7d 7a 3e b0 a0 5b 3d fe 6c 85 3d
       0.016569734 0.24461854 0.05362004 0.06514929
0001f0 f0 ad d5 3d 90 3c 87 3e f7 23 8e 3e 38 08 03 bd
       0.104335666 0.26413393 0.27761814 -0.03199026

net.2.weight f4 [128, 128]
000000 f7 92 85 be b7 c3 28 bd 12 3c 1d be b7 46 0b be
       -0.26088688 -0.041202273 -0.15354946 -0.13601194
000010 d6 f7 03 be 63 10 02 3d ed 38 09 be d8 b4 6b bd
       -0.1288751 0.03175391 -0.13400622 -0.057545513
000020 c0 76 db 3c 7c 87 57 3c 51 e5 ab bd 1c 07 22 bd
       0.026790023 0.013154861 -0.08393348 -0.03955756
000030 70 62 f7 be 7b a1 25 3d 4a 14 3c bd 17 04 1b bd
       -0.4831729 0.040437203 -0.045917787 -0.037845697
000040 70 f2 67 bc dd 76 81 be 24 63 08 bd 89 f5 92 be
       -0.014156923 -0.25285998 -0.033297673 -0.28702953
000050 36 8e 63 3d 91 bf 95 bd 9f ce 1b 3d d0 bc f0 3c
       0.055555545 -0.07311929 0.038038846 0.029386908
000060 a6 03 8c bc 63 49 c1 3d 1e 28 0c 3e 7b 43 50 bd
       -0.017091583 0.094378255 0.13687178 -0.050845604
000070 f3 35 0b bd 8f 66 aa bd 06 47 2e 3d 92 12 2b 3c
       -0.033986997 -0.08320343 0.042548202 0.010441439
000080 50 c2 eb bd c4 e3 0a 3d a8 9c 79 bd b1 36 32 bc
       -0.115116715 0.03390862 -0.060940415 -0.010877297
000090 3a fe 7f bd dd 82 23 be bc 33 cc 3c 31 c6 1c bc
       -0.06249831 -0.15967889 0.024927013 -0.009568737
0000a0 90 34 78 3c e5 5d b0 be 72 9c f3 be 0d 36 58 bd
       0.015149251 -0.34446636 -0.47580296 -0.05278592
0000b0 43 8a 63 bd e5 00 3c be 47 e8 e6 bd 4b 07 cd be
       -0.05555178 -0.18359716 -0.11274772 -0.40044627
0000c0 c9 fc 69 be 96 38 c2 3c 31 34 88 bd 56 5d 55 3c
       -0.22850336 0.023708623 -0.0665058 0.013022741
0000d0 24 04 69 be 6e 6b 6b 3b 68 6f 71 bd 74 db 13 be
       -0.22755486 0.0035922187 -0.058944136 -0.14439183
0000e0 7e 4e 6c 3d 3b 84 72 bd 34 3d 16 3b 28 cf e1 bd
       0.057692043 -0.059208136 0.0022924663 -0.1102584
0000f0 18 79 8f be d6 d6 43 3b 98 4b 14 3e db 1c 1b bc
       -0.28022075 0.002988269 0.14481962 -0.009467329
000100 29 13 1d bd ff c0 f8 bd 5b de 13 bc c8 6e 6e 3d
       -0.03834835 -0.12146186 -0.009025182 0.058211118
000110 8e c4 57 3d 33 3e d7 bc 7f 83 6b 3c ff 3e 50 bd
       0.052677684 -0.026274776 0.014374613 -0.050841328
000120 31 eb 87 3d 3f cc c1 be dd 0b 9c bd c7 6b 90 3d
       0.06636656 -0.3785114 -0.0761945 0.07051807
000130 f7 56 25 bf 0b 74 a1 3d 9c da f0 3c 5f 60 8e 3d
       -0.6458582 0.078834616 0.029401116 0.06951975
000140 34 58 73 bd f0 5e 5f bd 04 4f df 3c 15 d0 9b bc
       -0.05941029 -0.0545339 0.027259357 -0.01902012
000150 72 8c 01 bd 68 5e 18 bb a6 47 aa bd 96 95 0f bd
       -0.03162808 -0.002324963 -0.08314447 -0.035054766
000160 5a 10 97 3d 30 c9 e4 bb 2d 18 d0 3c 87 40 94 3d
       0.07376166 -0.006981991 0.025402153 0.0723887
000170 0e 2f 42 3b 71 0c a4 be 71 a3 ee 3b 60 3e 10 be
       0.0029630098 -0.32040742 0.0072826673 -0.14086294
000180 a9 b7 96 3d 33 d2 b0 3b 7e 3e 1f be 0c 87 a7 bc
       0.07359249 0.0053961514 -0.15551183 -0.020450138
000190 a5 bf 79 bf 33 72 cb bc 82 95 18 be d4 f5 f0 3c
       -0.9755805 -0.024834728 -0.14900783 0.029414095
0001a0 62 3a 91 ba b3 e9 82 be 55 13 1b 3d bd 4a 36 bd
       -0.0011080022 -0.25568923 0.037860233 -0.04450487
0001b0 66 28 b3 bc 5f 8d 10 bd d2 23 24 3d a0 09 81 bd
       -0.02186985 -0.035291072 0.040073223 -0.06300664
0001c0 70 14 c3 3d 96 38 97 be 0e 96 01 3c 3f 8a 54 bd
       0.095253825 -0.2953536 0.007909311 -0.051889654
0001d0 1a ef 57 be 48 34 98 be fe 0a 06 be 07 0a 65 bd
       -0.21087304 -0.29727387 -0.1309013 -0.055917766
0001e0 5e 23 fe bc cf cc 24 be f5 79 3e be 82 f4 19 bd
       -0.031022724 -0.16093753 -0.1860121 -0.037586696
0001f0 e6 ca 2a 3d cd 4d aa 3c c6 96 c3 bc 00 78 99 b8
       0.041697405 0.020789051 -0.023875605 -7.31796e-05
000200 81 c7 ff 3d 71 ef e9 3c ea 09 85 be 9a 85 8c 3d
       0.12489224 0.028556557 -0.25984126 0.0686142
000210 bb 59 a5 be 9f 29 f3 be 60 7c 99 3b aa d6 30 3d
       -0.3229502 -0.47492692 0.004684016 0.04317347
000220 18 d1 d1 bc 87 aa e5 bd 1d 91 be be 99 d5 ed bd
       -0.025612399 -0.11214166 -0.37220088 -0.11613006
000230 7a 55 af be 7b cc 20 3e 7d 47 aa bd 31 1a 13 3e
       -0.342449 0.15703003 -0.083144166 0.1436546
000240 0e 5f ec 3d 45 94 5b 3c 17 32 1a be 96 c2 19 3e
       0.11541568 0.013402049 -0.1505817 0.15015635
000250 14 3c 94 3c 96 27 78 be d1 80 27 be f5 27 87 bd
       0.018095054 -0.24233851 -0.16357733 -0.06599418
000260 fe d2 0f be e9 46 2a bc 45 30 3f 3d e1 2f 39 bd
       -0.14045331 -0.010392883 0.046676893 -0.045211677
000270 83 32 92 3d e0 02 a0 3c 1c 43 00 bd e3 ef 4a 3a
       0.071385406 0.01953262 -0.031314 0.00077414344
000280 ee 4e 5c 3e 79 b5 01 be cb 63 90 3d 9f dc e4 bc
       0.21514484 -0.12666883 0.07050284 -0.027937232
000290 18 92 ee 3c 36 3b e5 bd e5 3f fd bd f7 37 43 be
       0.029122397 -0.11192934 -0.123657025 -0.19064318
0002a0 d0 2f a0 3c 31 73 57 bf 04 cc 81 bc ba 08 90 bc
       0.019554049 -0.84160143 -0.015844353 -0.017582286
0002b0 00 70 49 39 ac 8c 1b 3c 4a 51 b4 bb 2d b5 75 bd
       0.00019210577 0.009493988 -0.0055028545 -0.059987236
0002c0 6f 06 27 be 13 0a 2d be 37 45 3d 3d 41 11 28 bd
       -0.16311048 -0.16898374 0.046208587 -0.04103208
0002d0 33 f6 13 bf 79 ed 44 be eb 86 17 bd 3b e1 1a be
       -0.57797545 -0.19231214 -0.036993902 -0.15124981
0002e0 3a 07 19 3d 60 01 49 be f7 70 45 3e 6e 6a 71 3e
       0.037360407 -0.19629431 0.19281374 0.23575756
0002f0 a3 d9 ff 3d cc 88 a1 bd c2 1e d2 be bc eb c4 3d
       0.12492683 -0.0788742 -0.4103909 0.09615275
000300 7e f1 c8 bd 71 73 89 3c 0e fe 19 3e ce 41 7c bc
       -0.09811686 0.01677868 0.1503832 -0.015396548
000310 60 2f a5 bb 59 dd 1c be 93 46 84 bd 62 40 7e 3e
       -0.005041048 -0.15318812 -0.064587735 0.24829248
000320 9e 0a 65 bd 00 15 fc be 47 3a 80 be e1 bd a5 3d
       -0.05591833 -0.49234772 -0.25044462 0.08092857
000330 01 2d 09 bf 4a 3e 41 3d 23 ac 65 bd 8d cd bd be
       -0.53584296 0.047178544 -0.056072365 -0.37070885
000340 94 07 8f bd 2e 5e 56 be f4 95 82 3c aa 81 6a bd
       -0.06983867 -0.20934364 0.015940644 -0.057252564
000350 4e 4e 87 be bb ec 89 3d 33 3b 20 bb 2a 0f 20 3d
       -0.2642693 0.06734606 -0.0024449348 0.03907696
000360 1b b5 c2 3d b5 33 12 be 03 39 71 bd e6 ff 3d bd
       0.095071994 -0.14277537 -0.05889226 -0.046386622
000370 4b 48 e4 bc e5 58 29 3d a9 65 16 3c 1e 19 a6 be
       -0.027866503 0.041344542 0.009179511 -0.32441038
000380 bb b6 61 bd 84 4b b4 3e 4d 7e e0 be 27 49 b3 bd
       -0.055105906 0.35213864 -0.4384636 -0.08754187
000390 c9 17 12 bf 15 8c 13 3e f7 32 81 3c 70 d7 54 bc
       -0.57067543 0.14408906 0.015771372 -0.012990817
0003a0 ea dc 21 be 3e 7e 35 3e 50 74 35 bd 8c 2a 78 bd
       -0.15806928 0.17723939 -0.044300377 -0.06058745
0003b0 67 55 73 be b8 0c eb be c0 0e bc 3a d2 9f 9a bd
       -0.23763047 -0.4590814 0.0014347658 -0.075500146
0003c0 d2 fe 33 be 91 92 b1 be 45 65 0c be b6 88 33 3e
       -0.17577675 -0.34682134 -0.13710506 0.1753262
0003d0 cf ac ed bd 99 07 d4 bd 13 21 b4 bd a9 e2 42 3b
       -0.11605226 -0.10353012 -0.08795371 0.002973715
0003e0 01 34 31 bd d1 87 95 bd 44 b1 14 3d be 9a fb bd
       -0.043262485 -0.073012955 0.036301866 -0.12285374
0003f0 ef 62 9f 3e 4a 46 c7 bd 2f c8 d7 bc 30 be 73 3c
       0.31130168 -0.097302034 -0.026340572 0.014876887

net.2.bias f4 [128]
000000 67 67 44 3d 4c ce 8c bd 2a f1 42 bd a5 9d da bd
       0.047950175 -0.068752855 -0.047593273 -0.106745996
000010 b9 c5 5e be b2 25 8b 3d dc f5 d4 3b d9 82 0d bd
       -0.21755113 0.06794299 0.0064990353 -0.034548614
000020 22 bc 1a bc 43 2d 54 bd 57 0f 90 bd fc b0 37 3e
       -0.009444268 -0.051800977 -0.07034176 0.17938608
000030 21 85 0d 3c 13 94 eb 3d 0b 4e db bc d9 78 7d bd
       0.008637697 0.11502852 -0.026770612 -0.061882827
000040 3d e0 0d 3b 19 f1 9f bd a6 dd 2d 3d de 38 9c bc
       0.002164855 -0.078096576 0.04244771 -0.019070085
000050 76 37 8e bc cb ff a7 bc 53 c4 eb bc fe 1c 61 bc
       -0.01736043 -0.020507714 -0.028780138 -0.013739822
000060 c4 c6 22 3e a8 87 ab bd d4 99 75 bd 4b 8d 48 bd
       0.15896136 -0.08375484 -0.059961155 -0.048962872
000070 62 47 03 be 35 1b 49 3c cf f7 34 bd 0e 66 16 3e
       -0.12820199 0.012274553 -0.04418164 0.14687368
000080 dc 2d 66 3b f0 05 0e bc f9 b6 1c 3e 85 2d 8c bd
       0.003512255 -0.008668408 0.15304174 -0.0684462
000090 c7 24 aa bd ab 40 ba bd e2 34 a8 bd 72 61 b6 bd
       -0.08307796 -0.09094366 -0.082132116 -0.08905305
0000a0 c8 9a ed bc ba 36 8f 3c 08 1d e9 3d 7c 88 16 bd
       -0.02900447 0.01748215 0.113824904 -0.036751255
0000b0 a2 95 01 bd f4 0f 7e bd e1 2b d9 bb 1d ca be bd
       -0.03163684 -0.062026933 -0.006627545 -0.09315894
0000c0 8d 7d 20 3d 35 22 dd 3c 70 67 54 bd b9 4c 56 bd
       0.039182235 0.02699385 -0.05185646 -0.052319262
0000d0 62 ca f1 bc 34 64 7f be c9 1b c9 bd fc 0d 2b bd
       -0.029515449 -0.24940568 -0.09819753 -0.041761383
0000e0 2c 5e 38 3c 59 3c 37 bd 83 63 ef bd a7 2a 8e 3b
       0.011252921 -0.044735286 -0.11688902 0.0043385806
0000f0 c0 eb db bb 47 9a 80 3d dc 34 6f 3c 20 21 d0 bd
       -0.006711453 0.06279426 0.014600005 -0.10162568
000100 7d bf 6e bd 26 2a 4c bc d7 49 95 3c 15 45 dc bc
       -0.058288086 -0.012461221 0.018223686 -0.02688841
000110 ca 0e bb bd d9 11 92 3c d4 7f 26 be 28 92 dd bd
       -0.0913368 0.017830776 -0.162597 -0.10818893
000120 03 6e b3 bc ca 50 8d 3a d9 d3 49 3e ee 98 96 bd
       -0.021903044 0.0010781523 0.1970972 -0.07353388
000130 50 dd 10 3d 5c 70 d4 3b d5 dc 1c bc 63 e1 79 bd
       0.03536731 0.006483121 -0.009574135 -0.06100596
000140 88 25 b5 bd e4 6e ab bd 27 3a 11 bd f3 ea 12 3e
       -0.08845049 -0.0837076 -0.03545585 0.14347439
000150 8b dc fc bb b0 3b 53 bc 1a c0 8a bd 7d 64 43 3d
       -0.0077167205 -0.012892649 -0.06774922 0.047703255
000160 4b 38 ec bd cc 44 1e 3d fb 3a ab bd 73 b9 2c 3d
       -0.115341745 0.03863983 -0.08360859 0.042169046
000170 99 07 9c 3d bb 2b 8b bc f3 5f 13 3e 8d cb 4d 3d
       0.07618637 -0.016988626 0.1439207 0.05024295
000180 32 67 fa bd fa 6a 08 be 71 7e fd 3d 06 75 96 bb
       -0.12226714 -0.13322058 0.123776324 -0.004591587
000190 df 4e 85 bc 69 71 d5 3d a6 63 8b 3c 8c c6 6a 3e
       -0.01627296 0.10422022 0.01701529 0.22927302
0001a0 45 2a 22 3e 09 2a ab bd 46 1e eb 3b 28 7d 9e bd
       0.15836437 -0.08357627 0.0071752397 -0.077387154
0001b0 b3 a8 69 bd b7 37 b6 bd 67 6a f1 bd 27 8c ca 3d
       -0.05704565 -0.088973455 -0.11787873 0.09890013
0001c0 f1 17 83 bd 2e 11 00 3e 2a 7f 12 3d 1c ca 4c 3d
       -0.06401051 0.12506554 0.035765804 0.049997434
0001d0 9a 63 4b bd 5f 5e 38 3e ab bf ee bd e1 fe 58 bd
       -0.049655534 0.1800475 -0.116576515 -0.052977446
0001e0 5c e5 a0 3c 36 e2 7f bd b6 15 70 bd f5 a1 aa bd
       0.019640617 -0.06247159 -0.058614455 -0.08331672
0001f0 73 0a 0a 3c a8 2c 55 3c 3a 45 04 3d 72 36 97 bd
       0.008425343 0.013011135 0.032292582 -0.073834315

net.4.weight f4 [3, 128]
000000 dc 6e 83 bd 59 63 f9 be df 74 53 3b 0f a9 49 bd
       -0.06417629 -0.4870861 0.0032265706 -0.049233492
000010 ab d0 a0 bd 7e f8 ca 3c 23 f0 61 bf 51 2e a2 bd
       -0.078523 0.024776693 -0.88257045 -0.079189904
000020 1f ae e0 3c 3c a4 2b 3c 84 12 a1 3d c5 09 f4 3d
       0.027426777 0.010476168 0.0786486 0.11915926
000030 ab 5f 0b bc 7a 3f 8e 3d b2 ca 1c 3e cf 36 89 3e
       -0.008506696 0.06945701 0.15311697 0.26799628
000040 df f1 f8 3d f2 da 98 3d de d1 ca 3c b2 49 7d 3d
       0.12155508 0.074636355 0.024758276 0.06183786
000050 0f 58 50 bd ec 4d 0b 3d 11 2c 24 bd 70 07 ad 3d
       -0.05086523 0.03400986 -0.040081087 0.08448684
000060 8d 8d 09 3e 25 dd ab bd 0e 7c 8b bd c8 ed 46 3c
       0.13432904 -0.08391789 -0.06810771 0.012141652
000070 5f ec 50 bc 3e 3b 2f 3e 5d 0f 17 bd 0c e3 c4 be
       -0.012751668 0.17112443 -0.036879886 -0.38454473
000080 e7 fe 41 3e 43 4b b8 bd 8f 1a f2 3d 98 a1 27 3c
       0.18944894 -0.0899873 0.11821472 0.010231398
000090 cc 78 bc 3c 00 c5 4e 3b 88 8d 90 3c da d0 77 3d
       0.02300682 0.0031550527 0.017645612 0.06050191
0000a0 c1 8f 85 3d db ae 69 3e 9f c0 03 3e a3 9e e6 3d
       0.065215595 0.22820608 0.12866448 0.11260726
0000b0 33 97 5b bd 0c 01 96 3d 93 c5 b2 bd bf c5 c1 3d
       -0.05361099 0.073244184 -0.087290905 0.09461545
0000c0 fe 2e a6 3d e1 b8 8c 3d 88 bb 1d 3d ef 0d de ba
       0.08114432 0.068712 0.03850892 -0.0016941408
0000d0 98 a2 1e bb cf 6f b6 bd 57 87 bb bc fd 23 d0 bb
       -0.00242058 -0.089080445 -0.022891684 -0.0063519464
0000e0 ba 1a 9f 3d 80 3c 40 3d 6d e6 3e 3d 36 36 21 3d
       0.077687696 0.046932697 0.04660647 0.03935834
0000f0 2e 25 d0 3d c6 b2 ba 3d 1e c8 9b 3e 67 39 20 3e
       0.101633415 0.091161296 0.30426115 0.15646897
000100 87 ce e3 bd 06 52 96 3d 8f 39 0f 3e bb cb 13 bd
       -0.11123376 0.073398635 0.139868 -0.036082964
000110 88 6f 73 3d 0c de b0 bd b3 6d 18 bf 45 9a 42 bf
       0.059432536 -0.08636102 -0.5954239 -0.76016647
000120 80 51 61 bc 65 c0 47 bd 6b d0 db be 02 90 66 3d
       -0.013752341 -0.048767466 -0.42932448 0.05628968
000130 26 9e 91 3d a2 47 b6 bd 3f ff 67 3d 1f 9a 11 3e
       0.071102425 -0.089003816 0.056639906 0.14218949
000140 83 92 c2 bc 1e 00 06 bd 59 bd f5 3c c9 d9 e9 3d
       -0.023751503 -0.032714956 0.029997515 0.11418492
000150 13 32 3d 3d 8b 7f 1a bd 6f 09 39 bf 28 1c 86 3e
       0.046190333 -0.03771929 -0.7228002 0.26193357
000160 51 5e 5d bd be 3a 00 3e 1f 48 c3 bd fb 5f 17 3e
       -0.054045025 0.12522408 -0.095352404 0.14782707
000170 83 13 f7 3d 86 2b 38 bd 1d df 10 3e 26 de 45 3d
       0.120642684 -0.044963382 0.14147611 0.04830756
000180 09 ff b7 be 59 1c 1b be f0 9c c4 3d 4a 13 83 3e
       -0.35936764 -0.15147533 0.09600246 0.25600654
000190 a4 d2 50 3c d2 3f 38 3e 55 cb 95 3d 4a 43 90 3e
       0.012745533 0.17993096 0.07314173 0.28176337
0001a0 33 fb 66 3e 13 e7 b3 bd a1 5e 65 3d 55 37 8c 3d
       0.22556762 -0.08784308 0.05599845 0.06846491
0001b0 1f 88 5d 3c 9e da d1 be 47 e9 0a 3e db de f8 be
       0.013521223 -0.40987104 0.1356555 -0.48607525
0001c0 e4 0c 88 3d 48 d0 29 3e 91 5b 8d 3e b2 23 86 be
       0.06643084 0.16583359 0.27608922 -0.26199108
0001d0 40 ed eb 3c 54 20 95 3d 3c e2 0e bf 8d c5 52 3d
       0.028799653 0.07281557 -0.55813956 0.05145793
0001e0 7f 53 50 bf 2a da 4e 3d f8 3f 83 3d 1c 30 87 3c
       -0.81377405 0.050501026 0.064086854 0.016502433
0001f0 50 e5 2e 3d 38 9e 23 bd ee 33 0a bf 2f c8 f6 be
       0.04269916 -0.03994581 -0.5398549 -0.48199603
000200 84 48 16 bd c8 6c 71 be 5d 81 78 bd 32 09 da bc
       -0.03669025 -0.23576653 -0.060670245 -0.026615713
000210 15 ff 01 be 64 a2 8e 3d e9 dc 0b bf db f7 05 3c
       -0.12694962 0.06964567 -0.5463396 0.008176769
000220 9b 23 66 3c 92 b1 27 bd d3 68 5a 3d 19 a3 cc 3d
       0.014046575 -0.04094083 0.053322624 0.09992046
000230 69 e3 9b 3c 65 ca b5 3d fd 4e f3 3d d9 9c 08 3e
       0.019029336 0.08876494 0.118803 0.13341083
000240 13 e2 f6 3d 28 7d b5 3c ca 68 12 bd 15 78 14 bd
       0.12054839 0.022154406 -0.035744466 -0.03624733
000250 94 e5 aa bd 9e b8 96 bd a9 93 be bd a1 ef a7 3d
       -0.0834457 -0.07359432 -0.09305508 0.082000025
000260 09 c2 91 3e 91 63 ae 3d 0d eb 95 bd e2 77 d7 3c
       0.2846835 0.085150845 -0.07320223 0.026302282
000270 b7 52 14 bd 28 5a 2e 3e 29 02 9e 3d 8a 85 19 bf
       -0.036211696 0.1702658 0.07715256 -0.5996939
000280 21 10 14 3e ce be 16 be 14 e4 f9 3d 4d f5 15 bd
       0.14459278 -0.14721224 0.122017056 -0.03661089
000290 ed e6 8f 3d 05 f4 90 3c 15 ea 55 bc 73 35 36 3d
       0.070264675 0.017694483 -0.013056298 0.044484567
0002a0 84 43 44 bd aa 70 33 3e 60 45 a3 3c 55 86 01 3e
       -0.04791595 0.17523447 0.019930542 0.126489
0002b0 f5 04 72 bd 6b 6c 37 3d 1b 05 ac bd b5 3a 23 ba
       -0.05908676 0.04478113 -0.08399411 -0.00062267046
0002c0 17 9e 39 bd 01 a4 66 3d 50 40 39 3d ec 4b f8 bc
       -0.04531678 0.05630875 0.04522735 -0.03030964
0002d0 93 b1 7d 3d 37 9c 1d be 12 d5 e3 bd 80 71 30 bd
       0.061936926 -0.15391622 -0.11124624 -0.043076992
0002e0 f3 5e 27 bc 66 b8 85 bd b8 dc 26 3c a4 24 fe 3c
       -0.010215509 -0.06529312 0.010184459 0.031023331
0002f0 c0 22 0c 3e 9f 4c 1f 3d 55 22 de 3e 61 a2 1b 3e
       0.13685131 0.03889143 0.43385568 0.15198661
000300 78 19 20 be c7 2d ad 3d e2 76 6f 3d e8 78 ef bb
       -0.15634716 0.08455997 0.058462985 -0.0073081143
000310 bc 30 ab 3d 08 f0 98 bd 27 11 2a bf b8 ac f0 be
       0.08358905 -0.07467657 -0.6643242 -0.47006774
000320 60 c7 49 3d 1e 52 ff bc cd 96 33 bf 2e 37 33 3d
       0.049262404 -0.031167086 -0.7015198 0.043753795
000330 dc bd a9 3c ff 0b 0e be 09 e3 a4 3d 81 38 9c 3e
       0.020720415 -0.13871764 0.08051116 0.3051186
000340 3f e9 b2 bd 80 a1 45 3d 4f 8e 45 3d 7d b6 e4 3d
       -0.087358944 0.04824972 0.04823142 0.111676194
000350 36 f0 d3 3d dd fa 04 3d 74 8d c7 bd 00 80 3f 3e
       0.10348551 0.032465804 -0.09743777 0.18701172
000360 40 da ce bd 2e 9d d8 3d b4 00 0f be d4 37 b4 3d
       -0.10100222 0.10576855 -0.13965112 0.08799711
000370 68 22 df 3d 42 25 0a 3d bb d3 24 3e b3 5e 63 3d
       0.10895234 0.033726938 0.16096394 0.055510234
000380 ba 29 bf bc f1 17 2b be af d0 2b 3e 98 e9 64 3e
       -0.023335326 -0.16708352 0.16778825 0.22354734
000390 33 7b 8c 3d b5 9e 8f 3e e9 7a 50 3d 7f 04 e3 3e
       0.06859436 0.2805077 0.050898466 0.44339368
0003a0 b9 b2 b3 3e 00 3b 5d bb e3 8a 81 3d 06 33 56 bd
       0.35097292 -0.003375709 0.06325319 -0.052294753
0003b0 87 67 69 bd 1c e1 ce be de 42 19 3e 16 29 35 be
       -0.056983497 -0.4040612 0.14966914 -0.17691454
0003c0 11 cd ad 3d 10 46 bf 3d 49 e4 90 3e b6 c9 af be
       0.08486379 0.09339535 0.28299168 -0.3433358
0003d0 a9 8c 84 3e d4 53 33 3d 3e 55 e9 be 4c ec 79 3d
       0.25888565 0.043781117 -0.45572847 0.061016366
0003e0 db 48 05 bf d8 f0 b6 3d 8e de 2c 3d 70 a6 b7 bb
       -0.52064294 0.08932656 0.042204432 -0.0056045577
0003f0 ec a2 10 bd a3 30 f0 bc 2d 5c 0f bf f3 9b e9 be
       -0.035311624 -0.029320067 -0.56000024 -0.45626792

net.4.bias f4 [3]
000000 4e a5 7d 3c 9b fe 2e bd 3a 9f f4 3c
       0.015481306 -0.04272328 0.029861081
