train-pong/saved_models/dqn_episode_1000.pth (torch, 74369 bytes, 6 tensors)

net.0.weight f4 [128, 6]
00000000: 0060 ed3d 573e 9f3e 4869 cd3e 7ffa 47be
00000010: 9bb1 8f3d 846e 91be 70c7 bfbe 9676 dabe
00000020: c309 b53e 45f6 1fbe 487e 3e3e 32d6 84be
00000030: 08db 89bd 4542 e9be 9967 24bf f004 96be
00000040: e6a4 b23d 41e3 103c 0980 68be 9bd3 873d
00000050: 61ed 633e dd22 43bd be05 2e3e d37e 46be
00000060: 6895 23be 19af c9be 045c 833e e47c 853e
00000070: 68bb 15be 43fb d43e ad68 083f 2b1c b6be
00000080: 3c34 313e 7ab2 1a3e 453e f9be 74e6 febd
00000090: c8ee 2fbf e353 cd3e 4cdc 2ebf cd13 f5be
000000a0: 9263 fc3e 778b ccbe b26e 4ebe c724 95be
000000b0: 64c6 a0be 30a5 20bd 9449 cebe 5ba5 9fbe
000000c0: 52d2 c33e df5b 4cbd 50e8 77ba af3d 62bd
000000d0: d3a9 babe d408 e3bd a957 a23e 911c 27bf
000000e0: c0f5 ac3c 2140 7b3e 78c2 91be 9cc5 473e
000000f0: 1beb fabe f3ed 27be f126 cdbe d647 283f
00000100: 1eeb bd3e 0250 f33d 637a 133e 1c03 9b3d
00000110: 5aaf 0cbd 0dfc dd3c 3cb8 163d 957d a5be
00000120: 78f9 413e 151f 5dbe 7ed9 433f 40e2 63bc
00000130: d441 f4bd 27ab 54bd 893f 403e bad4 1b3f
00000140: a31e 303e 7a9f 033f 74c8 90be daa0 95be
00000150: 4605 febe b91a 6d3e 309b 893e 7b27 073e
00000160: 89aa 8b3d fc4f 56be bace ac3c 0207 133f
00000170: 92ba 223e 1d1b 253e 775d 603d 8155 54be
00000180: 0d9e 3fbe b19d f2bd a785 eebe a116 1dbe
00000190: 113d 98bd b1f8 7a3e 7247 a63d fa46 023d
000001a0: 423e d93e ee87 3bbe 8f0a c4bd aadd 393d
000001b0: 463f d9bd 729f 913c 0346 f3be d786 813c
000001c0: 812a 40be 52da 933e c716 173e 0f2c f03e
000001d0: 8cf1 ec3e 49a6 4abe 8e44 a23c 62de bb3d
000001e0: c0b6 8fbc 2474 4c3e a45f 683e 6238 ad3e
000001f0: d0d2 053d df8a 83be 0cbc 91be a4c2 793e
00000200: 60b1 1bbf 75cd 5d3e 44cb 7d3e 0e7b 37be
00000210: 47f8 31be 5d3a 01be 9e3f 4fbf cc57 1cbd
00000220: 72ef ca3d 734e f93d af65 edbc cfbf dd3e
00000230: 97ee b7bd b387 183f 9007 bf3b 5d1b 96bd
00000240: a2d2 f6bd c864 a03c e6c5 c5be 405e 50ba
00000250: eabc a0bc a430 1b3e dada c33e 2b9a 1abf
00000260: 4284 1f3e eb19 4cbe f7e7 2e3e 67ca 233e
00000270: 2949 41be e32a 3f3e 2146 8b3d 2ece 2fbc
00000280: 36a8 713d 584d bb3d 1b91 48be 3741 3f3e
00000290: 7120 aa3e 9c9c c73d dae6 65bd 81e9 b4bd
000002a0: d0cb 553d 2cd7 c2bd 0079 10bd fca4 2f3e
000002b0: 42ed 51be 10d5 273d 581a 5e3e 7031 0dbe
000002c0: 4425 76be fad7 c33e a026 3dbe deaa adbe
000002d0: 9633 2bbe 0089 c9be 183d c1be 50a3 8b3d
000002e0: a460 a0bd 90dd 373d c302 613d ed05 fc3e
000002f0: 7716 2e3e b33b 123d 0dbd 5ebd a1e0 52bc
00000300: 3535 21be cbc9 443e 1334 6ebe 50e7 05bd
00000310: 784f 8ebe ceb2 3bbe cba4 84be cec4 eabe
00000320: 118b 00be ce9c 013e bb46 ee3e 521e 0a3e
00000330: 2dc5 113d 8e13 863e d57a 0b3f c53b 53be
00000340: 6c9d 19be 1b84 a2be 7807 27bf e54a 00bf
00000350: d9bc 33be 9505 523e 3458 c23e 4225 f1bd
00000360: 50f4 f53c 4b29 4ebe 037a 57be 88ea 093e
00000370: c0d8 803b f8bc 3fbd 6139 6abd 8ed5 ed3b
00000380: 181f 0abf 38c5 c3bd c8fc 22bd a724 37be
00000390: 6dc0 9c3d 8230 84be 3340 923c 9747 1cbf
000003a0: d6a4 0cbd 80b0 a53e 4bb2 d4bd 872b 0abf
000003b0: b85e 483e a624 a13c 79ca 0a3f 9d65 a0bb
000003c0: 1a6a 7bbe 4261 b6be c8e6 b83d af74 963e
000003d0: f57a 0a3d f67d 873e 957a 1c3e f55f 30be
000003e0: df6a b03e 1528 90be 8c2e b73c e8c8 97be
000003f0: fd98 eabd 2ecd a1be 86da 1abf 8386 873d
0.11590576 0.3110225 0.40119386 -0.1952915 0.070162974 -0.2840463 -0.37456846 -0.426686
0.3535901 -0.15621288 0.1860286 -0.25944668 -0.0673123 -0.45558372 -0.6422058 -0.29300642
0.08722858 0.008843244 -0.22705092 0.066321574 0.22258522 -0.04764067 0.16994378 -0.19384317
-0.15974963 -0.393914 0.2565614 0.26071846 -0.14622271 0.41597947 0.5328472 -0.35568365
0.17305082 0.15107146 -0.4868032 -0.12446299 -0.68723726 0.40103063 -0.68304896 -0.4786667
0.49294716 -0.39950153 -0.20159414 -0.2912962 -0.3140136 -0.039220035 -0.4029051 -0.31180844
0.382464 -0.049892303 -0.00094569195 -0.055234607 -0.3645769 -0.11085668 0.31707504 -0.65277964
0.021113276 0.24536182 -0.2846868 0.19508976 -0.49007496 -0.16399364 -0.40068772 0.6573461
0.37093443 0.11880495 0.14402156 0.075689524 -0.034346916 0.027097726 0.036796793 -0.32322374
0.18942821 -0.21593888 0.7650374 -0.013908923 -0.11926618 -0.051921036 0.18774237 0.6087147
0.17199187 0.51415217 -0.28277934 -0.29224283 -0.49613398 0.23154725 0.2687621 0.13198654
0.068196364 -0.20928949 0.021094669 0.5743257 0.15891483 0.16123624 0.054776635 -0.20735742
-0.18712635 -0.118464835 -0.46586344 -0.15340663 -0.074335225 0.2450893 0.08119096 0.03180597
0.4243031 -0.18313572 -0.095723264 0.04537741 -0.106077716 0.017776225 -0.47514352 0.015811367
-0.18766214 0.28877503 0.14754783 0.46908614 0.46278036 -0.19789995 0.01980808 0.091732755
-0.017543197 0.19966179 0.22692734 0.3383208 0.03267175 -0.25691888 -0.2846378 0.24390656
-0.6081753 0.21660407 0.24784571 -0.17918035 -0.17379867 -0.1261992 -0.8095645 -0.038169667
0.09908952 0.12173166 -0.02897915 0.433104 -0.08981054 0.5958206 0.005829759 -0.07329438
-0.12051894 0.019579306 -0.38627547 -0.00079486147 -0.019621331 0.15155274 0.38252908 -0.6039149
0.15577796 -0.19931762 0.17080675 0.15995179 -0.18875565 0.18668704 0.068004854 -0.010730309
0.05899831 0.091456115 -0.19586603 0.18677221 0.33227876 0.09746668 -0.05612836 -0.088336
0.052196324 -0.09513697 -0.035271645 0.1715278 -0.20500663 0.040974677 0.21689737 -0.1378839
-0.24037653 0.38250715 -0.18471766 -0.33919424 -0.16718897 -0.39362335 -0.37741923 0.06818259
-0.07830933 0.044889033 0.054934274 0.4922327 0.17000757 0.035701465 -0.05437951 -0.0128709385
-0.15742953 0.19217603 -0.23262052 -0.0326913 -0.27795005 -0.18329927 -0.25906977 -0.45853275
-0.1255305 0.12657472 0.46538338 0.13488129 0.035588432 0.26186794 0.544843 -0.20628269
-0.15001458 -0.31741413 -0.6524577 -0.5011428 -0.17552508 0.20509942 0.3795792 -0.117746845
0.030023724 -0.2013294 -0.21042638 0.13468373 0.0039320886 -0.046811074 -0.057183627 0.0072581237
-0.53953695 -0.09559101 -0.039791852 -0.17885076 0.0765389 -0.2581826 0.017852878 -0.6104674
-0.034336887 0.3236122 -0.10385569 -0.5397267 0.19567382 0.019670796 0.542152 -0.0048949257
-0.24552193 -0.35621077 0.09028393 0.29385898 0.033808667 0.26463288 0.15281136 -0.17224105
0.34456536 -0.2815558 0.022361062 -0.29645467 -0.114549614 -0.31601852 -0.6048969 0.06617453

net.0.bias f4 [128]
00000000: 3318 873c d109 cfbd 6294 b63e d591 02be
00000010: 7d77 f13e b08b 003f 0c56 c03c 2045 df3d
00000020: c794 973e 12d2 af3e a057 a8bd 7831 473c
00000030: 2565 983d 35e4 0fbc bfdf 48be f947 31be
00000040: d8e1 d23d d32e f4bd e922 58be e9f5 b7be
00000050: 4a32 8cbe 1d3a b9bc 5e6d 31bd 2dfb 08be
00000060: 8e1a e8bd 0367 22bc 54ce 9fbe 8d50 78be
00000070: cedd 25be f498 56be 91ff 7ebe 8e9b 83be
00000080: 3663 093e 832e 723e 644e 0cbe a609 2d3e
00000090: 1e5f 9bbe deb8 893e cccd 25be bb47 543e
000000a0: 91c9 c6be 4551 803e 42f3 c33e 391a 52be
000000b0: dd32 c9be 6bf6 94be de2f 403e bbed c63d
000000c0: afea 143e c978 d23c 4e36 2a3e 6d70 573e
000000d0: afa8 a53e ad48 1ebe 5739 a2be 8dd4 a3be
000000e0: 46e7 8fbe 58c5 a1bc cf93 85be 0824 fa3d
000000f0: 42bb b5bd 2078 983d 5707 ebbd 7c93 0dbf
00000100: da4e 91bd 80fd 5fbe 849d 07bd 4b7a f2be
00000110: 656a 8bbe 0411 4c3d 6a22 533e 0236 3fbe
00000120: 1cd6 2abe 7890 ed3d a0a4 6f3e a8db d6bd
00000130: 0af7 eb3d 8c0c 0fbe d7fe c3be 6936 12bf
00000140: 83a0 9d3d 0bbb ef3d b194 82be 55d0 3cbe
00000150: eb45 79be d8ae cbbe 0d3f 333e f298 ccbe
00000160: ee3a b8be 1848 62bd e661 203d 28b0 16bd
00000170: b05c 31be b181 9dbe e0d1 803e cb48 443b
00000180: 275c a5be 2407 783c 3777 d3bd c3e5 2bbe
00000190: 75f9 b0bd 8223 bebd 4a55 42be 905a 07be
000001a0: ca30 d53e 9d35 84be df39 8fbe 9e4d e73e
000001b0: 2174 3abe 4db4 9ebe 3ff0 b2be c89d b93d
000001c0: b321 1cbc 066e 923e 9053 6d3e ca56 a3be
000001d0: 9439 8abe fc55 c1be 3ec0 253d c1c1 1bbe
000001e0: 40bd 873c d07c 693e b0a0 5b3d 60f9 363b
000001f0: f0ad d53d 94fb 883e e290 ad3e 3808 03bd
0.016491031 -0.10109294 0.35660082 -0.12750943 0.47161475 0.50213146 0.02347853 0.109018564
0.29605696 0.34339958 -0.08219838 0.01215779 0.07441167 -0.008782436 -0.19616602 -0.17312612
0.102969825 -0.119229935 -0.21107067 -0.35929802 -0.27382118 -0.022610718 -0.04331719 -0.13377066
-0.1133319 -0.009912255 -0.31212103 -0.24249478 -0.16197893 -0.20956784 -0.24902178 -0.25704616
0.13416752 0.23650555 -0.13701779 0.16898212 -0.30346006 0.26898855 -0.16191787 0.20730488
-0.38825658 0.25062004 0.38271528 -0.20517816 -0.39296618 -0.29094252 0.1876826 0.09713312
0.1454265 0.02569236 0.16622278 0.21038981 0.32355258 -0.15457411 -0.31684372 -0.319981
-0.28106135 -0.019747421 -0.26089332 0.12213904 -0.08873607 0.07444787 -0.11476009 -0.5530317
-0.07095118 -0.21874046 -0.033109203 -0.47358927 -0.2722961 0.049820915 0.20618597 -0.18672946
-0.16683239 0.11599821 0.23402643 -0.10491115 0.11521728 -0.1396963 -0.38280365 -0.57114273
0.07696631 0.117055975 -0.25504068 -0.18438847 -0.24343078 -0.39781833 0.1750452 -0.39960438
-0.3598246 -0.055244535 0.039155863 -0.03678909 -0.17320514 -0.3076301 0.25160122 0.0029950615
-0.3229687 0.015138421 -0.10325473 -0.16786866 -0.0864133 -0.09284116 -0.18977848 -0.1321814
0.41638786 -0.25822154 -0.2797384 0.45176405 -0.18208362 -0.30996934 -0.34948918 0.090632975
-0.009529519 0.28599566 0.23176408 -0.31902152 -0.26997054 -0.37760913 0.04046654 -0.1521063
0.016569734 0.22801518 0.05362004 0.0027919635 0.104335666 0.2675444 0.338996 -0.03199026

net.2.weight f4 [128, 128]
00000000: f792 85be b7c3 28bd 123c 1dbe b746 0bbe
00000010: d6f7 03be 6310 023d ed38 09be d8b4 6bbd
00000020: c076 db3c 7c87 573c 51e5 abbd 1c07 22bd
00000030: 7062 f7be 7ba1 253d 4a14 3cbd 1704 1bbd
00000040: 70f2 67bc dd76 81be 2463 08bd 89f5 92be
00000050: 368e 633d 91bf 95bd 9fce 1b3d d0bc f03c
00000060: a603 8cbc 6349 c13d 1e28 0c3e 7b43 50bd
00000070: f335 0bbd 8f66 aabd 0647 2e3d 9212 2b3c
00000080: 50c2 ebbd c4e3 0a3d a89c 79bd b136 32bc
00000090: 3afe 7fbd dd82 23be bc33 cc3c 31c6 1cbc
000000a0: 9034 783c e55d b0be 729c f3be 0d36 58bd
000000b0: 438a 63bd e500 3cbe 47e8 e6bd 4b07 cdbe
000000c0: c9fc 69be 9638 c23c 3134 88bd 565d 553c
000000d0: 2404 69be 6e6b 6b3b 686f 71bd 74db 13be
000000e0: 7e4e 6c3d 3b84 72bd 343d 163b 28cf e1bd
000000f0: 1879 8fbe d6d6 433b 984b 143e db1c 1bbc
00000100: 2913 1dbd ffc0 f8bd 5bde 13bc c86e 6e3d
00000110: 8ec4 573d 333e d7bc 7f83 6b3c ff3e 50bd
00000120: 31eb 873d 3fcc c1be dd0b 9cbd c76b 903d
00000130: f756 25bf 0b74 a13d 9cda f03c 5f60 8e3d
00000140: 3458 73bd f05e 5fbd 044f df3c 15d0 9bbc
00000150: 728c 01bd 685e 18bb a647 aabd 9695 0fbd
00000160: 5a10 973d 30c9 e4bb 2d18 d03c 8740 943d
00000170: 0e2f 423b 710c a4be 71a3 ee3b 603e 10be
00000180: a9b7 963d 33d2 b03b 7e3e 1fbe 0c87 a7bc
00000190: a5bf 79bf 3372 cbbc 8295 18be d4f5 f03c
000001a0: 623a 91ba b3e9 82be 5513 1b3d bd4a 36bd
000001b0: 6628 b3bc 5f8d 10bd d223 243d a009 81bd
000001c0: 7014 c33d 9638 97be 0e96 013c 3f8a 54bd
000001d0: 1aef 57be 4834 98be fe0a 06be 070a 65bd
000001e0: 5e23 febc cfcc 24be f579 3ebe 82f4 19bd
000001f0: e6ca 2a3d cd4d aa3c c696 c3bc 0078 99b8
00000200: 81c7 ff3d 71ef e93c ea09 85be 9a85 8c3d
00000210: bb59 a5be 9f29 f3be 607c 993b aad6 303d
00000220: 18d1 d1bc 87aa e5bd 1d91 bebe 99d5 edbd
00000230: 7a55 afbe 7bcc 203e 7d47 aabd 311a 133e
00000240: 0e5f ec3d 4594 5b3c 1732 1abe 96c2 193e
00000250: 143c 943c 9627 78be d180 27be f527 87bd
00000260: fed2 0fbe e946 2abc 4530 3f3d e12f 39bd
00000270: 8332 923d e002 a03c 1c43 00bd e3ef 4a3a
00000280: ee4e 5c3e 79b5 01be cb63 903d 9fdc e4bc
00000290: 1892 ee3c 363b e5bd e53f fdbd f737 43be
000002a0: d02f a03c 3173 57bf 04cc 81bc ba08 90bc
000002b0: 0070 4939 ac8c 1b3c 4a51 b4bb 2db5 75bd
000002c0: 6f06 27be 130a 2dbe 3745 3d3d 4111 28bd
000002d0: 33f6 13bf 79ed 44be eb86 17bd 3be1 1abe
000002e0: 3a07 193d 6001 49be f770 453e 6e6a 713e
000002f0: a3d9 ff3d cc88 a1bd c21e d2be bceb c43d
00000300: 7ef1 c8bd 7173 893c 0efe 193e ce41 7cbc
00000310: 602f a5bb 59dd 1cbe 9346 84bd 6240 7e3e
00000320: 9e0a 65bd 0015 fcbe 473a 80be e1bd a53d
00000330: 012d 09bf 4a3e 413d 23ac 65bd 8dcd bdbe
00000340: 9407 8fbd 2e5e 56be f495 823c aa81 6abd
00000350: 4e4e 87be bbec 893d 333b 20bb 2a0f 203d
00000360: 1bb5 c23d b533 12be 0339 71bd e6ff 3dbd
00000370: 4b48 e4bc e558 293d a965 163c 1e19 a6be
00000380: bbb6 61bd 844b b43e 4d7e e0be 2749 b3bd
00000390: c917 12bf 158c 133e f732 813c 70d7 54bc
000003a0: eadc 21be 3e7e 353e 5074 35bd 8c2a 78bd
000003b0: 6755 73be b80c ebbe c00e bc3a d29f 9abd
000003c0: d2fe 33be 9192 b1be 4565 0cbe b688 333e
000003d0: cfac edbd 9907 d4bd 1321 b4bd a9e2 423b
000003e0: 0134 31bd d187 95bd 44b1 143d be9a fbbd
000003f0: ef62 9f3e 4a46 c7bd 2fc8 d7bc 30be 733c
-0.26088688 -0.041202273 -0.15354946 -0.13601194 -0.1288751 0.03175391 -0.13400622 -0.057545513
0.026790023 0.013154861 -0.08393348 -0.03955756 -0.4831729 0.040437203 -0.045917787 -0.037845697
-0.014156923 -0.25285998 -0.033297673 -0.28702953 0.055555545 -0.07311929 0.038038846 0.029386908
-0.017091583 0.094378255 0.13687178 -0.050845604 -0.033986997 -0.08320343 0.042548202 0.010441439
-0.115116715 0.03390862 -0.060940415 -0.010877297 -0.06249831 -0.15967889 0.024927013 -0.009568737
0.015149251 -0.34446636 -0.47580296 -0.05278592 -0.05555178 -0.18359716 -0.11274772 -0.40044627
-0.22850336 0.023708623 -0.0665058 0.013022741 -0.22755486 0.0035922187 -0.058944136 -0.14439183
0.057692043 -0.059208136 0.0022924663 -0.1102584 -0.28022075 0.002988269 0.14481962 -0.009467329
-0.03834835 -0.12146186 -0.009025182 0.058211118 0.052677684 -0.026274776 0.014374613 -0.050841328
0.06636656 -0.3785114 -0.0761945 0.07051807 -0.6458582 0.078834616 0.029401116 0.06951975
-0.05941029 -0.0545339 0.027259357 -0.01902012 -0.03162808 -0.002324963 -0.08314447 -0.035054766
0.07376166 -0.006981991 0.025402153 0.0723887 0.0029630098 -0.32040742 0.0072826673 -0.14086294
0.07359249 0.0053961514 -0.15551183 -0.020450138 -0.9755805 -0.024834728 -0.14900783 0.029414095
-0.0011080022 -0.25568923 0.037860233 -0.04450487 -0.02186985 -0.035291072 0.040073223 -0.06300664
0.095253825 -0.2953536 0.007909311 -0.051889654 -0.21087304 -0.29727387 -0.1309013 -0.055917766
-0.031022724 -0.16093753 -0.1860121 -0.037586696 0.041697405 0.020789051 -0.023875605 -7.31796e-05
0.12489224 0.028556557 -0.25984126 0.0686142 -0.3229502 -0.47492692 0.004684016 0.04317347
-0.025612399 -0.11214166 -0.37220088 -0.11613006 -0.342449 0.15703003 -0.083144166 0.1436546
0.11541568 0.013402049 -0.1505817 0.15015635 0.018095054 -0.24233851 -0.16357733 -0.06599418
-0.14045331 -0.010392883 0.046676893 -0.045211677 0.071385406 0.01953262 -0.031314 0.00077414344
0.21514484 -0.12666883 0.07050284 -0.027937232 0.029122397 -0.11192934 -0.123657025 -0.19064318
0.019554049 -0.84160143 -0.015844353 -0.017582286 0.00019210577 0.009493988 -0.0055028545 -0.059987236
-0.16311048 -0.16898374 0.046208587 -0.04103208 -0.57797545 -0.19231214 -0.036993902 -0.15124981
0.037360407 -0.19629431 0.19281374 0.23575756 0.12492683 -0.0788742 -0.4103909 0.09615275
-0.09811686 0.01677868 0.1503832 -0.015396548 -0.005041048 -0.15318812 -0.064587735 0.24829248
-0.05591833 -0.49234772 -0.25044462 0.08092857 -0.53584296 0.047178544 -0.056072365 -0.37070885
-0.06983867 -0.20934364 0.015940644 -0.057252564 -0.2642693 0.06734606 -0.0024449348 0.03907696
0.095071994 -0.14277537 -0.05889226 -0.046386622 -0.027866503 0.041344542 0.009179511 -0.32441038
-0.055105906 0.35213864 -0.4384636 -0.08754187 -0.57067543 0.14408906 0.015771372 -0.012990817
-0.15806928 0.17723939 -0.044300377 -0.06058745 -0.23763047 -0.4590814 0.0014347658 -0.075500146
-0.17577675 -0.34682134 -0.13710506 0.1753262 -0.11605226 -0.10353012 -0.08795371 0.002973715
-0.043262485 -0.073012955 0.036301866 -0.12285374 0.31130168 -0.097302034 -0.026340572 0.014876887

net.2.bias f4 [128]
00000000: 6767 443d 4cce 8cbd 2497 a8bc 9f1d c3bd
00000010: f0ed 72be 5b11 9d3d cf00 68bb d982 0dbd
00000020: 22bc 1abc 432d 54bd 570f 90bd 9d3b bd3d
00000030: 2185 0d3c 26f7 de3d 0b4e dbbc d978 7dbd
00000040: 7c44 923b 19f1 9fbd a6dd 2d3d de38 9cbc
00000050: 7637 8ebc cbff a7bc 53c4 ebbc 409c f9bc
00000060: c289 4b3e a887 abbd d499 75bd 7987 55bd
00000070: 6247 03be 351b 493c cff7 34bd 3d11 1d3e
00000080: dc2d 663b d13f a4bc 0b67 463e 852d 8cbd
00000090: c724 aabd 3b42 bcbd e234 a8bd abf1 e3bd
000000a0: bacf 03bd ba36 8f3c 6d75 f43d 7c88 16bd
000000b0: a295 01bd f40f 7ebd fe8a 84bc e038 c5bd
000000c0: 8d7d 203d 3522 dd3c 7067 54bd b94c 56bd
000000d0: 62ca f1bc a3e5 8cbe c91b c9bd 33d3 29bd
000000e0: 2c5e 383c 5221 44bd 8363 efbd a72a 8e3b
000000f0: a33d 1ebc 25e5 993d 622a 383d 2021 d0bd
00000100: 28c2 7bbd 262a 4cbc d749 953c 50e4 46bd
00000110: c44f b7bd 46e5 bbbc d47f 26be de8d 05be
00000120: f89e c5bc ca50 8d3a 5b19 573e ee98 96bd
00000130: b58a 093d 5c70 d43b d5dc 1cbc 63e1 79bd
00000140: 8825 b5bd e46e abbd 273a 11bd ab9d 123e
00000150: 2abe e1bc b03b 53bc 1010 9bbd a034 353d
00000160: 4b38 ecbd 5bf8 ec3c fb3a abbd 73b9 2c3d
00000170: ceca b73d b308 54bd 0b71 213e 8dcb 4d3d
00000180: e6f4 06be fa6a 08be cd23 1f3e 0675 96bb
00000190: df4e 85bc 247e 133e a663 8b3c a37b 9d3e
000001a0: 74e9 503e 092a abbd 15ba 2f3d 287d 9ebd
000001b0: b3a8 69bd b737 b6bd 676a f1bd a1d6 033e
000001c0: f117 83bd 881a 143e 2a7f 123d b230 d43d
000001d0: 9a63 4bbd 0726 4a3e b292 0dbe e1fe 58bd
000001e0: 9aa3 583c 36e2 7fbd c0c1 99bd f5a1 aabd
000001f0: 9899 25bd a82c 553c cf64 9b3c 7236 97bd
0.047950175 -0.068752855 -0.020579882 -0.09527134 -0.23723578 0.07669326 -0.0035400873 -0.034548614
-0.009444268 -0.051800977 -0.07034176 0.09239886 0.008637697 0.108869836 -0.026770612 -0.061882827
0.0044637304 -0.078096576 0.04244771 -0.019070085 -0.01736043 -0.020507714 -0.028780138 -0.030470014
0.19876769 -0.08375484 -0.059961155 -0.05213115 -0.12820199 0.012274553 -0.04418164 0.15338607
0.003512255 -0.020049961 0.19375245 -0.0684462 -0.08307796 -0.0919232 -0.082132116 -0.11130079
-0.032180525 0.01748215 0.1193646 -0.036751255 -0.03163684 -0.062026933 -0.016179558 -0.09629989
0.039182235 0.02699385 -0.05185646 -0.052319262 -0.029515449 -0.2751895 -0.09819753 -0.04146118
0.011252921 -0.04788334 -0.11688902 0.0043385806 -0.00965825 0.07514409 0.044962294 -0.10162568
-0.06146446 -0.012461221 0.018223686 -0.04855758 -0.08950761 -0.022936475 -0.162597 -0.130424
-0.024123654 0.0010781523 0.21005766 -0.07353388 0.033579547 0.006483121 -0.009574135 -0.06100596
-0.08845049 -0.0837076 -0.03545585 0.14317958 -0.027556498 -0.012892649 -0.07571423 0.04423964
-0.115341745 0.028927019 -0.08360859 0.042169046 0.08974229 -0.05176611 0.15765779 0.05024295
-0.13179359 -0.13322058 0.15541 -0.004591587 -0.01627296 0.14403588 0.01701529 0.3075839
0.20401555 -0.08357627 0.04290207 -0.077387154 -0.05704565 -0.088973455 -0.11787873 0.12874843
-0.06401051 0.14463246 0.035765804 0.103608504 -0.049655534 0.19741069 -0.13825491 -0.052977446
0.013222599 -0.06247159 -0.07507658 -0.08331672 -0.04042968 0.013011135 0.018968968 -0.073834315

net.4.weight f4 [3, 128]
00000000: dc6e 83bd 5963 f9be 3a55 203c 93bb c3bd
00000010: d6f8 53bd 0028 be3d dea2 82bf 512e a2bd
00000020: 1fae e03c 3ca4 2b3c 8412 a13d 3f94 063e
00000030: ab5f 0bbc 2507 a73d b2ca 1c3e cf36 893e
00000040: b2a8 863d f2da 983d ded1 ca3c b249 7d3d
00000050: 0f58 50bd ec4d 0b3d 112c 24bd af18 8d3d
00000060: 82fb d63d 25dd abbd 0e7c 8bbd c8ed 463c
00000070: 5fec 50bc 3e3b 2f3e 5d0f 17bd d934 cbbe
00000080: e7fe 413e 576e b7bd 20a2 db3d 98a1 273c
00000090: cc78 bc3c ca75 7aba 888d 903c 481d 4c3d
000000a0: c18f 853d dbae 693e 67fa e63d a39e e63d
000000b0: 3397 5bbd 0c01 963d 1547 acbd bfc5 c13d
000000c0: fe2e a63d e1b8 8c3d 88bb 1d3d ef0d deba
000000d0: 98a2 1ebb ec7f 5bbd 5787 bbbc ff03 893d
000000e0: ba1a 9f3d 803c 403d 6de6 3e3d 3636 213d
000000f0: 1ea6 cf3d 1c42 ad3d 619c e53e 6739 203e
00000100: 87ce e3bd 0652 963d 8f39 0f3e cab1 b4bd
00000110: 5ad3 533d acae babd b36d 18bf 62b6 71bf
00000120: 0ddc 8abc 65c0 47bd 7cd0 dcbe 0290 663d
00000130: 8991 6b3d a247 b6bd 3fff 673d 1f9a 113e
00000140: 8392 c2bc 1e00 06bd 59bd f53c 095f e13d
00000150: 7934 2d3e 8b7f 1abd d0b7 36bf 281c 863e
00000160: 515e 5dbd 68aa 3b3d 1f48 c3bd fb5f 173e
00000170: 7400 8f3d c616 80bd 4ce1 e63d 26de 453d
00000180: 09ff b7be 591c 1bbe e9d4 aa3d 4a13 833e
00000190: a4d2 503c 8a49 393e 55cb 953d 8d3e 8b3e
000001a0: 544b 6f3e 13e7 b3bd 3d5d 083d 5537 8c3d
000001b0: 1f88 5d3c 9eda d1be 47e9 0a3e 35a0 cfbe
000001c0: e40c 883d b338 223e 915b 8d3e aebd 52be
000001d0: 40ed eb3c bece e73d d7cf 0cbf 8dc5 523d
000001e0: e296 6bbf 2ada 4e3d 7e3b 113d 1c30 873c
000001f0: 53da ac3d 389e 23bd 8787 44bf 2fc8 f6be
00000200: 8448 16bd c86c 71be c312 e8bd 1774 a9bd
00000210: d05f 74bd d167 e73d 41dd 1ebf dbf7 053c
00000220: 9b23 663c 92b1 27bd d368 5a3d 0cc1 193e
00000230: 69e3 9b3c 9cef 993d fd4e f33d d99c 083e
00000240: 3d2c 723d 287d b53c ca68 12bd 1578 14bd
00000250: 94e5 aabd 9eb8 96bd a993 bebd cede c43d
00000260: 3e4c 9c3e 9163 ae3d 0deb 95bd 6f3f c03c
00000270: b752 14bd 285a 2e3e 2902 9e3d 545b 32bf
00000280: 2110 143e cebe 16be ee89 023e 4df5 15bd
00000290: ede6 8f3d 05f4 903c 15ea 55bc 0a30 a93c
000002a0: b378 37bd aa70 333e 7a8b 6c3d 5586 013e
000002b0: f504 72bd 6b6c 373d 266d a7bd ba0c 273b
000002c0: 179e 39bd 01a4 663d 5040 393d ec4b f8bc
000002d0: 93b1 7d3d c35f b2bd 12d5 e3bd fc48 d8bc
000002e0: f35e 27bc f027 81bd b8dc 263c a424 fe3c
000002f0: c022 0c3e a711 9a3d db7b 1f3f 61a2 1b3e
00000300: 3a26 1dbe c72d ad3d e276 6f3d 06f0 9ebd
00000310: 5f12 083d 8588 b8bd 2711 2abf bca3 4dbf
00000320: 90cf 3c3d 1e52 ffbc b818 49bf 2e37 333d
00000330: 3499 973b ff0b 0ebe 09e3 a43d 8138 9c3e
00000340: 3fe9 b2bd 80a1 453d 4f8e 453d 6a9e eb3d
00000350: d128 4a3e ddfa 043d 8a9c c6bd 1997 403e
00000360: 40da cebd 383b 4a3d b400 0fbe d437 b43d
00000370: 09f2 b63d 1b02 b4ba b5c6 c03d b35e 633d
00000380: e655 62bc f117 2bbe f13a 3d3e 98e9 643e
00000390: 337b 8c3d e1f7 943e e97a 503d 577a 093f
000003a0: 5f2d b73e 003b 5dbb 3bde 163d 0633 56bd
000003b0: 8767 69bd 1ce1 cebe de42 193e 1bb1 10bd
000003c0: 11cd ad3d 27c5 023e 49e4 903e d73f 8cbe
000003d0: a98c 843e 42fd ba3d 3445 dcbe 4cec 793d
000003e0: 69ae 1ebf d8f0 b63d 09b9 6d3d 70a6 b7bb
000003f0: 4d8f 7b3a a330 f0bc 5a44 11bf f39b e9be
-0.06417629 -0.4870861 0.009785945 -0.09557261 -0.05175098 0.09284973 -1.0205953 -0.079189904
0.027426777 0.010476168 0.0786486 0.13142489 -0.008506696 0.081556596 0.15311697 0.26799628
0.06575145 0.074636355 0.024758276 0.06183786 -0.05086523 0.03400986 -0.040081087 0.06889474
0.1049719 -0.08391789 -0.06810771 0.012141652 -0.012751668 0.17112443 -0.036879886 -0.39688757
0.18944894 -0.089565925 0.10724282 0.010231398 0.02300682 -0.0009554295 0.017645612 0.049832612
0.065215595 0.22820608 0.11278229 0.11260726 -0.05361099 0.073244184 -0.08411995 0.09461545
0.08114432 0.068712 0.03850892 -0.0016941408 -0.00242058 -0.053588793 -0.022891684 0.06690215
0.077687696 0.046932697 0.04660647 0.03935834 0.10139106 0.08459875 0.4484587 0.15646897
-0.11123376 0.073398635 0.139868 -0.08822973 0.051715232 -0.09115347 -0.5954239 -0.9441892
-0.016950632 -0.048767466 -0.4312781 0.05628968 0.05751184 -0.089003816 0.056639906 0.14218949
-0.023751503 -0.032714956 0.029997515 0.11004455 0.16914548 -0.03771929 -0.71374226 0.26193357
-0.054045025 0.04581681 -0.095352404 0.14782707 0.06982508 -0.06254344 0.11273441 0.04830756
-0.35936764 -0.15147533 0.08341391 0.25600654 0.012745533 0.18094459 0.07314173 0.2719616
0.23368579 -0.08784308 0.033292044 0.06846491 0.013521223 -0.40987104 0.1356555 -0.40551916
0.06643084 0.15841942 0.27608922 -0.2058017 0.028799653 0.1131873 -0.5500464 0.05145793
-0.92027104 0.050501026 0.035457127 0.016502433 0.084400795 -0.03994581 -0.767693 -0.48199603
-0.03669025 -0.23576653 -0.113317035 -0.082740955 -0.059661686 0.11299098 -0.62056357 0.008176769
0.014046575 -0.04094083 0.053322624 0.15015048 0.019029336 0.07516405 0.118803 0.13341083
0.05912422 0.022154406 -0.035744466 -0.03624733 -0.0834457 -0.07359432 -0.09305508 0.09612809
0.30526918 0.085150845 -0.07320223 0.023467747 -0.036211696 0.1702658 0.07715256 -0.69670606
0.14459278 -0.14721224 0.12747929 -0.03661089 0.070264675 0.017694483 -0.013056298 0.02065279
-0.044792842 0.17523447 0.057750203 0.126489 -0.05908676 0.04478113 -0.08175115 0.0025489763
-0.04531678 0.05630875 0.04522735 -0.03030964 0.061936926 -0.08709671 -0.11124624 -0.02640199
-0.010215509 -0.063064456 0.010184459 0.031023331 0.13685131 0.07522898 0.62298363 0.15198661
-0.15346614 0.08455997 0.058462985 -0.077606246 0.033220645 -0.09010414 -0.6643242 -0.80327964
0.046096385 -0.031167086 -0.7855334 0.043753795 0.0046264175 -0.13871764 0.08051116 0.3051186
-0.087358944 0.04824972 0.04823142 0.115048245 0.19742133 0.032465804 -0.09697826 0.18807639
-0.10100222 0.04937288 -0.13965112 0.08799711 0.08932883 -0.0013733538 0.094129 0.055510234
-0.013814425 -0.16708352 0.18479516 0.22354734 0.06859436 0.29095367 0.050898466 0.537023
0.35776803 -0.003375709 0.03683303 -0.052294753 -0.056983497 -0.4040612 0.14966914 -0.03532515
0.08486379 0.1277052 0.28299168 -0.27392456 0.25888565 0.09130336 -0.43021548 0.061016366
-0.6198488 0.08932656 0.05803779 -0.0056045577 0.00095962436 -0.029320067 -0.5674492 -0.45626792

net.4.bias f4 [3]
00000000: 5407 0e3c 811a 9cbd 0ec4 6e3c
0.008668739 -0.07622243 0.01457311
