train-pong/saved_models/dqn_episode_3.pth (torch, 74333 bytes, 6 tensors)

net.0.weight f4 [128, 6]
00000000: 1006 c6be 572e c2be 10c7 75be be07 cebe
00000010: 6a1d b23d 0579 803e 88ce 67be 9718 82be
00000020: 6eec bb3e 0731 2c3e 19f7 d73e c5fe 193e
00000030: 81fc ee3e 3fa8 3d3e db45 f73d 13eb 81be
00000040: d902 fcbb 7180 2ebe 33a9 8c3e 1c1f 753e
00000050: 6c3f 883e 0852 d13d bac2 2b3d 0903 a8bb
00000060: 045b 85ba 862a 98be 079b e6be 8223 f53b
00000070: 800c 8ebe cd78 9cbd f6c6 f13e 7735 a0be
00000080: a28d 11bd 1fb9 cebd 7770 c43b 5606 33bd
00000090: e770 6a3e 93c7 d13e 371e 993d e6ee 47be
000000a0: 94a1 debc f8eb 3e3e 7802 be3e b838 8ebe
000000b0: 381b d7bd d091 bcbe 5f67 f83c 784b 553d
000000c0: a676 bcbe eb20 ca3e 5581 ac3d 1c4a 043e
000000d0: b01e b23e 8ff4 c23e 113c 563e 16d7 89be
000000e0: 4636 703e 5593 c03e 90a5 48be bca5 963e
000000f0: 0e08 52be b732 bb3e 9077 89be 4925 ef3c
00000100: 020b 5c3e 1ed1 b03e d1f0 90be df66 903e
00000110: 2b3e c4be f7a0 49be 8ebf 363e 8039 6ebe
00000120: 22ff dbbe 8c86 63be 770a 59be fe76 e83d
00000130: 6226 c9bd 6b13 b23e c512 0bbe d072 e73c
00000140: 0b08 f8bd 4f8c 4d3e d6c1 0bbe 1546 87be
00000150: 5e52 abbe 9625 a4bd 990b b23e 181a d3be
00000160: 3b07 cb3e a4ce 1a3e 3dea 5dbe b8b5 51bd
00000170: b438 83be 101b 66bd b2b4 8ebe 69e6 9cbe
00000180: fd47 703e 51bc 48be da51 be3b 2451 e13d
00000190: 4c3a b9be b3cb 5a3e 5867 6abe d014 183e
000001a0: fb38 cd3e 3488 9ebd de82 6c3b dec0 a13e
000001b0: f7e1 b53e 145d 4c3c ed8e f03d e468 d33d
000001c0: 35a2 0e3e db13 e2bd 348a acbe 4467 bdbd
000001d0: 20d4 553e 3040 fc3c e8a5 ccbe 8c02 afbe
000001e0: 7cd4 c8be f2b2 b03c c7eb 08be a7d4 b0bd
000001f0: 472e c23e a948 3cbd a83b c9be cea5 97be
00000200: fdf4 3dbe 9fb6 b53c 24f9 943e 1f78 9f3e
00000210: a471 00be c1b6 52be 9d94 3d3e 6223 ac3e
00000220: 2409 923e 5869 903d 78e0 98bd 14e6 7b3e
00000230: c094 41bd 47dc c4be 3462 113e 2aac cabe
00000240: 4cc0 5abc a01d febd 1705 05be 1d18 b9be
00000250: 04e4 b1be 5bd8 a6be e195 c93e 3fe1 903d
00000260: 82ab dc3e 3ec4 39be 49e5 263e 1199 323e
00000270: 6ab5 ae3e 13cd b6be eac0 c53e 57c3 60be
00000280: 1a3a 4c3e 78d8 063e b969 3dbe 5c7a 6cbe
00000290: c3cf 903e 4cfb 903e 8e2c aabd 1566 103e
000002a0: b60b 6f3e a3af 8abd 515a 42be 056a c83d
000002b0: db47 153e 5df8 bcbc 0cfb 883e 10f5 9dbe
000002c0: 2861 4ebd 104f 0abd 4018 29bd 2aa4 b9be
000002d0: 9db3 d43e 15ff afbe d1e9 573e 2a5f 2fbe
000002e0: a5be 87be b61e bc3c cece c9bd b931 c03e
000002f0: 8e71 a5be 5095 e2bd 3b53 b5bd 1d64 aa3d
00000300: 4b54 0c3d 5d75 5bbe e80e 1bbe 3d61 37be
00000310: 3610 8abe 2adc f23d ee22 87be 6b41 e63c
00000320: 0137 abbe 3145 4e3e 565d 753e 3b66 23be
00000330: f4e4 5e3e 372b 503e b939 1cbe bee3 933e
00000340: de98 ba3e 92e7 9f3e 6fda 99bd 4f64 4ebd
00000350: aa5b 823e 6043 0abe c0a8 88be 5c70 073d
00000360: f14c 9f3d fdb8 2abe 6c25 6cbe a4de 123e
00000370: bc58 9cbe 7419 b9bb d233 df3e ad3f 37be
00000380: acbf a53e eaf6 6dbe 8cd0 e43e 847f 3fbe
00000390: 91b9 bbbe fabf 933e 2c05 c6be 487c 153e
000003a0: abce 3ebe ff59 b63c a859 823d 5940 3f3d
000003b0: b4ab c0be 51b3 33be 3308 a8be 05ff 583e
000003c0: ce16 973e d06a 4c3e a42e 103e 2aac af3e
000003d0: 48cb a3bd 7a45 97be 0a05 df3d 5ade fc3d
000003e0: 6b92 c2bc 74ca 293d b5e0 a3be 0ad8 663e
000003f0: a032 58bd df2e 65be c3b2 68be 00a0 b7bd
-0.386765 -0.3792598 -0.24001718 -0.40240282 0.086970165 0.2509233 -0.22637379 -0.25409386
0.3670382 0.16815577 0.42180708 0.15038593 0.4667702 0.18521212 0.12073871 -0.2537466
-0.007690769 -0.17041184 0.2747284 0.23937649 0.26610887 0.10220724 0.041933753 -0.005127315
-0.001017422 -0.29719943 -0.4504015 0.0074810395 -0.27743912 -0.076402284 0.47222108 -0.3129079
-0.035535462 -0.10093903 0.005994852 -0.043707214 0.22894631 0.40972576 0.07476466 -0.19524726
-0.027176656 0.18644702 0.37111259 -0.27777648 -0.105032384 -0.36829996 0.030322729 0.052073926
-0.36809272 0.3947824 0.084231056 0.12918895 0.34789038 0.38077208 0.20921351 -0.2692191
0.23458204 0.37612405 -0.19594407 0.2942332 -0.20510885 0.3656213 -0.2684903 0.029192584
0.21488574 0.34534544 -0.28308728 0.28203484 -0.3832868 -0.1969031 0.1784651 -0.23264122
-0.42968088 -0.22219294 -0.21195398 0.11350821 -0.09821774 0.3478044 -0.13581379 0.028252989
-0.12110909 0.20073055 -0.13648161 -0.26420656 -0.3346128 -0.080149814 0.34774473 -0.41230845
0.39653954 0.1511789 -0.21671386 -0.05119869 -0.256292 -0.056178153 -0.27872235 -0.3064454
0.23464961 -0.19603087 0.0058080973 0.110018045 -0.3617729 0.21366768 -0.22890985 0.1485169
0.40082535 -0.077408224 0.0036088745 0.31592458 0.3552396 0.012473363 0.11746011 0.10322741
0.13929065 -0.110389434 -0.3369919 -0.09248212 0.208817 0.030792326 -0.39970326 -0.3418163
-0.39224613 0.021569703 -0.13371192 -0.0863431 0.37925932 -0.04596773 -0.39303327 -0.29618686
-0.18550487 0.022181807 0.2909633 0.31146333 -0.1254335 -0.20577528 0.18513723 0.33620745
0.285226 0.07051343 -0.07464689 0.24599487 -0.047261 -0.38449308 0.14197618 -0.39584476
-0.013351511 -0.12407994 -0.12990223 -0.3615121 -0.34744275 -0.3258694 0.3937216 0.07074212
0.430996 -0.18141267 0.16298403 0.17441203 0.34122783 -0.35703334 0.38623744 -0.21949516
0.19944039 0.13168514 -0.18497361 -0.23093551 0.2828351 0.28316724 -0.083092794 0.14101441
0.23344311 -0.06771781 -0.18979765 0.097858466 0.14578192 -0.023067648 0.26754034 -0.3085103
-0.050385624 -0.033766806 -0.041282892 -0.3625806 0.41543284 -0.343743 0.21085288 -0.17126146
-0.26512638 0.022963863 -0.09853898 0.37537935 -0.32313198 -0.11063635 -0.088537656 0.08319876
0.034260076 -0.2143149 -0.15142405 -0.17908187 -0.26965493 0.11858399 -0.26393837 0.028107366
-0.33440402 0.20143582 0.23961386 -0.15956967 0.21767026 0.20328985 -0.15256394 0.2888469
0.36444753 0.31231362 -0.07512366 -0.05038863 0.2546056 -0.13502264 -0.26691246 0.03306614
0.07778347 -0.1667213 -0.2306115 0.14342743 -0.3053645 -0.005648786 0.43594223 -0.17895384
0.32372797 -0.23238721 0.4469036 -0.18700987 -0.36665013 0.28857404 -0.3867582 0.14598191
-0.18633525 0.02225971 0.06364757 0.046692226 -0.37631 -0.17548873 -0.32818756 0.21191032
0.29509586 0.1996262 0.14080292 0.34311038 -0.07997757 -0.29545194 0.10889633 0.12347098
-0.023751458 0.04145284 -0.32007375 0.2254335 -0.052782655 -0.22381161 -0.22724442 -0.089660645

net.0.bias f4 [128]
00000000: 69eb a83e ae7c 81bd b4e7 83bb e4c2 9a3e
00000010: 8c29 d53d 5564 4f3c 2a1c a43e ea93 603e
00000020: bca6 703d 45c3 623d 6d4a b0be 8364 b0bc
00000030: 7c22 893e e013 7c3e b97d 8fbd 3e6a b3be
00000040: 96f3 363e 5ece 76bd c2f3 013e e432 82be
00000050: 2de0 323d c194 71be d351 2a3e 07e1 99be
00000060: d9ce c23e cd9e 223e 7d77 bd3e 543f 073e
00000070: c224 b23d aeb2 26be 2ca1 9d3e 403b 62be
00000080: 6dd5 d9bd 2f22 c63d d439 c2be 0728 0d3e
00000090: 810d 21be 1e54 0abd 6feb 793d b181 8b3b
000000a0: 4af0 b6be 102b 6b3e 9895 02be a808 f33d
000000b0: fe4e 5d3e 2f85 453d 41ee 403e 109d bfbe
000000c0: b2b5 053d 1aa4 9ebe 9dd7 9abe 4618 5c3d
000000d0: 032d a8bd fddf 76be 45d7 ba3e d196 8fbe
000000e0: 5fa4 76bc ef2a a03e f597 603e 32e2 09be
000000f0: 2e06 bb3d 984d 2fbd 2478 87be a035 283e
00000100: 3884 58bd 3dcf 913d c42d 9c3e d17b 08be
00000110: a5c3 be3e 103c bf3d e0d4 8b3d 65cb ccbd
00000120: 671f 11bd d4b6 fcbd 8f2a a43e 14af 63bd
00000130: 1edf 57be 78f5 9f3e 717d 5ebe 2430 97be
00000140: 704b a6bd 36d3 d43c 1519 81be e147 e2bd
00000150: 19af efbc 0eb9 e4bc bcd1 203d 4efb 713d
00000160: 24c9 dbbc c39e 9abd 414b 2cbe dfaf 1a3d
00000170: 402d 13bd bd0e 97bd dcd7 7b3e c0ef fc3d
00000180: 72e6 88be 6659 c0be 0fd6 0ebe 7684 4fbe
00000190: 9ac8 8d3e abc9 f13d 4213 923e f4c4 00be
000001a0: 3004 a43e cbc9 cf3d a507 843e 654b 3c3d
000001b0: dead a03e 4832 bb3e b0e1 093e b475 1bbe
000001c0: cda0 c63d b9f5 643e e5a0 9a3c 8559 d43e
000001d0: 6016 a9bd d0a5 b53e 3f10 873e dbbb eabd
000001e0: 0409 0b3e af9c a73e 33ed 983e d8eb 89bd
000001f0: 4cbe a7be 062b a7bd 18e9 4c3e ab79 d13e
0.32992104 -0.06322609 -0.004025424 0.30226815 0.10408315 0.012658198 0.32052737 0.21931425
0.05875276 0.055362005 -0.34431782 -0.021532303 0.26784122 0.24616957 -0.070064016 -0.35041994
0.17866358 -0.0602554 0.12690642 -0.2542945 0.043670822 -0.23591901 0.16632776 -0.30054495
0.38048437 0.1588089 0.37005225 0.13207752 0.08698417 -0.16279098 0.30787027 -0.22092915
-0.10636411 0.09674489 -0.37934744 0.137848 -0.15727808 -0.033771627 0.061015543 0.004257404
-0.357302 0.22965646 -0.12752378 0.118668854 0.21612164 0.048222717 0.18840887 -0.37424517
0.03264398 -0.30984575 -0.30242625 0.053734086 -0.0821171 -0.24108882 0.36492363 -0.2804475
-0.015053838 0.31282756 0.21932967 -0.13465193 0.09132038 -0.04279861 -0.26458848 0.16426706
-0.05286047 0.07119606 0.30503666 -0.13328482 0.3725864 0.09337628 0.06827712 -0.09999732
-0.03543034 -0.12339559 0.3206372 -0.05558689 -0.21081206 0.31241965 -0.2172754 -0.29528916
-0.08119857 0.02597962 -0.2521445 -0.11048866 -0.029258298 -0.027920272 0.03926252 0.059077553
-0.02682931 -0.07549813 -0.16825582 0.03776538 -0.035931826 -0.07375858 0.24594063 0.12350416
-0.26738316 -0.37568206 -0.13948844 -0.20265374 0.2769211 0.11806043 0.28530318 -0.12575132
0.32034445 0.10145911 0.25787082 0.04597034 0.3138265 0.365618 0.13464999 -0.15181619
0.09698639 0.22359361 0.018875549 0.41474548 -0.08256221 0.35478067 0.26379582 -0.11461612
0.13577658 0.32736728 0.2986847 -0.06734437 -0.32762372 -0.08162503 0.20010793 0.40913138

net.2.weight f4 [128, 128]
00000000: 32af 563d 2856 dabc b2c4 49bc 5e39 983d
00000010: 4776 31bd d47a b33d 3716 2c3d 3f9c b7bd
00000020: e8bf 293d 59c6 f0bd e36d b73d 0b3a a83c
00000030: c344 ef3c 666e 34bd ad3e c1bd f4c3 2fbd
00000040: d5e0 24bc 4a6f 2fbb f531 8fbc dcec a3bc
00000050: bf96 713c 6702 6cbd 0cd3 a13d 11e0 9a3d
00000060: ae5f 9cbb 2189 01bd d387 5cbd 0f3b 90bd
00000070: 9e65 88bd b2b2 92bd b54f 2f3d 57bc 3cbd
00000080: c640 eb3d fb6a 603c cc1e 63bd 2708 93bd
00000090: 9275 2cbd 8f57 5bbd b966 b23c e014 eeb9
000000a0: 6860 5dbc dd40 3e3d b543 ab3d 4753 8a3d
000000b0: d5a8 5fbd 51e0 1d3d 2707 613b b348 1cbd
000000c0: 9f98 d03d 4003 04bd f1a4 0d3e df14 fdbb
000000d0: 55db 8fbd 4c61 c5bc 1968 99bc 3748 3b3d
000000e0: 6701 613d 3592 8cbd 1db6 48bb af94 e5bd
000000f0: 0db3 8b3d 5619 cebd 0c18 0bbe dd2d a63d
00000100: b267 173d 645c cdbb ca82 9a3d de68 5dbd
00000110: 2a2c 863d e566 613c f0a9 7ebd 65be 333d
00000120: d849 8cbd b699 abbd 3a61 583d 4dcd 083d
00000130: 00e8 613d b1c7 7e3d 5a23 49be 5d19 c93d
00000140: d1d8 9d3d efc2 263c 3615 debd 5347 0fbd
00000150: 7d10 8f3d ffc5 ed3d 1d21 5bbe 9e9a 12bd
00000160: fa2a d93d 850d a73d 81d7 8ebd 33c9 8f3c
00000170: 6864 5b3d 8c18 e9bc c7a0 373d dca4 cfbc
00000180: 0b06 873c ce2b 48bd 51d8 3e3d 18b7 de3d
00000190: bf9d 5cbc 4b9c a5bd 99ea 983b 4da2 82bd
000001a0: 519c e03b 82d2 b13d 1cc2 59bc 6a86 b6bd
000001b0: 7894 de3c 7dd5 883d d05b 16be 1491 84bc
000001c0: 3894 94bd a7b9 9fbb 4fdd c43b a6f6 033d
000001d0: c5a5 363c 7c5e 9f3c 2db7 b0bc d29a e2bc
000001e0: 4b97 a2bb f375 b9bc 058e f8bd 0683 303d
000001f0: 7afb 253c 1fde bb3d a151 edbd 7692 afbd
00000200: a56e b03b d03c 9bbd 527d 6bbd 583c 883d
00000210: 7a9b ecbc ebb7 b1bd ba08 383c c246 91bd
00000220: ba48 0bbd 20d6 25bd 72ee 1dbc 3ba0 55bd
00000230: 4287 493c c104 f8bb 722c 70bd dbd3 893d
00000240: e3a2 4cbd d133 8ebd 9d74 acbd 0ca3 cabc
00000250: 49fd 453d 4958 34bd a39d 433d 74a4 0e3d
00000260: 823f 323d 4731 9b3d 571e 583d 68e6 543d
00000270: b6bd ea3c f19c abbd 1415 fa3c 9ca4 8b3d
00000280: 21d6 31bd 7d2c b8bc 9a59 36bd 2f5d d9bc
00000290: 2a3f 13bd d717 5ebd 6657 41bd 3b48 1a3c
000002a0: 6e7b 373d 857b a03d 1034 c43c e05a ec3b
000002b0: 08dd 8abc 74d7 53bd 8cf4 8abd bb64 17bd
000002c0: a1c1 97bc 5896 a23c 4cb3 61bd 5505 91bd
000002d0: c2dd 43bd c036 84bb 5523 023d 58da e63c
000002e0: 37b4 5dbd 2cc9 d13c 6653 9abd 536c d2bc
000002f0: 7496 b6bd 7f74 67bd 21ba b13d c0fd 9cbb
00000300: 9e4e aebd cdbd 123d 2ea8 65bc 1ee3 1abd
00000310: a12d 60bd db96 793d 31ec 7dbd f1a9 7a3d
00000320: 9eb8 41bd 003a d93b bd91 ce3c 699b a83d
00000330: 3199 72bd 0aca f4bc 3492 b7bc 25b6 37bd
00000340: beda 1a3d 2c27 34bd ec32 4cbd 76ab 0f3d
00000350: f30b 9f3d a75d 963d 799e 9c3d 3b64 133d
00000360: 42e5 3bbd 727d 583d 7204 613d 212f 24bd
00000370: fb71 67bd b950 ba3c a86a bdbc 6c2f 7cbd
00000380: 0dea 8d3d c67a 603d 8ba0 3fbd ebcf e9bc
00000390: 1039 89bd 7ab8 533d 34d7 6d3d 1ec3 383d
000003a0: b0af 9abd 7125 bc3c 1827 8ebd 1095 113d
000003b0: 10e2 043d 99e6 abba 4e69 cc3c cb31 46bd
000003c0: 62d1 b1bd e317 ab3d fc5b 6bbd 12c9 163d
000003d0: d15d 64bd a6c6 6ebd 3095 4b3d 1863 a03d
000003e0: 2a86 2bbd 3ff9 acbd 4d4a 24bd 96dd 563d
000003f0: dc8a 8f3c 15a3 38bc b922 96bd 0afd fdbc
0.052413173 -0.02665241 -0.012314962 0.07432817 -0.04332569 0.08763662 0.042013373 -0.089653485
0.04144278 -0.11756582 0.08956506 0.02053549 0.029207593 -0.044050597 -0.094357826 -0.042911485
-0.01006337 -0.0026769214 -0.017479876 -0.020010404 0.014745413 -0.05761948 0.07901582 0.075622685
-0.004772148 -0.031624917 -0.05384047 -0.070425145 -0.06660007 -0.0716299 0.042800624 -0.046078052
0.11486964 0.013697381 -0.055449292 -0.07179289 -0.04210431 -0.0535503 0.021777498 -0.0004541045
-0.013511755 0.046448577 0.083625235 0.06754165 -0.05460437 0.038544003 0.0034336539 -0.03815527
0.1018536 -0.032229662 0.13832451 -0.0077234353 -0.07024256 -0.024094246 -0.018726395 0.045723166
0.054932978 -0.06863824 -0.0030626126 -0.1121 0.068212606 -0.10063426 -0.13583392 0.081142165
0.036964126 -0.0062671173 0.07544477 -0.054055087 0.065513924 0.013757442 -0.062173784 0.043882746
-0.06850022 -0.083789274 0.052827097 0.033398915 0.055152893 0.06220216 -0.19642392 0.09819291
0.0770737 0.010178312 -0.108438894 -0.03498013 0.06985567 0.116100304 -0.2139935 -0.035791986
0.106039 0.081568755 -0.06974698 0.017551994 0.05356255 -0.028454088 0.044831064 -0.025347166
0.016482374 -0.0488699 0.046593014 0.10874766 -0.013465344 -0.08086451 0.004666638 -0.06378613
0.006854572 0.08682729 -0.013290908 -0.08912356 0.027170405 0.06681345 -0.14683461 -0.01618246
-0.07254833 -0.0048744264 0.0060078274 0.032217644 0.011147921 0.019454233 -0.02157172 -0.027661715
-0.004961883 -0.02263925 -0.12136463 0.043093704 0.0101307575 0.091732256 -0.11587835 -0.08572857
0.0053842836 -0.075799584 -0.05749256 0.06652135 -0.02888273 -0.08677658 0.011232549 -0.07093574
-0.034004904 -0.04048741 -0.009639369 -0.05215476 0.012300314 -0.007568926 -0.058636136 0.06729861
-0.04996003 -0.06943477 -0.0842068 -0.02473595 0.048337255 -0.044029508 0.047757756 0.034824803
0.043517597 0.07577758 0.05276331 0.051977545 0.028654914 -0.083795436 0.030527629 0.06818506
-0.0434171 -0.022482151 -0.044519044 -0.026533691 -0.03594891 -0.054221954 -0.04720249 0.009416635
0.044795446 0.078360595 0.023950607 0.0072129816 -0.016951099 -0.051719144 -0.06784925 -0.0369613
-0.018524947 0.01984708 -0.05510263 -0.07081095 -0.047818907 -0.004034847 0.031771977 0.028180286
-0.054126944 0.025608622 -0.07535438 -0.025686419 -0.089154154 -0.056507584 0.086780794 -0.0047909915
-0.08511089 0.03582554 -0.014017148 -0.037814252 -0.054731015 0.060934883 -0.061992828 0.061197225
-0.047295205 0.0066292286 0.025215978 0.08232767 -0.059228126 -0.029881496 -0.022408582 -0.04485144
0.037806265 -0.04398267 -0.04985325 0.035075627 0.07765951 0.073420815 0.07647414 0.03598426
-0.045872934 0.05285401 0.05493588 -0.040084008 -0.056505185 0.02274357 -0.023122147 -0.061568663
0.06929407 0.054804586 -0.046783965 -0.028541526 -0.06700337 0.051689602 0.05806656 0.045107953
-0.07553041 0.022967072 -0.0694105 0.035542548 0.032442153 -0.0013114988 0.024952557 -0.04838733
-0.08682515 0.083541654 -0.05746077 0.03681285 -0.055753533 -0.058294915 0.049702823 0.07831401
-0.041875996 -0.084459774 -0.04010992 0.052457415 0.017522268 -0.011269351 -0.073308416 -0.031004447

net.2.bias f4 [128]
00000000: fd03 a63d 3207 0ebd 5b4e f43c 97ab a43d
00000010: c021 323d f077 57bd 05de 0bbd ef79 503d
00000020: d6a4 333d ebf5 0b3d 7c5b 04bd d7e2 16bd
00000030: bc3c 203d 9e0c 713d ede0 993d 5785 e53a
00000040: acf4 8cbc ba2a 293d 5d84 963a d52e 41bd
00000050: fae8 f2bc fa60 9ebc a151 1dbd 68fb b9bd
00000060: 22f4 363d d2d7 55bd 8465 aebd 4ac1 4d3d
00000070: 40cf b8bd d47a 743d 5833 df3c ecec b9bc
00000080: 264d 6abd c807 81bc aeec e0bc 7b99 3d3c
00000090: 1445 94bc 3262 afbd 8058 98bb 1b4e 43bd
000000a0: b4a3 093d bfe3 283d 1c2a 2fbb 7a1c 943d
000000b0: a71a a4bd 037d 68bd 88c8 ba38 9d92 3a3d
000000c0: 1676 87bd 9425 7cbd e93e 99bc 2dfd 9b3d
000000d0: bfc1 f03c c502 0c3d 66ee 3a3c ff86 1abd
000000e0: 5b58 8f3d e1b2 903c 45c6 44bd a0d8 2bbd
000000f0: 176d 27bc ee97 70bd 3a08 8a3d bdec 433d
00000100: 9e90 253d e407 7fbd dbda b7bb 2883 ccb8
00000110: 2c0a 6fbd 89d8 7e3b 3bc8 893d d84d 06bc
00000120: ce8b 613d 3c98 ccbc 272b b23d 6c57 9f3d
00000130: 9ea9 9bbd d817 67bd 9196 123d 12cc 45bd
00000140: 3698 6e3d 6274 4d3d efed bc3a 587a 153d
00000150: a589 a13d 1a66 043d e1dd de3c 978f 8cbd
00000160: 5c79 b5bb c37a 153d 0727 31bd af8c 3b3d
00000170: ffcc 693d 5035 ccbc f489 3fbd 5e07 95bc
00000180: 22b5 a03d d1ab 83bd 87af 16bd 2024 f4bc
00000190: c37c b93a 5681 29bd 06ac b2bd 1fae 0abc
000001a0: b42c 5a3c b517 803d 5e4b 3d3d 9f3d 25bd
000001b0: 3c9e 7d3c 48cd 4dbd 4c57 813c f96a 94bd
000001c0: ee42 033d b05d a0bc 4a26 523d 9019 53bc
000001d0: ba43 1dbc 7fb9 91bd e5ec f13b 3ffa 88bd
000001e0: 66e1 b4bd bb31 323c 2006 58bd e810 053c
000001f0: b612 723d 2de7 8c3c 24b7 8ebd 080e 84bd
0.081062295 -0.03467483 0.029822519 0.08040541 0.043489218 -0.052604616 -0.03414728 0.050897535
0.04385837 0.034170073 -0.03231381 -0.036837425 0.03912042 0.058849923 0.07513604 0.0017511052
-0.017206512 0.041300513 0.0011483539 -0.047163803 -0.029652108 -0.019333351 -0.038407926 -0.09081155
0.044666417 -0.052207775 -0.08515456 0.050233163 -0.09023905 0.05968745 0.027246162 -0.022695981
-0.05720248 -0.01575078 -0.027456608 0.011572237 -0.018099345 -0.08563651 -0.004649222 -0.04768191
0.033603385 0.04123282 -0.002672798 0.07231994 -0.08012896 -0.056759845 8.906523e-05 0.045549978
-0.0661432 -0.061559275 -0.018706756 0.07616649 0.02938926 0.03418233 0.011409378 -0.0377264
0.06999274 0.017663421 -0.048040647 -0.041954637 -0.01021888 -0.05873864 0.0673985 0.047833193
0.04042112 -0.062263384 -0.0056108064 -9.751908e-05 -0.05835931 0.003888639 0.06727644 -0.00819727
0.05506497 -0.024974935 0.08699637 0.07780346 -0.07600711 -0.056419224 0.035788123 -0.04829032
0.05825063 0.05015982 0.0014414171 0.03649363 0.07887582 0.032323934 0.02720541 -0.06863325
-0.005538149 0.036494028 -0.04325011 0.045788463 0.057080265 -0.024927765 -0.04676242 -0.01819199
0.07847048 -0.06429256 -0.03678849 -0.029802382 0.0014151562 -0.04138311 -0.08724217 -0.008464365
0.013316322 0.06254522 0.046214454 -0.04034197 0.015479621 -0.0502446 0.015788697 -0.07246966
0.03204625 -0.019575924 0.051306047 -0.012884513 -0.009598667 -0.07115459 0.0073829764 -0.06688356
-0.08832054 0.0108761145 -0.052740216 0.008121707 0.059099875 0.017200077 -0.06968525 -0.06447989

net.4.weight f4 [3, 128]
00000000: 0b0b 18bd 8cab 9fbd 49fb 6bbd 0f04 313c
00000010: 7afb d83c 8e7c fe3c d8ab 9abd f34a a6bc
00000020: c01d 113c 36b2 8cbd 66b6 0d3d de35 59bd
00000030: e8e7 aebb c5dc 2fbd baac 7abd 7581 ca3c
00000040: 63c2 70bd 0a24 4f3d f625 acbc f5ea b63d
00000050: 2d56 953d 2518 1cbd 1863 64bd 3a88 a4bd
00000060: 9ae8 acbd 10f1 30bd d749 af3d f43b 28bd
00000070: d016 cf3b 2507 053e 3c11 b3bd 05f9 83bd
00000080: dd35 893d 9f81 ba3c 3a40 163d eaba 903c
00000090: a638 583d e1bc 9cbd 4583 7ebd 8c5d 55bd
000000a0: f548 3cbd 7af8 813d 875f bd3d 03b8 da3c
000000b0: 452c 70bd 973e a1bd 7b5d adbd 3aee 3a3b
000000c0: 753f a73d 40d0 193b b98d eebc 3e4d b5bb
000000d0: 8343 773d 05f2 9e3c 1b96 3abd 2440 80b9
000000e0: de37 f43a bffa 223d d609 debd de6c 4a3d
000000f0: f5d5 d4bc 8040 f93b 1c81 cf3c 568b 56bd
00000100: 260a 0e3d 34fb b03d 6dec 9e3d 6af5 aebd
00000110: f376 e0bc f0d4 143d 2ae2 aabc 0991 86bd
00000120: 300d fdbc 5df9 66bc 0883 c73c cee0 823d
00000130: d21b 003d 7a24 c23c 13f1 39bd 3799 87bd
00000140: c402 6a3d d40b 1abd 4c97 a23c 1282 23bd
00000150: 47d2 82bd 7b72 ba3d dd91 4a3d d8c9 35bd
00000160: 43ed cfbc c221 cd3d 733d 84bd d727 1fbd
00000170: 5640 4e3d 68ca 0abb f171 d8bd 1689 a83d
00000180: 3e73 3ebd ce00 66bc 80c5 c13c eeb4 34bd
00000190: 7451 dfbd 0c8f e6ba ff3c 903d e85f d23c
000001a0: 1789 a13d c03c fabb 8bd9 883d 696d 34bd
000001b0: 7784 adbc 3b47 d1bc 7caf f6bc 8148 a9bc
000001c0: 144b f03c c3cf 7b3d ad05 8d3d 2038 c1bc
000001d0: ccd4 5dbd e850 213d a917 3a3d cc85 eabc
000001e0: 2144 923d 598d 07bd c373 453d 9646 4fbd
000001f0: fe75 8f3d e391 6b3c d2a2 abbd 00c4 32bb
00000200: f08c a4bd b070 be3c 4c37 debd 8d5a ebba
00000210: c56e 853a 83af 9fbc 552e 2e3d 2e39 943d
00000220: 3878 8e3c 850b 6b3b 0019 7b3a 214d a83c
00000230: be85 063d 284a 6cbd 67b9 8dbd a973 9ebd
00000240: 8563 72bb 813c d43d 0235 6a3d 69eb a13d
00000250: 9ea0 90bd f640 683d 55d5 063b b508 77bd
00000260: af8c 82bd ac6c 66bd 9026 26bb bc07 9d39
00000270: d2cd a73d d3cf 98bb 69b8 77bd 90f6 9f3c
00000280: 063a 2f3d c890 97bd 2aa5 0b3d 4425 b9bc
00000290: b0f7 1ebc 5e3c 523d 0029 8eb9 c0f2 223c
000002a0: 1648 7bbd 019b c93d c640 9c3d e2a0 61bd
000002b0: 4d99 08bd b0bb e53c c898 70bd 4878 853d
000002c0: 3499 ac3c 49fd 42bd 109d aebc d8da 1d3d
000002d0: 318c 9dbc 9581 493c ef9e 5ebd 8a1e 42bc
000002e0: 1410 85bd 3e8e cc3c 1ab4 b1bd 46d3 67bd
000002f0: 9d35 7bbc ff4d 0cbd d70d 6ebd 1777 2a3d
00000300: ff94 03bd 216c 99bd 234c 72bd 3611 3c3d
00000310: 163b 66bd 76b3 1cbd 0d29 2d3d a45c cabd
00000320: 1ed7 4c3d ab6b b3bd 2e00 3dbd 64e5 32bb
00000330: 176b 973d f960 59bb c05b 723c 3ead 423d
00000340: 9e1b 563d ea59 b7bd bd30 1cbd e988 293d
00000350: 9837 5f3c 4a8a 8fbc d4a6 003d f379 8d3b
00000360: 64a4 3e3c dc8a 803d 35bd 62bd 768f 45bd
00000370: 7bd6 c43d 0b84 03bd 18ad b1bd ee40 9f3c
00000380: 253d fdbc ffa1 893d d150 803d 2d86 c0bd
00000390: 7d2e 85bd 5ecd 15bc 9082 5dbc c677 93bc
000003a0: 4fe8 213d 7e89 203d 3c27 e63c de90 133d
000003b0: 4e2e 5fbd 8118 d93c 088e 27bd 2630 a3bd
000003c0: eaf0 543d ba4f 6a3d d263 573d 58aa 4dbc
000003d0: da3b 7f3d 5c47 8bbd 5fa8 a4bd 4b76 9cbd
000003e0: 1065 883b 6dff 4dbd a701 2b3d b6a5 aebd
000003f0: 15c2 c93c 3a72 9f3d f28f 91bd af8e adbd
-0.037119906 -0.07796392 -0.05761269 0.01080419 0.0264871 0.031065252 -0.07552308 -0.02029941
0.008857191 -0.068699285 0.034597777 -0.053029887 -0.005337704 -0.04293515 -0.06119988 0.024719933
-0.05877913 0.05057148 -0.021014195 0.08931533 0.07291827 -0.038108964 -0.055758566 -0.08033796
-0.08442803 -0.043198645 0.08559006 -0.0410728 0.006319858 0.12991007 -0.087435216 -0.06443981
0.06699727 0.022766886 0.036682345 0.017667253 0.0527884 -0.07653213 -0.062136907 -0.052091166
-0.045968015 0.06346221 0.09246736 0.026699072 -0.05863597 -0.07873266 -0.084650956 0.0028523342
0.081664 0.0023470074 -0.029120313 -0.0055328896 0.06036712 0.019402513 -0.045553308 -0.0002446185
0.0018632372 0.03978991 -0.1084172 0.04942023 -0.025980929 0.007606566 0.025330119 -0.052378975
0.034677647 0.08641663 0.077599384 -0.08542903 -0.02740047 0.036335886 -0.020859797 -0.06570632
-0.030890077 -0.014097539 0.024354473 0.06390534 0.03127653 0.023699034 -0.045395922 -0.0662102
0.057131544 -0.037608936 0.019847535 -0.039918967 -0.063877635 0.09103867 0.049455512 -0.044381946
-0.02538169 0.100162044 -0.06457033 -0.038856354 0.050354324 -0.0021177772 -0.105686076 0.08229272
-0.046496622 -0.014038278 0.023653746 -0.04411786 -0.10904208 -0.0017590239 0.07042884 0.025680497
0.07887476 -0.0076366365 0.06682118 -0.044049654 -0.021181328 -0.02554666 -0.030112974 -0.020664455
0.029332675 0.061477434 0.06885848 -0.023586333 -0.054158017 0.0393838 0.04543272 -0.028628252
0.07141901 -0.033093784 0.048206102 -0.050604425 0.07004927 0.014378044 -0.08380665 -0.002727747
-0.08034694 0.023247093 -0.10850391 -0.0017956063 0.0010180107 -0.01949287 0.042524654 0.07237469
0.01739131 0.003586502 0.00095786154 0.02054459 0.03284239 -0.05768791 -0.06920128 -0.07736904
-0.0036985588 0.10363103 0.05717946 0.07906229 -0.07061885 0.056702577 0.0020573933 -0.060311038
-0.063744895 -0.05625598 -0.0025352575 0.00029951136 0.08193554 -0.0046634465 -0.0604786 0.01952675
0.042779945 -0.07400662 0.03409306 -0.022600777 -0.009702608 0.051327102 -0.00027114898 0.009945571
-0.061348043 0.09844018 0.07629542 -0.05508507 -0.033349324 0.028043598 -0.058739454 0.065170825
0.021069147 -0.047604833 -0.021315128 0.038538784 -0.019231888 0.012298961 -0.05435079 -0.011848101
-0.06497207 0.02497017 -0.0867693 -0.05659797 -0.015332607 -0.03425407 -0.058118667 0.04161748
-0.032124516 -0.07491327 -0.05915464 0.04591485 -0.056208692 -0.038257085 0.042275477 -0.09880951
0.05000984 -0.087607704 -0.04614275 -0.0027297372 0.07393473 -0.0033169372 0.014792383 0.047528498
0.05227243 -0.089526966 -0.038132418 0.041390333 0.013624094 -0.017521996 0.0314091 0.004317516
0.0116358735 0.06276485 -0.055356223 -0.048232518 0.096112214 -0.032108348 -0.08675593 0.01944014
-0.030912945 0.067203514 0.062654145 -0.09400592 -0.065030076 -0.009143202 -0.013519898 -0.018001448
0.039528187 0.039193623 0.02809488 0.036026828 -0.05448752 0.026500942 -0.040906936 -0.07968168
0.051987566 0.05720494 0.05258543 -0.01255282 0.06231294 -0.0680072 -0.08039927 -0.0763975
0.004162438 -0.05029242 0.041749623 -0.085277006 0.024628678 0.07785459 -0.071075335 -0.0847448

net.4.bias f4 [3]
00000000: 85ba 94bc 4663 8ebd 26cb 533d
-0.018155346 -0.06952529 0.05170741
