train-pong/saved_models/dqn_episode_400.pth (torch, 74357 bytes, 6 tensors)

net.0.weight f4 [128, 6]
00000000: ea4e 473e 4070 a73e 0483 833e e138 aabe
00000010: e7af c03d c21b a2be 70c7 bfbe 9676 dabe
00000020: c309 b53e 45f6 1fbe 487e 3e3e 32d6 84be
00000030: 72d9 c1bd 86b4 08bf a62f dfbe 1a9e 9dbe
00000040: d068 443d 9274 d6bc 0980 68be 9bd3 873d
00000050: 61ed 633e dd22 43bd be05 2e3e d37e 46be
00000060: d5f4 54be 57d2 b6be c650 f03c 0b1b 643e
00000070: a941 48be 4b55 c23e eeca e83e 01cc a8be
00000080: d3a1 833e 8f1f 393e 5d31 cbbe 7960 17be
00000090: 5f7b f4be 5291 553e d786 aabe cecf 08bf
000000a0: b1f6 d83e 7116 9cbe b26e 4ebe c724 95be
000000b0: 64c6 a0be 30a5 20bd 9449 cebe 5ba5 9fbe
000000c0: b340 003e 6614 01bd cab4 97be c822 ab3c
000000d0: c9c9 b8be 6b46 ffbd 1030 b43e fcaf 0ebf
000000e0: fc86 6cbe 78b1 803e 4891 72be 07f1 4e3e
000000f0: 9797 d0be e5e2 4bbe eb3a 14be 5f62 1a3f
00000100: 9371 b83e a876 a93d 637a 133e 1c03 9b3d
00000110: 5aaf 0cbd 0dfc dd3c 3cb8 163d 957d a5be
00000120: ba40 5d3e 051a a0be 2096 1a3f 3e51 c3bd
00000130: 05bd 25bb 17f3 a7bd 674f 2f3e 0fa1 023f
00000140: 0af9 973e a059 f43e 31a4 a9be 9a55 97be
00000150: 4605 febe b91a 6d3e 309b 893e 7b27 073e
00000160: 89aa 8b3d fc4f 56be a86f d63d 8024 ff3e
00000170: 42bb 723d 71fb 06bc 344a 063e 6bbc 7ebe
00000180: d957 6fbe 9fc3 d6bd 119a 82be 33ca 6bbe
00000190: 04d1 c4bd 30e0 8d3e e9a5 a53e 76a4 d93d
000001a0: ecdd 9f3e fcbf a5be 0cf8 91bd 4bca 633d
000001b0: 29a6 24be 4107 d73d 8539 07bf 71d2 e63b
000001c0: 279e 5abe 7cdc ab3e a8d4 193e b61e 0a3f
000001d0: 66f3 5e3e 9b86 c3be 6881 aa3d dd81 633d
000001e0: c0b6 8fbc 2474 4c3e a45f 683e 6238 ad3e
000001f0: d0d2 053d df8a 83be 2adc d0be 3f6b 203e
00000200: 3dec f2be 78ed 343e b253 973e 12ec 48be
00000210: 66fe 8abe 4401 2dbe aefd 3dbf 9ac2 373e
00000220: b4e5 973e 1bb1 af3d 2eb5 863d 3713 eb3e
00000230: 5d58 1cbd 5ab4 c43e 00e5 463d 61cb 27be
00000240: 5a7a 7ebe 5f14 cb3d 8672 c2be 4c95 333e
00000250: 9021 893d 79c5 e23d a77a 943e 75d0 01bf
00000260: 2742 0bbe f309 4ebe ad30 483e 30f9 453e
00000270: 2949 41be e32a 3f3e 2146 8b3d 2ece 2fbc
00000280: 36a8 713d 584d bb3d b264 3dbe c606 513e
00000290: b877 bc3e df89 ef3d 86fa 553d 2d33 59bd
000002a0: d0cb 553d 2cd7 c2bd 0079 10bd fca4 2f3e
000002b0: 42ed 51be 10d5 273d 581a 5e3e 7031 0dbe
000002c0: 4425 76be fad7 c33e a026 3dbe deaa adbe
000002d0: 9633 2bbe 0089 c9be 183d c1be 50a3 8b3d
000002e0: a460 a0bd 90dd 373d f4b1 4a3e b9a6 f33e
000002f0: 67f5 a53d 2594 3dbe c6d3 453d 912e 9a3c
00000300: 4190 6b3d 2099 7e3e 7fa1 1f3e b87f d2bd
00000310: 4c20 bebe 719b 0dbe d8ed 5abe 5249 c0be
00000320: b0c1 64bd 6e3d 833d 7bc5 dc3e 977d cc3d
00000330: c677 5a3e a163 803e 6ce9 333f df62 b8be
00000340: 6543 a7bd 0207 05be 3ef7 efbe 55f5 89be
00000350: 4369 063e 9a2b af3e cdde bc3e 5a9e 1e3d
00000360: 50f4 f53c 4b29 4ebe 037a 57be 88ea 093e
00000370: c0d8 803b f8bc 3fbd 2034 55be 20b7 3d3e
00000380: 18d1 f8be 91ef ecbd db6a dfbd bded 29be
00000390: 113b 7fbd 2f44 87be cfd3 12be 2213 ccbe
000003a0: b98e 213e da82 6a3e 918f 29bd 79ea dabe
000003b0: ee22 343e 696e a73c 2a23 f53e 5b91 373c
000003c0: 1a6a 7bbe 4261 b6be c8e6 b83d af74 963e
000003d0: f57a 0a3d f67d 873e 92b9 52bd 4632 dabd
000003e0: bc06 61be 0b47 78be f4b9 9ebd a9a5 68be
000003f0: 87ac 45be dd81 78be a926 12bf 8331 4d3e
0.19463697 0.32702827 0.25685894 -0.3324652 0.09408551 -0.31661803 -0.37456846 -0.426686
0.3535901 -0.15621288 0.1860286 -0.25944668 -0.094653025 -0.53400457 -0.4359104 -0.30784684
0.04795152 -0.026178632 -0.22705092 0.066321574 0.22258522 -0.04764067 0.16994378 -0.19384317
-0.20796521 -0.35707352 0.02933539 0.22275941 -0.19556297 0.37955698 0.45467323 -0.32968143
0.257094 0.18078445 -0.396861 -0.14782895 -0.47750375 0.20856217 -0.33306 -0.53442085
0.4237571 -0.3048587 -0.20159414 -0.2912962 -0.3140136 -0.039220035 -0.4029051 -0.31180844
0.12524681 -0.031513594 -0.2963012 0.020890608 -0.3609145 -0.12464603 0.3519292 -0.5573728
-0.23098367 0.25135398 -0.23688233 0.20209132 -0.40740654 -0.19910772 -0.144756 0.6030635
0.3602415 0.08274585 0.14402156 0.075689524 -0.034346916 0.027097726 0.036796793 -0.32322374
0.21606722 -0.3126985 0.6038532 -0.0953698 -0.0025289666 -0.082006626 0.17120133 0.51027006
0.2968219 0.47724628 -0.3313308 -0.29557496 -0.49613398 0.23154725 0.2687621 0.13198654
0.068196364 -0.20928949 0.104705155 0.49832535 0.059260614 -0.008238659 0.13114244 -0.24876563
-0.23373355 -0.104865305 -0.25508168 -0.23026352 -0.09610179 0.27710104 0.32353142 0.106270716
0.31224 -0.32373035 -0.07127389 0.055612843 -0.1607901 0.104994304 -0.5282214 0.0070441295
-0.21349393 0.33566654 0.15022528 0.5395311 0.21772537 -0.38188633 0.083254635 0.05554377
-0.017543197 0.19966179 0.22692734 0.3383208 0.03267175 -0.25691888 -0.40792972 0.15665911
-0.4744586 0.17668712 0.29556042 -0.19621304 -0.27147216 -0.16895014 -0.7421521 0.17945328
0.29667437 0.08578702 0.06577526 0.45913097 -0.038170207 0.38418847 0.048558235 -0.16386177
-0.24851361 0.09915995 -0.37978 0.17537421 0.06695855 0.11072821 0.28999826 -0.50708705
-0.13599454 -0.20120983 0.19549818 0.19333339 -0.18875565 0.18668704 0.068004854 -0.010730309
0.05899831 0.091456115 -0.18495443 0.2041274 0.36810088 0.11696219 0.05224087 -0.05302732
0.052196324 -0.09513697 -0.035271645 0.1715278 -0.20500663 0.040974677 0.21689737 -0.1378839
-0.24037653 0.38250715 -0.18471766 -0.33919424 -0.16718897 -0.39362335 -0.37741923 0.06818259
-0.07830933 0.044889033 0.19794446 0.47588137 0.081034474 -0.18513544 0.048297666 0.018821033
0.057510618 0.248631 0.1558895 -0.10278267 -0.37134016 -0.13828827 -0.21379793 -0.3755594
-0.055848777 0.06408201 0.43119416 0.09984892 0.21334752 0.2507601 0.7027805 -0.36012933
-0.08167151 -0.12990955 -0.46868318 -0.26944986 0.13126092 0.34212953 0.36888734 0.038725235
0.030023724 -0.2013294 -0.21042638 0.13468373 0.0039320886 -0.046811074 -0.20820665 0.18526888
-0.48597026 -0.11569131 -0.10909053 -0.16594596 -0.06231219 -0.26419207 -0.14338611 -0.39858347
0.157771 0.22901478 -0.04139668 -0.42757013 0.1759145 0.02043839 0.4787839 0.011204089
-0.24552193 -0.35621077 0.09028393 0.29385898 0.033808667 0.26463288 -0.051446505 -0.1065412
-0.21975225 -0.2424585 -0.077503115 -0.22719444 -0.19304095 -0.24268289 -0.5709024 0.20038418

net.0.bias f4 [128]
00000000: 179b 83bc d109 cfbd 98a7 a43e d591 02be
00000010: 67d1 de3e 801c f53e 40dc f13d 2045 df3d
00000020: 0789 903e 5d6b b33e 812d f2bd 7831 473c
00000030: 428b 353d 49ca 46bc bfdf 48be ebaf 5bbe
00000040: bb3a 0a3e d73c dfbd 331b 28be ac7e cabe
00000050: 4a32 8cbe 4362 22bd 9753 a2bd bab9 65be
00000060: 01de 1dbe 9e40 c03c 54ce 9fbe e731 54be
00000070: cedd 25be f498 56be 91ff 7ebe 3dbf 66be
00000080: fd70 373e 034d 4e3e 9775 4e3d 09a1 a63e
00000090: 1e5f 9bbe 8b53 903e 055a 83be 1bc2 643e
000000a0: 91c9 c6be 54c5 a33e 8418 c63e 391a 52be
000000b0: dd32 c9be 51e4 c2be 3958 1e3e 75c9 213e
000000c0: 2595 313e bf9b f9bc 9ac6 083e 9aca 8c3e
000000d0: fbb9 993e 3d83 b3bc 5739 a2be 3a7c 9cbe
000000e0: 46e7 8fbe 9711 e6bb 3c29 70be d39f e43d
000000f0: 42bb b5bd 1627 8a3d 034a a4bd 8fc7 0cbf
00000100: 43ae c1bd 95cd ebbd 8505 ce3b 7162 e8be
00000110: 656a 8bbe eec1 3b3b 8bdb 443e 798b 43be
00000120: 1cd6 2abe 8072 be3d ed99 7d3e a8db d6bd
00000130: 75c6 073e 8c0c 0fbe d7fe c3be 3e37 b5be
00000140: 83a0 9d3d 313d 343e b194 82be e6a6 04be
00000150: cdd7 7cbe d79e c9be 5afe 573e f298 ccbe
00000160: 3a1d b6be ad44 fbbc 7d9f d73d 28b0 16bd
00000170: b38b b1bd a263 80be 22ea 673e ba00 adbb
00000180: 275c a5be 84a3 6c3d bf87 3fbe c3e5 2bbe
00000190: 543f e2bd d339 b2bd 4ade 77be 905a 07be
000001a0: 07b2 b03e 5ae4 81be a21a 83be 9b5a b33e
000001b0: 69b3 15be e614 9dbe 3ff0 b2be c89d b93d
000001c0: c160 9a3c ce3b a43e 5743 4a3e c664 77be
000001d0: ec3f 87be 333a bfbe 27da 133d 75c9 15be
000001e0: 40bd 873c 2a02 5b3e b0a0 5b3d 4495 823d
000001f0: f0ad d53d 71ed 903e 724d 693e 3808 03bd
-0.016065164 -0.10109294 0.32159114 -0.12750943 0.43519136 0.47873306 0.118095875 0.109018564
0.28229544 0.3504285 -0.118250854 0.01215779 0.04432226 -0.0121331895 -0.19616602 -0.21453826
0.13498966 -0.10900276 -0.16416626 -0.39549768 -0.27382118 -0.03964449 -0.079261 -0.2243413
-0.15416719 0.023468312 -0.31212103 -0.20722161 -0.16197893 -0.20956784 -0.24902178 -0.22533889
0.17914195 0.20146565 0.05040511 0.32544735 -0.30346006 0.28188738 -0.25654617 0.2233967
-0.38825658 0.31986487 0.3869058 -0.20517816 -0.39296618 -0.38064817 0.15463342 0.15799506
0.1734205 -0.030469773 0.1335701 0.27498323 0.30024704 -0.021913165 -0.31684372 -0.30563527
-0.28106135 -0.00702114 -0.2345323 0.111632966 -0.08873607 0.06745736 -0.08021929 -0.54992
-0.09457066 -0.11513821 0.006287279 -0.45387605 -0.2722961 0.0028649527 0.19224374 -0.19096173
-0.16683239 0.09299183 0.2476575 -0.10491115 0.13259299 -0.1396963 -0.38280365 -0.3539371
0.07696631 0.17601468 -0.25504068 -0.12954292 -0.24691696 -0.39378998 0.21093121 -0.39960438
-0.35569173 -0.030672396 0.10528467 -0.03678909 -0.08669224 -0.25076014 0.22647908 -0.0052796276
-0.3229687 0.05777313 -0.18704127 -0.16786866 -0.11047235 -0.08702435 -0.2420589 -0.1321814
0.34510824 -0.2536953 -0.25606257 0.35030064 -0.14619221 -0.30680007 -0.34948918 0.090632975
0.018844964 0.32076877 0.1975225 -0.24159536 -0.26415956 -0.3734909 0.03609672 -0.14627631
0.016569734 0.21387544 0.05362004 0.063761264 0.104335666 0.28306153 0.2278345 -0.03199026

net.2.weight f4 [128, 128]
00000000: f792 85be b7c3 28bd 123c 1dbe b746 0bbe
00000010: d6f7 03be 6310 023d ed38 09be d8b4 6bbd
00000020: c076 db3c 7c87 573c 51e5 abbd 1c07 22bd
00000030: 7062 f7be 7ba1 253d 4a14 3cbd 1704 1bbd
00000040: 70f2 67bc dd76 81be 2463 08bd 89f5 92be
00000050: 368e 633d 91bf 95bd 9fce 1b3d d0bc f03c
00000060: a603 8cbc 6349 c13d 1e28 0c3e 7b43 50bd
00000070: f335 0bbd 8f66 aabd 0647 2e3d 9212 2b3c
00000080: 50c2 ebbd c4e3 0a3d a89c 79bd b136 32bc
00000090: 3afe 7fbd dd82 23be bc33 cc3c 31c6 1cbc
000000a0: 9034 783c e55d b0be 729c f3be 0d36 58bd
000000b0: 438a 63bd e500 3cbe 47e8 e6bd 4b07 cdbe
000000c0: c9fc 69be 9638 c23c 3134 88bd 565d 553c
000000d0: 2404 69be 6e6b 6b3b 686f 71bd 74db 13be
000000e0: 7e4e 6c3d 3b84 72bd 343d 163b 28cf e1bd
000000f0: 1879 8fbe d6d6 433b 984b 143e db1c 1bbc
00000100: 2913 1dbd ffc0 f8bd 5bde 13bc c86e 6e3d
00000110: 8ec4 573d 333e d7bc 7f83 6b3c ff3e 50bd
00000120: 31eb 873d 3fcc c1be dd0b 9cbd c76b 903d
00000130: f756 25bf 0b74 a13d 9cda f03c 5f60 8e3d
00000140: 3458 73bd f05e 5fbd 044f df3c 15d0 9bbc
00000150: 728c 01bd 685e 18bb a647 aabd 9695 0fbd
00000160: 5a10 973d 30c9 e4bb 2d18 d03c 8740 943d
00000170: 0e2f 423b 710c a4be 71a3 ee3b 603e 10be
00000180: a9b7 963d 33d2 b03b 7e3e 1fbe 0c87 a7bc
00000190: a5bf 79bf 3372 cbbc 8295 18be d4f5 f03c
000001a0: 623a 91ba b3e9 82be 5513 1b3d bd4a 36bd
000001b0: 6628 b3bc 5f8d 10bd d223 243d a009 81bd
000001c0: 7014 c33d 9638 97be 0e96 013c 3f8a 54bd
000001d0: 1aef 57be 4834 98be fe0a 06be 070a 65bd
000001e0: 5e23 febc cfcc 24be f579 3ebe 82f4 19bd
000001f0: e6ca 2a3d cd4d aa3c c696 c3bc 0078 99b8
00000200: 2a42 3f3e 71ef e93c ea09 85be 9a85 8c3d
00000210: a9af 7bbe 21f7 c2be e187 f93b aad6 303d
00000220: c3e1 453d 42f9 4ebd 0ccc d7be 99d5 edbd
00000230: e511 a5be c8ec 783e 7d47 aabd 2f48 6a3e
00000240: 5969 a1bd 4546 b13d 4b4d 06be 8f71 6a3e
00000250: 143c 943c 679b 70be f8cb 1fbe 08f8 b53c
00000260: e90e 96bd b8a4 46bd 4530 3f3d cc9a 14bd
00000270: 8332 923d e002 a03c 1c43 00bd 46bc b43d
00000280: 3b71 8f3e 287f 1dbe 7789 ec3d e5fb d5bc
00000290: 1892 ee3c 22cf 04be e53f fdbd 5fd2 45be
000002a0: d02f a03c 2718 57bf 52f8 593b ba08 90bc
000002b0: 0070 4939 9106 033d c22e 883d 185e 3cbd
000002c0: a41e 3fbe f61d 3cbe 2f7a 0b3e cf29 373d
000002d0: 1604 11bf e744 33be eb86 17bd 3be1 1abe
000002e0: 3a07 193d e66b 3fbe 162e 893e b26c 7a3e
000002f0: a3d9 ff3d 3746 293c 5f16 e4be bceb c43d
00000300: 2a19 aebd 4d4b 933c 0417 183e 8c15 053d
00000310: 602f a5bb c274 97bd 6503 fabc 7b51 673e
00000320: 9e0a 65bd 7982 06bf 210a 5cbe e1bd a53d
00000330: 7e95 00bf 4a3e 413d 23ac 65bd 3157 bcbe
00000340: 9407 8fbd 732b 0dbe f495 823c b4fe 38bd
00000350: 3cfc 91be ec78 df3d bd7d da3c 2a0f 203d
00000360: 7778 3c3e 37d7 d6bd 87ad 57bc e6ff 3dbd
00000370: 8f26 cfbc f6be cb3d 58cd 753d 9d4c 90be
00000380: bbb6 61bd d81c 863e 4d7e e0be 2749 b3bd
00000390: 693f 10bf 7d04 413e 3798 853d 70d7 54bc
000003a0: 578f 9ebd d136 733e e1f1 ea3c c56a ddbc
000003b0: 46aa 95be b80c ebbe c00e bc3a d29f 9abd
000003c0: 0ebd 1ebe 9c56 a5be 3617 fdbd 2fb0 203e
000003d0: 6ae7 13be b732 50be 4121 8bbd 185f 803d
000003e0: 0134 31bd dd30 423c 44b1 143d 0b3f e1bd
000003f0: ef62 9f3e 7887 fabc 2ecd 90bc 30be 733c
-0.26088688 -0.041202273 -0.15354946 -0.13601194 -0.1288751 0.03175391 -0.13400622 -0.057545513
0.026790023 0.013154861 -0.08393348 -0.03955756 -0.4831729 0.040437203 -0.045917787 -0.037845697
-0.014156923 -0.25285998 -0.033297673 -0.28702953 0.055555545 -0.07311929 0.038038846 0.029386908
-0.017091583 0.094378255 0.13687178 -0.050845604 -0.033986997 -0.08320343 0.042548202 0.010441439
-0.115116715 0.03390862 -0.060940415 -0.010877297 -0.06249831 -0.15967889 0.024927013 -0.009568737
0.015149251 -0.34446636 -0.47580296 -0.05278592 -0.05555178 -0.18359716 -0.11274772 -0.40044627
-0.22850336 0.023708623 -0.0665058 0.013022741 -0.22755486 0.0035922187 -0.058944136 -0.14439183
0.057692043 -0.059208136 0.0022924663 -0.1102584 -0.28022075 0.002988269 0.14481962 -0.009467329
-0.03834835 -0.12146186 -0.009025182 0.058211118 0.052677684 -0.026274776 0.014374613 -0.050841328
0.06636656 -0.3785114 -0.0761945 0.07051807 -0.6458582 0.078834616 0.029401116 0.06951975
-0.05941029 -0.0545339 0.027259357 -0.01902012 -0.03162808 -0.002324963 -0.08314447 -0.035054766
0.07376166 -0.006981991 0.025402153 0.0723887 0.0029630098 -0.32040742 0.0072826673 -0.14086294
0.07359249 0.0053961514 -0.15551183 -0.020450138 -0.9755805 -0.024834728 -0.14900783 0.029414095
-0.0011080022 -0.25568923 0.037860233 -0.04450487 -0.02186985 -0.035291072 0.040073223 -0.06300664
0.095253825 -0.2953536 0.007909311 -0.051889654 -0.21087304 -0.29727387 -0.1309013 -0.055917766
-0.031022724 -0.16093753 -0.1860121 -0.037586696 0.041697405 0.020789051 -0.023875605 -7.31796e-05
0.18677583 0.028556557 -0.25984126 0.0686142 -0.24578728 -0.3807917 0.007615075 0.04317347
0.048311006 -0.05053068 -0.42147863 -0.11613006 -0.32240215 0.24309075 -0.083144166 0.22879098
-0.078814216 0.08655981 -0.13115422 0.22894882 0.018095054 -0.23496781 -0.15605152 0.022212997
-0.07327063 -0.04849693 0.046676893 -0.03628044 0.071385406 0.01953262 -0.031314 0.08824973
0.28016075 -0.15380538 0.11549657 -0.02612109 0.029122397 -0.1296964 -0.123657025 -0.19318531
0.019554049 -0.8402123 0.0033259583 -0.017582286 0.00019210577 0.031988684 0.06649543 -0.045988172
-0.18664032 -0.18370804 0.13620828 0.044717606 -0.5664686 -0.17506753 -0.036993902 -0.15124981
0.037360407 -0.18693504 0.26792973 0.24455526 0.12492683 0.010331682 -0.44548318 0.09615275
-0.085008934 0.017980242 0.1485253 0.03249125 -0.005041048 -0.07395317 -0.030519197 0.22589676
-0.05591833 -0.52542835 -0.21488239 0.08092857 -0.50228107 0.047178544 -0.056072365 -0.36785272
-0.06983867 -0.13786106 0.015940644 -0.04516478 -0.28512752 0.10911736 0.026671285 0.03907696
0.18405329 -0.10490268 -0.013163931 -0.046386622 -0.02528694 0.09948532 0.060010284 -0.2818345
-0.055105906 0.2619388 -0.4384636 -0.08754187 -0.56346756 0.18849368 0.06523173 -0.012990817
-0.07742184 0.2375138 0.02867979 -0.02702845 -0.2923147 -0.4590814 0.0014347658 -0.075500146
-0.15501806 -0.3229264 -0.12357943 0.15692209 -0.14443746 -0.20331846 -0.06793452 0.06268138
-0.043262485 0.01185247 0.036301866 -0.109983526 0.31130168 -0.030582175 -0.017675962 0.014876887

net.2.bias f4 [128]
00000000: 6767 443d 36f0 733c 49f1 6ebc 5228 c5bd
00000010: 3d77 26be 1025 973c 13f9 82bb d982 0dbd
00000020: 2632 9cbb 432d 54bd 570f 90bd aeeb 123e
00000030: 2185 0d3c cbc1 293e 0b4e dbbc d978 7dbd
00000040: a053 0c3d 5e58 94bd b402 353d de38 9cbc
00000050: 7637 8ebc 6fdf 74bc 53c4 ebbc 726c a6bc
00000060: 680b d43d a887 abbd d499 75bd 4b8d 48bd
00000070: 287d b9bd d0f3 923c cff7 34bd cf86 e83d
00000080: 834a 203c caf9 933c 8256 1d3e 852d 8cbd
00000090: c724 aabd af45 9dbd e234 a8bd 7bbb 39bd
000000a0: c89a edbc 3b8e d33c 2636 243e 5a93 ecbc
000000b0: 2bcf 00bd f40f 7ebd e12b d9bb 122f b9bd
000000c0: 5079 2c3d b70b 143d 04aa 40bd b94c 56bd
000000d0: 62ca f1bc 6933 13be c91b c9bd a065 21bd
000000e0: 2c5e 383c 5e08 13bd 0062 9bbd a72a 8e3b
000000f0: c0eb dbbb 0448 af3c 3b88 053c 8e9b c6bd
00000100: 6950 53bd ba99 023d d749 953c 922b 5cbd
00000110: 7735 a8bd df4e 683d b887 1bbe e4f3 1cbd
00000120: 036e b3bc ca50 8d3a 71aa 193e ee98 96bd
00000130: 20eb 763c a3a6 ee3b df77 cd3d 63e1 79bd
00000140: 8825 b5bd 7ae5 a5bd 273a 11bd 2199 0f3e
00000150: af4d 0fbc 3fea 26bc a03b 793b a75e 503d
00000160: 4b38 ecbd 1205 bcbc 21c2 97bd 73b9 2c3d
00000170: 0bc8 bd3d fb47 d3bc 6092 243e 2a66 663d
00000180: 10e1 d9bd fa6a 08be 1925 ab3d 4c84 843a
00000190: db42 b4bb 517c 723d a663 8b3c 4e97 223e
000001a0: 70f5 d83d 092a abbd 4c63 153d 287d 9ebd
000001b0: b3a8 69bd b737 b6bd 676a f1bd 8b0f 483d
000001c0: f37a 60bd daa8 cf3d 8f63 6d3d 0d34 603d
000001d0: 9a63 4bbd 4a11 143e 9981 3bbd e1fe 58bd
000001e0: 52aa 4e3d bfac 343d 3a5a 6ebd f5a1 aabd
000001f0: a133 d0bc 33a8 6c3c 9ff1 3a3c 08b5 90bd
0.047950175 0.014888814 -0.014583894 -0.09626831 -0.16256423 0.01845029 -0.003996977 -0.034548614
-0.0047667203 -0.051800977 -0.07034176 0.14347717 0.008637697 0.16577832 -0.026770612 -0.061882827
0.03425944 -0.07243417 0.04419203 -0.019070085 -0.01736043 -0.014945849 -0.028780138 -0.020315383
0.10353738 -0.08375484 -0.059961155 -0.048962872 -0.09057075 0.017938524 -0.04418164 0.11353838
0.00978339 0.018063445 0.15365031 -0.0684462 -0.08307796 -0.07679307 -0.082132116 -0.04534481
-0.02900447 0.025824657 0.16036281 -0.028878856 -0.03144757 -0.062026933 -0.006627545 -0.09042181
0.04210788 0.036143985 -0.04703714 -0.052319262 -0.029515449 -0.1437508 -0.09819753 -0.039403558
0.011252921 -0.03589665 -0.075870514 0.0043385806 -0.006711453 0.021396644 0.008150156 -0.096976385
-0.051590357 0.031884886 0.018223686 -0.05375249 -0.082133226 0.056715842 -0.15188491 -0.03831853
-0.021903044 0.0010781523 0.15006424 -0.07353388 0.015070707 0.0072830482 0.10032629 -0.06100596
-0.08845049 -0.0810041 -0.03545585 0.14023258 -0.008746549 -0.010187685 0.0038029924 0.050871518
-0.115341745 -0.022951636 -0.07410074 0.042169046 0.09266671 -0.025791159 0.16071463 0.056249775
-0.106386304 -0.13322058 0.08356685 0.0010110228 -0.005501134 0.05920059 0.01701529 0.1587803
0.105936885 -0.08357627 0.03647165 -0.077387154 -0.05704565 -0.088973455 -0.11787873 0.048842948
-0.054804754 0.10139628 0.057956275 0.05473714 -0.049655534 0.1445972 -0.04577789 -0.052977446
0.0504554 0.044110056 -0.058191516 -0.08331672 -0.025415244 0.014444399 0.011410146 -0.07065779

net.4.weight f4 [3, 128]
00000000: dc6e 83bd cfca e6be bda6 f43c 599c 69bd
00000010: 22fb eabd e34a b13c e9a3 f8be 512e a2bd
00000020: 6299 bb3c 3ca4 2b3c 8412 a13d 8f1c 013e
00000030: ab5f 0bbc e2ea 023e b2ca 1c3e cf36 893e
00000040: bf82 443e f2da 983d e2a7 ec3c b249 7d3d
00000050: 0f58 50bd 3ec8 363d 112c 24bd 87cd e73d
00000060: 5363 173e 25dd abbd 0e7c 8bbd c8ed 463c
00000070: c6fc bebb 27cd 613e 5d0f 17bd 2d1b 98be
00000080: e7fe 413e 0512 0dbc 5a69 2b3e 98a1 273c
00000090: cc78 bc3c ee64 b23c 888d 903c e4a7 003e
000000a0: c18f 853d 0394 703e e147 de3d a7d2 d83d
000000b0: ca3a 66bd 0c01 963d 93c5 b2bd bfc5 c13d
000000c0: fe2e a63d 6e7b 8d3d 88bb 1d3d ef0d deba
000000d0: 98a2 1ebb 134e 07bd 5787 bbbc d816 dfbb
000000e0: ba1a 9f3d 2dd8 433d 1ce9 743d 3636 213d
000000f0: 2e25 d03d 4af2 2a3e aaae a23e 2f26 1b3e
00000100: e184 f0bd 986b 843d 8f39 0f3e ff67 c6bd
00000110: 227b 8b3d ec3e 05be 8cf3 16bf c82f 12bf
00000120: 8051 61bc 65c0 47bd 81df b3be 0290 663d
00000130: 0daf 583b 6b42 96bd 43f9 153e 1f9a 113e
00000140: 8392 c2bc 1e00 06bd 59bd f53c b370 1a3e
00000150: a0bd 53bc 8b7f 1abd ff83 05bf 281c 863e
00000160: 515e 5dbd 849b f33d 1f48 c3bd fb5f 173e
00000170: d9ed 093e bf2a 9ebc 6ef2 143e 9961 383d
00000180: 6b97 b9be 591c 1bbe c08d 8f3d 6ff7 803e
00000190: a4d2 503c 186e 023e 55cb 953d 9dc4 643e
000001a0: c62d 2a3e 13e7 b3bd ea46 503d 5537 8c3d
000001b0: 1f88 5d3c 9eda d1be 47e9 0a3e 5382 bdbe
000001c0: 98f3 ca3d dfde 423e 860d 8b3e edf2 b1be
000001d0: 40ed eb3c 4fec 2a3e 3220 edbe 8dc5 523d
000001e0: b712 23bf 70a3 d43d 05c6 003d 1c30 873c
000001f0: f64f ffbd 389e 23bd 153c d4be 2fc8 f6be
00000200: 8448 16bd 34c0 79be d278 c2bc 94cd a4bd
00000210: 7cac 02be bd79 4d3d ac41 f2be dbf7 053c
00000220: fb65 d73a 92b1 27bd d368 5a3d e57a de3d
00000230: 69e3 9b3c a640 bd3d fd4e f33d d99c 083e
00000240: 7c4c 463e 127f b83c f3e4 16bd 1578 14bd
00000250: 94e5 aabd 90b7 97bd a993 bebd 5e1f 263e
00000260: 9704 753e 9163 ae3d 0deb 95bd e277 d73c
00000270: 7995 efbc c474 1f3e 2902 9e3d 975a f1be
00000280: 2110 143e b3aa 22bc d11c d43d 4df5 15bd
00000290: ede6 8f3d d459 d53b 15ea 55bc f451 f43d
000002a0: 8443 44bd 2df8 393e 3111 913d aa20 303e
000002b0: f748 71bd 6b6c 373d 1b05 acbd 853c 073b
000002c0: 179e 39bd 453e 713d 5040 393d ec4b f8bc
000002d0: 93b1 7d3d 4a0a 0dbe 12d5 e3bd 8071 30bd
000002e0: f35e 27bc 66b8 85bd 17de 283d a424 fe3c
000002f0: c022 0c3e 85f2 e63d cd2f a73e 7635 063e
00000300: e6b6 1cbe 8cb0 9e3d e276 6f3d f7ee bcbd
00000310: 7b20 ae3d 02c3 d7bd ff1b 2bbf 3aa3 e7be
00000320: 60c7 493d 1e52 ffbc aca6 0cbf 2e37 333d
00000330: 11f5 11bd 06a3 0fbe 87fe 433e 8138 9c3e
00000340: 3fe9 b2bd 80a1 453d 4f8e 453d 4669 243e
00000350: 1a2f 953d 48f1 053d c0aa 93be 8426 413e
00000360: 40da cebd 14fb d13d 0aa0 18be d437 b43d
00000370: 19e0 283e 18be 4a3b d9f0 0d3e 85ed 453d
00000380: a629 04bd f117 2bbe df46 063e 6d14 6c3e
00000390: e434 9f3d 9cfb 683e e97a 503d 7ffd a73e
000003a0: 5680 983e 003b 5dbb 3431 b33d 0633 56bd
000003b0: 8767 69bd 1ce1 cebe de42 193e 8559 bdbd
000003c0: 0818 cb3d 12ef f13d 4cfb 8f3e 730d 02bf
000003d0: a98c 843e e0bd 0f3e 3011 dabe 4cec 793d
000003e0: 1c09 c1be 972b 023e 3715 133d 70a6 b7bb
000003f0: a1c8 edbd e290 ffbc f27c e6be 6939 ebbe
-0.06417629 -0.45076606 0.029864663 -0.05703387 -0.11473681 0.021642154 -0.48562554 -0.079189904
0.022900287 0.010476168 0.0786486 0.1260855 -0.008506696 0.12784913 0.15311697 0.26799628
0.191905 0.074636355 0.028888647 0.06183786 -0.05086523 0.04462456 -0.040081087 0.11318498
0.14783983 -0.08391789 -0.06810771 0.012141652 -0.005828473 0.22050916 -0.036879886 -0.29708233
0.18944894 -0.008610253 0.16739407 0.010231398 0.02300682 0.021776643 0.017645612 0.12564045
0.065215595 0.23493962 0.108535536 0.10587054 -0.05620841 0.073244184 -0.087290905 0.09461545
0.08114432 0.06908308 0.03850892 -0.0016941408 -0.00242058 -0.03303344 -0.022891684 -0.006808143
0.077687696 0.047813583 0.059792623 0.03935834 0.101633415 0.16693988 0.31773883 0.15151285
-0.11744095 0.064658344 0.139868 -0.096878044 0.06810595 -0.13012284 -0.58965373 -0.5710416
-0.013752341 -0.048767466 -0.35131457 0.05628968 0.0033063323 -0.07336887 0.14645867 0.14218949
-0.023751503 -0.032714956 0.029997515 0.15082054 -0.012923628 -0.03771929 -0.52154535 0.26193357
-0.054045025 0.118948966 -0.095352404 0.14782707 0.13469638 -0.019307492 0.14545605 0.04501495
-0.36248335 -0.15147533 0.070094585 0.25188777 0.012745533 0.1273731 0.07314173 0.22340627
0.16619024 -0.08784308 0.05084888 0.06846491 0.013521223 -0.40987104 0.1356555 -0.37013492
0.09909743 0.19030331 0.27158755 -0.3475565 0.028799653 0.16691707 -0.46313626 0.05145793
-0.6370043 0.10382736 0.031438846 0.016502433 -0.12466423 -0.03994581 -0.4145209 -0.48199603
-0.03669025 -0.24389726 -0.023739252 -0.080470234 -0.1276111 0.050164927 -0.4731573 0.008176769
0.0016433591 -0.04094083 0.053322624 0.10863284 0.019029336 0.09240846 0.118803 0.13341083
0.19365114 0.02252153 -0.036839437 -0.03624733 -0.0834457 -0.07408059 -0.09305508 0.16222903
0.23927532 0.085150845 -0.07320223 0.026302282 -0.029246079 0.15571886 0.07715256 -0.47139427
0.14459278 -0.009928393 0.10357059 -0.03661089 0.070264675 0.0065109525 -0.013056298 0.11929694
-0.04791595 0.18161078 0.07083357 0.1719996 -0.058907475 0.04478113 -0.08399411 0.0020635438
-0.04531678 0.058897275 0.04522735 -0.03030964 0.061936926 -0.13773456 -0.11124624 -0.043076992
-0.010215509 -0.06529312 0.041227426 0.031023331 0.13685131 0.11276726 0.32653657 0.13106331
-0.15304145 0.077485174 0.058462985 -0.092252664 0.08502289 -0.10535242 -0.66839594 -0.4524172
0.049262404 -0.031167086 -0.5494182 0.043753795 -0.035634104 -0.14027032 0.19140063 0.3051186
-0.087358944 0.04824972 0.04823142 0.16055784 0.072843745 0.032700807 -0.2884121 0.18862349
-0.10100222 0.102529675 -0.149048 0.08799711 0.16491736 0.0030936059 0.13861407 0.04832222
-0.03226628 -0.16708352 0.13112973 0.23054667 0.0777376 0.22752231 0.050898466 0.3281059
0.29785413 -0.003375709 0.08749619 -0.052294753 -0.056983497 -0.4040612 0.14966914 -0.0924559
0.09916693 0.11813177 0.28121412 -0.5080177 0.25888565 0.14037275 -0.42591238 0.061016366
-0.37702262 0.1271194 0.035908904 -0.0056045577 -0.116105326 -0.031197015 -0.450172 -0.45942238

net.4.bias f4 [3]
00000000: bf68 c93c ec3a dbbb 8ad6 283d
0.02458608 -0.0066903736 0.041220225
